outputs/classification/edges/rebuttal/weights/gcn_5.pth (torch, 21767 bytes, 6 tensors)

conv1.bias f4 [64]
000000 f1 e2 80 bc cc c3 7a bd 22 4a c3 3e 92 dd 8c 3c
       -0.015733214 -0.061221883 0.38142496 0.017195497
000010 7b 07 6a bd 81 cd 5b 3d 09 42 89 bd b4 29 66 bd
       -0.05713604 0.05366278 -0.06702048 -0.056192115
000020 d6 57 62 3d ca fc c6 bc 5e c8 03 3d 36 17 87 bd
       0.055259548 -0.024290461 0.032173507 -0.06596224
000030 dc d3 87 bc 22 0b 34 3d ba 23 57 bd b9 3d 3a bd
       -0.016580515 0.04395593 -0.052524306 -0.04546902
000040 76 8b 84 3d 45 6d 39 bd ed 1a 9b 3c 06 ee 32 bd
       0.064719126 -0.045270223 0.018933738 -0.043684028
000050 54 5b a9 bd cd 50 81 3d c9 13 ac bd 77 de 79 bd
       -0.082693726 0.0631424 -0.08402211 -0.061003175
000060 32 a7 6e 3d 3c 68 98 bd 00 00 00 00 8c 2b 25 bb
       0.05826492 -0.07441756 0.0 -0.0025202958
000070 ff 6b 42 3d 3e 40 99 3d 1c ac 8c bd 9a c1 81 bd
       0.047466274 0.07482956 -0.06868765 -0.06335755
000080 3a 18 d9 3c e5 4f 23 bd 84 76 0a bb bf e6 3a bd
       0.02650081 -0.039871115 -0.002112777 -0.045630213
000090 9a a1 86 3d 0c 0e 81 bd 39 dd d8 bc 00 00 00 00
       0.06573792 -0.06301507 -0.026472675 0.0
0000a0 cc 8d 80 bd 41 7a 00 bd 00 00 00 00 6b b9 66 3d
       -0.062770456 -0.03136659 0.0 0.056329172
0000b0 3f 9a fb 3c 16 aa 7e 3d 8a dc a0 bd 4a c8 64 3d
       0.030713199 0.062173925 -0.078545645 0.055855073
0000c0 8f f8 b4 bd 08 c1 a9 3d 0f 40 38 bd d5 c7 a7 bd
       -0.08836471 0.08288771 -0.044982966 -0.08192412
0000d0 71 36 73 bd a4 20 9e bd 2b 9b 0d 3f 5f cb 8c bd
       -0.05937809 -0.077210695 0.5531489 -0.068747275
0000e0 70 3d 28 be e1 b3 8b 3d f4 f2 5e bc 6d 97 43 3d
       -0.16429687 0.068214186 -0.013607729 0.047751833
0000f0 20 d7 f6 3c 00 00 00 00 00 00 00 00 00 00 00 00
       0.030131876 0.0 0.0 0.0

conv1.lin.weight f4 [64, 7]
000000 a7 e9 dc 3d 43 5e 0f 3e 98 e5 8c be d0 6d 8c bd
       0.10786753 0.14000802 -0.27518916 -0.068568826
000010 d6 27 d0 bd 98 3b c5 bd 24 0a d1 bb d4 86 a7 be
       -0.10163848 -0.09630507 -0.0063793827 -0.32720053
000020 29 22 80 3d c1 23 ad 3d c6 36 ec 3d 22 ec d4 3d
       0.062565155 0.08454085 0.11533885 0.10396601
000030 46 9f 71 3e ae d4 44 3e 8a 9c 3a 3d f3 f7 0e be
       0.23595914 0.19221756 0.045559444 -0.13961773
000040 a5 6b 43 be b5 f4 a8 3e 81 0c 1a bc 27 78 7c 3e
       -0.19084032 0.32999197 -0.009402395 0.2465521
000050 a4 4a 1e be 74 d2 ae bd d2 6f 6f 3e ce 6e d4 bd
       -0.1545816 -0.085362345 0.233825 -0.10372697
000060 50 99 07 3e f2 1d 6e 3e 5c cc cc 3d 69 44 90 be
       0.13242078 0.2325361 0.09999916 -0.28177193
000070 43 64 48 3d 1b 20 38 be 27 71 10 be d8 2c 1e 3e
       0.048923742 -0.17980997 -0.14105664 0.15446794
000080 50 9b 10 3d 59 94 2f 3c 54 29 18 be 97 76 27 be
       0.035304368 0.010716521 -0.14859515 -0.16353832
000090 5d 0d c3 3d 71 53 3a 3e 4c bd 70 3e 92 eb 85 3d
       0.09524033 0.18195893 0.23509711 0.06539072
0000a0 d7 f3 5e 3e 18 1a da bd ba e0 8d be 4f 8d 23 3d
       0.21772705 -0.10649508 -0.27710515 0.039929684
0000b0 4a 4d 50 3e 84 ce 8c 3d b3 2d f1 3c 51 53 0a 3e
       0.20341983 0.06875327 0.029440736 0.13508345
0000c0 17 13 2f bd 43 7f 50 be b8 b0 31 be 45 73 07 3e
       -0.042742815 -0.20361046 -0.17352569 0.13227566
0000d0 e4 1f b9 3d 32 a2 92 3c d1 2e 21 3d 1b ae 5d bc
       0.09039286 0.017899606 0.03935129 -0.0135302795
0000e0 eb e0 d2 3d 64 25 5f 3e 5c 5a 55 3e aa c8 da bd
       0.10296806 0.21791607 0.2083525 -0.10682805
0000f0 a3 dd 18 3e 98 51 05 bd ec 85 91 3e f9 37 0c 3e
       0.14928298 -0.032548517 0.28422487 0.13693227
000100 f4 30 10 3e 39 16 08 bc 43 27 89 be 54 7d 66 3e
       0.14081174 -0.00830608 -0.26787767 0.22508746
000110 50 19 96 be b7 e6 7b be 1d d3 30 bd a8 d6 60 be
       -0.29316187 -0.2459973 -0.043170083 -0.21956885
000120 30 76 45 3d 6d d8 4e 3e 96 0f 8f 3e bb 7c 8a bc
       0.048208416 0.20199747 0.2794158 -0.01690518
000130 4d 9a 12 3d 6e 9b e7 bd 71 c3 2e bd 6a 51 18 3d
       0.035791684 -0.11308943 -0.042666856 0.037187018
000140 60 cd 8c be f6 31 b2 be 91 24 13 be 3e 5d 34 be
       -0.2750044 -0.34803742 -0.14369418 -0.17613694
000150 4d 4d 2d 3e 95 e9 47 be dd c2 f1 bd 70 cc 89 3d
       0.16924019 -0.19522698 -0.11804745 0.067284465
000160 31 6d fb bc 2b f9 dd bd 08 d7 96 3e e3 f7 e7 bd
       -0.030691715 -0.10838541 0.2946093 -0.113265775
000170 21 7d 84 3e 37 af 15 be 41 4f 17 bd 89 3a 8c 3e
       0.25876716 -0.1461762 -0.036940817 0.2738841
000180 d6 cc fa 3d 71 f1 5e 3d 65 fa 92 be 55 63 0a be
       0.122461006 0.054429475 -0.2870666 -0.13514455
000190 f3 f3 29 3d 1a 46 65 3e 75 e2 fe 3c 05 9f f9 bd
       0.041492414 0.22390023 0.031113843 -0.12188534
0001a0 12 bb 3c bd 54 08 51 be c0 9a 3f bd 77 b0 77 bc
       -0.04607684 -0.20413333 -0.04677844 -0.015117756
0001b0 5a a5 4b 3e e2 e3 e7 bd 14 fe be bc 2e a1 b5 bd
       0.19887295 -0.11322762 -0.023314513 -0.08868633
0001c0 3a 81 62 3e f7 c5 73 3e 4d 52 5a be d2 71 2a 3e
       0.22119609 0.23805986 -0.21320458 0.16644982
0001d0 a0 6f 7e 3e e2 67 85 3e 53 63 21 3e a5 df f3 3d
       0.24847269 0.2605582 0.15760545 0.11907891
0001e0 9e 2f 30 be 43 ac 55 3e 09 0f 71 3e 46 b0 1e 3d
       -0.17205665 0.20866494 0.23540892 0.038742326
0001f0 25 ec 71 3e 26 3a fa bb 20 07 02 3e c2 06 17 be
       0.23625238 -0.0076363264 0.1269803 -0.14748672
000200 26 f5 0c 3d 80 45 e2 bc f0 b9 84 bd 82 dc 77 3e
       0.03441348 -0.02762103 -0.06480777 0.24205211
000210 9f 92 a9 3d f5 3e 93 be 4d 28 b5 bc 04 26 7a 3e
       0.08279919 -0.2875897 -0.022113943 0.24428564
000220 39 f1 3e 3d ff 24 81 bc 1b 76 86 be 79 f8 35 be
       0.046616767 -0.015764711 -0.26261982 -0.17770566
000230 07 82 74 bd 20 c7 af be 9a 87 58 3c 89 4e b5 3d
       -0.059694316 -0.34331608 0.013215924 0.0885287
000240 7b 5d 0c be 39 6d 0a 3e ae 60 a1 be 6f 9f 98 be
       -0.13707535 0.13518228 -0.31519073 -0.29809138
000250 54 72 fe 3d 9b ae ba bd 91 8c 3c 3d 47 22 52 be
       0.1242415 -0.091153346 0.046032492 -0.20520888
000260 87 b2 57 3e c5 30 ea bc cb 23 47 3e ed 68 26 3e
       0.21064197 -0.028587708 0.19447248 0.16250964
000270 50 18 a0 be d0 23 4f bc 18 85 13 3e 5e 26 ab 3b
       -0.3126855 -0.012642816 0.1440624 0.0052230796
000280 4b c9 a1 be 15 dc 02 be 9a c8 bf bd 08 d0 97 3c
       -0.31598887 -0.12779267 -0.093644336 0.018531814
000290 ed fe aa be 7c 0d 14 3e 3f 77 d6 3d bb 05 31 be
       -0.33397618 0.14458269 0.10471963 -0.17287342
0002a0 cb 1f 8e 3e 14 c5 69 3d 40 5a 48 3d 8c d1 d4 bd
       0.2775863 0.057072714 0.048914194 -0.103915304
0002b0 af 59 81 3e 8d 82 6e 3e ed 67 9c 3e bc 29 ca 3d
       0.25263736 0.23291989 0.3054804 0.098712415
0002c0 f7 e6 c3 bd 92 5b e6 bd 52 f0 53 3c 9a 70 64 bd
       -0.095655374 -0.112479344 0.012935715 -0.055771448
0002d0 14 f6 9c bd ab c5 30 be 42 1a 80 be c5 55 61 be
       -0.07664123 -0.17262904 -0.25020033 -0.22005375
0002e0 50 52 70 3d f3 b8 75 3e a1 da 61 be f0 c0 8b be
       0.05867225 0.23996334 -0.22056057 -0.27295637
0002f0 df 5a 8d be 57 d4 8e 3e 05 0a 20 be 5a a7 65 be
       -0.27608392 0.27896377 -0.15628822 -0.22427121
000300 99 cb 97 bb c9 60 47 3e 21 4d ac bd 7c 0e a0 3e
       -0.004632425 0.19470514 -0.08413149 0.3126105
000310 86 4e 8d bd 6a c6 89 bd 64 6d 7c bd 9a e3 b6 3d
       -0.06899743 -0.067272976 -0.06162776 0.0893013
000320 93 96 93 3e 37 36 7d 3e ea 3d fb 3d fc e3 13 3e
       0.28825817 0.24727713 0.122676685 0.14442438
000330 dd 23 96 3d 62 0f 3a 3e be 06 8a b9 65 96 08 3e
       0.07331059 0.1816993 -0.00026326434 0.13338621
000340 67 d5 a1 bd 43 d2 14 be a0 96 20 be 19 fc 1b ba
       -0.079020314 -0.14533333 -0.15682459 -0.0005950346
000350 0f 33 de 3b 25 59 4a be b2 cc 35 3d 9b 5a 56 3e
       0.006780989 -0.19760568 0.044384666 0.20933
000360 ca 46 56 3e 56 10 a5 3d d9 25 a9 be 8e 6d 83 3e
       0.20925441 0.080597565 -0.33036688 0.2566952
000370 f6 c1 67 bd 99 dc 40 3e 7d bb a6 bd 41 0b b9 3d
       -0.05658146 0.18834151 -0.08141229 0.0903535
000380 bf 31 6b 3d 0a f2 e5 bd 92 7a 0f 3d 64 2d 92 3c
       0.05742049 -0.11227806 0.035029 0.01784391
000390 e8 ca 06 be c9 e4 14 bd ee 60 d0 bd 23 92 80 be
       -0.1316334 -0.036351 -0.10174738 -0.25111493
0003a0 17 85 ab bd 79 60 42 3e a6 5b 47 be 95 f2 3d 3d
       -0.08374994 0.18982114 -0.19468555 0.046373922
0003b0 82 dc 9a be 39 5d e8 bd e8 ea 7e 3e 0e 4d 9f 3e
       -0.3024636 -0.11345906 0.24894297 0.31113476
0003c0 b0 b3 91 3c f7 ef 86 be 53 51 7b be 1d b1 be 3d
       0.017785877 -0.26354954 -0.24542741 0.093111254
0003d0 5b fc 45 be ac 6f 87 bd 11 8d 9d be 07 bc 82 3e
       -0.19334547 -0.066130966 -0.30771688 0.25534078
0003e0 0a 79 cd bd 90 8b 4a be c0 78 67 be 15 1a 6f 3e
       -0.10032852 -0.19779801 -0.22604656 0.23349793
0003f0 57 39 50 3e 98 06 86 3e 65 c0 68 3c d1 21 3f 3e
       0.20334373 0.26176906 0.014206027 0.18665244

conv2.bias f4 [64]
000000 79 cf 65 3c b8 bc 95 bc 81 7b 9a bd 90 49 87 bd
       0.014026516 -0.018278465 -0.07543088 -0.06605828
000010 eb e2 85 3d 64 05 76 3d 9a dc 8d 3d 29 fd 6e 3d
       0.06537422 0.060063735 0.06926842 0.0583469
000020 db b2 87 bd 75 27 84 3d ef 63 aa bc a1 fa 8b 3c
       -0.06625911 0.06452838 -0.020799605 0.017087283
000030 69 26 63 3c f3 da 8e bd e6 15 60 3d c1 93 48 3d
       0.013864138 -0.06975355 0.054708384 0.048969034
000040 d6 c8 46 3d 60 b0 27 bd 7b d7 92 3d 42 90 ea 3c
       0.048531376 -0.04093969 0.07170006 0.02863324
000050 9b 38 91 3d 9d 0d 92 3d 91 de ad bd 5c c8 71 bd
       0.07090875 0.07131503 -0.08489717 -0.05902897
000060 4c df 2d bd 96 5d ff 3c 14 b6 90 3d 38 d8 81 bd
       -0.04244928 0.031172555 0.07065979 -0.063400686
000070 1e 28 98 3d 7b b7 59 bd 18 5f 90 3d c9 f7 93 3d
       0.07429527 -0.053153496 0.07049388 0.07224996
000080 e1 16 3f 3d 44 33 1b bc 76 34 4e bd 85 ac 58 3d
       0.04665268 -0.009472672 -0.050343 0.052898902
000090 33 e9 90 bc 33 12 6c bd 7a b7 3f bd 31 2e 7f bd
       -0.017689323 -0.057634544 -0.046805836 -0.06229991
0000a0 6c ba 81 bd 02 8d 54 bd e1 36 6d 3d 39 2b fc bc
       -0.06334385 -0.051892288 0.057913665 -0.030782329
0000b0 0b c8 3d bd c6 ac d9 bc 7f a5 80 bd ed 17 79 bd
       -0.046333354 -0.026571643 -0.06281566 -0.060813833
0000c0 04 be 06 bd 1d c0 9c bd 3b c8 6f 3d 54 ea c2 3c
       -0.032896057 -0.0765383 0.058540564 0.023793377
0000d0 11 ba 9c 3d 54 77 07 3d a1 3b 2c 3d b4 4d a5 bd
       0.07652677 0.033072785 0.042049054 -0.08071461
0000e0 96 3d b2 bd 85 c7 c9 3b 30 f4 96 3d dc 65 69 3d
       -0.08703153 0.006157818 0.07370794 0.056981906
0000f0 15 8d 93 3d 97 5a a6 bd ec 7b b2 3d 15 47 b9 3c
       0.07204644 -0.081227474 0.087150425 0.022616902

conv2.lin.weight f4 [64, 64]
000000 9c 72 0b bd 3f 9e 12 3e e4 97 8f bd 5f 5e 0c 3e
       -0.034044847 0.14318179 -0.07011393 0.13707875
000010 0e 19 1a bd 78 48 7e 3e e2 6c 58 3e 3d 1c ba bd
       -0.03762155 0.24832332 0.21135285 -0.09087417
000020 66 0e 20 be 96 fd 9d bd 58 c7 f4 bd 15 22 72 be
       -0.15630493 -0.07714383 -0.11952084 -0.23645814
000030 20 c4 2e be 43 0e a0 3c 3d ff c5 bd e7 5a 3f 3d
       -0.17067003 0.01953805 -0.096678235 0.04671755
000040 ab 43 f5 3d e1 fc 92 bd cf 00 7a 3e a5 d1 31 3e
       0.11975797 -0.07177139 0.24414371 0.1736513
000050 a4 2a 15 3d 89 54 90 be 6e c9 8d 3d 4e 0a 79 3e
       0.03641762 -0.28189495 0.06923185 0.24320337
000060 28 81 17 be ea 50 e9 bb e8 a9 85 bd 2d d3 f1 bd
       -0.14795363 -0.0071202414 -0.06526548 -0.11807857
000070 3e 97 0d 3e 3b 09 9d 3d 95 36 85 3b f1 d7 bc bc
       0.13827226 0.07667776 0.0040653446 -0.023052188
000080 0c 95 7a 3e 62 07 e4 bc cd d0 22 be e4 ec e6 3d
       0.2447092 -0.027835552 -0.15899964 0.11275652
000090 47 79 5c 3e a4 e4 16 be 79 09 20 be 91 09 1a 3e
       0.21530639 -0.14735657 -0.15628614 0.15042712
0000a0 19 0d 64 3d 72 f8 48 3b 9d 9f 23 3e 33 14 51 3e
       0.055676553 0.0030665663 0.15978856 0.20417862
0000b0 22 f6 ab 3d a4 16 33 3e e0 e8 cd bd cf 01 a2 bd
       0.083965555 0.17489105 -0.10054183 -0.07910501
0000c0 bb d5 db 3d e6 48 5d be d8 13 32 3d f0 09 32 3e
       0.10734125 -0.2160984 0.043475956 0.17386603
0000d0 c0 75 ef bd c9 49 03 be 11 bd 1a be 1e 05 2e be
       -0.11692381 -0.12821116 -0.15111186 -0.1699414
0000e0 56 16 2a 3d 67 61 0c be ff 67 c7 bd 5e 19 e3 3d
       0.041525207 -0.13709031 -0.097366326 0.11088823
0000f0 01 0a 02 be e1 c4 00 be 15 b5 29 be e0 2d 25 3e
       -0.12699129 -0.12575103 -0.16572984 0.16130781
000100 71 31 08 3d f0 ad 2d 3d 7e cf 54 be 27 71 18 be
       0.033250276 0.042402208 -0.20782277 -0.14886914
000110 7b f4 7e be 69 7c 48 bd 1a b8 e2 3d fe a5 d8 3c
       -0.2489795 -0.04894677 0.11070271 0.026446339
000120 3c e4 6e 3d 45 96 6b 3d 25 5a 3e be 79 8c d0 3c
       0.05832313 0.057516355 -0.18589075 0.025457608
000130 1d 7c d9 bd 3f e6 54 3e 9e b4 0a 3e fb b7 f7 3b
       -0.10619376 0.20790957 0.13545462 0.007559774
000140 4c 24 88 3c 9e f2 27 be 5d fb 86 3d 48 b4 66 be
       0.01661887 -0.16401145 0.065909125 -0.2252971
000150 14 ef 0b 3d f9 88 e2 bd d6 55 0f be 85 b8 a8 3d
       0.03416355 -0.11061282 -0.13997588 0.08238319
000160 17 71 22 be c9 e0 ca bd ca 90 56 be b2 47 5d be
       -0.15863453 -0.099061556 -0.2095367 -0.21609381
000170 f3 6d 83 be 82 36 9c 3d c6 ed 23 be 45 2b 05 be
       -0.25669822 0.07627584 -0.16008672 -0.13004787
000180 1f a8 9d 3d 29 26 82 bd 7d 06 59 3e dd 5f 83 3d
       0.07698082 -0.06354935 0.21193881 0.06414769
000190 77 9d 3b 3d 03 e2 1b be 78 c9 64 3e 57 c3 54 be
       0.045804467 -0.15222935 0.22342479 -0.20777641
0001a0 f0 14 69 3d d6 e8 3f bd a5 f4 d3 3d db a6 70 be
       0.056904733 -0.04685291 0.103493966 -0.2350115
0001b0 c6 39 d5 bd ba 0b 13 be 8b cf 3e 3e 87 f6 4b be
       -0.1041141 -0.14359942 0.18633859 -0.19918261
0001c0 0a f3 12 3c db 5c ee bd 88 d0 d7 bd 8e 06 ee 3d
       0.008969078 -0.116388045 -0.10537821 0.11622344
0001d0 e4 26 88 bd be 46 ea 3d dd 82 b5 be 21 d7 92 bd
       -0.06648043 0.11439274 -0.35451403 -0.07169939
0001e0 05 64 8c bd 0d e2 88 3c 76 33 86 bd b2 2f 31 be
       -0.06855015 0.016709352 -0.06552784 -0.1730335
0001f0 e3 45 1a be 6b a8 ec 3d 36 64 10 bd 10 da a3 3d
       -0.15065722 0.11555561 -0.03525182 0.080005765
000200 65 31 9d 3c 01 10 a6 3d cb d4 5a 3e e5 43 40 bd
       0.019188592 0.08108521 0.21370237 -0.04693975
000210 45 0c 0b be d1 bc 90 be 4b eb 19 bd 43 1b 64 be
       -0.13578899 -0.28269055 -0.03757791 -0.22276025
000220 ca b7 87 bc bc 08 85 be 12 93 ca bd 7d bb 8c 3e
       -0.01656713 -0.25983226 -0.09891333 0.27486792
000230 04 fb 62 be b9 69 c1 bd c3 05 93 3b 71 0a 1f be
       -0.22166067 -0.09443993 0.004486771 -0.15531327
000240 e1 44 80 be a6 6a 04 be 97 4c de 3d 25 38 90 bd
       -0.2505255 -0.12931308 0.10854452 -0.07041959
000250 d7 d5 7d bc e3 aa 4b be aa b6 80 bd 2e 76 2b be
       -0.015492878 -0.19889407 -0.062848404 -0.167443
000260 ec 0d 76 be ad 9b 0f 3d 1b 0a 01 3c 82 58 06 be
       -0.24028748 0.035060573 0.0078759445 -0.131197
000270 d8 ee 0c be 7d 2b 7d be 8a bf 1a be cf 8d 70 bd
       -0.13762987 -0.2472362 -0.15112129 -0.05872899
000280 ed 1a 26 3e e2 d1 36 be 51 6b 09 be 3f 39 8a be
       0.16221209 -0.17853501 -0.13419844 -0.269968
000290 69 11 6c 3d 32 83 2a be 5e 35 3b bb 06 e5 40 3e
       0.05763379 -0.1665161 -0.0028565745 0.18837366
0002a0 ae b3 07 be 43 49 5a 3d 48 ef 52 3d 9f 8b dc 3c
       -0.13252136 0.053292524 0.051497728 0.026922045
0002b0 85 6c 15 be ce 37 29 be ea b4 84 bc 88 f9 9d 3c
       -0.14592178 -0.16525194 -0.016199548 0.019284025
0002c0 1e 13 c5 3d 33 4b 3b be e3 0a b6 3d c9 da 41 be
       0.09622787 -0.18290405 0.08888795 -0.18931116
0002d0 76 71 ec bd 1e a1 98 3d 27 3b 89 3e 6b 87 8b be
       -0.115450785 0.07452606 0.26802942 -0.27251753
0002e0 3f 55 e1 bd ae e5 02 be d5 7a 0c bc 18 b6 0b 3e
       -0.110025875 -0.12782928 -0.008574207 0.13643682
0002f0 f1 1f 8f bd 25 e0 a2 bd 71 95 b0 bb af 80 3d 3c
       -0.06988514 -0.079529084 -0.0053889086 0.011566325
000300 a6 a0 1d 3e 23 1a 61 3d e1 da e2 bb 28 52 0c bd
       0.15393314 0.054956567 -0.006923065 -0.034258038
000310 bd 2f 70 be a4 dc 10 3d b4 5c 91 bd c9 0f e5 3c
       -0.2345571 0.03536667 -0.0709776 0.027961629
000320 f1 6a 65 be 29 de 20 bd 2b 01 0b be 4e 38 80 bd
       -0.22404076 -0.03927437 -0.13574664 -0.06260739
000330 d9 8e b5 3c f4 b3 c1 3c 58 d4 09 be 86 53 50 be
       0.022162842 0.023645379 -0.13459909 -0.20344362
000340 a0 c2 2d be 86 03 f2 bd 80 bd f2 3c 2b 11 82 be
       -0.16968775 -0.11817078 0.029631376 -0.25403723
000350 83 fc da 3d 97 0b fe 3d de 7e 24 3e be ab 5e 3d
       0.10692694 0.12404554 0.16064021 0.054363005
000360 b9 c8 64 be 27 bc f4 3d c0 e8 1e 3e d7 92 44 be
       -0.22342195 0.1194995 0.15518475 -0.1919664
000370 2d 75 40 bb 69 2c b9 3d 09 84 7e 3d 7b 34 93 be
       -0.0029366717 0.09041674 0.062137637 -0.28750977
000380 5b 6e 92 bd 1c 14 71 3d bb 31 05 be d8 99 de bc
       -0.07149955 0.05885707 -0.13007252 -0.027172968
000390 28 7b 02 be 0c 8f 46 be fd 65 22 3e 8d b5 8b bb
       -0.12742293 -0.19390506 0.15859218 -0.004263586
0003a0 0a f3 43 3d 84 82 61 3c 82 09 bc 3d 42 3b 81 bd
       0.047839202 0.0137640275 0.09181501 -0.06310131
0003b0 74 5a 3d be 52 11 07 be 4a d0 9a 3d 5c 45 b4 3d
       -0.18491536 -0.13190201 0.07559259 0.08802292
0003c0 1e cc af bb 25 e9 cc bd 50 10 33 be 39 72 28 be
       -0.005364909 -0.10005406 -0.17486691 -0.16449822
0003d0 aa 10 66 bd f5 a0 bc 3d c2 0f 8b 3e 93 66 e2 3d
       -0.056168236 0.092103876 0.2716046 0.11054721
0003e0 24 77 e8 3d 06 55 97 bc c1 82 31 be d1 37 8e be
       0.11350849 -0.01847316 -0.17335035 -0.2777696
0003f0 45 95 1f be 53 eb 4c 3d af e1 02 3e 73 0e fb bd
       -0.15584286 0.05002911 0.12781404 -0.12258615

classifier.weight f4 [2, 128]
000000 b5 02 77 bc 99 15 1e bd 36 d3 d9 3d 1d 25 c9 3d
       -0.015076329 -0.038594816 0.106359884 0.09821532
000010 4a 34 15 be 4d 3c a6 bd b3 68 44 bc e9 41 2d 3d
       -0.14570728 -0.0811697 -0.011987853 0.042299185
000020 73 19 c3 bc 31 6f 6c bd 4b 56 d2 3c f6 c5 72 3d
       -0.023815846 -0.057723228 0.025675913 0.05927082
000030 7f df f4 3c b3 bf 9b 3d 7e e7 53 bd aa 4d 5a 3c
       0.029891727 0.07604923 -0.05173444 0.013324181
000040 f2 2c 97 3c a8 08 c0 bd 82 81 bb bd 3e d9 30 3b
       0.018454049 -0.09376651 -0.09155561 0.0026984955
000050 f8 7c bf bd cf e3 98 3d 6f 48 dd bc 7f 6b 5e 3d
       -0.09350008 0.07465326 -0.027012078 0.054301735
000060 57 4e ac b9 58 ee df 3d e3 18 c5 bd 0f 12 ea 3a
       -0.00032864764 0.10934132 -0.096238874 0.0017858165
000070 32 df c6 3c 19 58 d9 bc f6 86 20 bd dd 33 bf bd
       0.02427635 -0.026531266 -0.03919121 -0.09336064
000080 f9 98 de 3d 5a a7 65 bd 9a 1a 37 3c f9 6e 0c 3d
       0.10869021 -0.056067802 0.011175776 0.03428552
000090 31 4e 88 bc 03 c0 35 3d ad be 24 3d ba 12 6c 3d
       -0.016638847 0.04437257 0.040220905 0.057635047
0000a0 3e 97 f9 3d 69 86 4e bd 90 cc d4 3d d0 ba 3e bd
       0.1218705 -0.050421152 0.1039058 -0.046564877
0000b0 db d8 e2 3d 36 a2 db bd 1b ce 35 bd df 03 91 3d
       0.11076518 -0.10724299 -0.04438601 0.070808165
0000c0 77 a4 6d bd 65 19 b7 3a 88 b9 c0 bd 68 cf 4d bc
       -0.058018174 0.001396936 -0.09410387 -0.012561657
0000d0 69 ed cb bd 66 0a 28 bc 5a 43 91 bd 5a 4b 2f bc
       -0.09957392 -0.010256385 -0.070929244 -0.010699118
0000e0 c9 60 cb bd a2 ac 87 bb 2b e1 cf bd ab c7 a2 3c
       -0.0993057 -0.0041404525 -0.10150369 0.0198706
0000f0 98 d8 fa bd 45 36 41 bd b0 6e a8 3d 56 3c 11 bc
       -0.12248343 -0.047170896 0.08224237 -0.008864483
000100 dc 10 e2 bc 12 82 51 3c 9c 37 c9 3d 18 a2 9d 3d
       -0.02759593 0.012787359 0.0982506 0.076969326
000110 6a 06 5e bb b8 fb b7 bc 33 46 de bd 52 2b a7 3d
       -0.0033878335 -0.022458896 -0.10853233 0.081625596
000120 e8 3f 6d bd 92 70 66 bd 1a b5 ea bc d6 d2 a8 3d
       -0.057922274 -0.0562597 -0.02865081 0.08243339
000130 70 64 45 bd 0b f6 6d 3d ad 20 0d 3e 98 e5 10 bc
       -0.048191488 0.058095973 0.13781996 -0.008843802
000140 bf 1b d2 bd c4 59 08 be 7a 58 f2 bd 2d fb 7a bd
       -0.102591984 -0.13315493 -0.11833282 -0.061274696
000150 19 8c 40 bd 90 9b 3f 3c 4e 3d c8 bc ab ef dc 3d
       -0.047008608 0.011694804 -0.024443295 0.107879005
000160 f2 76 9c 3c 24 ce a7 3d 23 28 32 bd 17 04 fa 3d
       0.019099686 0.08193615 -0.04349531 0.12207811
000170 1b 5e 80 bc ee 24 0d be 7f 4d 77 bd f0 7d 3a bd
       -0.015669873 -0.13783619 -0.06037664 -0.04553026
000180 84 16 a9 3d 2f 89 cc bc 02 5b b3 3d 87 9b 01 be
       0.08256248 -0.024967758 0.08757593 -0.12656985
000190 10 51 65 3d f0 2a e7 3d f9 e8 fe 3d 20 43 21 bd
       0.05598551 0.112874866 0.1244678 -0.039370656
0001a0 fe 56 7f 3d 88 ee e0 3d 0e 0f 66 3c f5 6b 6d bc
       0.06233882 0.10982996 0.014041675 -0.014491071
0001b0 11 92 29 be ee 40 7a bd c5 47 9f bd 46 3c f3 3c
       -0.16559626 -0.061097078 -0.07777361 0.029691827
0001c0 63 e4 f2 bd 52 25 1a bd c1 3e 78 3b 7b 0c ce bc
       -0.118599676 -0.037633248 0.00378792 -0.025152436
0001d0 ce fb f7 bd a2 a4 fb 3d 2e 0d 81 3c ac 9e ea 3d
       -0.12108575 0.122872606 0.015753355 0.114560455
0001e0 a0 41 d6 bb 97 90 f5 bc 9a 63 65 bd a1 4e e7 3d
       -0.006538585 -0.029976172 -0.05600319 0.11294294
0001f0 9a be b7 bc d6 92 cb 3c 22 33 fa b9 7b 65 7a 3d
       -0.022429753 0.02485029 -0.00047721813 0.061131936
000200 9a 39 b9 3d 37 71 b5 3d e3 da c8 3d 4f c7 68 3b
       0.0904419 0.08859485 0.09807374 0.0035519188
000210 80 ea 11 3d fc 00 fd bd 4d ea 8a bd ba f4 aa 3d
       0.035624027 -0.123537034 -0.067829706 0.08347459
000220 22 14 a2 bc 3a bf 16 be f7 5d 9b 3d 36 f7 29 3d
       -0.01978499 -0.14721385 0.07586282 0.041495524
000230 27 06 09 be d1 12 b0 3d 7a 86 25 bc 52 ea 55 bd
       -0.13381253 0.08597339 -0.0101028625 -0.05222542
000240 b7 a5 a2 bd 91 dc 09 3b 53 b7 2e 3c 47 a0 75 bc
       -0.07941764 0.002103601 0.010663825 -0.014991826
000250 1f 90 f7 bd f0 8b 60 3b 33 12 2b bd 7b bf 0d 3b
       -0.12088036 0.0034263097 -0.041765403 0.0021629024
000260 7f 28 28 bc 0c d3 32 3d 03 d5 d3 bd 86 09 c4 3d
       -0.010263561 0.0436583 -0.10343363 0.09572129
000270 6c fa 16 be 0c 61 ee bb b8 0f 0d bd 7e 19 55 bd
       -0.14743966 -0.0072747525 -0.03443882 -0.052026264
000280 01 42 e9 bc aa ca 61 bb d1 8f 1f 3c f6 38 90 3d
       -0.028473856 -0.0034453073 0.009738878 0.070421144
000290 09 dc 3d 3d a6 ce e5 bd 89 d7 1f 3b 7c b2 7b 3c
       0.04635242 -0.11221056 0.0024389944 0.015362378
0002a0 67 a8 88 3c 71 67 17 3e 10 3c 81 3d 9a 58 fa 3d
       0.016681863 0.14785554 0.06310284 0.12223931
0002b0 3b 18 7e bd 04 db 8f bd a6 47 27 bd 86 13 0b 3e
       -0.062034827 -0.07024196 -0.040839814 0.13581666
0002c0 cb 20 8c bd 3e 7d 73 bc 6e 42 d7 bd ea 91 cd bc
       -0.06842192 -0.014861403 -0.10510717 -0.025093991
0002d0 82 e4 09 be 26 87 2a bc d4 e5 74 3c d4 be 08 3e
       -0.13466075 -0.010408198 0.014947373 0.13354045
0002e0 ec 29 41 bd a7 da 11 be 4c 4b da bd b9 10 40 bc
       -0.04715912 -0.14243565 -0.10658893 -0.011722737
0002f0 89 6a 6a bd 19 2c f7 bb f6 54 b1 3d 7f 82 cf 3d
       -0.057230506 -0.0075430986 0.08658783 0.10132312
000300 4a f4 11 bc 32 30 de 3d 6f a5 03 3e ef 7b 83 bd
       -0.008908341 0.10849036 0.12856077 -0.06420123
000310 4d 2c 98 3c a9 eb 9c bd 4c 3e 05 be 53 29 df bb
       0.018575812 -0.07662136 -0.13012046 -0.006810346
000320 0f fb 8d 3c e7 e4 13 bd 81 02 e1 3d 26 c4 87 3d
       0.017331628 -0.03610697 0.10986806 0.06629209
000330 f0 bc fe bc 9c 10 7f 3d 9b e8 dc ba 54 49 f5 bd
       -0.031095952 0.0622717 -0.001685399 -0.11976877
000340 a0 9b b7 bd 22 f4 6c 3c b6 85 88 3c 3a 3d 0e be
       -0.0896523 0.014462503 0.01666532 -0.13890544
000350 f9 e7 91 bd b2 5a fd bd 03 ec 1d bd 8e 6a 0a 3e
       -0.071243234 -0.123708144 -0.038555156 0.1351721
000360 da ce cb bd c3 bd 3d 3c 49 98 8c bd 2a cd 28 3d
       -0.09951563 0.011580887 -0.068649836 0.041211285
000370 7e 64 98 bc da 51 1f bd 13 72 0e be dd 58 de bd
       -0.018602606 -0.03889642 -0.13910703 -0.10856793
000380 f0 d2 da 3c 4c 9b 01 be 53 da 94 bd 18 10 c3 bc
       0.026711911 -0.12656897 -0.072682045 -0.023811385
000390 6e 69 de 3d c5 19 ab 3c fa 28 00 3e 39 bb ba bd
       0.10859953 0.020886311 0.12515631 -0.09117741
0003a0 8e 07 0a 3e 1c d4 97 3d b0 bf bc 3c b1 b5 07 3e
       0.13479444 0.074135035 0.023040622 0.13252904
0003b0 99 49 0a 3c f5 5b 80 bc 85 c9 62 bc fc e2 b8 3d
       0.008440399 -0.015668849 -0.013841991 0.09027669
0003c0 6b ac 89 3b 3c 29 9b bd 0a 12 da bd 80 d7 0f be
       0.004201462 -0.07576224 -0.10647972 -0.1404705
0003d0 2d 98 02 be 3a 51 cc 3c 25 ce 00 3b ad 65 88 3d
       -0.12753363 0.024941076 0.0019654122 0.06660018
0003e0 93 71 d3 bc ea ef 20 bc 7e e3 9b bd 5f b0 fc bd
       -0.025810992 -0.009822825 -0.0761175 -0.123383276
0003f0 89 3d f1 bd 0a 78 97 bd cd e4 9d 3b 48 d9 d0 3c
       -0.11779315 -0.073959425 0.004818535 0.025494233

classifier.bias f4 [2]
000000 da d8 d4 bd 85 79 63 bd
       -0.10392924 -0.055535812
