outputs/classification/edges/rebuttal/weights/gcn_6.pth (torch, 21767 bytes, 6 tensors)

conv1.bias f4 [64]
0	0x3c133c83	0.008986595
1	0x3c4aeea7	0.012386001
2	0x3d268bc4	0.040660635
3	0xbda90c96	-0.08254354
4	0xbd92ba3e	-0.07164429
5	0xbd2733f9	-0.04082105
6	0xbcd73bb1	-0.02627358
7	0xbd946e58	-0.07247609
8	0x3c630f33	0.013858604
9	0xbc733c49	-0.014845916
10	0xbd8847d9	-0.06654329
11	0x3d9eb561	0.07749439
12	0xbdaa7351	-0.08322776
13	0x3dc0d98b	0.09416493
14	0xbd5d4fb6	-0.054031096
15	0xbdb2a97f	-0.08723735
16	0xbd30b65d	-0.043142665
17	0xbc322734	-0.010873605
18	0x3d8ff8e9	0.07029898
19	0xbc92f095	-0.017936984
20	0xbd3bf4aa	-0.045887627
21	0xbdb219fc	-0.086963624
22	0xbca8b9f9	-0.020596491
23	0xbc0c50a3	-0.008564147
24	0x3d704440	0.05865884
25	0x3d5a431b	0.053286653
26	0x3b9922aa	0.0046733217
27	0xbd7c5fe1	-0.061614875
28	0xbda85181	-0.08218671
29	0xbd1d0850	-0.038338006
30	0xbcb5c274	-0.022187449
31	0x3f0675ed	0.5252369
32	0xbd82cead	-0.063870765
33	0x3ce88c2c	0.028387152
34	0xbdbd476e	-0.0924214
35	0xbd33b82a	-0.043876804
36	0xbd8ead3b	-0.06966635
37	0x3c41d67d	0.011830923
38	0xbd1db9b1	-0.038507167
39	0xbd8f34a1	-0.0699246
40	0x3c149585	0.009068851
41	0x3d7d517a	0.06184528
42	0xbc9558a6	-0.018230747
43	0x3bd15062	0.006387756
44	0x3d8d3dd1	0.06896556
45	0xbd745377	-0.05964991
46	0xbd8c3847	-0.068466716
47	0xbd812606	-0.063060805
48	0xbd81cbf9	-0.06337733
49	0xbd086a56	-0.033304535
50	0x3cb5c77d	0.02218985
51	0x3c71152c	0.01471452
52	0xbceffc1d	-0.029295022
53	0xbc8b424e	-0.01699939
54	0x3c985439	0.018594848
55	0xbd8af44a	-0.06784876
56	0xbcdef270	-0.027215213
57	0xbcef7462	-0.0292303
58	0xbd92f64c	-0.07175884
59	0x3d8e0e8b	0.069363676
60	0xbdbfd49f	-0.09366726
61	0x3c6995aa	0.014256874
62	0x3daa636a	0.08319743
63	0xbd889937	-0.066698484

conv1.lin.weight f4 [64, 7]
0	0x3e93dc41	0.28878978
1	0x3e7a6bb7	0.24455152
2	0xbde56bb7	-0.112021856
3	0xbde58a60	-0.112080336
4	0x3e82b01b	0.25524983
5	0x3d467f76	0.0484614
6	0x3ea60fa9	0.32433823
7	0x3e91614d	0.28394547
8	0x3e726f83	0.23675351
9	0xbd24ced1	-0.040236298
10	0xbe647bc7	-0.22312842
11	0xbde93a34	-0.113880545
12	0x3e559135	0.20856173
13	0x3e900574	0.2812916
14	0x3cd17615	0.025569001
15	0x3e78bc3f	0.2429056
16	0xbe28f13c	-0.16498274
17	0xbdf2110c	-0.11819658
18	0xbc66568f	-0.014058723
19	0xbaa745f3	-0.0012761935
20	0x3e51d2aa	0.20490518
21	0xbe3fe15b	-0.1873831
22	0xbe3fd29b	-0.18732683
23	0xbe20246a	-0.15638891
24	0x3e4b4294	0.19849616
25	0x3e037cf4	0.12840635
26	0xbdf7697a	-0.12080665
27	0xbe31a836	-0.17349324
28	0xbea3b572	-0.3197437
29	0xbe9ae488	-0.3025248
30	0x3dd99466	0.10624008
31	0x3d46e10c	0.048554465
32	0xbdeafd49	-0.114740916
33	0xbe8bb3c4	-0.27285588
34	0x3e594193	0.21216421
35	0x3e2ab25b	0.166696
36	0xbd3634a6	-0.044483803
37	0x3e4731d9	0.19452609
38	0xbe042f2f	-0.12908624
39	0x3dfe92c5	0.12430338
40	0xbe25aacb	-0.16178434
41	0x3dbf2675	0.09333507
42	0x3e440acc	0.19144744
43	0x3e7e7deb	0.24852721
44	0x3e7f85d0	0.24953389
45	0x3d313b4e	0.043269448
46	0xbe9600e2	-0.2929755
47	0x3da6c9a6	0.0814393
48	0x3e460c22	0.19340566
49	0xbe182e38	-0.14861381
50	0xbc33b07f	-0.010967373
51	0xbbf62c9e	-0.007512643
52	0xbe786107	-0.24255763
53	0x3d7003de	0.058597438
54	0x3d9e0e90	0.07717621
55	0x3ba6b67f	0.005087673
56	0x3e38b31f	0.1803708
57	0xbe062ca5	-0.13102968
58	0xbe076596	-0.13222346
59	0xbdc41571	-0.09574402
60	0x3e19aa26	0.15006313
61	0x3e4f0d68	0.20219958
62	0x3e224188	0.1584531
63	0xbe68dc32	-0.22740248
64	0x3e25303d	0.16131683
65	0xbda68133	-0.081301115
66	0x3e92dede	0.2868566
67	0xbeb6b878	-0.35687613
68	0x3db353de	0.08756231
69	0xbe43e48b	-0.19130151
70	0xbc2510b0	-0.010074779
71	0xbe66b045	-0.22528179
72	0xbe797f0f	-0.24364875
73	0xbe81755b	-0.25284848
74	0x3e325160	0.17413855
75	0x3e644617	0.22292362
76	0xbe0aabfb	-0.13542168
77	0xbdd033e8	-0.1016615
78	0x3e4f02db	0.20215933
79	0x3ea0dae2	0.31416994
80	0xbe4c2593	-0.19936208
81	0x3e10fd9a	0.14159241
82	0xbe037dc7	-0.12840949
83	0xbd5e446d	-0.054264475
84	0x3e035358	0.12824762
85	0x3dc865c4	0.09785035
86	0x3dd5635d	0.10419343
87	0xbe9a44d8	-0.3013065
88	0xbdd4879c	-0.10377428
89	0x3e393037	0.18084799
90	0xbea911c4	-0.33021367
91	0xbdf97a35	-0.12181512
92	0x3e5eeb38	0.21769416
93	0xbe2c3b10	-0.16819406
94	0xbdb78476	-0.08960812
95	0x3e22bca3	0.15892272
96	0x3d21e835	0.03952809
97	0xbe2b6be4	-0.16740376
98	0x3e278a7f	0.16361426
99	0xbeb16dc1	-0.34654048
100	0x3e3ee2fe	0.18641278
101	0xbe608df3	-0.2192915
102	0xbcdef46f	-0.027216164
103	0xbe43d30e	-0.1912348
104	0xbea7ebab	-0.32796988
105	0xbe41d4ef	-0.18928884
106	0x3e259b32	0.16172484
107	0xbe1b20a0	-0.15149164
108	0x3c905eec	0.017623387
109	0x3cba9988	0.022778288
110	0xbe6e2fcf	-0.23260425
111	0xbdd7a8cd	-0.10530243
112	0xbe98c887	-0.2984049
113	0x3e6fa1d0	0.2340157
114	0x3cc40a8c	0.02393081
115	0xbe0fd355	-0.1404546
116	0xbe207849	-0.15670885
117	0xbe95a7ec	-0.29229677
118	0x3e3c7ce3	0.18407016
119	0x3db17861	0.086655386
120	0x3e69a4d8	0.22816789
121	0x3e2e81dd	0.17041726
122	0x3c3adb90	0.011404887
123	0xbddddcbf	-0.108331196
124	0x3e8129e3	0.2522727
125	0xbdb25a5d	-0.08708642
126	0x3e39af18	0.18133199
127	0xbe3a53f7	-0.18196093
128	0x3da0ee31	0.078579314
129	0xbe1b9f18	-0.15197408
130	0xbe0d46e8	-0.1379658
131	0xbe2a7b68	-0.16648638
132	0xbd4ba77c	-0.049720272
133	0x3dda0b89	0.106467314
134	0xbe75051f	-0.23927735
135	0x3db4f745	0.088362254
136	0xbdf67690	-0.12034333
137	0x3e80208f	0.2502484
138	0x3e44b9d1	0.19211508
139	0xbe958ab8	-0.29207397
140	0x3e3d0782	0.18459895
141	0xbeace7d2	-0.33770615
142	0xbe9b13f7	-0.3028867
143	0xbd2c7154	-0.042100266
144	0xbdb1d87f	-0.086838715
145	0xbcc951ec	-0.024575196
146	0x3e2966b3	0.16543083
147	0x3e50afbb	0.20379536
148	0x3d2a11ae	0.041520767
149	0x3e12f751	0.14352156
150	0xbe924e06	-0.28575152
151	0xbc91dc09	-0.017805116
152	0x3d95e346	0.073187396
153	0xbe9684af	-0.29398105
154	0xbe95c036	-0.29248208
155	0x3e567bd3	0.20945673
156	0xbda23fea	-0.07922347
157	0xbe28cd5f	-0.16484593
158	0x3d14b269	0.036302958
159	0x3dc6f323	0.097143434
160	0x3e696cf4	0.22795469
161	0xbe63ef3e	-0.22259232
162	0x3ddc76ef	0.10764872
163	0xbded0355	-0.11572901
164	0x3e32f805	0.17477424
165	0x3e1acb04	0.15116507
166	0x3e06c4e9	0.13161053
167	0x3e47a33c	0.19495863
168	0x3ca3ba13	0.019986188
169	0x3e3cdfc5	0.18444736
170	0x3e36495a	0.17801419
171	0xbcb7f8e6	-0.022457551
172	0xbe02bc13	-0.12767057
173	0xbe0cb3f5	-0.13740523
174	0xbe683e30	-0.22679973
175	0x3e471a7a	0.19443694
176	0x3d213607	0.039358165
177	0x3ca880ca	0.020569224
178	0x3b842ff7	0.004034038
179	0x3e1a8d39	0.15092935
180	0xbe335723	-0.17513709
181	0x3ea4c108	0.3217852
182	0x3e6812e2	0.22663453
183	0x3e2807d4	0.16409236
184	0x3e7432b2	0.23847464
185	0xbdc6dc1a	-0.0970995
186	0x3e8a8818	0.27056956
187	0xba559418	-0.0008147373
188	0x3d3141a4	0.04327549
189	0xbe9ade3c	-0.30247676
190	0xbe9172e6	-0.28407973
191	0x3e4b2dc3	0.19841675
192	0x3e3c4fde	0.18389842
193	0xbdecd805	-0.1156464
194	0x3ddd3c57	0.108025245
195	0xbd804184	-0.06262496
196	0x3cdff5d1	0.027338894
197	0xbe0505b4	-0.12990457
198	0xbc323ba4	-0.010878477
199	0x3d28c6b4	0.041205123
200	0xbe9d3616	-0.30705327
201	0xbe3929d6	-0.18082365
202	0x3e31dc10	0.17369103
203	0x3e29821c	0.16553539
204	0x3e65108d	0.22369595
205	0x3e54bb17	0.20774494
206	0x3dc613e9	0.09671766
207	0x3dc82299	0.09772224
208	0x3e07cc87	0.13261615
209	0x3d138383	0.03601409
210	0x3e9980ea	0.29981166
211	0x3e1389c3	0.1440802
212	0x3e12564b	0.1429073
213	0xbd5b1518	-0.053486913
214	0x3df1c648	0.11805397
215	0xbce52c18	-0.027975127
216	0x3e18469c	0.14870685
217	0x3e42f70e	0.19039556
218	0x3e860cb7	0.26181576
219	0xbd8a3ee3	-0.06750276
220	0x3f43ba56	0.764562
221	0xbcb66bb8	-0.022268161
222	0x3eef73ab	0.46767935
223	0x3ec9b649	0.39396885
224	0xbd8e9c8c	-0.06963453
225	0xbd7bcde0	-0.061475635
226	0xbe1229d7	-0.14273773
227	0xbea9290d	-0.33039132
228	0xbe99c7cf	-0.30035254
229	0xbb2ef85f	-0.0026698334
230	0xbc95123a	-0.018197168
231	0x3de66f65	0.112517156
232	0xbd13b4f7	-0.036061253
233	0x3e710183	0.23535733
234	0xbdda2bc3	-0.10652878
235	0x3e9b54a7	0.30338022
236	0x3c29e466	0.010369396
237	0xbe051b97	-0.12998806
238	0x3bf61964	0.007510351
239	0xbe4244e3	-0.1897159
240	0xbea3c975	-0.31989637
241	0x3e33dfb6	0.17565808
242	0xbc999deb	-0.018752059
243	0xbe3a5576	-0.18196663
244	0xbde3f378	-0.11130422
245	0xbe73fd15	-0.23827012
246	0xbc9c44fb	-0.019075861
247	0x3e56160f	0.20906852
248	0xbe5156b2	-0.20443228
249	0xbdaf65aa	-0.08564313
250	0xbe7b997c	-0.24570268
251	0x3e593c3d	0.21214385
252	0xbe80de80	-0.25169754
253	0xbd1e2a3f	-0.038614508
254	0x3cca357e	0.02468371
255	0xbe94ef88	-0.29088998

conv2.bias f4 [64]
0	0x3d4cd3a1	0.050006513
1	0xbd85a322	-0.06525256
2	0xbd00e144	-0.03146483
3	0xbcf6dce2	-0.030134622
4	0x3c738cb6	0.014865091
5	0x3cf32b61	0.02968377
6	0x3d0ef2ba	0.03489945
7	0x3d3b32ad	0.045702625
8	0xbd5a5935	-0.05330773
9	0xbc0bde05	-0.00853682
10	0x3d317a88	0.043329746
11	0xbdae7533	-0.08518448
12	0xbd588881	-0.052864555
13	0xbd9f23f7	-0.077705316
14	0x3d86d72f	0.06584012
15	0xbd0e6265	-0.034761805
16	0xbd4af3b7	-0.04954883
17	0xbdaa4dce	-0.08315621
18	0xbcd2191e	-0.025646742
19	0x3cd57286	0.026055586
20	0xbd1ffab2	-0.03905744
21	0xbd22d658	-0.039755195
22	0x3cdde084	0.027084596
23	0x3d94c187	0.07263475
24	0x3bdce512	0.0067411745
25	0x3cb5a4b2	0.02217326
26	0xbdb51305	-0.08841518
27	0x3bdcfeb5	0.0067442306
28	0xbdb58d8c	-0.088648885
29	0xbc7936cc	-0.0152108185
30	0xbba3cb25	-0.004998582
31	0x3da86fd0	0.082244515
32	0xbdafb968	-0.08580285
33	0xbd0b9561	-0.034078006
34	0xbcddf3fe	-0.027093884
35	0x3da12902	0.0786915
36	0x3c364ef4	0.011127222
37	0xbccfe354	-0.025376953
38	0xbd5125ca	-0.05106143
39	0x3db1d966	0.086840436
40	0xbd8c8418	-0.068611324
41	0x3d7f900d	0.062393237
42	0x3db3cbbc	0.087790936
43	0x3d116003	0.035491955
44	0xbd8fe8ab	-0.070268
45	0xbd9ce5ae	-0.076609954
46	0x3d543bbc	0.05181478
47	0xbd3040e3	-0.04303063
48	0xbc26855e	-0.010163633
49	0x3db15dba	0.08660455
50	0x3aae7e0d	0.0013312713
51	0x3da6b934	0.081407934
52	0x3d0fa7d3	0.03507216
53	0x3d9f4039	0.077759214
54	0x3d88a903	0.066728614
55	0xbd87aa24	-0.066242486
56	0x3d996ced	0.07491479
57	0xbdaa9553	-0.083292626
58	0x3d46655b	0.048436504
59	0xbd736838	-0.059425563
60	0x3cb0b81e	0.021572169
61	0xbc8e67ac	-0.017383419
62	0x3d489f46	0.04898002
63	0xbd0dd610	-0.034627974

conv2.lin.weight f4 [64, 64]
0	0x3d9ba027	0.07598906
1	0xbcc5d7d3	-0.024150765
2	0x3e52292e	0.20523521
3	0xbdab316f	-0.08359038
4	0xbd277716	-0.040885054
5	0xbda3a788	-0.079909384
6	0x3de31ee8	0.11089879
7	0x3dd38244	0.103275806
8	0x3e39490e	0.18094274
9	0xbdc45bd0	-0.09587824
10	0x3e09e0ef	0.13464712
11	0x3e549128	0.20758498
12	0x3e29f3f3	0.16596965
13	0x3d795c64	0.060879126
14	0xbdc6f430	-0.09714544
15	0x3e1a7d27	0.15086804
16	0xbe1fac53	-0.1559308
17	0x3cc956e7	0.024577571
18	0xbe08ad34	-0.13347322
19	0xbd7472aa	-0.059679665
20	0x3e438582	0.19093898
21	0x3c99beda	0.018767763
22	0xbe18798d	-0.14890118
23	0xbc1e020e	-0.009644045
24	0xbe069a14	-0.13144714
25	0x3d72430f	0.059145983
26	0xbe013b22	-0.12620214
27	0x3e8824a4	0.26590455
28	0x3cbfd4f2	0.02341697
29	0x3dda9d7d	0.1067457
30	0x3ccc838b	0.024965068
31	0x3e4d27d5	0.20034726
32	0xbd50bf3d	-0.05096363
33	0x3e0d9531	0.13826443
34	0xbdff4d9d	-0.124659754
35	0xbbded0dd	-0.006799801
36	0xbd5c4f39	-0.05378649
37	0xbd80658e	-0.0626937
38	0x3cb540ed	0.022125686
39	0x3cbbd55e	0.02292889
40	0x3d86ddbd	0.06585262
41	0xbddf8c2b	-0.10915407
42	0x3e523c52	0.20530823
43	0x3dfb1a71	0.12260903
44	0xbd4c91e4	-0.04994382
45	0x3e70b1ad	0.23505278
46	0xbe2bd1de	-0.16779277
47	0x3e496587	0.19667636
48	0xbd6362f6	-0.0555143
49	0x3e23f49c	0.1601128
50	0xbe27fa51	-0.16404082
51	0xbe666651	-0.22499968
52	0x3d111701	0.03542233
53	0x3db9fe4f	0.09081709
54	0x3a96dd2c	0.0011510006
55	0x3e5f658b	0.2181608
56	0x3cc795be	0.024363395
57	0xbdeb07dc	-0.114761084
58	0x3e75683e	0.23965546
59	0x3bbf78b2	0.0058432454
60	0xbdfbf6c4	-0.12302926
61	0x3e58954a	0.211507
62	0x3e48125f	0.19538258
63	0x3e41f325	0.18940409
64	0xbdb77bfd	-0.08959196
65	0xbdfdf717	-0.12400644
66	0x3c6818d0	0.014166072
67	0x3e04a9b8	0.12955368
68	0xbe86c772	-0.2632404
69	0x3d9a3c72	0.0753106
70	0xbe17345f	-0.14766072
71	0x3e03ac3d	0.12858672
72	0xbd991857	-0.074753456
73	0x3de004c4	0.10938409
74	0xbd246f10	-0.04014498
75	0xbe73e4cc	-0.23817748
76	0xbd6ea6c3	-0.058264505
77	0xbb4bef7d	-0.0031118088
78	0xbe47d57c	-0.19515032
79	0xbd89f515	-0.06736199
80	0xbe90e593	-0.2830015
81	0x3dcabe4d	0.09899578
82	0xbdae0bf9	-0.08498377
83	0xbe58c4fa	-0.2116889
84	0xbe44a9b5	-0.19205363
85	0xbe8d3179	-0.27576807
86	0x3d740926	0.059579037
87	0xbc65c952	-0.014025049
88	0xbe43e821	-0.19131519
89	0xbda20198	-0.0791046
90	0xbda6dddc	-0.08147785
91	0xbd55d713	-0.052207064
92	0xbdab30ec	-0.083589405
93	0xbe23bf58	-0.1599096
94	0x3d9a44c6	0.07532649
95	0x3f023050	0.5085497
96	0x3c9d353e	0.019190427
97	0xbdd173d1	-0.10227168
98	0x3d116c10	0.035503447
99	0x3b8b78c9	0.004256342
100	0x3dada6cf	0.08479082
101	0xbe8850a3	-0.2662402
102	0x3dc7b6ed	0.09751687
103	0x3c0d185b	0.008611764
104	0xbe780bba	-0.24223223
105	0xbe72a48a	-0.23695579
106	0xbc81d887	-0.015850319
107	0xbe8afb28	-0.27144742
108	0x3d912f94	0.07089153
109	0xbd30a346	-0.04312446
110	0x3d7f89b7	0.062387194
111	0xbc8c9b08	-0.017163768
112	0xbc6c74d2	-0.014432149
113	0xbdc0094b	-0.093767725
114	0xbcac6753	-0.021045363
115	0xbe6df1ba	-0.23236743
116	0xbe839a82	-0.25703818
117	0x3de13691	0.10996736
118	0xbddd2995	-0.10798947
119	0xbd61e2b3	-0.055147838
120	0xbd429a5a	-0.047510482
121	0xbd86dbab	-0.06584867
122	0x3d6774d2	0.056507893
123	0xbd1a0da8	-0.03761068
124	0x3e0eee9a	0.13958207
125	0xbd5c7c85	-0.05382969
126	0xbce2a8ab	-0.027668318
127	0xbdf6f980	-0.12059307
128	0x3c11f43e	0.0089083295
129	0xbdd23def	-0.10265719
130	0xbe14d3d2	-0.14533928
131	0x3d20612b	0.039155167
132	0xbe25ab72	-0.16178682
133	0xbddea220	-0.10870767
134	0xbd010c2f	-0.03150576
135	0x3c721379	0.01477515
136	0x3a766ef1	0.0009400687
137	0x3b3d6367	0.002889836
138	0x3e0801b7	0.13281904
139	0xbe8fcd6d	-0.28086415
140	0xbbb3183c	-0.0054655354
141	0xbdda341a	-0.10654469
142	0xbe84e7ac	-0.25958002
143	0x3bfedf3f	0.007778078
144	0xbd68fc95	-0.056881506
145	0xbe0f7202	-0.14008334
146	0xbe0392ea	-0.12849012
147	0x3d2ebb48	0.042659074
148	0xbd9b94de	-0.075967535
149	0x3ccfdf54	0.025375046
150	0x3ca65b44	0.02030719
151	0x3cdf0f52	0.027228985
152	0xbe3f1d40	-0.18663502
153	0xbe49adc0	-0.19695187
154	0xbe29e659	-0.16591777
155	0xbe0b78a8	-0.13620245
156	0x3da98e89	0.082791395
157	0x3d2322f3	0.039828252
158	0x3dddc776	0.1082906
159	0x3ef050da	0.46936685
160	0xbb54b52b	-0.0032456617
161	0xbc01c190	-0.007919684
162	0xbe8ccccf	-0.27500007
163	0x3c8d33d9	0.017236637
164	0x3d0a3494	0.03374155
165	0xbd7974c6	-0.06090238
166	0x3cc41fd6	0.023940962
167	0xbe658a2c	-0.2241599
168	0xbe968033	-0.29394683
169	0xbe31a9ba	-0.17349902
170	0x3dca6274	0.0988206
171	0xbe3eedec	-0.18645447
172	0xbe111fa2	-0.14172223
173	0xbe10fbe2	-0.14158586
174	0xbe4e073f	-0.20119952
175	0x3d4fbfc5	0.050719995
176	0xbd96ba85	-0.073597945
177	0xbe485609	-0.1956407
178	0xbe1a7a5a	-0.15085736
179	0xbe8f5bf1	-0.27999833
180	0xbc03bd61	-0.008040757
181	0xbdaac28a	-0.08337887
182	0xbe06ffb3	-0.13183479
183	0xbc942c15	-0.018087426
184	0xbe1cc48b	-0.1530935
185	0xbdc4c212	-0.096073285
186	0x3dfe97c2	0.12431289
187	0xbdd4c3fc	-0.103889436
188	0x3dd12fdf	0.10214209
189	0xbe44b011	-0.19207789
190	0xbd3b7ee7	-0.04577532
191	0xbd5576c1	-0.052115206
192	0x3d820dfc	0.063503236
193	0x3e239a42	0.15976813
194	0xbde69d5f	-0.11260485
195	0xbe7f5814	-0.24935943
196	0xbced04c7	-0.028932942
197	0x3d222ebc	0.03959535
198	0xbd862a00	-0.065509796
199	0xbe6d5b8d	-0.23179455
200	0xbe616cdf	-0.22014187
201	0xbce69605	-0.028147707
202	0x3e07fabf	0.13279246
203	0x3dd22538	0.10261005
204	0xbe1dbb4a	-0.15403476
205	0xbe0c32c2	-0.13691238
206	0x3e024a9c	0.12723774
207	0xbdac7f12	-0.08422674
208	0xbda39db7	-0.07989066
209	0x3d87b4af	0.066262595
210	0x3cbef28e	0.023309018
211	0xbe34d8c6	-0.17660818
212	0xbe6c053e	-0.23048875
213	0x3e187659	0.14888896
214	0x3dea78a8	0.114487946
215	0xbd1417e6	-0.036155604
216	0xbe4f16bb	-0.20223515
217	0x3da9002c	0.08251986
218	0xbe24c79a	-0.16091767
219	0x3e835db4	0.25657427
220	0xbd7c536d	-0.061603
221	0xbe582743	-0.21108727
222	0x3da93666	0.08262329
223	0xbdbf159b	-0.09330293
224	0x3c92035b	0.017823866
225	0x3d7cbba1	0.061702374
226	0xbac9e25e	-0.0015402546
227	0xbe72596e	-0.23666927
228	0xbde21605	-0.11039356
229	0xbda43490	-0.08017838
230	0xbe0df095	-0.13861306
231	0xbdf8a4f3	-0.121408366
232	0xbe977615	-0.29582277
233	0x3c9f7402	0.019464497
234	0x3cd7b525	0.026331494
235	0x3d84e912	0.06489767
236	0xbe0b9f9d	-0.13635106
237	0x3dff2985	0.12459091
238	0xbe3b7b2d	-0.18308707
239	0xbd427568	-0.04747525
240	0xbdc5bb2f	-0.09654843
241	0x3e09b02c	0.1344611
242	0xbe0a13dc	-0.13484138
243	0x3d59188b	0.05300192
244	0x3c9d83b7	0.019227846
245	0x3de100f1	0.10986508
246	0xbde1f415	-0.11032883
247	0xbd83342c	-0.06406435
248	0xbe548364	-0.20753247
249	0x3d324bbd	0.04352926
250	0x3e19b8ca	0.15011898
251	0xbe443adc	-0.19163078
252	0xbb049442	-0.002022997
253	0xbcb1cbc5	-0.02170361
254	0xbd9e99a2	-0.07744147
255	0x3c326c0c	0.010890018

classifier.weight f4 [2, 128]
0	0xbd33bc57	-0.043880787
1	0x3ae99b6b	0.0017822807
2	0xbb13ce5e	-0.0022553424
3	0xbd2d3542	-0.04228712
4	0x3dd9c76b	0.10633739
5	0xbd8c733a	-0.06857915
6	0xbd4c6b15	-0.04990681
7	0xbdd3f995	-0.10350338
8	0xbca52aff	-0.020162104
9	0x3d143563	0.036183726
10	0x3d29baf9	0.041438077
11	0x3dc34562	0.09534718
12	0xbdaa818e	-0.08325492
13	0x3b1640e1	0.0022926854
14	0x3dbb5573	0.091471575
15	0xbd205891	-0.039146964
16	0xbd6b2d03	-0.057415973
17	0x3c23db46	0.010001009
18	0xbd1f2539	-0.038853858
19	0x3de48304	0.11157802
20	0x3e14e33a	0.14539805
21	0xbd65c9b6	-0.05610057
22	0x3d33466e	0.04376834
23	0xbd509c26	-0.050930165
24	0xbc27dd5a	-0.010245645
25	0x3cd4390d	0.02590611
26	0x3de6c2a8	0.112675965
27	0xbd40f023	-0.047104012
28	0x3cb71ae5	0.022351691
29	0x399c00e0	0.0002975529
30	0x3d5f9189	0.054582153
31	0xbca329e9	-0.019917445
32	0x3d6be6fb	0.057593327
33	0x3d56cf8c	0.052444026
34	0x3d3d57b6	0.046226226
35	0xbca7245e	-0.020403083
36	0xbd796d20	-0.060895085
37	0x3d88d924	0.06682041
38	0x3d8dffa4	0.06933525
39	0xbb988f39	-0.0046557453
40	0x3e07e0d7	0.13269363
41	0xbd2ac67e	-0.041693203
42	0xbba4edef	-0.0050332467
43	0x3d49235c	0.049105987
44	0x3de296ae	0.11063896
45	0x3d4680d3	0.0484627
46	0xbd864165	-0.06555442
47	0xbd36c1c6	-0.04461839
48	0xbc28df46	-0.010307139
49	0x3d2afc93	0.04174478
50	0x3c7d90e0	0.015476435
51	0x3d57505b	0.052566867
52	0xbcfe45d5	-0.031039158
53	0xbd185511	-0.0371905
54	0xbda463cb	-0.080268465
55	0xb93005f1	-0.00016786881
56	0xbbb8e0b2	-0.00564202
57	0x3def211f	0.11676239
58	0xbdc9400f	-0.09826671
59	0x3d0fe1ab	0.035127323
60	0x3cac3082	0.021019224
61	0xbd820ec6	-0.06350474
62	0xbd1bfc1d	-0.03808223
63	0x3da58fae	0.08084045
64	0xbd070856	-0.032966934
65	0x3d260f02	0.040541656
66	0x3ce71dca	0.028212447
67	0xbc619864	-0.013769243
68	0x3dead501	0.114664085
69	0xbdac2e70	-0.08407295
70	0xbde2d5a2	-0.110759035
71	0xbdc7b0d0	-0.09750521
72	0xbbdd0c26	-0.006745833
73	0x3d8448c3	0.06459191
74	0x3cf3f262	0.029778663
75	0x3d4d1fa2	0.050078996
76	0x3ce3baa1	0.027798953
77	0xbccb8c15	-0.02484707
78	0xbe11cc18	-0.14238012
79	0x3c8a6e74	0.016898371
80	0xbd183e8e	-0.03716903
81	0x3ca75064	0.020424075
82	0x3dbbe3d3	0.091743134
83	0x3caf32b1	0.021386476
84	0xbbf2c49a	-0.0074086906
85	0xbdb60085	-0.08886818
86	0x3db79042	0.08963062
87	0xbd8303d0	-0.063972116
88	0xbc89d617	-0.016825719
89	0xbd9206f8	-0.071302354
90	0x3d62a67b	0.05533455
91	0x3cea59d7	0.028607292
92	0x3d376e19	0.04478273
93	0x3aba1775	0.0014197665
94	0xbcf52f20	-0.029929698
95	0xbdfddbfe	-0.12395476
96	0x3dbdc320	0.09265733
97	0xbc312632	-0.010812329
98	0xbcca6830	-0.024707884
99	0xbd92fd67	-0.07177239
100	0xbc002e3e	-0.007823525
101	0xbca4ce7f	-0.020117996
102	0xbc730750	-0.014833286
103	0xbdfeb4be	-0.124368176
104	0xbc8294f5	-0.015940169
105	0xbd35fe9d	-0.04443227
106	0x3c26547c	0.010151979
107	0xbdd61d30	-0.10454786
108	0xbc486af5	-0.012232532
109	0x3d9836cc	0.07432327
110	0xbc78291f	-0.015146523
111	0xbd5f464e	-0.054510407
112	0x3d755b4c	0.05990152
113	0xbcf29455	-0.029611746
114	0xb9291428	-0.00016124605
115	0xbd007a08	-0.031366378
116	0x3d0df46f	0.03465694
117	0xbcbc24b4	-0.02296672
118	0xbdf14017	-0.11779802
119	0x3de84d04	0.113428146
120	0xbde43b9a	-0.111441806
121	0x3ca56118	0.0201879
122	0xbe035a0d	-0.1282732
123	0x3de22d54	0.11043802
124	0xbd1fdb01	-0.039027218
125	0x3d42373f	0.047415968
126	0xbd57e502	-0.052708633
127	0x3e28b4e5	0.16475256
128	0xbde38392	-0.111090794
129	0x3bb1f6e7	0.0054310444
130	0x3ca00ab1	0.019536348
131	0x3bbacbc5	0.0057005608
132	0x3cc987cc	0.024600886
133	0xbb4c3377	-0.0031158605
134	0xbcc8d45d	-0.024515325
135	0xbdf72327	-0.12067252
136	0x3e14b423	0.14521842
137	0x3cd44976	0.025913935
138	0x3d83b10d	0.06430254
139	0x3dacefe7	0.08444195
140	0x3ced1b4b	0.028943678
141	0xbd8c047c	-0.06836793
142	0x3d9f6a35	0.07783929
143	0x3e0f916f	0.14020322
144	0xbd75ab6a	-0.059977926
145	0xbd1fc4db	-0.039006095
146	0x3dab11c9	0.083530016
147	0x3c0f8e77	0.008761994
148	0xbde05893	-0.10954394
149	0x3b1d2216	0.0023976616
150	0xbcb36759	-0.021899866
151	0xbe1545aa	-0.14577356
152	0xbca9e4db	-0.02073901
153	0xbd19b2ba	-0.037523963
154	0x3e08373c	0.1330232
155	0xbdb5813c	-0.0886254
156	0x3d090e68	0.033461004
157	0xbe096b90	-0.13419938
158	0x3e0a4342	0.1350222
159	0xbdd06c0e	-0.1017686
160	0x3de8729d	0.11349986
161	0x3dad64bf	0.084664814
162	0x3e084b3e	0.13309953
163	0xbad4beb5	-0.0016231152
164	0xbdca7b48	-0.09886795
165	0x3c119a73	0.008886921
166	0x3dec28f0	0.11531246
167	0xbe143409	-0.14472975
168	0x3de499eb	0.1116217
169	0xbdc58f78	-0.09646505
170	0x3cf59d4e	0.029982235
171	0x3dec5bdb	0.115409575
172	0x3dc642f3	0.09680738
173	0x39be2780	0.00036269054
174	0x3c8e80cc	0.0173954
175	0xbc537b6e	-0.012907846
176	0x3d1670ca	0.036728658
177	0xbccacf86	-0.024757158
178	0xbe0dd3ee	-0.13850376
179	0x3d50208e	0.050812297
180	0xbd0e25ae	-0.034703903
181	0xbe0078c6	-0.12546071
182	0x3d68f3a4	0.05687298
183	0xbd47fb5b	-0.048823696
184	0xbe179fbf	-0.14807032
185	0x3dd1e0e2	0.10247971
186	0x3d1a259f	0.037633535
187	0xbbca944a	-0.006182228
188	0x3d4fbb6c	0.05071585
189	0xbdeffc81	-0.11718083
190	0xbcbba625	-0.022906372
191	0xbda8b384	-0.08237365
192	0xbdd64c33	-0.104637526
193	0xbd82882d	-0.0637363
194	0xbdf80aad	-0.12111411
195	0xbda7241b	-0.081611834
196	0x3ca0c601	0.019625666
197	0xbcba61cb	-0.02275171
198	0xbdfbbd4c	-0.12291965
199	0xbd611729	-0.054953728
200	0xbc2f2981	-0.010691048
201	0x3d964c9d	0.073388316
202	0xbcdabadf	-0.026700435
203	0x3dcf2677	0.101147585
204	0xbadf2590	-0.0017024744
205	0xbcf73887	-0.030178322
206	0xbcea5131	-0.028603168
207	0xbbb5b0ce	-0.0055447584
208	0x3b5574ec	0.0032570912
209	0x3b0866a0	0.0020813122
210	0x3dd19d0d	0.10235033
211	0x3d8c6b91	0.06856454
212	0x3ca717e1	0.020397129
213	0x3cd5fe1c	0.026122145
214	0x3db6de23	0.08929088
215	0xbe1325c5	-0.14369877
216	0x3da450ed	0.08023248
217	0xbe0ccf9a	-0.13751069
218	0x3db2659a	0.08710785
219	0x3d2633d9	0.04057679
220	0x3ce95a67	0.02848549
221	0x3b4840be	0.0030556167
222	0x3cac585e	0.02103823
223	0xbd866abf	-0.06563329
224	0x3d86983f	0.065720074
225	0x3df4e915	0.11958519
226	0x3d8f1099	0.069855876
227	0x3cdbd4a6	0.026834797
228	0xbcabfe30	-0.02099523
229	0xbd6c881f	-0.057747003
230	0x3e0b4f6e	0.13604519
231	0xbd580b11	-0.05274493
232	0x3dff5d4f	0.12468969
233	0xbd52039c	-0.051272973
234	0x3c8058d6	0.01566736
235	0xbcca8d34	-0.024725534
236	0x3dc0503f	0.09390306
237	0x3e15c650	0.14626431
238	0x3d0e06f3	0.034674596
239	0xbd5c4609	-0.05377773
240	0x3deec296	0.11658208
241	0x3c5dca32	0.013536977
242	0xbcee76d5	-0.029109398
243	0xbb873c0b	-0.0041270307
244	0x3e003aa8	0.12522376
245	0xbd9dfa57	-0.07713764
246	0xbc6b9636	-0.014379075
247	0x3c5461ec	0.0129627995
248	0xbddd8fcd	-0.108184434
249	0x3ddaada5	0.10677651
250	0x3cdc46ac	0.026889168
251	0x3c5c73f9	0.013455384
252	0x3d8d4c29	0.06899292
253	0xbc2b02ef	-0.010437711
254	0xbba78281	-0.005111993
255	0x3c87a6c2	0.016559009

classifier.bias f4 [2]
0	0xbda297a4	-0.079390794
1	0xbc903b08	-0.017606273
