outputs/classification/edges/rebuttal/weights/LEConvGNN_9.pth (torch, 60793 bytes, 12 tensors)

conv1.lin1.weight f4 [64, 7]
00000000: 2cad 813d 5ecf f53d adef 81be 2117 ab3e
00000010: 973a b7bd 0e6c b13b a14a b63e b84f a83a
00000020: 380b d23e 7afa a53e 822c bdbe efdd 79be
00000030: b848 d03d 1f10 003e 7371 12be a069 ddbe
00000040: b3ee a5be 70a1 f2bd 4067 763d 61eb a5be
00000050: 0538 593d 0b2f bbbd cc2d 493e 96dc 66be
00000060: d435 a53e 6543 923e ee3b 88be f753 7e3e
00000070: 6b6a 4ebe bb39 bd3e bb32 a43e 55e2 443d
00000080: 7e0a 32be f5fe 9b3e 7a0d 7ebd 5347 acbe
00000090: 4e7e 81be d5dc 4a3e 4b29 1fbe f0ad 313e
000000a0: 9289 0d3e 0f17 393e ecaf fbbd 57ae bd3e
000000b0: 2899 10be 1886 26bd 854e 8a3e e996 d93d
000000c0: dde8 d43b 24e0 7a3e 0e73 1b3d c37d 973e
000000d0: 505e f63d f0c6 283e 7e69 80be 8a4f c13e
000000e0: bb7a b2be b5d2 a9be bc1c c63e 714f 14bc
000000f0: 05c7 3f3e 599a 873e 6c96 173d 7472 0e3e
00000100: d20c 843e e7b6 f9bd 3ae4 c5bd d283 583c
00000110: f744 7abe 536a 0d3d 2486 943d e839 b0be
00000120: 1813 bbbe aba2 1fbe 78ea 8abe 2aad a9be
00000130: 8333 aabe 814f 4dbe c0e7 9f3d ce49 8ebe
00000140: fee8 11be cead 86be aba8 f8bd b0ef 853e
00000150: 8caf bdbe cc34 3dbe 52fe 97be b913 683e
00000160: 1fab dcbe 1384 713e ba99 abbe a724 373e
00000170: 716e 343e 4dcf 3abe 8670 2ebe 5c2e 72be
00000180: 1aee 843e 46f6 3d3e 1e22 bfbe 4893 383e
00000190: 59ad 2f3d 8ad8 37be 7221 383e ba77 1cbd
000001a0: a4f7 8ebe ea19 26be d503 93bd f061 70bc
000001b0: 9ce8 643e 9b75 0abd 8fbb a63d 9398 703d
000001c0: e259 9abe c14a 7d3c 5103 703e 0a4f 1bbe
000001d0: 9298 cbbd ccd4 74be f1c5 863e 656b 0fbe
000001e0: d200 1fbc ff8b 84be 969b 903e a92e febd
000001f0: f06b 0ebd 3caa c83e 07ee 973e 74df 3ebe
00000200: d239 343e 5232 ca3d cde2 9cbe aacc afbc
00000210: 635f 863e 7c9b 023d a574 b8be 0380 67be
00000220: 1a73 39bd 2058 20be 3c0e 30be 9109 b2be
00000230: 23eb d03a 2269 333d c3ec e0bd 4ffd ae3e
00000240: 675f c33e 74db 8c3d 1151 873e 53f0 8a3e
00000250: b3c6 b6be c0b7 ff3d dca1 fc3d 41e2 463e
00000260: 023e 903e 2bc4 9abe fd0c 093e b021 6d3e
00000270: 1531 18be ba26 3d3e 6514 4dbe 83fc 813e
00000280: 0993 96be 3da8 cd3d 2a3b a63d 5fcb 5a3e
00000290: feaf d03d 2deb 8e3e c139 4f3d b7d5 5abe
000002a0: d6ec 413e b370 d8bc be6e a03e bc3a a43e
000002b0: 8bec b53e 853a 443e 84be 063e 5200 b8be
000002c0: 90f9 68be 0457 9abe 3038 e4bd 02b0 473e
000002d0: 6dc7 7abe 4234 6d3e 5b8f 2e3e 3f6b 123e
000002e0: e48d fb3d cf26 bc3d 8c22 8b3e 28e4 c7be
000002f0: 5eb0 283d 2fca 893c 981a 1bbc 7179 ba3e
00000300: b88c 45be 81d0 15be 28bc 97be d50e a6be
00000310: bc6f b23e 4d25 ac3e 7c39 783e ea7a 63bd
00000320: 8e76 1a3e 4105 95bd 2fd3 273e ba8a 343e
00000330: 3a10 bdbd 2b38 b03e b9b0 d83d c312 bc3e
00000340: 6371 e43e fe09 55be 2541 b83d e33f 30be
00000350: ca26 28be f2db b8bc a183 98bd 242d c03e
00000360: fd69 b63e 2ec4 943e a5a9 17bd 9898 8d3d
00000370: a06b 7c3e b662 80be be33 3c3e 1467 003d
00000380: eb58 853e a970 aa3e 72cd bc3e 9d87 4cbe
00000390: 5abd 7fbd 1a1f c53e 0f7f a03e fbe8 dcbd
000003a0: 68a1 50be aa81 0cbe f29d 38be f8ed 813d
000003b0: 390c c63d 2b71 b2be a891 5bbe d770 c83d
000003c0: 24d7 50be 3b86 9fbe 733b 2d3e 1f91 963e
000003d0: 11ed 48be 0b12 48bd a8e6 55be 5397 e53d
000003e0: e37e 9fbe b766 cfbe 1e16 acbe ba8a 733d
000003f0: 8676 1a3e f19d 873e 142e bfbe 925a b0be
0.06331858 0.12002443 -0.2537817 0.33416083 -0.08946722 0.0054144925 0.35603812 0.0012841141
0.41024184 0.3241766 -0.3694802 -0.24401067 0.1017012 0.1250615 -0.1430109 -0.43244648
-0.32408676 -0.11847198 0.06015706 -0.32406142 0.05303194 -0.09139832 0.19646376 -0.22545084
0.3226763 0.28567043 -0.26608223 0.24836718 -0.20157783 0.36958107 0.32069954 0.04806741
-0.17386815 0.30467954 -0.06202457 -0.33648166 -0.25291675 0.19810803 -0.15543096 0.17351508
0.1382201 0.18075202 -0.12289414 0.37047073 -0.14120924 -0.040655226 0.2701303 0.10624487
0.006497486 0.24499565 0.03795152 0.29588136 0.120297074 0.16482139 -0.25080484 0.37755996
-0.3485926 -0.3316857 0.38693798 -0.009052143 0.18728264 0.26484945 0.037008688 0.13910848
0.2579103 -0.12193089 -0.096626714 0.013215022 -0.2444037 0.034525227 0.07252148 -0.3441918
-0.36538005 -0.15589397 -0.2713201 -0.33139926 -0.33242425 -0.2004986 0.07807875 -0.27790684
-0.14249036 -0.26304477 -0.12141546 0.2615943 -0.37047994 -0.18477172 -0.29686219 0.22663774
-0.43099305 0.23585539 -0.33515722 0.17885076 0.17620255 -0.18243141 -0.17035112 -0.23650497
0.25962907 0.18550977 -0.37330717 0.18024933 0.042889927 -0.17953697 0.17981508 -0.038200118
-0.2792331 -0.16220823 -0.07178465 -0.014671788 0.22354358 -0.033803564 0.08141243 0.058739256
-0.301467 0.015459717 0.23438765 -0.1516687 -0.0994121 -0.239093 0.26322892 -0.14005812
-0.009704785 -0.2588806 0.28243703 -0.124112435 -0.034770906 0.3919238 0.29673788 -0.18639928
0.17600182 0.09872879 -0.30641785 -0.021459896 0.2624465 0.031886563 -0.36026493 -0.22607426
-0.045275785 -0.15658617 -0.1719293 -0.34772924 0.0015939217 0.043801434 -0.10982659 0.34177634
0.38158724 0.06877795 0.26429036 0.27136478 -0.3569847 0.124862194 0.1233556 0.19422247
0.28172308 -0.3022779 0.13383861 0.23157382 -0.14862473 0.18471804 -0.20027311 0.25387964
-0.29409054 0.100418545 0.081167534 0.21366642 0.10189818 0.279138 0.050592188 -0.21370588
0.18938002 -0.026420927 0.3133449 0.3207606 0.3553203 0.19162948 0.13158613 -0.35937744
-0.2275145 -0.30144513 -0.111435294 0.19500735 -0.24490137 0.23164466 0.17046873 0.14298724
0.12282923 0.0918709 0.27174795 -0.39041257 0.04118382 0.016820041 -0.00946679 0.36420777
-0.19291961 -0.14630319 -0.2963574 -0.3243319 0.34850872 0.33622208 0.24240679 -0.05553714
0.15084288 -0.07276393 0.16389154 0.17631045 -0.092316106 0.34417853 0.10580582 0.36733064
0.44617757 -0.20804593 0.089968 -0.17211871 -0.16421047 -0.022565816 -0.07446981 0.3753444
0.35627738 0.29055923 -0.03702702 0.069138706 0.2465043 -0.2507531 0.18379113 0.031348303
0.26044402 0.33289078 0.36875492 -0.19973607 -0.06243644 0.3850029 0.31346938 -0.10786625
-0.20374072 -0.13721338 -0.18029001 0.06344217 0.096703 -0.34851965 -0.21442282 0.097871475
-0.2039457 -0.31157097 0.1691721 0.29407594 -0.19621684 -0.048845332 -0.2088877 0.112105034
-0.31151494 -0.40508053 -0.33610624 0.05945847 0.15084276 0.26487687 -0.37339842 -0.344441

conv1.lin1.bias f4 [64]
00000000: 162f 293e 91f6 203e 3ad5 e7bd 8409 9e3e
00000010: 9d74 bf3d a3fc 2e3d 45f4 993e df5e 6dbd
00000020: 9cf1 903c 73fd 60be c4ef 1a3e 1de8 c03d
00000030: 041e 863e 9c31 c9be ae80 1c3e e17e 163c
00000040: 7d17 9e3e 03d0 0b3e 9fe1 853e b32d 17bd
00000050: a5c1 1cbe a713 a83e 8caf ab3e 207c 84bc
00000060: c477 b23b 98a5 6abe bbfc afbe da42 8a3d
00000070: 2879 343e 5775 d8bd 3fdb a2be bdb6 903e
00000080: 3df4 c3bd d5f7 a33e fdd6 5f3e 3f4a b2be
00000090: 45ee 98be 3f69 9d3d b049 963e d074 963e
000000a0: be63 af3e a86c 36be 53c2 943e 108e 9abe
000000b0: 0ba7 93be c14a 90be 0d0c 953e 4ed0 b5be
000000c0: 0b23 82bc f0bb 2b3e d974 eebe 4898 b9be
000000d0: 843e d13e 79b6 51bd 20d6 3d3c a8bd 97be
000000e0: 7f72 26bc 7e7e 0f3e c828 453e 35fb 453d
000000f0: fce1 b2be 1d87 a2be 000d e139 cf73 0a3e
0.16521868 0.15719058 -0.113199666 0.30866635 0.09348414 0.042721402 0.30069175 -0.057951804
0.017693333 -0.21971683 0.15130526 0.09419272 0.26194775 -0.3929566 0.15283462 0.009185524
0.30877295 0.13653569 0.26148698 -0.036908817 -0.15308245 0.32827494 0.3353237 -0.016172469
0.005446406 -0.22914732 -0.34372506 0.06751032 0.17624342 -0.10569256 -0.31807896 0.28264418
-0.09568069 0.32025018 0.21859355 -0.3482227 -0.29869285 0.0768609 0.29353094 0.29385996
0.34255785 -0.17814887 0.29054508 -0.3018651 -0.2883838 -0.28182033 0.29110757 -0.35510486
-0.01588585 0.16770911 -0.46573523 -0.36248994 0.40868008 -0.05119941 0.011586696 -0.29636884
-0.010159134 0.14013097 0.19253838 0.048335273 -0.34938037 -0.31743708 0.0004292503 0.1352074

conv1.lin2.weight f4 [64, 7]
00000000: 8823 c0bd da9e eebe 8761 043e 16fb ab3b
00000010: c296 c1bd 106c d2be 9213 a4be 5b1c 913d
00000020: b369 96be 48de 64be 8da0 973e d92c a93e
00000030: 6edc d13d 09dd 22be a06f 8bbe ad55 27be
00000040: b96a d63d 3d05 173e db19 be3e 7674 413e
00000050: 1408 a43d 6b0d a8be 3bba d83d cc5a b1be
00000060: 880a 8ebe 661a 8abb bf0e 95be 6819 9dbe
00000070: 805c a8be 04bb 893e 5044 863e 2788 bd3d
00000080: e4d7 123e 8cc0 7abe cd3a 62be a1dd debd
00000090: 838e b8bd dbb7 8dbe dfb5 4f3e 96bc c7be
000000a0: 90ff fa3c 1daf 1c3d 5b13 40be 3d28 8abe
000000b0: 2e34 2d3d c0ad 67be dc3e 28be f7b6 7d3d
000000c0: 248b 613e 4304 a2be cc52 0cbe 5d04 6e3e
000000d0: b0e1 3bbe f51f c83d 2015 a43e dbf1 9abe
000000e0: b582 8f3e fe9d a3be 4d54 49be 8fb3 813e
000000f0: 22a6 16be 52e9 3a3e bd03 a5be c671 39be
00000100: aa61 acbc 9698 cabe 0e3d 813e 84d8 923e
00000110: a575 d3be 9243 dc3d 7a67 363e 5c65 8bbe
00000120: 0379 42be cb45 0dbe 0741 8e3e 6505 25be
00000130: 8fe5 3bbb e47b 30be 4864 4abe 62b7 12be
00000140: 0ed1 3ebe cd1c 1cbd 86ed d7bd 733b 3b3e
00000150: 7792 5d3a ef9e 16be e3cc ac3e e394 4ebe
00000160: 41a4 343e 3826 0f3e 8ace 31bc 8c97 a8bd
00000170: 6f24 773e a721 b2be 4edf 76be a48f 1e3e
00000180: 5422 9b3d b352 45bd 3ea8 1dbe e0ac 36be
00000190: 9fcd 5ebe 1541 3bbd 72e6 f0bd 11c2 9a3d
000001a0: 0389 d53e 1aa7 f5bd a0ef dcbd cdc2 92be
000001b0: 6325 683e 13de a83e 523d c1be 47d7 b1bc
000001c0: 0a3a 283e ed1f cc3b add6 07bd 6cfe f63d
000001d0: 41fc 8d3e ad55 bb3e d7f8 8abe cd3e ae3e
000001e0: 4c6c 903d a3bf 85be 2176 8c3e 7290 c5be
000001f0: 32fa 4e3e f3b4 20bd f70a a1bd 540f ddbe
00000200: d85c 81be a1d0 213e 004e 4cbe 1179 d8be
00000210: 606c 00be 290e 7d3e 77d7 b13e 4d22 07be
00000220: 43d8 43be 852f 0d3d 6944 89bd efe6 63bd
00000230: 633b 94be 51b8 86be 2b7d 613e 9b4c 45bd
00000240: c0a4 d83d 1e41 05be 9d1d 8dbe b658 933e
00000250: 9a2d a2be 0f46 7fbc 321f 1d3e 7c6a 27be
00000260: e1ac a2be cf1e 82be cf71 8d3e 5200 c43d
00000270: a741 2cbb 4dc4 86be a0c3 66be 1765 e3bd
00000280: 4553 1cbe edb4 883e 830c 91bd ae8e ccbc
00000290: 912f 57bd c66a 883a db4c 65be e1ef b43e
000002a0: 04ec 6c3c fdba 2e3e 3426 e1be af1e 943b
000002b0: 108e b4be 2301 32be 03a7 1fbd d616 f0bd
000002c0: ba75 5abd 62de 4cbe c263 233c ca90 03be
000002d0: 4f43 9bbe ba81 c33b 1df7 cc3e 5b5b 95be
000002e0: 3f2c f7bd 48e5 843d 2c06 5cbd 1d33 5ebe
000002f0: 8f4d 6e3e e862 3bbe d78b 433e 88f9 103e
00000300: 06cc 35be 97b8 bbbe 44b0 67be 50e2 0bbd
00000310: 97d8 35bd 0e18 6bbe 69ff cc3e 5c87 80bc
00000320: ea07 50be 612d 8e3e 2554 fdbd 0b58 debe
00000330: 8883 5c3e ef66 1fbe efcb 9ebc 5e8e 8abe
00000340: 034b 213d bee7 07be a5b1 bf3d 46fb 59be
00000350: 28e3 94be 5148 c7be eece 7ebe dd8a 8dbe
00000360: dc75 8c3e 7bbb e5bc 83e5 e9be 29cf 5abe
00000370: 2019 7fbd e9e3 8b3e 47be 14bd 1c15 9cbd
00000380: 29b9 bc3e 5f51 4e3e 971a 4cbe acf4 463e
00000390: 60ad 80be 0c97 8dbe cc8f 9dbd 0527 573e
000003a0: 56e5 54be 4cc3 af3e dd79 bb3c 4e4b 9b3d
000003b0: fab6 93be 9b41 81bd f964 6ebe ab07 383d
000003c0: 32c7 64be 25eb c7bc 43e4 e83e 8165 5f3e
000003d0: 6296 22be 6173 b43e e476 993e 39de fbbd
000003e0: 8e65 afbe 6408 e038 ca32 6ebe d37a af3e
000003f0: 6b69 a43e 1df9 413e 415e a1bd 2d7d b8ba
-0.09381777 -0.4660557 0.12927829 0.0052484376 -0.09452583 -0.4109807 -0.3204618 0.070854865
-0.29377517 -0.22350419 0.29614678 0.3304203 0.10247122 -0.1590463 -0.272336 -0.16341276
0.104695745 0.14748092 0.371291 0.18892083 0.08009353 -0.32822737 0.10582396 -0.34639585
-0.2774241 -0.0042145727 -0.29112813 -0.30683446 -0.32883072 0.26900494 0.26223993 0.092544846
0.14340168 -0.24487513 -0.22092743 -0.10882116 -0.09011557 -0.27679333 0.20284222 -0.39011067
0.03063944 0.03825294 -0.18757384 -0.26983824 0.04228609 -0.22624874 -0.16430229 0.061942067
0.22025734 -0.31643876 -0.1370346 0.23243852 -0.18347812 0.0977172 0.32047367 -0.30262646
0.2802941 -0.31956476 -0.19661064 0.25332305 -0.14711812 0.18253067 -0.32229415 -0.18109807
-0.021042664 -0.3956954 0.25241894 0.28680813 -0.41300693 0.107550755 0.1781291 -0.2722577
-0.18991475 -0.13796155 0.27783987 -0.16115339 -0.0028670763 -0.1723476 -0.19764817 -0.14327767
-0.18634436 -0.038113404 -0.10543351 0.18284397 0.0008452306 -0.14709066 0.33750066 -0.20173983
0.17640783 0.13979423 -0.010852465 -0.0823203 0.24134992 -0.347913 -0.24108621 0.15484482
0.07574907 -0.04817457 -0.1539621 -0.17839384 -0.21758126 -0.045716364 -0.11762704 0.075565465
0.41706094 -0.11994763 -0.10787892 -0.28664246 0.22670512 0.3298193 -0.37742096 -0.021709098
0.1642839 0.006229392 -0.033163715 0.12060246 0.27731517 0.36588803 -0.27142975 0.34032288
0.07051906 -0.2612277 0.27433875 -0.38586766 0.2021263 -0.039235067 -0.078634195 -0.43175757
-0.25266147 0.15802242 -0.1995163 -0.42279866 -0.12541342 0.24712433 0.347347 -0.13196678
-0.19125466 0.034469146 -0.06702501 -0.055640157 -0.28951558 -0.26312497 0.22020404 -0.04816876
0.105782986 -0.13013121 -0.27561656 0.2877862 -0.31675416 -0.015580668 0.15343931 -0.16349214
-0.3177252 -0.2541413 0.27625892 0.095703736 -0.002628425 -0.2632164 -0.22535563 -0.11103266
-0.1526614 0.26700535 -0.070824645 -0.024970379 -0.052535597 0.0010407798 -0.223926 0.35339263
0.014460567 0.17063518 -0.4397446 0.0045202593 -0.35264635 -0.17383246 -0.038977634 -0.117231056
-0.05333493 -0.20006707 0.009972515 -0.12848201 -0.3032479 0.0059663923 0.40032282 -0.2917126
-0.12068986 0.064890444 -0.053716823 -0.21699186 0.23271774 -0.18299448 0.19096313 0.14157689
-0.1775361 -0.36664268 -0.22625834 -0.034151375 -0.04439601 -0.22958395 0.40038612 -0.015689544
-0.20315519 0.27768996 -0.12369565 -0.43426546 0.2153455 -0.1556661 -0.019384352 -0.27061743
0.039378177 -0.13271996 0.09360055 -0.2128726 -0.29079556 -0.3892236 -0.24883625 -0.27645007
0.2743367 -0.0280435 -0.45682916 -0.21368088 -0.06227982 0.2732232 -0.036314275 -0.07621214
0.36860016 0.20148228 -0.19932018 0.19429272 -0.25132275 -0.27654302 -0.07693443 0.21010979
-0.2079061 0.34328687 0.022885257 0.075827226 -0.28850538 -0.063113414 -0.23280706 0.044929188
-0.22341612 -0.024404118 0.4548665 0.21816064 -0.15877679 0.35244277 0.2997352 -0.12298245
-0.34257168 0.00010682715 -0.23261562 0.34273395 0.32111678 0.18942685 -0.07879306 -0.0014075391

conv1.lin3.weight f4 [64, 7]
00000000: 5def 673e 6964 8abc e815 83be e9aa e1bd
00000010: a532 d0bd 3145 8d3e 1dd2 0cbe 4892 afbe
00000020: 756a d83d cc6b ae3e 0923 503e e5b5 c53d
00000030: eb49 9bbe f226 d0bd 7e19 97be c572 c63d
00000040: 9e47 dbbe e910 333d d775 c2be 50a9 3c3e
00000050: f96a 8e3e 3466 7fbe 4c0b b63d cb44 913e
00000060: 7f05 7f3e 8b01 9dbe b63a a0bd fa0f 333e
00000070: 52c0 b73e 47f5 da3e 0f2e 2ebe ea7a 123e
00000080: 45c0 833e 1e26 ad3e 2c9f 9c3d 98b6 aa3d
00000090: 6eab a9be 13e2 8bbe 4fa5 0abe 8994 d03e
000000a0: 6fff 73be 3a90 003e b6d1 9fbc 99f6 63bc
000000b0: b493 d53e 465c 8cbe 9a59 78be b1c7 94be
000000c0: ba76 88be 7bde 66be eed2 4f3d b74f 55be
000000d0: 0da4 793e c387 adbe 52b5 09be 5c26 053b
000000e0: 0735 df3d 2230 aebe 7188 343e 5041 613e
000000f0: 9782 433e 1f13 743e ddc2 9b3d 8668 4dbe
00000100: 63de f7bc c5ef e23d aebb 1abe c62e 92be
00000110: b4e6 e63e 4d5d 0c3e 2171 813c 119e 8c3d
00000120: f87d 273e a4b4 543c ba27 34bc 01ce 6c3e
00000130: bbef 213e 7307 d5be 0f7f 013d 3221 863d
00000140: 818e b43d 8fcd d2bd 9852 ee3c dbaf 863e
00000150: 4442 b3be c838 8d3e 8ae0 7abc a6c4 eb3d
00000160: 2787 843e 812a 6fbe 6136 a1bd e941 8c3e
00000170: 644a f2bd 1aa1 85bd ab84 e73d 5362 2dbe
00000180: 9c32 66bc dfa0 46be e699 aabc 7d10 a73e
00000190: c411 7ebe a71b bdbe 8325 88be 693a acbe
000001a0: 616a 17be fa99 bf3d ffe4 35be 0151 e03c
000001b0: 2f18 c03d 61f6 7e3e 0169 b93e f22b 01be
000001c0: 3b4f 8a3e 9a8e afbe 810f 383e 90a9 323e
000001d0: e9c9 7dbe 3872 373e 9025 a8bd 8297 00bc
000001e0: fe6d c93e d8f5 f4bd adab 873e 1ea2 b53e
000001f0: eb15 f0bd 56ff 54bd aa32 a53e 9a0f 23be
00000200: 3c3d 0a3e 44dd ea3c 2c79 30be 6a33 21bd
00000210: 72ce 8bbe 7e0c c4bb ddaa c73d 3672 dabe
00000220: 3618 19be 6222 efbd 04da 72bc 561a c83d
00000230: fbb3 8e3e dcc7 46be edb2 e73d 33fb d13e
00000240: 20c1 573e 2e62 10be 8e6f da3e 2deb c3be
00000250: e73f d8bd 4ac3 37be 83a4 8c3c 40b0 703e
00000260: ba5b 4dbd d64c 90bd 5237 cb3e d447 0abe
00000270: 890a a33e 3b53 e5bd 2c0c d13e d593 aebe
00000280: 24ca 4e3e 67c4 7b3e 9f98 52bd bab7 b4be
00000290: 373f 903e f591 29be 525f b2bd 3595 a9be
000002a0: 7c57 ad3d db58 8cbe 8f2f 16bd dc59 34be
000002b0: bf69 d8bd 07cd 363e cfa6 5a3e 51f2 96bd
000002c0: 1c5b c7bd 8c13 4e3e dfa7 39be 09ce 293e
000002d0: d500 643e 5fa4 03bd 917d d43c 1aa0 8e3e
000002e0: 6a10 c53d fe18 f2bd 4686 7a3e 6b0a 92be
000002f0: a694 6dbc 3381 2e3e da56 f4bc 1915 1f3e
00000300: cf0e bf3d a3f6 833e 9db7 423e 47d1 b23e
00000310: 3025 90be a063 29bd 274e 8e3e eac4 b5bd
00000320: bb43 553e eeaf 90be ceb0 fa3c 1ea0 9b3e
00000330: c3f2 acbd 5342 8a3e 25eb 3ebe 6729 c83e
00000340: cfb6 143d 6eff b9bd 8917 e3bd 903f f4bb
00000350: e41c 16be 9196 b53e ee50 5f3e 9c17 acbe
00000360: 8c3c 8d3d 5294 443e e237 63be e455 58be
00000370: 0ed3 983e 3466 983e 94d9 c83e dea5 94bd
00000380: 5bef cdbe d415 2d3e 03e4 47be aa3f b23e
00000390: 3e62 9dbe f3a0 e9bc 5ba9 7d3e b6e0 1cbe
000003a0: 08fa 9ebe 15b2 d03d 0d48 9a3d 3b31 b6bd
000003b0: 5b2c df3d c8c8 6dbd 2748 233e 2682 ac3e
000003c0: 76c2 333d b9a1 81be 7105 ab3e 785c cebc
000003d0: 96bb a33e 0ccd 393e 6b72 eabc 2b4f 94bd
000003e0: e133 0e3e 4f17 873e 2e14 9abe cfae 9c3e
000003f0: bcae 183e 8a46 bcbd 7e21 7e3e de13 9a3e
0.22649904 -0.016893582 -0.2560265 -0.11018927 -0.1016591 0.2759185 -0.13752027 -0.3429129
0.1056718 0.34066617 0.20325865 0.09653834 -0.30329832 -0.10163678 -0.29511636 0.09689859
-0.42828077 0.0437173 -0.3798053 0.18423963 0.2781599 -0.24941331 0.088888735 0.28372797
0.2490444 -0.3066524 -0.07823698 0.17486563 0.35888916 0.42765257 -0.17009757 0.143047
0.25732628 0.33818144 0.07647547 0.08335608 -0.33138603 -0.27320918 -0.13539623 0.40738323
-0.23827909 0.12555018 -0.019509178 -0.013913774 0.4171425 -0.2741415 -0.2425293 -0.29058602
-0.2665308 -0.22545807 0.050738268 -0.2083119 0.24378987 -0.3389264 -0.13448074 0.0020317053
0.10898786 -0.34021097 0.17630173 0.21997571 0.19092785 0.23835419 0.076055266 -0.20059404
-0.03025741 0.11080889 -0.15110657 -0.2855131 0.45097888 0.13707466 0.015801014 0.06866086
0.16356647 0.012982521 -0.0109958 0.23125459 0.15814106 -0.41607246 0.031615313 0.065493
0.08816243 -0.102931134 0.029092118 0.26306042 -0.35011494 0.27582383 -0.015312323 0.11512117
0.25884363 -0.23356058 -0.078717 0.27394035 -0.11830595 -0.06524868 0.11304601 -0.16932039
-0.014050152 -0.19397305 -0.020825338 0.32629767 -0.24811465 -0.3693516 -0.2659112 -0.33638313
-0.14786674 0.093555406 -0.17763136 0.027382376 0.09379613 0.24898674 0.36212924 -0.1261442
0.27013573 -0.34288484 0.17974664 0.17447495 -0.24784054 0.17914665 -0.082102895 -0.007848622
0.3934173 -0.119609535 0.26498166 0.35475248 -0.117229305 -0.05200132 0.32265216 -0.1592392
0.13499922 0.02866996 -0.17233723 -0.039355673 -0.27305943 -0.0059829345 0.097493865 -0.4266526
-0.14950642 -0.1167648 -0.014822487 0.09770648 0.2787169 -0.19412178 0.11313424 0.41011962
0.21069765 -0.14099953 0.42663234 -0.38265362 -0.105590634 -0.1794559 0.017168289 0.23504734
-0.050136305 -0.07045905 0.39690644 -0.13503963 0.31843975 -0.111975156 0.408296 -0.34097162
0.20194298 0.2458664 -0.051415082 -0.35296422 0.2817323 -0.16559584 -0.08709587 -0.33121648
0.08463952 -0.2741154 -0.03666645 -0.17612404 -0.105670445 0.17851649 0.21352695 -0.07370437
-0.097341746 0.20124644 -0.18130444 0.16582502 0.22265942 -0.03213918 0.025938781 0.27856523
0.09622271 -0.11821173 0.24465284 -0.28523573 -0.014500773 0.17041473 -0.02982657 0.15535392
0.093289964 0.25774106 0.19015355 0.3492529 -0.28153372 -0.041354775 0.27794 -0.08875449
0.20826618 -0.28259224 0.030601885 0.30395597 -0.084447406 0.27003726 -0.18644388 0.39094087
0.036307152 -0.090819225 -0.11088473 -0.0074538663 -0.14659458 0.35466436 0.21808216 -0.33611763
0.06896314 0.19197205 -0.22189286 -0.21126515 0.29848522 0.29765475 0.392285 -0.07258199
-0.40221676 0.16902858 -0.19520573 0.34814197 -0.30739015 -0.02851913 0.24771635 -0.15320095
-0.31050134 0.101902165 0.07533274 -0.08896109 0.10897132 -0.058052808 0.15945493 0.33693045
0.043886624 -0.25318697 0.3340259 -0.025190577 0.31979054 0.18144625 -0.028619012 -0.072416626
0.13886978 0.2638497 -0.3009352 0.30602118 0.14910406 -0.09193142 0.24817464 0.30093282

conv1.lin3.bias f4 [64]
00000000: 25df 13be c2ba 93be 09ad 4cbe 48ee a23e
00000010: 3b9c e43d 7975 473e 7908 c43e d4aa d33e
00000020: 339b 9cbe c4bd ce3e e8e9 c5be b46d 813e
00000030: 7af2 4d3e fc54 b0be 9095 bebe 3dd3 9bbd
00000040: 0782 7cbe 1b9b 5a3e e8dc 2abe 60b6 bcbd
00000050: 0774 6d3e 09d6 29be be5f b2bd febd 86bc
00000060: 1c2d 403e 7e4d 493e 5f21 23be 18b5 b5be
00000070: 6190 4a3e 0388 d73e 3261 b23e 0584 743c
00000080: c096 b43d 4933 99be c733 3c3d a22b 943e
00000090: e76f 373e d1f1 9d3d 0386 acbe 49de 823e
000000a0: 29f2 d3bd f2c0 9f3e f4cd 803e 95bd 813c
000000b0: 7577 8bbe 8394 e3be f352 6a3e 71c1 853e
000000c0: f7dd 213e cf67 313e 54f0 a83d 3369 d1bc
000000d0: f812 2ebe dadb 47be 1682 8bbe f7a1 ab3e
000000e0: 992d d93e 482f bebe 8cc8 5bbe 610a 5c3e
000000f0: ed60 94be 6e38 8ebc a19b e4bc fbff 82be
-0.14440592 -0.28853422 -0.19987883 0.3182242 0.11162611 0.19478406 0.38287714 0.4134127
-0.30587158 0.40379155 -0.3865502 0.2527901 0.20112029 -0.34439838 -0.37223482 -0.0760865
-0.24658976 0.2134823 -0.16685832 -0.09214473 0.23188792 -0.16585554 -0.087096676 -0.016448017
0.18767208 0.19658467 -0.15930699 -0.35489726 0.19781639 0.42095956 0.3483978 0.014924054
0.08817816 -0.2992194 0.045947816 0.2893954 0.17913781 0.077121384 -0.33695993 0.25560215
-0.10348923 0.31201893 0.2515713 0.01583747 -0.27239576 -0.44449243 0.22883205 0.26124147
0.15807329 0.17324756 0.08248964 -0.025562858 -0.16999424 -0.1951746 -0.27247685 0.33522007
0.424176 -0.37145448 -0.21463221 0.21488334 -0.28980199 -0.017360892 -0.02790624 -0.25585923

conv2.lin1.weight f4 [64, 64]
00000000: 614a b23d 5fd3 933d 76f4 7e3d 75aa eb3c
00000010: 6dc9 01bb 9a1c 87bd 9ea9 84bb 8ebc 08bd
00000020: 8a9e 49bd 86d7 75bd 1275 233e 0b5c e23d
00000030: 5765 a33d 8716 fe3d 164b 1c3e ded9 92bd
00000040: 0567 ec3d 9235 26bc f51d a339 295e 2cbc
00000050: 47af 483d e588 3cbc b259 5fbd b8fe b73d
00000060: 9eb3 cf3d 9138 233e f6ac 483c 813a 0e3e
00000070: 6d4d fe3d 4578 b73d d395 0f3e 8726 e8bc
00000080: ce1f ad39 5cfb 72bd 426a e83d 0e63 863d
00000090: 1183 f9bc 193e ce3d fc38 32bd 6580 0d3e
000000a0: ced7 b13d e11b e03d 1737 36bd 8a67 463d
000000b0: e4cd 7f3d 89d5 243c 5ffe 7939 9636 97bc
000000c0: 0277 173e bd19 0c3e 096a 703d cd26 05bd
000000d0: ca1b 413d 1a97 433d 14de 8bbd a6aa 34bd
000000e0: ab01 2d3e d12a 423d 0ebe c53d d58c 583c
000000f0: 4d2e b8bc 9029 183e 06b9 9b3d 0de2 fa3d
00000100: 072b f8bd b565 2dbe 6103 7abd 0246 34be
00000110: 85df ebbd 3974 d5bd f88f 19be 8d62 5cbd
00000120: 6883 63be c783 f9bd d2dd c2bd 0afb efbc
00000130: 726d 6cbc bce1 d5bc eec8 e5bd 1f45 1dbe
00000140: aa8d 803d 85bf 09be e7d6 2dbe 5ae2 73bd
00000150: cf17 1abe cb29 33bd ab68 15be e840 c2bc
00000160: 4e0f 2abe 53b1 efbd 2d11 b8bd 4414 0cbe
00000170: e5aa a1bc fff4 51be fd81 aebd bfc0 2bbe
00000180: 0674 30be 1cca afbd 47ef cbbd 3113 1bbe
00000190: 7c7d 5bbd 5515 8dbd fe08 dc3c 62b6 54be
000001a0: 3626 2bbd 8137 09be f2b8 d53d d896 40bc
000001b0: d123 55be 057e 68bd e0f2 6a3d c532 24bd
000001c0: 79c0 3fbd 33d9 58bd 5459 36bd 4dcb 06be
000001d0: 4b8e 4abd 42c6 18bd 54c4 f2bd cb29 e2bd
000001e0: 7e3a f23c c362 56bd f90a 30bd 74f5 b5bd
000001f0: fb8b 923b e56e 773d 3213 7cbc 648e 5bbe
00000200: c5f6 c9bd 0e1e 1fbd e928 a1bd 2f12 673d
00000210: 8024 4bbd cad6 9abd 600a 06be 7d48 6abd
00000220: 6aa4 013d 1c50 cabd a1ce 8ebc a365 bcbd
00000230: 34a1 afbc 559b c63c e6cc 063d 1a84 49be
00000240: 40da 58be 2f46 20be 8c54 29be c086 4bbe
00000250: 262d 29be 7999 07be f10c 27be 2e7f 3ebe
00000260: f318 e83d 66a2 9bbd ffbc 32be 8d2d 0fbe
00000270: e16e e4bc 8c41 47bd ff74 b6bd e217 acbd
00000280: bb5b 50be db04 debd af96 04be 278a bdbd
00000290: f238 b1bd 8fd3 10be 8200 a23c ca54 31bb
000002a0: 5a0f 4cbc 7bf7 d73c a9e0 3dbd f0e9 0fbe
000002b0: f3ae f7bd b7c3 1ebc afa4 78bc 18d3 2f3d
000002c0: b74d 10be 6ae3 27be 1408 57bd 689d 353c
000002d0: 7ac8 2fbe adcd e2bc 17a1 9fbd 96b1 45bd
000002e0: b8bf 0a3d 82b5 b4bd 300b f43c af01 dbbd
000002f0: 4443 533d 3763 26be b034 b5bd 1536 a7bd
00000300: cd9c 0bbe 345f dcbd 7977 a13d 10ff cb3d
00000310: e60e 883d e902 203e 20fd 693d 332e 933d
00000320: e571 443e 055e e5bd e01a 803b 8a89 f5bc
00000330: b99e ba3c ce92 db3d 5275 13bc ebb7 b039
00000340: 8a80 6a3c 2278 79bc e687 833d 831f 1fbe
00000350: 5d97 fc3d 12f7 913c 0639 d43d e2c5 25bd
00000360: 4cf6 673d f969 b0bc 0c04 483d f690 fa3d
00000370: 59f5 163e f4e0 59bb 0ec2 883d 42ca 293d
00000380: ccf8 0d3c 6af9 1dbd 3ffa a13d 61a0 14bd
00000390: 2e22 923d 83d4 cfbd e75d b43b 39d3 adbd
000003a0: 4229 0a3d 0846 b8bb 83c6 263d b7ee 36bd
000003b0: 9452 5b3a 7070 463d 4ebf eabd eeea 393c
000003c0: 7783 f23d b66c 96bd 2708 1dbe c235 9e3d
000003d0: 2de4 84bd 6e42 e13d 7d50 003e 8f85 5bbc
000003e0: 0d10 0d3d 3b7e 19bd 2d15 ad3b 63c4 883c
000003f0: 4865 f4bb 1418 25bd b786 d0bc 0bfa 96bd
0.08705593 0.0721805 0.062244855 0.028767804 -0.0019803897 -0.06597252 -0.0040485403 -0.033382945
-0.04922346 -0.060019992 0.15962628 0.11052712 0.079783134 0.124066405 0.15263018 -0.07170461
0.11543087 -0.010144608 0.00031112102 -0.010520496 0.048995283 -0.011507248 -0.0545289 0.089841306
0.10141681 0.15939547 0.012248268 0.13889505 0.124171115 0.089584865 0.14021997 -0.028338684
0.00033020828 -0.059321746 0.11348392 0.06561862 -0.030458005 0.10070438 -0.043511376 0.1381851
0.086837396 0.109428175 -0.04448613 0.048438586 0.062452212 0.010060676 0.00023841251 -0.018458646
0.14791492 0.13681693 0.058694873 -0.032507706 0.047145642 0.047751524 -0.068294674 -0.044108056
0.16895168 0.047404114 0.09655391 0.013217171 -0.022483015 0.14859605 0.0760365 0.12250147
-0.12117582 -0.1693333 -0.06103838 -0.17604831 -0.11517242 -0.10422558 -0.14996326 -0.053804923
-0.22218096 -0.12183338 -0.09514965 -0.02929451 -0.014430391 -0.026108615 -0.11219965 -0.15358399
0.0627702 -0.13451965 -0.1697651 -0.059542038 -0.15048145 -0.04374103 -0.14590709 -0.02371259
-0.16607401 -0.11703744 -0.08987651 -0.13679606 -0.01973481 -0.20503615 -0.08520887 -0.16772746
-0.1723176 -0.08583471 -0.09957748 -0.1514404 -0.053586468 -0.068888344 0.026859757 -0.20772699
-0.041784488 -0.1340008 0.10435666 -0.011754714 -0.20814444 -0.056760807 0.05736053 -0.04008748
-0.046814416 -0.052941512 -0.044518784 -0.1316349 -0.049452107 -0.03729845 -0.11853853 -0.110431276
0.029568907 -0.05234028 -0.042979214 -0.08884707 0.0044722534 0.06040849 -0.015385436 -0.21441036
-0.09861521 -0.03884702 -0.07869131 0.056413826 -0.049595356 -0.07560499 -0.13089895 -0.057198036
0.031650938 -0.09878561 -0.017432513 -0.09199073 -0.021439172 0.02424399 0.03291025 -0.19679299
-0.21177006 -0.15651773 -0.16536158 -0.19875622 -0.16521129 -0.13242139 -0.1631353 -0.18603203
0.11332884 -0.075993344 -0.17454909 -0.1398222 -0.027884902 -0.048646495 -0.08909034 -0.08402993
-0.20347492 -0.1084077 -0.12948106 -0.09254866 -0.086534396 -0.14143203 0.019775633 -0.0027058595
-0.012454832 0.026363125 -0.04635683 -0.14054084 -0.12093916 -0.009690217 -0.015175982 0.042925924
-0.14092146 -0.16395345 -0.05249794 0.011084892 -0.1716632 -0.027685964 -0.07794397 -0.048265062
0.033874243 -0.08823682 0.02979049 -0.106936805 0.05157782 -0.16248785 -0.0884794 -0.08164612
-0.13634034 -0.10760346 0.07884116 0.09960759 0.06643467 0.1562611 0.057126164 0.07186546
0.19184072 -0.111995734 0.0039094537 -0.02997281 0.022780763 0.1072136 -0.009000139 0.00033706366
0.014312873 -0.015226396 0.06422405 -0.15539365 0.12333558 0.017818008 0.10362439 -0.04047192
0.05663137 -0.021534907 0.048831984 0.1223468 0.1474203 -0.0033245655 0.06677638 0.041452654
0.008665275 -0.038567938 0.07909059 -0.03628576 0.071354255 -0.10147955 0.005504358 -0.08487553
0.033730753 -0.0056235828 0.04071666 -0.04466125 0.0008366492 0.048447073 -0.1146227 0.0113475155
0.11841481 -0.07344954 -0.15335141 0.07725097 -0.064888336 0.109989986 0.12530704 -0.013398542
0.034439135 -0.0374739 0.0052820654 0.016695207 -0.0074583627 -0.040306166 -0.025454862 -0.07371911

conv2.lin1.bias f4 [64]
00000000: de7d 163d 9320 383c 24a8 56be 40ca 13bd
00000010: 1650 573d 8de0 f53d d658 74bd 0e50 90bd
00000020: 86c3 43be a486 473d 6235 f53b 3186 293d
00000030: f7b4 cd3d 1c29 c23c 70a2 e53c ea5d e13d
00000040: 770c 5d3d 9fd6 e4bd 190a 79bc 9853 d83d
00000050: 4f2c 533c 6f35 50be 15a9 bbbd 5d64 b73d
00000060: 14f5 8c3c e336 d9bc 8f1b 31bd b72d ba3c
00000070: 68ea e23d b26d 163e b2a2 33be cbde bf3c
00000080: e6f9 11bd 2884 26bd a87c 17bd eaf3 3b3d
00000090: c83f 183d 4f9f 193e 6a68 b8bd 820d 83bd
000000a0: 61f0 d7bd feb6 0b3e abca 173e eac6 653d
000000b0: bf85 e93d 1a3e de3d 4170 41bd b427 353c
000000c0: 789d 593e c084 a03c 46eb fabd 5f7f 143d
000000d0: 8891 b33d 74f3 803d d2fe 8fbd a83d d5bd
000000e0: 912e 4e3d dca5 21bd 37c6 d2bd e8ff aa3c
000000f0: 1eb1 9b3d a9e0 453e 6284 c8bc d679 e43d
0.03674113 0.011238235 -0.20962578 -0.036081553 0.05256661 0.1200572 -0.059655033 -0.07046519
-0.19117555 0.048712388 0.0074831704 0.04138774 0.10044282 0.023701243 0.028031558 0.11004241
0.053966966 -0.11173748 -0.015200161 0.10562819 0.012888982 -0.20332883 -0.09163109 0.0895469
0.017206706 -0.02651543 -0.043239173 0.022726877 0.11079866 0.14690283 -0.17542532 0.023421666
-0.035638712 -0.040653378 -0.036984116 0.04588691 0.0371702 0.15002178 -0.090042904 -0.06399061
-0.105438955 0.13644025 0.14823405 0.056097902 0.11402463 0.10851689 -0.047226194 0.011056829
0.21251476 0.01959455 -0.12251906 0.036254283 0.08767992 0.06296435 -0.07031025 -0.104121506
0.050337378 -0.039464816 -0.10291713 0.020873979 0.07602142 0.19323982 -0.024477188 0.11156051

conv2.lin2.weight f4 [64, 64]
00000000: 81dc 963c 8e06 17be c52d d9bd 0da5 1b3d
00000010: dd30 69bd f4de 6bbc 8f90 21bd e92a 9e3d
00000020: 9e89 0ebe 0da7 80bd bfef cfbd b93c 4e3d
00000030: f8d2 83bd 736c 74bd c955 9d3d f840 853d
00000040: 3ece 27be 2cb5 c33d fa90 8b3d 94dd 39be
00000050: 4565 b5bc e0fd 093d be11 ecbd 99b3 13be
00000060: 17ad 0cbe 1a11 2d3d 116c 6f3d fa6e 523d
00000070: f6e8 203d 2689 09bd 4d05 a43d 287e d33c
00000080: 97b4 6fbd b2cd 12bd 27cc 1fbe 4119 e9bd
00000090: efbd 1fbd e550 e03c ba5d acbd dcc5 babd
000000a0: 5233 f53c 8ddb 57bb 57fc b5bd b223 66bd
000000b0: 4fdb c6bc 8db5 e0bd 78ae ae39 cd47 d6bc
000000c0: 0930 2dbd 7946 873d 8b2c 45bd be06 51bc
000000d0: c514 ffbd 3578 6f3d 1587 23be 5402 d8bc
000000e0: f49e dabd a592 293d 6210 a53c 0d36 5bb9
000000f0: dc61 1cbe 22bd eebc d425 8f3d c380 733d
00000100: f579 153e 8e8c 943c 7264 b83c 9d6b 2a3e
00000110: d45c 943b 96d7 1fbd d16b ee3d 2096 9c3d
00000120: 53b4 eb3c 29c9 3f3d 3ad7 5ebc 08ab 0a3e
00000130: a105 79bd f19e 963d 405e 663d aec9 483e
00000140: 0375 583e 1880 c93d 53f3 bc3d 56da c63d
00000150: a2cd eebc 9ded 313d 4941 603c 1a77 243e
00000160: dbed c33c 919d 1b3e 04db 0c3e 8fbc 473e
00000170: 201f 043e c330 223c 8d3c 073e c2dc b43d
00000180: 8752 0b3e 1eea e0bc 5261 9c3c b0cf b23d
00000190: a7ad 0a3e 25a5 2bb7 2ec4 8a3d 637a 243d
000001a0: 61cd 433d 1de2 0b3e 5542 433d a268 a23d
000001b0: 4e9a 413e 3a2f 9dbd 8eca 1c3d 92e9 203e
000001c0: 84d4 463e b045 bc3d 1c7d 183e 6d94 e3bc
000001d0: 083e 24bd 81eb 97bb d170 573e 82d3 643d
000001e0: ed13 6f3d c6d6 a63d 0c86 b83d e071 933c
000001f0: 89eb 0f3d c8ea f0bc 0513 d63d 080a bfbb
00000200: 6dc7 163e a986 273e 2933 0a3e c3a9 283e
00000210: e10e e73c deca 163e ad0e c3ba 28ef 1f3d
00000220: 52b8 e23d 0b7f 023d e4b9 ba3d f118 38bd
00000230: 2bad 8e3c d662 f33d efd7 823d d16f b83c
00000240: f473 163e e627 fa3d 4eee 933d d504 0fbd
00000250: 65db a439 8500 423d 9206 153e fcd4 c8bc
00000260: 4f7a 123d 679f 443e b5fd 36bd 7795 86ba
00000270: 74f6 4ebc 2e11 ad3b 1b8c 183e f865 0a3e
00000280: 7d8b 2e3e bef7 eb3d 3bb0 143e 25b2 4d3c
00000290: 4646 0f3e 7421 fc3d 33cd b63c 1649 96bd
000002a0: be1a 2f3d 602a b23d 78d6 2c3d a31c 843d
000002b0: e3b8 e73d 52d8 623d 5c67 a5bc 48d4 883c
000002c0: 8ee2 363e a8df 1a3e ae88 5c3d ee0b d93d
000002d0: 739b 403e f58d ad3d e6cc bf3d 14e6 20bd
000002e0: 7b48 933d c629 8b3d c9a8 1bbd ea95 383d
000002f0: e098 263d 05f5 223e f2f1 353e 24cd 033e
00000300: c081 e73b 55b9 0a3e 9a39 1c3e 1f62 963c
00000310: 7ecf 3a3d 3ba6 adbd 2bc3 2c3e ae41 0b3d
00000320: ff11 c93d c86e 94bd db57 3ebd 59e4 98bd
00000330: c7fa e83d 6336 543d 031c 5dbc 84e9 2b3d
00000340: 0117 a43c 93f5 a73d 61bf 59ba 2456 aeb7
00000350: 7703 bd3d 1f19 cdbd dbc7 bc3d 6590 79bd
00000360: 6313 27bd b3ad c0bc 59e3 9e3d f9ae b83b
00000370: c16c 9c3d 3683 0fbe ed31 ae3c cec4 aebd
00000380: 3339 423d 1de2 c8bd 1ea5 cbbd 9ac7 12bd
00000390: bbce 033e 24fa 073d 7d62 f0bd 1f8a 0c3d
000003a0: 4db2 e5bc 510d f2bd 5745 d43d 4fa1 27bd
000003b0: 2549 db3d 0de1 9bbc 5171 943c 41f7 733b
000003c0: 2780 423d 0380 b6bd ebb1 193e 7199 b1bd
000003d0: 4108 febd 375a b6bd a6dc adbc a20a c5bd
000003e0: fa35 a4bd 708c eb3c 5e02 9bbd 69bf ea3d
000003f0: 34c8 c2bd 9c7b c23d 6b14 ec3d e7a2 b6bd
0.018415691 -0.14748594 -0.10604433 0.0379992 -0.056931365 -0.014396418 -0.039444502 0.07723028
-0.13919684 -0.062818624 -0.1015315 0.05035088 -0.064367235 -0.059673738 0.07682378 0.065065324
-0.16387269 0.0955604 0.068147615 -0.18150932 -0.022143016 0.03368938 -0.115268216 -0.1442398
-0.13737904 0.042252637 0.05845267 0.051375367 0.03928467 -0.03357806 0.080088235 0.025816992
-0.058521833 -0.035840698 -0.15605222 -0.1138177 -0.038999494 0.027382324 -0.084163144 -0.0911977
0.029931698 -0.003293726 -0.08886021 -0.056186385 -0.024274496 -0.10972128 0.00033317856 -0.026157284
-0.042282138 0.066052385 -0.048138183 -0.012757955 -0.12455133 0.058464248 -0.15969498 -0.026368298
-0.10674849 0.041399617 0.020149413 -0.00020905603 -0.15271705 -0.02914292 0.06989637 0.05944897
0.14597304 0.018133428 0.022508834 0.16642614 0.0045276675 -0.03902396 0.11641658 0.076458216
0.028772509 0.0468227 -0.013601119 0.13541806 -0.060796384 0.073545344 0.056242228 0.19608185
0.21138386 0.09838885 0.09226098 0.09709613 -0.029150788 0.043439496 0.01368744 0.16061059
0.02391713 0.15196826 0.13755423 0.19505523 0.12902498 0.009899321 0.13206692 0.08831169
0.136057 -0.027455386 0.019089375 0.087310195 0.13542806 -1.0230845e-05 0.067756996 0.04015578
0.047803286 0.13660474 0.04767068 0.079301134 0.18906519 -0.076750234 0.03827911 0.157141
0.19417006 0.09192979 0.14891475 -0.027780736 -0.04009822 -0.0046362286 0.2103913 0.055865772
0.058368612 0.081464335 0.090099424 0.017998636 0.035136733 -0.029408827 0.104528464 -0.0058300532
0.14724512 0.16359963 0.13496079 0.16471009 0.028205337 0.14725825 -0.0014881693 0.039046437
0.110703126 0.03185944 0.09117487 -0.04494566 0.017416557 0.11884086 0.06388842 0.022514256
0.1469267 0.12214641 0.072231874 -0.034916718 0.0003144398 0.047363777 0.14553288 -0.024515621
0.035761174 0.19201432 -0.044675548 -0.0010267933 -0.012632001 0.005281589 0.14897196 0.1351546
0.17045398 0.115218624 0.14520352 0.01255468 0.13991651 0.12311068 0.022314643 -0.07338159
0.042750113 0.08699489 0.04219672 0.064507745 0.11314561 0.05538208 -0.020190887 0.016702786
0.17859861 0.1512438 0.053841285 0.105979785 0.18809299 0.08474342 0.09365253 -0.03928192
0.07191559 0.06795077 -0.038002763 0.045064844 0.040673137 0.1591378 0.17768076 0.12871224
0.007065028 0.13547261 0.15256348 0.018357335 0.045608036 -0.084789716 0.16871326 0.033998184
0.098178856 -0.07247692 -0.046470504 -0.07465429 0.11375957 0.05180968 -0.013495448 0.041970745
0.0200305 0.082011364 -0.0008306411 -2.0782529e-05 0.092291765 -0.10014557 0.09217807 -0.06092872
-0.040789973 -0.023520326 0.07758207 0.0056360927 0.07637931 -0.14014897 0.02126404 -0.08533631
0.04741783 -0.09808753 -0.09943603 -0.035834886 0.1287183 0.033197537 -0.11737535 0.03431141
-0.028039122 -0.11818946 0.10364788 -0.04092532 0.107073106 -0.019028211 0.01812044 0.0037226232
0.047485497 -0.08911135 0.15009277 -0.08671845 -0.12403918 -0.08903926 -0.021223377 -0.09621169
-0.08018108 0.02875349 -0.07568811 0.1146229 -0.09510842 0.09496233 0.11527332 -0.0891779

conv2.lin3.weight f4 [64, 64]
00000000: 5e80 7bbc 2f32 19bd 56d6 2fbc ca0e df3d
00000010: 7d98 823d 9acd 523d aa5a 273e 356f 87bd
00000020: 0293 75bd 60f3 a73d 1743 b1bc 4fe7 f53d
00000030: 3d94 0e3e 7ca1 0a3e a9b8 443c d802 1d3e
00000040: 66df 573d 6f13 49bb 6265 87bd 0d9a eb3d
00000050: ce5c 1a3d 76d7 523c 0cad e2bc b49c 47bd
00000060: 897f 98bd bcdf e13c b12a 79bd 657d cbbb
00000070: a508 0cbd 9709 4f3d 3ccd 003e d164 993c
00000080: 33ae 44bb 3a2b 6fbd c124 bf3d 9202 1c3e
00000090: 6348 17bd acdc 77bd ff1e 283c ef18 9b3c
000000a0: f129 1f3e b016 0ebd d460 8e3c cea7 9e3c
000000b0: dba7 553c a98d 4a3d 5fb6 93bd 9593 0f3e
000000c0: 2977 d33d dff8 ad3b bdb1 923d 204a 25bd
000000d0: c6af 523d 70fe 85bb 026d 353e ab83 113e
000000e0: 1967 93bc 6949 163e 3bb4 c63d 0b8f 1d3d
000000f0: 4d07 0cbd b74a 16bd c829 963c 4ece 743d
00000100: be4e 2e3c 6fc0 c5bd ba10 2a3d 67f6 5abd
00000110: ca15 11be d8e8 ffbd 7e2e 7e3d d17e bebd
00000120: 17d6 cdbd 9342 1a3c bb10 b4bd 7e05 29bc
00000130: 712b 1cbd 59ed febd c9d9 753c 9fe8 02bd
00000140: 5450 293a 27ec 18be 1732 23bd c3a0 8cbc
00000150: ec3d 1dbe 9710 d4bd 1898 9b3b 3811 6b3d
00000160: de41 5fbc 146d 0dbe 3ff8 08bd 2b87 fd3c
00000170: 3136 9a3c 19ec 473c af0f 0bbd e17b 1d3d
00000180: 2793 84bd ffce 46bd 9c83 99bd 60a8 a1bd
00000190: 91f0 18be 3356 1cbe 2373 d33c 546a 13be
000001a0: 6ac1 06be e3b0 81bd 9151 1e3d cbf8 c73c
000001b0: 104d 863c 7017 a13d 233a 9ebc 3c2f 1cbd
000001c0: 131a 06be 9c7c b53d e081 f03d 19c2 ddbd
000001d0: 7bef a1bd 2c08 11be c4c3 a73b 2875 22be
000001e0: 0e48 09be 1b9f 8a3d 6b71 0fbe 7862 b8bc
000001f0: 6e6c 373d 0f71 e2bd 46af eb3c e1ee 3fbd
00000200: edda 1dbe 7913 96bd 7433 bebd 5c5f 3dbe
00000210: 9e47 073d 7d4d 55bd 1609 0bbe 9a9a 0bbe
00000220: 10cd 42be 755b 11bd dea3 dd3c 4c99 2dbd
00000230: f582 be3c 9a66 0b3a b971 083c 8032 90bd
00000240: 8b10 273d f9fc c23c 1f84 57bd af1b 1bbe
00000250: eb05 29be b517 06be 61b3 9d3c f9b7 883a
00000260: bcd7 913c 5665 76bc 4d62 48be a200 31be
00000270: 6f26 94bd 49f3 18be d1a4 4ebd b8f6 763c
00000280: 3669 40be eab0 bf39 97e1 c1bd dfc4 dc3d
00000290: 2710 b9bd 6c20 55be c819 26be 8a28 aa3d
000002a0: 090a 8ebd cdd7 43be a112 9a3b 239d de3d
000002b0: f84e 03be 9fd9 bb3d 2005 5e3c 7b57 d6bd
000002c0: 925a 2dbd 79cc 4fbd 48d2 cebc e8d6 92bd
000002d0: aa18 51bb 0673 783c bab0 6dbd 4d75 51bd
000002e0: 2348 2bbe c9c1 86bd 6434 7bbd 28c2 56bd
000002f0: 301f b83d 09fc cabd dab7 1cbe 0b94 29bd
00000300: d24d 5e3d d164 bbbd 2bb9 e3bb bcf2 33bd
00000310: f8a5 ad3d 3cae df3d fb20 9a3d 507f 65bd
00000320: c95c 8e3d 21c9 56bd 0345 9cbd d80c 4538
00000330: ad03 d9bd 05e5 973d ef62 eb3c 6739 d9bd
00000340: 5011 f4bd 7354 833d 5b96 d4bd 7bf3 48bd
00000350: f63f ffbd 8a46 07bd d11b fcbd c5da 0dbd
00000360: d0de 8fbd 876b c0bc 5ed7 81bc 1ca8 b4bd
00000370: 23ad f33d c640 c6bd 45d0 4c3c 54fd ccbc
00000380: b017 263d 8819 ecbd f146 993d 90a0 a23d
00000390: 846d 683d 5cee 33bb 248b 283e 009c 2dbc
000003a0: 80e4 653d b275 78bd d305 f7ba 2a93 833d
000003b0: 3e7d 98bb e341 fdbd 6fc1 b93d a873 07be
000003c0: dc9d c53d 9ada 183d 2c26 ebbc 28cc aabd
000003d0: 23b8 40bc b6ff 8cbd 3eb2 85bd 2743 eeba
000003e0: ae5c 08be 540c c4bd 6c71 783d be86 7ebd
000003f0: 82c9 3b3e 0953 943d e721 2c3d 2983 8dbd
-0.015350429 -0.037401374 -0.010732254 0.10891493 0.06376741 0.05146561 0.1634318 -0.06613008
-0.05995465 0.08200717 -0.021638436 0.12007009 0.13923736 0.13538164 0.012006917 0.15333116
0.052703284 -0.003068175 -0.06611134 0.11503992 0.03768616 0.012868753 -0.027670406 -0.048733428
-0.074462004 0.027572505 -0.06083173 -0.0062100166 -0.03418793 0.050546255 0.1257829 0.01872483
-0.0030011057 -0.058390833 0.09333182 0.15235355 -0.036934268 -0.060513183 0.010261296 0.018932788
0.15543343 -0.034689605 0.017380156 0.019367125 0.013040508 0.049451504 -0.07212519 0.14021142
0.10325462 0.0053092088 0.07162807 -0.040353894 0.051437162 -0.004089169 0.17717364 0.14210384
-0.017993497 0.14676441 0.09702345 0.038466495 -0.03418665 -0.036692347 0.01833047 0.05976706
0.010638891 -0.096558444 0.041519858 -0.053457644 -0.14168468 -0.12495583 0.062056057 -0.09301532
-0.100506 0.009415287 -0.087922536 -0.010316251 -0.038127366 -0.12447614 0.015005537 -0.031960126
0.0006458808 -0.14933835 -0.03984269 -0.0171665 -0.15355653 -0.10354727 0.0047483556 0.057389468
-0.013626544 -0.13811141 -0.03343987 0.030948242 0.018824669 0.012202286 -0.033950504 0.03844822
-0.064733796 -0.04853725 -0.074958056 -0.07893443 -0.14935519 -0.15267257 0.025811737 -0.1439603
-0.13159719 -0.063325666 0.038652007 0.024410626 0.016394168 0.078657985 -0.019314831 -0.038130984
-0.13095884 0.08861658 0.11743522 -0.10828037 -0.079070054 -0.14163274 0.0051197726 -0.15865004
-0.13406393 0.06768628 -0.1400811 -0.022507891 0.04478114 -0.110567205 0.0287701 -0.046858672
-0.15415545 -0.07327933 -0.09287158 -0.18493408 0.033027284 -0.05207585 -0.13577685 -0.13633195
-0.19023538 -0.03548761 0.027055677 -0.042382523 0.023255805 0.0005317718 0.008327895 -0.07040882
0.04078726 0.023802267 -0.052616235 -0.15147279 -0.16506164 -0.13094981 0.019250574 0.0010430805
0.017803065 -0.015038809 -0.19568749 -0.17285398 -0.07233893 -0.14936556 -0.05045015 0.015073471
-0.18790135 0.0003656217 -0.09466856 0.10779738 -0.09036284 -0.20813149 -0.16220772 0.083085135
-0.06935508 -0.1912529 0.004701928 0.10869815 -0.12823093 0.09172367 0.013551027 -0.10465904
-0.042322703 -0.05073211 -0.025246754 -0.07169896 -0.003190557 0.0151641425 -0.058029868 -0.051137257
-0.16726737 -0.0657993 -0.06132926 -0.052431256 0.089903235 -0.09911353 -0.15304509 -0.04140095
0.054273434 -0.091500886 -0.006949564 -0.04393266 0.08478922 0.109219044 0.07525822 -0.056029618
0.06951291 -0.052437905 -0.076303504 4.698042e-05 -0.10596404 0.07416729 0.028733699 -0.10606652
-0.119173646 0.06412592 -0.103802405 -0.049060326 -0.124633715 -0.033026256 -0.12309993 -0.034632463
-0.0702492 -0.023488773 -0.015849765 -0.08821127 0.118982576 -0.09680323 0.012500827 -0.02502314
0.040549934 -0.11528307 0.07484234 0.07940781 0.056745067 -0.0027455306 0.16459328 -0.010596275
0.056126118 -0.060659118 -0.001884634 0.06424554 -0.004653602 -0.123660825 0.09070098 -0.13227713
0.0964925 0.03731785 -0.028704725 -0.08339721 -0.011762652 -0.068847105 -0.065281376 -0.0018177972
-0.13316604 -0.09572664 0.060655043 -0.06214022 0.18338588 0.072424 0.04202452 -0.069097824

conv2.lin3.bias f4 [64]
00000000: 1321 133b 5244 64bd 2636 44be 8600 663d
00000010: b5bc 93bc 5900 c9bd e3cf 6a3b 8fb2 2b3d
00000020: 282d 29bd e071 acbc a64e 173d e57e 293d
00000030: 7aae e33c 26a0 32bd 2d28 6bbd 8134 2c3e
00000040: be9d 00bd 145d 213c d3d4 0d3d 0828 d43c
00000050: 653e 48bd 5f68 eebd 2dba d2bd 5bb5 d03b
00000060: 44e0 113c 17f1 fa3c e0e4 5f3d 3a32 16be
00000070: 3868 c43b a0bc da3c 151a fd3c 351d d23b
00000080: 415e e2bd a099 06be aec4 dfbd 404e 0f3e
00000090: c042 60bc 795f e73d abe2 903d b75f cf3d
000000a0: 29cb 623b d48e 093e 974f 4e3e 699b 9bbd
000000b0: 429e 06bd 9400 ff3d 1d53 30bd 349f 16bd
000000c0: 4b41 d73d ec77 6bbd 25fe 843d beae 04be
000000d0: 7386 f1bc 72e2 a7bd 2335 933d accd 01bc
000000e0: 4d44 00be daa6 0cbe a394 d6bd 2623 4d3e
000000f0: e044 38bd 445e 4c3d 5b46 153e a69a d5bd
0.0022450134 -0.055729218 -0.19161281 0.056152843 -0.018034318 -0.098145194 0.0035829477 0.041918334
-0.04130283 -0.021050394 0.03694024 0.04138078 0.027793158 -0.04360976 -0.05741136 0.16816904
-0.031400435 0.009848852 0.034626793 0.025897995 -0.04888763 -0.11641001 -0.102894165 0.0063692755
0.008903567 0.030632539 0.05466163 -0.14667597 0.005993869 0.026701272 0.030896226 0.006412173
-0.11053134 -0.13144541 -0.109261855 0.13994694 -0.013687789 0.11297507 0.070744835 0.10125678
0.0034605956 0.13433391 0.20147549 -0.075980015 -0.03286577 0.12451282 -0.043048013 -0.03677292
0.105105005 -0.057487413 0.06493787 -0.12957284 -0.029483056 -0.08197488 0.071878694 -0.007922571
-0.12526055 -0.13735524 -0.10477569 0.2003294 -0.04498756 0.049894586 0.1457762 -0.104298875

classifier.weight f4 [2, 128]
00000000: 04c4 1c3e c944 94bd f2bb 5ebd 6acf 1dbc
00000010: fdca 853a 676f bcbc af1d 64bd b2ae 83bd
00000020: 931b cdbd 1a6e 943d 5e86 dbbb 366b a2bd
00000030: 36d3 b53d 1c9e 913d c019 15be 3ad7 d93d
00000040: 087e 6c3d c143 aabd 83cf 1a3d ac83 c53d
00000050: 9a6f 343d 12d0 0ebe a1e2 d8bd b7af 0d3e
00000060: 0475 693c 0787 aa3d 659c d73d 6228 16be
00000070: 346c c33d 6804 6d3d b7ff 6c3d 352a 0b3e
00000080: a133 baba c8e5 0dbd 2674 32be 9d31 bc3d
00000090: ecca 7cbd d8e8 ccbd 1681 36bd 6b99 c23d
000000a0: 1a8a ffbc 4ce0 ff3d d3a9 8d3d 37f4 24bd
000000b0: 1f66 b0bc 275b aa3d bb78 f1bd 26cc 1b3d
000000c0: fcdf e83d d197 113e cfb3 d3bd 7b17 8dba
000000d0: d925 82bc b86c 08bd b7c7 e4bb 24e3 0c3c
000000e0: 56c7 02bd ef95 90bd 4ce7 a2bd 4364 3bbd
000000f0: ffc9 d03c 4f65 cc3d f1da 8a3a 3637 eebd
00000100: 9380 3b3c a2a4 bdbd eace ebbd 3859 9ebc
00000110: 9aae 823d 05e9 dbbb f81b 95bd 81ff cebd
00000120: 4ea7 8cbd c1bc 1e3d c5cd 023d f94d 93bd
00000130: c91a 393d 3f99 9c3d a663 4ebd 2003 20bc
00000140: 7963 0a3d e35f a3bd 43b7 bd3d 7c95 f83d
00000150: c768 c1bc 0279 0ebe 765d 02be d7db 433d
00000160: 3ed6 f23d e7a6 743d 1348 6e3c 0f85 66bd
00000170: c458 0c3e 57c3 a43c 7c93 90bd 00f4 e93d
00000180: b7e3 ac3d 1617 05be ce81 2bbc c3e0 803d
00000190: a0de 14bd c5b1 d4ba 9fca 77bd e630 82bd
000001a0: a521 00ba cef1 723c 67a1 ef3c 73bf 653c
000001b0: 9321 463c 5d92 0a3e 6bb0 23be ac67 373d
000001c0: 9499 ae3d 9661 4dbc f33c 05be f2df afbd
000001d0: e3e7 153d dede 85bc ad19 f13c 6f97 e33b
000001e0: 38ab 63bd f430 cfbd d678 abbc 0bd5 f3bc
000001f0: cc4e 033d 2ff5 563d 1ab5 0c3d 2225 fdbc
00000200: 4e04 bfbb 0f2d 6ebd e5f4 0d3e 368f 6a3d
00000210: 2ade c43c 39d7 433d 8c29 853d 894d c4bd
00000220: a539 07be 8dc9 83ba 027f 843d 3d03 ce3c
00000230: 58d5 a5bb 06b8 033d 816e 003e 4f8e a7bd
00000240: cdf7 bf3c 92ae 863c 55ca 883c 603e 3a3d
00000250: b9de ae3c 61d7 58bc f49a 0bbd 3caa ad3d
00000260: ce0a b73d 2a92 c0bb 28dd edbd 92a4 543d
00000270: d53e 9f3c 76f8 ffbc 986e 533d a569 7f3c
00000280: d631 0a3d eb5a b9ba 4c1b fd39 f178 b13d
00000290: df7a 0abe 0b35 abbc ebef b93d 133f ed3d
000002a0: 8c30 ec3d b35d 873d d43e eebd e423 03be
000002b0: fa44 07bd 4641 213d 1c03 d3bc 58f6 fd3d
000002c0: 81aa 043d b273 f53d 4a0b f43d 9469 bd3d
000002d0: 6700 003e b2d4 9abd 58d5 dcbd 2f2d c9bd
000002e0: aaaf eebd 75cb cebd 8856 583d d025 06bd
000002f0: b0f5 183c 314f 913d 2ce6 e63d 6126 9cbd
00000300: 57fc 52bc e24e 74bd 2767 9ebc f014 953c
00000310: 0a95 cd3d a8b5 a73c 9286 f43b b04e 85bc
00000320: 8435 3fbd fcd8 ac3d 3483 a83c 687e 83bb
00000330: 5849 82bd aae0 ee3d 0fdd 09be fd39 23bd
00000340: 8291 37bc 675f f4bd 55db 8abd 148e 0c3e
00000350: 9013 b53c 4f13 2b3d 53ce 0e3d 79f6 233d
00000360: ef14 053e 71dd 0f3e 5e29 bc3c 7979 4a3d
00000370: 2758 c53c 17ff 7dbd 01f3 5dbd 44c9 553a
00000380: 6bb8 ea3d 084f d0bd e0f4 ec3b a87a 223d
00000390: ff2d 2dbd e5e3 a8bd 2727 dcbd 6e4b 45bc
000003a0: ce3e 803d 3b14 983d 6c2e 9f3c b8df 8dbd
000003b0: bb7f f7bd b105 e63d 351a dbbd 4bac 033c
000003c0: 97db d13d 3068 163e 7169 b83c 2f71 f2bd
000003d0: 60da f93d 1f43 44bd 769e a6bd 3eb6 21bd
000003e0: 8c31 0bbd 1767 5bbd 8454 9a3c 4d15 a0bd
000003f0: 973f 8cbd d2ba c93d 47a6 093e 436e 62bc
0.15309149 -0.07239682 -0.054378457 -0.009631971 0.001020759 -0.02300234 -0.05569237 -0.06429805
-0.10015025 0.07247563 -0.0066993674 -0.07930605 0.08878176 0.07110235 -0.14560604 0.10636754
0.05773738 -0.08313704 0.037795555 0.09644255 0.044051744 -0.1394656 -0.10590101 0.13836561
0.01424909 0.08326536 0.10527877 -0.14663842 0.095421225 0.05786553 0.057861056 0.1359032
-0.001420606 -0.034642965 -0.1742712 0.091891505 -0.06171696 -0.10005349 -0.0445567 0.095019184
-0.031193782 0.12493953 0.06917157 -0.040271964 -0.02153307 0.08318167 -0.11790606 0.038036488
0.11370847 0.1421807 -0.1033703 -0.0010764444 -0.015887188 -0.033306807 -0.0069818157 0.008599076
-0.031928383 -0.070598476 -0.07954273 -0.045749914 0.025486944 0.099802606 0.0010593814 -0.116316244
0.011444229 -0.09259917 -0.11514075 -0.019329652 0.06380959 -0.0067111277 -0.07280725 -0.10107327
-0.06867848 0.03875423 0.03193452 -0.071926065 0.04519156 0.07646417 -0.050388 -0.00976637
0.03378627 -0.07977273 0.0926347 0.12137887 -0.023609532 -0.13913348 -0.12730965 0.047817077
0.1185727 0.059729483 0.014543551 -0.05627924 0.13705736 0.020112677 -0.070593804 0.114234924
0.08441871 -0.12997088 -0.01046796 0.0629287 -0.036345124 -0.0016227296 -0.06049597 -0.06356983
-0.0004887826 0.014828159 0.029251767 0.014022696 0.012092966 0.13532396 -0.15985267 0.044776604
0.085253865 -0.012535473 -0.13011532 -0.08587636 0.036598098 -0.016341623 0.029431188 0.0069455425
-0.05558321 -0.10116759 -0.020931643 -0.029764673 0.03205757 0.05247992 0.0343524 -0.030901495
-0.0058293706 -0.05814844 0.13862951 0.057265483 0.024031717 0.047812674 0.06502065 -0.09585101
-0.13205583 -0.0010054574 0.06469537 0.025148029 -0.005060833 0.03215792 0.12542154 -0.0818144
0.02343359 0.016440663 0.016698042 0.04546964 0.021346437 -0.013234944 -0.03408332 0.08479735
0.08937608 -0.005876799 -0.11614448 0.05191476 0.01943914 -0.031246405 0.051619142 0.015589152
0.033738934 -0.0014141476 0.00048276258 0.08665646 -0.13523434 -0.020899316 0.09078964 0.11584296
0.11532697 0.066096686 -0.11633077 -0.1280666 -0.033024766 0.03936889 -0.025758319 0.12400502
0.032389168 0.11984958 0.11916216 0.09248653 0.12500153 -0.075601 -0.107828796 -0.09823071
-0.11654599 -0.100974 0.052816898 -0.032750905 0.00933592 0.07095183 0.112743706 -0.07624508
-0.012877545 -0.05964554 -0.019336296 0.01819846 0.100381926 0.020472363 0.007462331 -0.016272873
-0.046681896 0.08439824 0.020570375 -0.0040128715 -0.063616455 0.11663945 -0.13463233 -0.039850224
-0.011204125 -0.11932259 -0.067801155 0.13726074 0.022104055 0.04176646 0.034864735 0.040029977
0.12996267 0.14049317 0.022968944 0.04943225 0.024089886 -0.06201085 -0.054186825 0.0008155296
0.11460956 -0.10171324 0.00723134 0.039667755 -0.042280193 -0.082465924 -0.10749655 -0.01204191
0.06261979 0.07425734 0.019431315 -0.069274366 -0.120849095 0.11231554 -0.10698358 0.008036683
0.102469616 0.14688182 0.022511216 -0.11837994 0.12199855 -0.047915574 -0.08135693 -0.03948044
-0.0339828 -0.05356511 0.018839128 -0.07816563 -0.06848066 0.09850086 0.13442336 -0.013820234

classifier.bias f4 [2]
00000000: 19b9 1d3d e655 ab3d
0.0385066 0.08365993
