outputs/classification/edges/rebuttal/weights/sage_3.pth (torch, 40389 bytes, 8 tensors)

conv1.lin_l.weight f4 [64, 7]
0	0x3e61f87b	0.22067444
1	0xbe42e69e	-0.19033286
2	0x3e8b721e	0.27235502
3	0xbe2d9990	-0.1695311
4	0xbdbc92e1	-0.092077024
5	0xbee5e791	-0.44903234
6	0xbe43576c	-0.19076318
7	0x3ddea4f1	0.10871304
8	0xbe07e541	-0.13271047
9	0xbe8d74be	-0.2762813
10	0xbe88cd5e	-0.26719183
11	0xbecbb56d	-0.39786854
12	0xbc865f90	-0.01640299
13	0x3d56bc99	0.052425954
14	0xbecf7cca	-0.40524894
15	0x3e8a08e2	0.26959902
16	0xbec892d4	-0.3917452
17	0xbbfeb558	-0.0077730827
18	0xbea1491a	-0.31501085
19	0xbdfc0499	-0.123055644
20	0xbd95766c	-0.07297978
21	0xbe167c81	-0.14695932
22	0x3d066a26	0.032816075
23	0x3e92a6be	0.2864284
24	0x3e420546	0.18947324
25	0x3e1794c4	0.14802843
26	0xbe6ef0b0	-0.23334002
27	0x3c8673a9	0.016412573
28	0x3e2e565e	0.17025134
29	0x3e917041	0.28405955
30	0x3ec00e64	0.3751098
31	0x3e87a9e3	0.264968
32	0xbd8afe96	-0.0678684
33	0x3e546ba3	0.20744185
34	0x3e10bac1	0.14133741
35	0xbe6b89ac	-0.23001736
36	0x3e10dbd1	0.14146353
37	0x3e85205b	0.26001248
38	0x3e5bdd8a	0.21471229
39	0xbd303bc1	-0.043025736
40	0x3ddfdbbd	0.109305836
41	0xbddbd324	-0.10733631
42	0xbe84d44c	-0.2594322
43	0xbd7a9f28	-0.06118694
44	0x3e2f927d	0.17145725
45	0x3e8c4ed6	0.27403897
46	0x3e8b1bd1	0.2716966
47	0x3e8ae678	0.2712896
48	0x3cec951e	0.028879698
49	0x3e679178	0.22614086
50	0xbc93993f	-0.01801741
51	0x3e6811b7	0.22663008
52	0xbe9e1837	-0.3087785
53	0xbda0bd66	-0.07848625
54	0xbe05ac87	-0.13054095
55	0xbeb407c5	-0.35162178
56	0xbe612cff	-0.21989821
57	0xbdbeb404	-0.09311679
58	0xbca99a34	-0.020703413
59	0xbe8133d7	-0.25234863
60	0x3da86bc1	0.082236774
61	0x3da31782	0.07963468
62	0x3dfa899d	0.12233279
63	0x3dfddfdf	0.12396216
64	0x3e107c67	0.14109956
65	0x3e85b35e	0.2611341
66	0xbe5dab6b	-0.21647422
67	0x3ce59f2b	0.028029999
68	0x3d42d18a	0.047563113
69	0x3dce5fba	0.10076852
70	0xbd049e81	-0.032377724
71	0xbc74f7ae	-0.01495163
72	0xbe86c79a	-0.2632416
73	0xbeaa785f	-0.3329496
74	0xbe0a8bc3	-0.13529877
75	0xbd6a9e51	-0.05727989
76	0xbe8d0aa3	-0.27547178
77	0xbe2988bc	-0.16556066
78	0x3e65a2bd	0.22425361
79	0xbe5c40c6	-0.21509084
80	0xbe93021e	-0.28712553
81	0xbdc0c009	-0.09411628
82	0xbde54a8d	-0.1119586
83	0xbea795ba	-0.3273142
84	0xbe9236d6	-0.28557462
85	0xbe547277	-0.2074679
86	0x3da40ffa	0.0801086
87	0xbe878196	-0.26466054
88	0xbeb6cdfc	-0.3570403
89	0xbe3a38fd	-0.18185802
90	0x3e9b865c	0.30375946
91	0xbe22e85e	-0.15908954
92	0x3e15a654	0.1461423
93	0xbec6fbae	-0.3886389
94	0x3df2be93	0.118527554
95	0x3dec3858	0.11534184
96	0x3e91b942	0.28461653
97	0xbebb62d1	-0.36598828
98	0xbe7571e7	-0.23969232
99	0x3e8c09fd	0.2735137
100	0x3db07693	0.08616366
101	0xbe0f48c1	-0.13992597
102	0x3ea359ea	0.31904536
103	0x3db6f0f2	0.089326754
104	0x3e7a3530	0.24434352
105	0xbdcc4427	-0.099739365
106	0x3e9c4c27	0.3052685
107	0xbce5ffda	-0.028076101
108	0xbe25158d	-0.16121502
109	0x3e3da383	0.18519406
110	0xbe5b3bdc	-0.21409553
111	0xbe9290a0	-0.28625965
112	0x3e4bf978	0.19919384
113	0x3dd1c6e1	0.10243011
114	0xbec7ffac	-0.3906225
115	0x3e199c2d	0.15000983
116	0xbe65be92	-0.22435978
117	0x3d1820c0	0.037140608
118	0x3e7de651	0.2479489
119	0x3e86c231	0.2632003
120	0x3e25d6ff	0.16195296
121	0xbe5ec736	-0.2175568
122	0xbdf001a0	-0.1171906
123	0x3e72e81f	0.2372136
124	0x3e8368a7	0.2566578
125	0x3e8a575a	0.2701977
126	0xbec23d21	-0.37937263
127	0x3e61ad3f	0.22038744
128	0xbda03b0d	-0.07823763
129	0x3e2b407e	0.1672382
130	0xbe4729b3	-0.194495
131	0xbea089db	-0.31355175
132	0xbebe6b94	-0.3719145
133	0xbee3b080	-0.44470596
134	0x3e71da5b	0.23618452
135	0x3e5e5925	0.21713693
136	0xbe7a639a	-0.24452057
137	0x3e66e286	0.2254735
138	0xbe2dde07	-0.16979228
139	0xbe390bb2	-0.18070868
140	0x3ead0461	0.33792403
141	0xbcc34c42	-0.023840073
142	0xbe542d23	-0.20720343
143	0x3e188b84	0.14896971
144	0x3e793802	0.24337772
145	0x3ccf703f	0.025322078
146	0x3e521b28	0.20518172
147	0xbdea859d	-0.11451266
148	0x3e356142	0.17712882
149	0x3ea4b284	0.32167447
150	0x3e840bcc	0.2579025
151	0x3ddaf22a	0.106907204
152	0xbd25a445	-0.040439863
153	0x3ea18d6e	0.31553215
154	0x3d3e97df	0.046531554
155	0x3dea1470	0.114296794
156	0xbc2d4363	-0.010575148
157	0xbdbb8ed5	-0.091581024
158	0xbea33239	-0.31874254
159	0xbd563b79	-0.05230281
160	0x3eb51911	0.35370687
161	0xbe77803d	-0.24170013
162	0x3e658be0	0.2241664
163	0x3dd3cce6	0.10341816
164	0xbe28325a	-0.16425458
165	0x3e91bb06	0.28463
166	0x3e959138	0.29212356
167	0x3e1fd41f	0.15608262
168	0x3e666391	0.22498919
169	0xbd17cc7e	-0.037060253
170	0x3dace88e	0.08442794
171	0x3db42a2f	0.087971084
172	0x3e4773e2	0.194778
173	0xbdf61aec	-0.12016854
174	0x3e8b1e75	0.27171674
175	0xbe460ad5	-0.1934007
176	0x3e9d08dc	0.30670822
177	0x3c5d6c59	0.013514602
178	0x3ede2d4d	0.43393937
179	0xbd778876	-0.060432874
180	0xbaec1501	-0.0018011631
181	0x3e83c7d9	0.2573841
182	0x3e304346	0.17213163
183	0xbe4817ff	-0.19540404
184	0x3e8b16d7	0.27165863
185	0xbb6742ea	-0.0035287687
186	0xbc8c3977	-0.017117245
187	0x3ed55419	0.41665724
188	0xbe6812bd	-0.22663398
189	0x3c72400e	0.01478578
190	0xbe94b1a0	-0.29041767
191	0xbd49793a	-0.049187876
192	0xbeb0adbd	-0.34507552
193	0xbd28b5d1	-0.04118902
194	0x3d90fe19	0.07079715
195	0x3bd04d96	0.006356905
196	0x3dbe7c86	0.09301095
197	0xbc314387	-0.010819322
198	0xbe3d1094	-0.18463355
199	0x3ded9b06	0.11601834
200	0xbdc053d7	-0.09390991
201	0xbe811e0f	-0.25218245
202	0x3e167085	0.1469136
203	0x3e98a3fb	0.29812607
204	0x3e4095aa	0.18807092
205	0x3e639933	0.2222641
206	0xbe48f5fe	-0.19625089
207	0xbe162f46	-0.14666471
208	0xbe25ac45	-0.16178997
209	0xbe95c5cd	-0.29252473
210	0x3b2b2c84	0.0026119063
211	0xbe6dc79b	-0.23220675
212	0xbe6833e5	-0.22676046
213	0xbe9c60d1	-0.30542615
214	0x3def680c	0.11689767
215	0xbe5db89b	-0.21652453
216	0x3e52305f	0.20526265
217	0xbdb9aae6	-0.090657994
218	0xbe9f5a77	-0.31123707
219	0xbe35f1c1	-0.17768003
220	0xbe372828	-0.17886412
221	0xbcd00cf5	-0.025396803
222	0xbe69c602	-0.2282944
223	0xbe8dc46d	-0.27688923
224	0xbe66ef80	-0.225523
225	0xbea28640	-0.3174305
226	0x3d9d86a9	0.076917
227	0xbdf330ad	-0.118745185
228	0xbdf8b827	-0.12144499
229	0x3d7105a9	0.05884329
230	0x3cbf3eaf	0.02334532
231	0xbd574684	-0.052557483
232	0x3ec11279	0.37709406
233	0xbe87a932	-0.26496273
234	0x3bf3dabe	0.0074418476
235	0x3e3c8e53	0.18413667
236	0x3e4e0cd8	0.20122087
237	0x3d3fcf80	0.046828747
238	0x3e6dafa4	0.23211533
239	0xbdf3423a	-0.11877866
240	0x3e7d113d	0.24713607
241	0xbd8aaeae	-0.06771599
242	0x3cf62710	0.030047923
243	0x3ea6057f	0.32426068
244	0xbe607a8f	-0.21921752
245	0x3da99223	0.082798265
246	0x3e653a91	0.22385623
247	0x3e9dbe4e	0.30809253
248	0x3ec5aa38	0.3860643
249	0xbe818170	-0.25294065
250	0x3e7a44fe	0.24440381
251	0x3db0f6c8	0.0864082
252	0xbe9072ef	-0.28212687
253	0x3e9f5d20	0.31125736
254	0xbdffaa71	-0.12483681
255	0xbeb0dc76	-0.34543198

conv1.lin_l.bias f4 [64]
0	0x3d3c75c6	0.046010755
1	0x3e87ff2d	0.2656187
2	0x3e3bc9d8	0.18338716
3	0xbd9bcc9a	-0.07607384
4	0xbe8c43f5	-0.27395597
5	0xbdd167a1	-0.10224844
6	0x3e8d3512	0.27579552
7	0x3ddb2867	0.107010655
8	0xbd31d099	-0.043411825
9	0x3e96cca5	0.29453006
10	0xbdda3ac2	-0.106557384
11	0x3e2c8e9f	0.1685128
12	0xbd516810	-0.051124632
13	0x3e39483f	0.18093966
14	0xbcf5c3a8	-0.030000523
15	0xbecf05fc	-0.40434253
16	0x3ea2b176	0.31776017
17	0xbe639a0b	-0.22226731
18	0x3e1102e2	0.14161256
19	0x3c79670b	0.015222321
20	0xbd49a682	-0.04923106
21	0xbe85e5cb	-0.2615188
22	0x3e5cfb35	0.21580203
23	0xbe74e881	-0.23916818
24	0xbe7b3247	-0.24530898
25	0xbdda0db0	-0.10647142
26	0x3e93a501	0.28836825
27	0xbea316f6	-0.31853455
28	0x3e096b8a	0.13419929
29	0xbd94722b	-0.07248338
30	0x3d0a4101	0.0337534
31	0xbd28bc30	-0.041195095
32	0xbe3c48fe	-0.1838722
33	0xbe7bb63f	-0.2458124
34	0xbe98a290	-0.29811525
35	0xbe916594	-0.2839781
36	0xbdc1efa3	-0.09469535
37	0x3e8fdfe1	0.28100494
38	0x3e6f1239	0.23346795
39	0xbde458fc	-0.11149785
40	0xbe934b4c	-0.28768384
41	0xbe8bd2f8	-0.27309394
42	0xbdcbc8f7	-0.099504404
43	0x3db0ee80	0.0863924
44	0xbd0b9b8a	-0.03408388
45	0xbdb0b767	-0.08628731
46	0xbe814635	-0.25248876
47	0x3c68e748	0.014215298
48	0xbeb53cf0	-0.35398054
49	0x3debdd9e	0.115168795
50	0x3e2c721b	0.16840403
51	0x3e83c474	0.2573582
52	0xbe276a3d	-0.1634912
53	0xbeda2cc8	-0.4261229
54	0xbe15a530	-0.14613795
55	0xbec844e8	-0.3911507
56	0x3ecc3158	0.39881396
57	0x3eb5f83a	0.35540944
58	0xbe784a60	-0.24247122
59	0x3d75c55c	0.06000267
60	0xbd3750fb	-0.044754963
61	0x3e479883	0.19491772
62	0x3d899c2f	0.06719243
63	0xbe3ab7f7	-0.1823424

conv1.lin_r.weight f4 [64, 7]
0	0xbe914a7b	-0.28377137
1	0xbea850f5	-0.32874265
2	0x3e81f5ba	0.25382787
3	0xbe8c81e9	-0.27442864
4	0xbd278c03	-0.04090501
5	0xbe1b4903	-0.1516457
6	0xbed0fc95	-0.40817705
7	0x3dc855c8	0.097819865
8	0xbe999dea	-0.3000329
9	0xbdf9b01c	-0.12191793
10	0xbeb366f9	-0.350395
11	0xbdf950b8	-0.12173599
12	0xbebafa9d	-0.36519328
13	0x3e1c5d29	0.15269913
14	0x3d62cb7b	0.055369835
15	0xbe9238be	-0.28558916
16	0x3e54a2aa	0.20765176
17	0xbea4b13e	-0.32166475
18	0xbd8f115e	-0.069857344
19	0x3e02b5c1	0.12764646
20	0xbe23081c	-0.15921062
21	0xbeb7674f	-0.35821006
22	0xbe3200ec	-0.17383164
23	0xbd187a55	-0.03722604
24	0xbe10b7d0	-0.14132619
25	0x3cdbf7c3	0.02685154
26	0x3ea85272	0.328754
27	0x3ea5e7a5	0.32403293
28	0x3dc50f37	0.096220426
29	0x3de8cdef	0.11367404
30	0x3e8d7658	0.27629352
31	0x3dd784c7	0.10523372
32	0x3ea0b5cd	0.31388703
33	0xbe282318	-0.16419637
34	0xbea212ba	-0.31654912
35	0xbe7f4eaa	-0.24932352
36	0x3da32a0b	0.079670034
37	0x3c9f1869	0.01942082
38	0xbe5a027c	-0.2129001
39	0xbdb6c78b	-0.089247786
40	0x3d9d9e20	0.076961756
41	0xbe0666c8	-0.13125145
42	0x3d03b2ed	0.03215306
43	0xbc1036e7	-0.008802152
44	0x3d9eca82	0.07753469
45	0x3e9eb9e0	0.31001186
46	0xbde07985	-0.10960678
47	0x3cb11e4d	0.021620894
48	0xbe25fd27	-0.16209851
49	0x3e0965ec	0.13417786
50	0xbd23bb8c	-0.03997378
51	0x3e14c534	0.14528352
52	0xbe23d84d	-0.16000481
53	0x3d7e44c6	0.062077306
54	0x3a9729e8	0.0011532875
55	0x3ea9b304	0.3314439
56	0xbe7a06c9	-0.24416651
57	0xbdf68dba	-0.12038751
58	0x3ce9e4a4	0.028551407
59	0x3e3fa187	0.18713962
60	0xbb6dbdba	-0.0036276416
61	0x3d96716a	0.07345851
62	0xbb9180d2	-0.0044404054
63	0x3e475b69	0.19468464
64	0xbe1a747d	-0.15083499
65	0x3ee1924f	0.44056937
66	0xbd783c43	-0.060604345
67	0xbd3c2eaa	-0.04594294
68	0x3ecfb99b	0.40571293
69	0x3e562d82	0.20915797
70	0x3d27e766	0.040992163
71	0x3df22ff2	0.11825551
72	0xbe78810c	-0.24267977
73	0x3e4160f5	0.18884642
74	0x3e2719c1	0.16318418
75	0xbe1928c3	-0.14956956
76	0x3e1767aa	0.14785638
77	0xbe5f2ff2	-0.21795633
78	0x3de10595	0.10987393
79	0xbede171a	-0.43377
80	0xbd34a4bb	-0.04410241
81	0x3df937f1	0.12168873
82	0xbe0b63d6	-0.13612303
83	0xbde86fc9	-0.11349446
84	0x3e568f54	0.20953113
85	0x3c9060a5	0.017624209
86	0xbe0acb42	-0.13554099
87	0x3d800003	0.06250002
88	0x3d7e22e7	0.062045004
89	0xbe89c92a	-0.26911288
90	0x3d46cf51	0.048537556
91	0xbdd72fcb	-0.10507163
92	0xbd8d9963	-0.06914022
93	0xbeb4d1ed	-0.3531641
94	0xbecbebd5	-0.39828363
95	0xbdb587c7	-0.08863788
96	0xbe0ee00c	-0.13952655
97	0xbe14873a	-0.1450471
98	0xbe82c07c	-0.2553748
99	0x3de1245f	0.10993265
100	0xbeb44b84	-0.35213864
101	0xbe5c0441	-0.21485998
102	0xbd9c15ae	-0.076213226
103	0x3d5f9662	0.054586776
104	0x3e87c688	0.26518655
105	0x3e860101	0.2617264
106	0x3e1324a8	0.14369452
107	0x3e7dc39f	0.24781655
108	0x3e04d9ab	0.12973659
109	0xbe83feea	-0.25780421
110	0xbe52c393	-0.20582418
111	0xbe5273a3	-0.20551924
112	0xbe8a4d36	-0.27012032
113	0xbe1442d2	-0.14478615
114	0x3e8e533e	0.27797884
115	0x3e9110d4	0.2833315
116	0xbe191c9b	-0.14952318
117	0xbdbc0387	-0.0918036
118	0x3dbc964c	0.09208354
119	0x3e3d7ffe	0.18505856
120	0x3eaf9028	0.3428967
121	0xbe380b7a	-0.17973128
122	0xbe47f8f6	-0.19528565
123	0x3d96f541	0.07370997
124	0x3eb0e759	0.34551504
125	0x3d58f778	0.05297038
126	0xbe9595da	-0.2921589
127	0x3dd55c2c	0.10417971
128	0xbe534378	-0.20631206
129	0x3cf3702d	0.029716576
130	0xbee07c6d	-0.4384493
131	0x3c6335e4	0.013867829
132	0x3e44a6e6	0.19204292
133	0x3e86809f	0.26270005
134	0xbed00ded	-0.40635625
135	0xbe3e08b7	-0.18558012
136	0xbe804102	-0.25049597
137	0xbe3bda8e	-0.18345091
138	0xbedf7f6d	-0.43651906
139	0xbedb7f2e	-0.42870468
140	0x3d180c70	0.037121236
141	0x3e729f25	0.23693521
142	0xbe82916b	-0.2550157
143	0x3e8012b9	0.25014284
144	0xbdaadb0e	-0.083425626
145	0x3cc5f379	0.024163948
146	0x3e249235	0.16071399
147	0x3edc9ed0	0.43089914
148	0x3d3df35e	0.04637467
149	0xbc8f5a4b	-0.01749911
150	0xbd37ae7f	-0.044844147
151	0x3e87628e	0.2644238
152	0x3df87c42	0.12133075
153	0x3e600d8e	0.2188017
154	0xbe366bec	-0.17814606
155	0x3e737d83	0.23778348
156	0xbe4871f9	-0.19574727
157	0xbe3b3a6d	-0.18284006
158	0xbe428879	-0.18997373
159	0xbe9b977b	-0.30389008
160	0x3e989145	0.29798332
161	0x3e8d2d8d	0.27573815
162	0x3e80d9eb	0.25166258
163	0x3de28a49	0.11061532
164	0xbe5933e8	-0.21211207
165	0x3e16135c	0.14655823
166	0x3da2bc30	0.0794605
167	0xbeae1c14	-0.34005797
168	0xbcff0483	-0.031130081
169	0xbe9df160	-0.30848217
170	0x3e215838	0.15756309
171	0x3daf850a	0.08570297
172	0x3e546bc2	0.20744231
173	0x3e150741	0.14553548
174	0x3e28524a	0.16437641
175	0x3e09b923	0.1344953
176	0xbda311cf	-0.07962381
177	0xbe6d2a2e	-0.23160622
178	0x3e6c11b5	0.2305363
179	0xbe023ae2	-0.12717775
180	0xbdc5bdcd	-0.09655342
181	0xbe151da5	-0.1456209
182	0x3d29aed6	0.041426502
183	0xbe5e93eb	-0.21736114
184	0xbe998e78	-0.29991508
185	0xbe929da0	-0.28635883
186	0x3ecc64fe	0.399208
187	0x3ed44a33	0.4146286
188	0xbe8661b7	-0.26246426
189	0xbe15f0a3	-0.14642577
190	0xbe74a632	-0.23891523
191	0x3c23b961	0.009992928
192	0xbe32c011	-0.1745608
193	0xbca55c08	-0.020185485
194	0xbe372dfc	-0.17888635
195	0xbeac8f32	-0.33703
196	0x3d9cde2d	0.07659564
197	0xbe6a135b	-0.22858946
198	0xbe3f0d0a	-0.18657318
199	0xbe5ae8f3	-0.21377926
200	0xbe1ea497	-0.15492474
201	0xbe8a5b76	-0.27022904
202	0x3e0a8929	0.13528885
203	0xbe038cc6	-0.1284667
204	0x3e2acb97	0.16679226
205	0x3ed16c82	0.40903097
206	0x3e34fd8d	0.17674847
207	0xbd2cf64b	-0.04222707
208	0xbe08f16b	-0.13373344
209	0xbe65b5a0	-0.22432566
210	0xbd151d47	-0.036404874
211	0xbe43a993	-0.19107656
212	0xbec7eaef	-0.39046428
213	0xbe92ca18	-0.2866981
214	0x3e7b4f15	0.24541886
215	0x3e415fe7	0.1888424
216	0xbe356fdd	-0.17718454
217	0xbea3a2fd	-0.31960288
218	0xbe944ed6	-0.28966397
219	0xbe01c441	-0.12672521
220	0xbd194a66	-0.037424468
221	0x3dae08ba	0.08497758
222	0xbd8ccd4a	-0.06875093
223	0xbec16ecc	-0.37779844
224	0xbddeb496	-0.10874288
225	0xbb4b829f	-0.0031053198
226	0xbe590cf5	-0.21196349
227	0xbe12000e	-0.14257833
228	0x3e13dcf7	0.1443976
229	0x3ce608f1	0.028080435
230	0xbe0f70cc	-0.14007872
231	0x3d8a41fd	0.067508675
232	0xbd14e7b9	-0.0363538
233	0x3eb1f438	0.34756637
234	0x3dc46b35	0.095907606
235	0xbe4caa36	-0.19986805
236	0xbb9249a6	-0.004464346
237	0x3e2c6dbc	0.16838735
238	0x3e946a20	0.28987217
239	0x3ed5dc04	0.4176942
240	0x3ec24555	0.3794352
241	0x3ecb8eb1	0.39757302
242	0x3e26e339	0.16297616
243	0xbd9c18bc	-0.07621905
244	0x3e9d8dc9	0.30772236
245	0xbe61e670	-0.22060561
246	0x3d1952b6	0.037432395
247	0x3e8f1a96	0.2794997
248	0xbe1dd46b	-0.15413062
249	0x3e870747	0.2637274
250	0x3ec5134a	0.3849128
251	0x3e9aed8f	0.30259368
252	0xbebdf44e	-0.37100452
253	0x3ea1c7ad	0.31597653
254	0x3e69fbdf	0.22849987
255	0xbe00c100	-0.12573624

conv2.lin_l.weight f4 [64, 64]
0	0x3da85766	0.08219795
1	0x3db17974	0.086657435
2	0x3cb2b477	0.021814568
3	0xbd4f3f44	-0.050597444
4	0x3e568fc1	0.20953275
5	0x3d322cdd	0.043499816
6	0x3df27d6a	0.11840327
7	0xbd370b22	-0.04468835
8	0x3d22a177	0.039704766
9	0x3ded0d20	0.11574769
10	0x3e2d89c2	0.16947082
11	0xbe0bcc89	-0.13652243
12	0x3d28598e	0.04110103
13	0xbdc63cde	-0.09679578
14	0xbac9f5e2	-0.0015408362
15	0x3d9707c5	0.07374529
16	0x3dd3a6ef	0.103345744
17	0x3dbc9c5a	0.09209509
18	0x3e05b527	0.13057385
19	0x3ceee636	0.029162508
20	0x3e443bbd	0.19163413
21	0x3cfd1ca4	0.030897446
22	0x3e132ce1	0.14372589
23	0xba7cc853	-0.0009642888
24	0xbb56f505	-0.0032799852
25	0xbc715107	-0.014728791
26	0x3d10ed86	0.03538277
27	0x3d10aecf	0.03532296
28	0xbcbc8223	-0.023011273
29	0x3e398ded	0.18120547
30	0x3cf10d23	0.02942521
31	0xbd67592c	-0.056481525
32	0x3da7404c	0.081665605
33	0xbd7fcdb8	-0.062452048
34	0x3e207095	0.15667947
35	0x3cb98d6c	0.022650443
36	0x3d4fdf40	0.050750017
37	0x3dd9b10b	0.106294714
38	0x3d0e5de5	0.034757514
39	0xbdf58a86	-0.11989312
40	0x3d53c428	0.05170074
41	0xbcf4230f	-0.029801873
42	0x3dd72572	0.10505189
43	0xbe334fcc	-0.17510909
44	0x3d14455f	0.03619897
45	0x3c83f3d5	0.01610748
46	0x3e0638e3	0.13107638
47	0xbd3cd593	-0.046102118
48	0xbd1e2b3f	-0.03861546
49	0xbd604b3f	-0.05475926
50	0x3e24e078	0.16101253
51	0x3e08db3f	0.13364886
52	0xbdb950e4	-0.09048632
53	0x3cf455b0	0.029826015
54	0x3b127eb1	0.0022353346
55	0x3c431610	0.011907116
56	0x3d45ce80	0.048292637
57	0x3db19d47	0.086725764
58	0x3d9c2acf	0.076253526
59	0x3d28e479	0.041233514
60	0x3d555b35	0.052088935
61	0x3da3af0f	0.07992374
62	0xbb09309a	-0.002093351
63	0x3e207579	0.15669812
64	0xbe2440f5	-0.16040404
65	0xbcca4a3c	-0.0246936
66	0xbd0762f6	-0.03305336
67	0xbc7b8617	-0.015351794
68	0xbba45902	-0.0050154934
69	0x3cf914e3	0.030405467
70	0xbd1ea427	-0.038730767
71	0x3d694944	0.056954637
72	0x3e017176	0.12640938
73	0x3dfa0046	0.122070834
74	0x3cb0cf0b	0.0215831
75	0x3dde05d7	0.108409576
76	0x3dd9d40c	0.10636148
77	0x3df4f1c2	0.11960174
78	0xbc58a97a	-0.013224
79	0xbcf2ecb3	-0.029653883
80	0x3e558b42	0.20853904
81	0x3dedce99	0.11611671
82	0x3c0abfad	0.008468551
83	0x3c673946	0.014112776
84	0xbd1cdeac	-0.038298294
85	0x3d55ff8b	0.052245658
86	0x3e063cf7	0.13109194
87	0x3d0c5d58	0.034268707
88	0x3d680725	0.05664744
89	0xbba24e0e	-0.0049531525
90	0xbd08c8b0	-0.033394516
91	0xbe137315	-0.14399369
92	0x3e01ceaf	0.126765
93	0x3d0d907a	0.03456161
94	0x3e354156	0.17700705
95	0x3d5ea598	0.05435714
96	0xbdc29cf6	-0.09502594
97	0x3e09e3d8	0.13465822
98	0x3e0a40e2	0.13501313
99	0x3dcb522e	0.09927784
100	0x3e45b790	0.19308305
101	0x3e2abeee	0.16674396
102	0x3cb3980d	0.02192309
103	0x3e2efe28	0.1708914
104	0x3d9ac004	0.07556155
105	0xbe0b83cb	-0.13624494
106	0x3cb0514b	0.021523139
107	0x3cbd5c32	0.023115251
108	0x3db53919	0.08848781
109	0x3e3ca6b8	0.18422973
110	0x3e13d99e	0.14438483
111	0x3e4f1bf9	0.20225514
112	0xbca331cb	-0.019921204
113	0x3db8f797	0.09031599
114	0x3e335374	0.17512304
115	0x3c190045	0.009338443
116	0x3d35369c	0.044241533
117	0x3ca56106	0.020187866
118	0x3cc5f7c5	0.024165997
119	0xbcbac078	-0.022796854
120	0x3de01f53	0.109434746
121	0x3d106877	0.035255875
122	0x3c84575c	0.016154937
123	0x3e3f18b1	0.18661763
124	0x3d3dd993	0.046350073
125	0xbae53002	-0.0017485621
126	0x3af53d2b	0.0018710246
127	0x3daa601e	0.08319114
128	0x3df22cb4	0.11824933
129	0xbdb47bc4	-0.08812669
130	0x3c89536b	0.01676341
131	0xbda9940c	-0.08280191
132	0xbd556e1a	-0.052106954
133	0xbccf0838	-0.025272474
134	0xbe4f057f	-0.2021694
135	0xbdcb5507	-0.09928327
136	0x3d66adf8	0.056318253
137	0xbdda411f	-0.10656952
138	0xbe44aaa3	-0.19205718
139	0x3a9b1bf9	0.0011833898
140	0x3db4a1df	0.08819937
141	0xbe35a110	-0.17737222
142	0xbdbcab5a	-0.0921237
143	0xbd06dc1e	-0.032924764
144	0xbce136b7	-0.02749191
145	0x3a5963a0	0.00082927383
146	0x3bf5c405	0.007500174
147	0x3d7e31ad	0.062059093
148	0xbcd792fd	-0.026315207
149	0xbd4c1c04	-0.049831405
150	0xbd4e5402	-0.050373085
151	0xbd343f25	-0.04400553
152	0xbd83a68f	-0.06428253
153	0xbe0903ea	-0.133804
154	0xbe17ceb5	-0.14824946
155	0xbce87359	-0.028375315
156	0xbbcd5ec3	-0.0062674
157	0x3d341a04	0.043970123
158	0xbe394161	-0.18091346
159	0x3dbed29a	0.09317513
160	0x3d6daaec	0.058024332
161	0xbdbba761	-0.09162784
162	0xbc187baf	-0.009306832
163	0xbdd41d06	-0.10357098
164	0x3c93c5d5	0.01803867
165	0xbe0adab4	-0.13559991
166	0xbcedf11f	-0.02904564
167	0xbe1964c4	-0.14979845
168	0x3b7c52ad	0.0038501427
169	0xbdb09a72	-0.08623208
170	0xbd741172	-0.05958695
171	0x3d32f438	0.043689936
172	0xbe181db1	-0.14855076
173	0xbb4714ef	-0.0030377468
174	0xbd4aeff9	-0.049545262
175	0xbe2b5946	-0.16733274
176	0xbe2c844e	-0.16847345
177	0x3b1b3148	0.0023680497
178	0xbe4512d8	-0.1924547
179	0x3c96bce7	0.018400623
180	0x39e78898	0.00044161524
181	0x3ca9e171	0.020737382
182	0xbdb84fe0	-0.0899961
183	0xbca4da07	-0.020123495
184	0xbd33bd0b	-0.043881457
185	0xbd95af4d	-0.073088266
186	0x3d86ce40	0.06582308
187	0xbdb78276	-0.0896043
188	0xbdccde2b	-0.10003313
189	0xbd87dd72	-0.06634034
190	0xbe294305	-0.16529472
191	0xbcbc821e	-0.023011263
192	0x3d15d8b9	0.036583636
193	0xbcc22d52	-0.023703251
194	0x3d96df65	0.07366828
195	0x3cc88b96	0.024480622
196	0xbe248f19	-0.16070212
197	0x3d23af77	0.03996226
198	0x3dc2720d	0.0949441
199	0xbd9caec5	-0.07650522
200	0xbc9dbe8a	-0.019255895
201	0x3ddb777e	0.10716151
202	0xbe3228ac	-0.17398328
203	0x3d1c52d1	0.038164917
204	0xbe1e8409	-0.15480055
205	0x3d62b6d4	0.05535014
206	0x3a84ecc2	0.001014136
207	0xbd24929f	-0.04017889
208	0xbbeaec66	-0.007169294
209	0xbd09ee98	-0.033674806
210	0xbd8e210c	-0.06939897
211	0x3d438c51	0.047741238
212	0x3d9038e5	0.07042102
213	0xbde0725e	-0.10959314
214	0xbdccf249	-0.1000715
215	0xbe018b8f	-0.12650894
216	0xbdf16811	-0.11787427
217	0xbde8dfdf	-0.11370825
218	0xbc55c12d	-0.013046545
219	0xbc93dd71	-0.018049927
220	0xbd2b41c2	-0.04181076
221	0xbe2a6461	-0.16639854
222	0x3e054aaf	0.13016771
223	0x3cee42f0	0.029084653
224	0xbc121bd0	-0.008917764
225	0xbcaf65da	-0.021410871
226	0xbd120650	-0.03565055
227	0xbbf6d1eb	-0.0075323484
228	0x3d00bdcb	0.031431
229	0xbbcd2a37	-0.006261136
230	0xbb85032d	-0.0040592165
231	0x3ccf01ac	0.025269352
232	0x3e3adec9	0.18249048
233	0x3df0241c	0.11725637
234	0x3d8f1edd	0.069883086
235	0x3d71a964	0.058999434
236	0x3d072259	0.03299174
237	0x3d65398d	0.055963088
238	0xbd8fdb8c	-0.07024297
239	0xbd6ce3f4	-0.05783458
240	0xbcf241ef	-0.029572455
241	0xbdddb0b2	-0.108247176
242	0x3bccd803	0.0062513365
243	0xbb2febad	-0.0026843355
244	0xbcbd91f8	-0.023140892
245	0x3d8ef51c	0.06980345
246	0xbd21a2cc	-0.039461896
247	0xbd84616b	-0.064638935
248	0xbe07878a	-0.13235298
249	0x3d9378cd	0.07200775
250	0xbcba1c6a	-0.022718627
251	0x3cceeb3e	0.025258657
252	0xbd9fa50e	-0.077951536
253	0xbdf98006	-0.12182622
254	0x3e044c25	0.12919672
255	0xbdc6a2f0	-0.096990466

conv2.lin_l.bias f4 [64]
0	0x3cf060f2	0.029343102
1	0x3e17134d	0.14753456
2	0xbe40d4dd	-0.18831201
3	0xbe04a0b8	-0.12951934
4	0xbce861e4	-0.02836699
5	0x3e13c257	0.14429604
6	0xbdb5d42a	-0.08878358
7	0x3dbd29fd	0.09236524
8	0xbb2c8b87	-0.0026328282
9	0x3c02d73b	0.007985885
10	0x3d70945b	0.058735233
11	0x3d21b8ec	0.039482996
12	0xbcec821f	-0.02887064
13	0x3d067862	0.03282965
14	0xbdf3fa0a	-0.119129255
15	0x3e1c1105	0.15240867
16	0xbc4a16ba	-0.01233452
17	0x3e54c9d0	0.2078011
18	0xbd37d2ea	-0.044878878
19	0x3ded370c	0.11582765
20	0xbc80b314	-0.015710391
21	0xbda43b01	-0.080190666
22	0x3d54d532	0.05196113
23	0x3d7dba32	0.061945148
24	0xbd463379	-0.048388932
25	0x3d3d3a82	0.046198376
26	0xbd481023	-0.048843514
27	0x3def189d	0.116746165
28	0xbe0ad568	-0.1355797
29	0xbd174291	-0.036928717
30	0xbceac27c	-0.02865719
31	0xbd09bdde	-0.033628337
32	0xbd968500	-0.073495865
33	0x3d64171d	0.055686105
34	0x3d388334	0.045047
35	0x3ca22c1f	0.01979643
36	0x3d278dce	0.04090672
37	0xbd95799a	-0.07298584
38	0x3c8f81e0	0.017517984
39	0xbd948c1d	-0.07253287
40	0x3e1ae94a	0.15128055
41	0x3a925536	0.0011164311
42	0x3b7778b9	0.0037761165
43	0x3e1d8867	0.15384065
44	0x3e45b0e8	0.19305766
45	0x3d8a9c70	0.06768119
46	0xbda151a7	-0.07876902
47	0x3da35207	0.0797463
48	0xbd2e50ba	-0.042557456
49	0xbe2d5848	-0.16928208
50	0xbd84aa76	-0.06477825
51	0x3d4f2fa6	0.05058255
52	0x3e0fc6f3	0.14040737
53	0xbd72abbe	-0.059245817
54	0x3d97068d	0.07374296
55	0xbe0e50b9	-0.13897981
56	0xbe0ece08	-0.13945782
57	0xbd97cfb6	-0.074126646
58	0x3dd24f12	0.10268988
59	0xbb8b042b	-0.00424244
60	0x3d425f56	0.0474542
61	0xbc590654	-0.013246138
62	0xbd7ba9b0	-0.061441123
63	0x3d7b0d06	0.061291717

conv2.lin_r.weight f4 [64, 64]
0	0xbdfc4b72	-0.123190776
1	0xbd865db6	-0.06560843
2	0xbe28b4aa	-0.16475168
3	0xbcd53612	-0.02602676
4	0xbd13f387	-0.036120918
5	0x3e500765	0.20315321
6	0x3e11d277	0.14240442
7	0x3db6d7eb	0.08927902
8	0x3a25235f	0.0006299521
9	0x3d5237bf	0.051322695
10	0x3c0930c6	0.008373445
11	0x3ddd6c62	0.10811688
12	0x3cd31c1b	0.025770238
13	0x3bd507b4	0.0065011624
14	0x3e503e5a	0.20336285
15	0x3df6d3fe	0.12052153
16	0x3d539f2b	0.051665466
17	0x3cbad3d5	0.022806088
18	0x3e158679	0.14602078
19	0xbd463308	-0.04838851
20	0xbd9dc5ed	-0.07703767
21	0x3e05e831	0.13076855
22	0x3d735e58	0.059416145
23	0xbda6a764	-0.08137396
24	0x3da43c67	0.08019333
25	0x3d27e6f7	0.04099175
26	0x3e2a5c70	0.16636825
27	0xbcd62581	-0.02614093
28	0x3de01c34	0.10942879
29	0xbc2cb8c4	-0.010542098
30	0x3cbfee36	0.023429018
31	0x3db81ee4	0.08990267
32	0x3dfa2348	0.122137606
33	0x3e3f4632	0.18679121
34	0x3dfc92f1	0.12332714
35	0x3baa885d	0.005204244
36	0x3e083b5d	0.13303895
37	0x3cba3d28	0.02273424
38	0x3da3c9b0	0.07997453
39	0x3c64fd1b	0.013976361
40	0x3c3a7e87	0.0113827055
41	0x3e1ef244	0.15522105
42	0xbbf519a7	-0.0074798646
43	0x3e054f86	0.13018617
44	0x3c921c62	0.0178358
45	0x3cb83366	0.022485446
46	0xbda7f76b	-0.08201488
47	0x3c70df11	0.014701621
48	0xbc12ed57	-0.008967719
49	0x3e0553a8	0.13020194
50	0x3e061248	0.13092911
51	0xbda67da5	-0.081294335
52	0x3e4e515b	0.20148222
53	0x3e389458	0.18025339
54	0xbd9d20cf	-0.07672273
55	0x3b3422fc	0.0027486673
56	0xba7bd6e9	-0.0009606914
57	0x3d837eb9	0.06420655
58	0x3d93f717	0.07224863
59	0xbbfa7424	-0.0076432396
60	0x3dfa23ac	0.12213835
61	0x3d2bda20	0.041956067
62	0x3e0ed658	0.13948953
63	0x3e1a71a7	0.15082417
64	0xbbdaeaea	-0.006680836
65	0x3d8c8138	0.06860584
66	0x3e08191a	0.13290825
67	0xbd2782a1	-0.04089606
68	0x3ddd620b	0.10809716
69	0x3e1a0107	0.15039454
70	0x3cb3dc2f	0.021955578
71	0x3de3d64d	0.11124859
72	0x3de4330d	0.1114255
73	0x3e15b00a	0.14617935
74	0xbca5f55c	-0.020258598
75	0x3e23d797	0.1600021
76	0x3d94cca3	0.07265594
77	0x3de6283b	0.11238142
78	0x3e3d2144	0.18469721
79	0x3e1f4d68	0.15556872
80	0xbb88ca15	-0.0041744807
81	0x3d7c891e	0.061654203
82	0x3de1dd14	0.110284954
83	0xbd99ae06	-0.075038955
84	0x3e1ed5f3	0.15511303
85	0xbc5f9d84	-0.0136483945
86	0x3e29b35b	0.16572325
87	0x3e30ef20	0.17278719
88	0x3e27e496	0.16395792
89	0x3de44edf	0.11147856
90	0x3bf90a59	0.0076001105
91	0x3bc4c61a	0.006005061
92	0x3dbb35ab	0.09141096
93	0x3df5f31c	0.1200926
94	0xbda43a77	-0.08018964
95	0x3dec0752	0.11524834
96	0xbdd1d9ae	-0.10246597
97	0x3e40422b	0.18775241
98	0x3e10a3a3	0.14124922
99	0x3cc2ed28	0.023794726
100	0x3d14ac20	0.036296964
101	0xbc5bdd0e	-0.013419403
102	0xbdb9c1c4	-0.09070161
103	0x3e0000de	0.12500331
104	0xbe14d1da	-0.14533177
105	0x3d2278c0	0.039665937
106	0x3d2a7961	0.041619662
107	0x3c8c75bf	0.01714599
108	0x3bd8a8f0	0.006611936
109	0xbd12ea36	-0.035867892
110	0x3e25a416	0.16175875
111	0x3c68a659	0.014199817
112	0xbcc91889	-0.024547832
113	0x3e462f2d	0.19353934
114	0x3cfce995	0.0308731
115	0xbd165c47	-0.036709096
116	0x3d8d7e13	0.069088124
117	0xba4bb4c1	-0.000777077
118	0x3de2df2f	0.11077725
119	0x3c990a6f	0.018681733
120	0x3dc8b3a5	0.097998895
121	0x3dd555c5	0.1041675
122	0x3dc278e7	0.094957165
123	0x3dc5c354	0.096563965
124	0x3e007010	0.12542748
125	0x3d7fe119	0.06247053
126	0x3cdfeba4	0.027334042
127	0x3e3819e0	0.1797862
128	0xbe0107e2	-0.12600663
129	0xbdd5e96c	-0.10444912
130	0xbcd96607	-0.026537908
131	0xbdce3784	-0.100691825
132	0xbde8358a	-0.11338337
133	0xbd8da681	-0.06916524
134	0xbdd75f99	-0.10516281
135	0xbdcae456	-0.09906833
136	0xbd87e2ba	-0.066350415
137	0xbddf9c10	-0.109184384
138	0xbe3c38ce	-0.18381044
139	0xbd3baa60	-0.04581678
140	0xbe1d57ff	-0.15365599
141	0xbe3d3084	-0.18475538
142	0xbe231749	-0.15926851
143	0xbd393687	-0.045218017
144	0x3d0fe597	0.035131063
145	0xbd944ab7	-0.07240813
146	0xbbb34dec	-0.0054719355
147	0xbe055c3f	-0.1302347
148	0xbe1620ad	-0.14660902
149	0xbe1727b3	-0.14761238
150	0xbd85df2a	-0.06536706
151	0xbe1e5930	-0.1546371
152	0xbc4c44a3	-0.012467536
153	0x3c78c043	0.0151825575
154	0xbdd5083f	-0.104019634
155	0x3d827c76	0.06371395
156	0xbcab3708	-0.020900264
157	0xbe1a874c	-0.15090674
158	0x3d0d3554	0.034474686
159	0xbd296994	-0.041360453
160	0x3df5bbc6	0.119987056
161	0x3c094f4f	0.008380725
162	0xbe20a992	-0.15689686
163	0xbd7e8127	-0.062134888
164	0xbde8c57a	-0.11365791
165	0xbd113c30	-0.03545779
166	0x3d1f5f9a	0.038909532
167	0x3c2fc2e0	0.010727614
168	0x3dbf1507	0.093301825
169	0x3e23edf1	0.16008736
170	0xbe3baaec	-0.1832692
171	0xbdc80c50	-0.097679734
172	0x3d2a9e83	0.041655075
173	0xbd51b3d6	-0.051196896
174	0xbe09fa33	-0.1347435
175	0xbde32798	-0.11091536
176	0xbe4908c9	-0.19632258
177	0x3c11729c	0.008877423
178	0xbce44d76	-0.027868968
179	0x3c5c6164	0.013450954
180	0xbdadf135	-0.08493272
181	0xbdedefc1	-0.11617995
182	0xbd96ae69	-0.07357485
183	0xbd04158f	-0.032247122
184	0x3d2e3326	0.042529248
185	0xbe3d9248	-0.18512833
186	0xbd661065	-0.05616798
187	0xbd95e8f9	-0.07319827
188	0xbd74a303	-0.059725773
189	0xbdfa3507	-0.122171454
190	0x3c9dd17c	0.019264929
191	0xbd300c57	-0.04298052
192	0x3e21e2f4	0.15809232
193	0xbe2533b0	-0.16132998
194	0x3df67138	0.120333135
195	0x3a85cb18	0.0010207621
196	0xbccb2eb8	-0.02480255
197	0x3c7af3ca	0.015316913
198	0xbdf2fe39	-0.118648954
199	0xbe409b90	-0.18809342
200	0x3dc36f19	0.095426746
201	0xbda5c597	-0.08094328
202	0xbb2f0bdc	-0.002670995
203	0xbdd93059	-0.10604925
204	0x3dd5170b	0.10404786
205	0xbe292a4a	-0.16520038
206	0xbe1f533d	-0.15559097
207	0xbd9d168d	-0.07670317
208	0xbdacccb4	-0.084374815
209	0x3d0cae8f	0.03434616
210	0x3b9d0461	0.004791782
211	0xbe1cdddf	-0.15319012
212	0xbd8da258	-0.0691573
213	0x3bcd9299	0.0062735793
214	0x3d080bd9	0.033214424
215	0xbcb583fd	-0.022157663
216	0x3d1d78f6	0.038445435
217	0x3e280780	0.16409111
218	0xbc4b63ca	-0.012413928
219	0x3d12645a	0.035740234
220	0xbd648a1c	-0.055795774
221	0x3ab66b21	0.0013917425
222	0xbdc5b039	-0.096527524
223	0x3ddab74a	0.10679491
224	0xbd2e9070	-0.042618215
225	0xbe348935	-0.17630465
226	0xbd0f38ac	-0.034966156
227	0xbc3843c2	-0.0112466235
228	0xbdb683e5	-0.08911876
229	0xbd3a9cad	-0.045559574
230	0xbe4643f5	-0.19361861
231	0x3cc72ef5	0.024314383
232	0x3c162c94	0.009165902
233	0xbe352275	-0.17688926
234	0xbdbc3364	-0.091894895
235	0xbde51536	-0.11185686
236	0xbde78d5f	-0.11306261
237	0xbdb939eb	-0.0904425
238	0x3d36563b	0.04451583
239	0xbd3c84d2	-0.046025105
240	0x3dbf678f	0.09345924
241	0xbe455f48	-0.19274628
242	0xbd1cab71	-0.038249437
243	0xbe02a27c	-0.12757295
244	0xbdbf3753	-0.09336724
245	0xbe286b0c	-0.16447085
246	0xbdb8701a	-0.09005757
247	0xbe413f36	-0.1887177
248	0x3dce23c2	0.10065414
249	0xbdc27de6	-0.094966695
250	0xbe111da9	-0.1417147
251	0xbe254f2b	-0.16143481
252	0xbd0f6a39	-0.03501341
253	0x3d7c517c	0.061601147
254	0xbbdf3bd6	-0.006812553
255	0xbdf7ef90	-0.1210624

classifier.weight f4 [2, 128]
0	0x3e0358c5	0.12826832
1	0x3cdf3cff	0.027250765
2	0x3d830568	0.063975155
3	0xbdf01633	-0.11722984
4	0x3b0c19d6	0.0021377704
5	0x3b8287e9	0.003983487
6	0xbdd94088	-0.106080115
7	0x3b0d354f	0.0021546667
8	0x3e10942d	0.14119025
9	0xbdd08fd4	-0.10183683
10	0xbc2d4a4f	-0.010576799
11	0x3e0c6ff9	0.13714589
12	0x3dfabe77	0.122433595
13	0xbcdcc82c	-0.026950918
14	0x3e075e94	0.13219672
15	0xbdb9f1c5	-0.09079317
16	0x3d8ba66d	0.068188526
17	0x3dda5c2d	0.106621124
18	0xbdc92337	-0.0982117
19	0xbd2e8ef7	-0.04261681
20	0xbe03ba72	-0.12864092
21	0xbd36a0bb	-0.04458688
22	0x3c868c6e	0.016424384
23	0x3da26ea4	0.07931259
24	0x3c9cdb02	0.0191474
25	0x3d915f1e	0.0709822
26	0x3d0837bf	0.03325629
27	0x3ddd36e1	0.10801483
28	0x3d13e0cd	0.03610306
29	0x3cd0bddf	0.025481163
30	0xbd8aa474	-0.06769648
31	0xbc86dbad	-0.016462171
32	0xbc4d4037	-0.012527517
33	0xbc8be01b	-0.017074635
34	0x3b81bc25	0.003959196
35	0x3c743011	0.014904038
36	0x3d4865bc	0.048925146
37	0x3dfcf877	0.123520784
38	0xbe145f84	-0.14489561
39	0x3e0b7f90	0.1362288
40	0x3d99b465	0.07505111
41	0xbdc5ac72	-0.09652032
42	0xbcf40be2	-0.029790822
43	0xbda88e38	-0.08230251
44	0x3ceeae3a	0.029135812
45	0xbd023ef1	-0.031798307
46	0x3cabee8c	0.020987771
47	0x3d83c20c	0.06433496
48	0xbd4d96da	-0.05019269
49	0xbd3a329d	-0.045458425
50	0x3d36dd67	0.04464474
51	0x3dd9551b	0.10611936
52	0x3cea1cc0	0.028578162
53	0xbd450ced	-0.04810803
54	0x3cdf581c	0.027263694
55	0x3dc2e193	0.09515681
56	0xbd3dc6c0	-0.04633212
57	0x3d2797e8	0.040916353
58	0x3ddd712c	0.108126014
59	0x3d815d5f	0.06316637
60	0xbd33cc78	-0.04389617
61	0xbcf72f48	-0.030173913
62	0xbd1f2add	-0.038859237
63	0x3c881d20	0.01661545
64	0x3cfffb4e	0.031247761
65	0x3d7f5a40	0.06234193
66	0xbd769414	-0.060199812
67	0xbc9c94cc	-0.01911392
68	0xbd22984f	-0.039696034
69	0x39d63e8b	0.0004086386
70	0xbd988196	-0.074465916
71	0x3db42dd0	0.087978005
72	0x3dc10ea6	0.09426622
73	0xbcd035f8	-0.02541636
74	0x3d30738f	0.043078955
75	0x3e094696	0.13405833
76	0x3d651183	0.055924904
77	0xbbbf345d	-0.0058350996
78	0x3e010a28	0.1260153
79	0xbe0fa8c3	-0.14029221
80	0x3d31ff42	0.043456323
81	0xbcac18b1	-0.021007868
82	0xbc50a626	-0.012734925
83	0x3d8df3f1	0.06931294
84	0x3b437aed	0.0029827908
85	0xbd90e4ae	-0.07074867
86	0xbd4ba353	-0.049716305
87	0xbdfaa423	-0.12238338
88	0x3ddadcdb	0.10686656
89	0xbe6a8a1b	-0.22904246
90	0xbe0e2c6f	-0.13884138
91	0x3d1a1ebd	0.03762697
92	0x3da4d3d2	0.08048214
93	0xbc8b6c36	-0.017019372
94	0x3c4760ab	0.0121690435
95	0xbdd11e6a	-0.10210879
96	0xbd88da98	-0.066823184
97	0xbd557d23	-0.052121293
98	0xbe1505fa	-0.14553061
99	0x3c860c4e	0.01636329
100	0xbc63313f	-0.013866722
101	0x3d7868e9	0.060646925
102	0xbe0df09a	-0.13861313
103	0x3bcfbee2	0.0063398937
104	0xbb0b36d7	-0.0021242404
105	0xbe147e90	-0.14501405
106	0xbd8363a4	-0.06415489
107	0xbd521bbb	-0.051295977
108	0xba5d9304	-0.0008452388
109	0xbc9324c9	-0.017961876
110	0x3e06cde8	0.13164485
111	0xbc5b450b	-0.01338316
112	0xbccc8265	-0.02496452
113	0xbd5333a3	-0.051562916
114	0xbcd94971	-0.026524277
115	0x3ca735c6	0.020411383
116	0x3dd55d03	0.10418131
117	0xbcfa400d	-0.03054812
118	0x3cea0986	0.028568994
119	0x3dd95e45	0.106136836
120	0xbd290f59	-0.041274402
121	0x3dae052f	0.084970824
122	0xbc6eb602	-0.014569761
123	0xbc8df2d7	-0.01732771
124	0xbdbde22b	-0.09271654
125	0xbda18176	-0.07886021
126	0xbe144745	-0.14480312
127	0x3e01e3fc	0.12684625
128	0xbd4f0258	-0.050539345
129	0xbdcf87df	-0.10133337
130	0x3dc29cc9	0.09502561
131	0x3c6f628b	0.014610897
132	0x3e0efe30	0.13964152
133	0xbb802af9	-0.0039113727
134	0xbb1a7387	-0.0023567395
135	0xbd526842	-0.05136896
136	0x3dcee89a	0.10102959
137	0xbdbc27cb	-0.091872774
138	0x3cec3c1f	0.028837262
139	0x3db1a4cc	0.08674011
140	0x3d9cb594	0.07651821
141	0x3df70b3c	0.1206269
142	0x3df8bc73	0.12145319
143	0xbe045e31	-0.12926556
144	0xbcb62f1b	-0.022239259
145	0xbd8d950d	-0.06913195
146	0x3d4e9bb6	0.050441466
147	0x3ddc429a	0.10754891
148	0xbda8cab2	-0.08241786
149	0xbcc8c645	-0.024508605
150	0x3c512c22	0.01276687
151	0x3cfdc95b	0.030979803
152	0x3de07440	0.10959673
153	0x3d9e8fba	0.077422574
154	0xbe1bc5d8	-0.1521219
155	0xbba28b20	-0.0049604326
156	0x3e0b8cfa	0.13627997
157	0xbb296820	-0.0025849417
158	0x3d85437f	0.065070145
159	0xbdaff2b8	-0.08591217
160	0x3e0cf169	0.13763966
161	0xbcc35145	-0.023842463
162	0x3cef106c	0.029182635
163	0x3cbaeb2e	0.02281722
164	0x3d7c66e6	0.06162157
165	0x3e14c32c	0.14527577
166	0xbdfa0bea	-0.12209304
167	0x3d11e454	0.03561814
168	0xbdb8814d	-0.09009037
169	0xbd90bb6c	-0.07066998
170	0xbcaa48b0	-0.020786613
171	0xbdbc6b17	-0.09200113
172	0x3c444924	0.011980329
173	0xbdacd22f	-0.08438527
174	0x3db87958	0.090075195
175	0xbbef8f7b	-0.0073108054
176	0x3c42e312	0.011894958
177	0x3e1f433e	0.15552995
178	0xbd9fb827	-0.07798796
179	0x3dde4f90	0.10855019
180	0x3d038d02	0.032116897
181	0x3d89961f	0.067180865
182	0xbc3c27f4	-0.011484135
183	0x3c061834	0.008184481
184	0x3d3066cd	0.04306679
185	0x3ae7d84c	0.0017688363
186	0xbdddbc4d	-0.10826931
187	0xbc903102	-0.017601494
188	0x3d3b89d7	0.04578575
189	0xbb87022b	-0.0041201315
190	0xbb6a5d6b	-0.0035761248
191	0xbc0ffe48	-0.008788653
192	0xbc9891c7	-0.0186242
193	0xbde1b8c5	-0.1102157
194	0x3e09a492	0.13441685
195	0x3d1ef2ec	0.038805887
196	0xbbda7fe5	-0.0066680782
197	0x3a42a9d8	0.00074258214
198	0xbd478eb1	-0.048720066
199	0xbd314345	-0.043277044
200	0x3d58a7d3	0.052894425
201	0xbdc53cc2	-0.09630729
202	0xbd8b90a6	-0.06814699
203	0x3deb6ba7	0.114951424
204	0xbccb7d48	-0.024840012
205	0x3d83b5de	0.06431173
206	0x3dc1d10e	0.09463702
207	0xbdd55c04	-0.10417941
208	0xbdd399f7	-0.10332101
209	0xbdb177a2	-0.08665396
210	0xbcdda45e	-0.027055915
211	0xbcff3a78	-0.03115581
212	0xbca7fb20	-0.020505488
213	0xbc9444e0	-0.018099248
214	0xbdc5a453	-0.09650483
215	0x3cd89ef0	0.026442975
216	0xbd325900	-0.04354191
217	0x3cde13de	0.027109083
218	0xbd6b9588	-0.05751565
219	0xb9313b41	-0.00016902109
220	0x3da8bb28	0.08238822
221	0x3dca28b2	0.09871043
222	0x3d718acd	0.05897026
223	0xba3b1701	-0.0007136912
224	0x3c7c3e50	0.015395716
225	0x3b6cdf58	0.0036143865
226	0xbe0483fd	-0.12940975
227	0x3d0a7ca2	0.033810265
228	0xbd133b63	-0.035945307
229	0x3df78318	0.12085551
230	0xbd549e7f	-0.051908966
231	0x3df49774	0.1194295
232	0xbd5d0585	-0.053960342
233	0xbc5bd9e1	-0.013418646
234	0xbc103d3c	-0.008803662
235	0xbc817f73	-0.015807843
236	0xbcacca61	-0.021092596
237	0x3d110766	0.035407446
238	0x3c161de0	0.009162396
239	0x3da7cac2	0.0819297
240	0xbdbdae54	-0.09261766
241	0x3d969d3c	0.07354209
242	0xbbb65568	-0.0055643804
243	0x3d203531	0.039113227
244	0x3c6a1dae	0.014289303
245	0xbc28a49a	-0.01029315
246	0xbe267f15	-0.16259415
247	0x3dce0a3a	0.10060544
248	0x3a8bdc60	0.0010670535
249	0x3db7b125	0.089693345
250	0x3c174d7a	0.00923478
251	0x3de15445	0.11002401
252	0xbe00e954	-0.12589008
253	0x3c38a727	0.011270321
254	0xbcd06af4	-0.025441624
255	0x3da9d0a3	0.082917474

classifier.bias f4 [2]
0	0xbd57068a	-0.05249647
1	0xbdcdb6b5	-0.10044614
