outputs/classification/edges/rebuttal/weights/SSGConv_10.pth (torch, 22127 bytes, 6 tensors)

conv1.lin.weight f4 [64, 7]
0.18563922 -0.13767093 -0.3378924 -0.004650773 0.0030496654 -0.25370777 -0.008187673 0.18536033
-0.16232994 0.20555426 -0.19170292 0.336777 0.43582135 0.3178931 0.43137974 0.21555836
-0.024201648 0.20922074 0.0032052312 -0.2903264 0.42433906 -0.17792508 0.19103475 0.33496612
-0.09779273 0.1043384 -0.2987573 0.0703965 0.059886947 0.15362892 -0.30379194 -0.036899373
0.15913329 -0.18576992 0.38241476 -0.41893485 -0.40328437 -0.19772604 -0.060189497 -0.12378383
0.12835321 -0.06732809 0.21135883 0.10993239 -0.2042489 -0.034145962 0.1444888 0.17016913
0.43896723 0.019106757 0.11767511 -0.070724405 -0.13244238 0.24436495 0.27824956 0.33558398
-0.20307606 -0.09910994 -0.36623642 -0.30856976 -0.0952496 -0.32104462 -0.08405315 0.3956925
0.22346307 0.08506118 0.035709895 0.3067048 0.17464669 -0.07119087 -0.1940267 -0.010157459
-0.022023534 0.07574162 -0.30323616 -0.43216315 -0.24119554 0.13789274 -0.047730498 0.33119676
0.09556199 -0.034720954 0.03094689 0.31279528 -0.41612276 0.04992386 -0.08021994 0.31855464
0.21995339 -0.25305504 0.0089659495 -0.3136997 0.12898226 0.25340417 0.3120793 0.18204731
0.27533457 0.18210915 0.44798508 -0.13277951 0.22709522 -0.11267009 0.44368026 -0.13061853
0.16844143 -0.28839597 0.20308468 0.25699726 0.39617673 0.33613032 -0.33175996 0.24158914
-0.07315599 0.22706167 0.30562773 0.12832923 -0.03599628 0.2198037 0.021448027 -0.20322011
-0.0007043303 0.2521288 0.08732178 -0.012947446 -0.16904578 -0.1503212 0.07164718 0.2754905
-0.4143572 0.17755388 0.040625874 0.11850443 0.24728729 0.24337846 -0.34466854 0.038930237
-0.1991083 0.019654006 0.18688236 0.3403686 0.2917157 -0.21487898 -0.17178707 -0.008368333
0.2992841 -0.17939912 0.05240376 -0.22029263 0.2996025 0.0028970758 0.12556991 0.11900983
0.10697651 -0.13532728 0.04369397 -0.08157814 0.33805937 -0.23888446 -0.032895856 0.30138266
-0.20836309 0.22087136 -0.1162817 0.40120596 -0.0016704727 0.22699356 -0.056394722 -0.09938265
0.100279145 -0.19680455 0.064978585 -0.040790454 0.1392466 0.3974871 0.19589405 -0.43788862
-0.38727614 0.14214742 -0.15421976 0.28102788 -0.2320923 0.05141327 -0.36376268 -0.14868909
-0.2545245 -0.20672469 0.10147408 -0.22279602 -0.3419183 0.124480896 0.045534015 0.36714834
0.20373274 -0.15767652 0.3370031 0.25876352 0.1489862 0.10545816 0.11507938 -0.36656433
-0.06607254 -0.3882274 -0.16700825 0.22974584 -0.3923765 -0.24064225 -0.052019272 0.23961602
-0.07009112 0.18064842 0.08364992 -0.091184065 -0.12117157 0.20502412 0.06734824 -0.021546166
0.26581052 -0.21632983 0.08218827 -0.21720137 -0.023770863 0.11700062 0.010344677 -0.3601885
0.08088611 0.11546414 -0.33453736 -0.22986299 -0.345113 0.19599009 0.16246197 -0.13725843
-0.34177867 -0.103443965 0.23852818 -0.14090262 -0.35119486 0.24983713 0.35368204 -0.15993826
-0.034432914 0.06706886 -0.21466604 0.39211038 -0.29207167 0.16237515 -0.2216619 -0.20822671
-0.3025487 0.21349144 -0.010010512 -0.3548497 -0.04748917 -0.060558822 -0.09585283 -0.23457038
00000000: 3518 3e3e 9cf9 0cbe 3c00 adbe 8365 98bb
00000010: e5dc 473b fce5 81be 9725 06bc 19cf 3d3e
00000020: d239 26be d17c 523e c54d 44be 096e ac3e
00000030: fa23 df3e e2c2 a23e cedd dc3e 55bb 5c3e
00000040: 8942 c6bc f63d 563e db0e 523b a9a5 94be
00000050: f842 d93e fe31 36be 9d9e 433e ae80 ab3e
00000060: 8e47 c8bd 5faf d53d b8f6 98be 0a2c 903d
00000070: 044c 753d e650 1d3e 9e8a 9bbe cc23 17bd
00000080: d6f3 223e 783a 3ebe decb c33e a17e d6be
00000090: 4a7b cebe b278 4abe 4389 76bd 6082 fdbd
000000a0: 066f 033e 4fe3 89bd 736e 583e 3c24 e13d
000000b0: a026 51be a3dc 0bbd dff4 133e d140 2e3e
000000c0: 50c0 e03e c685 9c3c a6ff f03d f5d7 90bd
000000d0: fa9e 07be ce3a 7a3e ba76 8e3e aad1 ab3e
000000e0: 2cf3 4fbe 27fa cabd 5783 bbbe dbfc 9dbe
000000f0: 3912 c3bd f65f a4be 0f24 acbd 3598 ca3e
00000100: 81d3 643e 8e34 ae3d 8a44 123d 6908 9d3e
00000110: 95d6 323e 85cc 91bd efae 46be 796b 26bc
00000120: b36a b4bc 6c1e 9b3d c541 9bbe 7d44 ddbe
00000130: f7fb 76be c133 0d3e 0e81 43bd 9f92 a93e
00000140: 01b6 c33d 8f37 0ebd 5584 fd3c b426 a03e
00000150: 0b0e d5be f67c 4c3d 5a4a a4bd 9819 a33e
00000160: 763b 613e 6e90 81be ebe5 123c 3f9d a0be
00000170: ed13 043e 31be 813e dcc8 9f3e 9c6a 3a3e
00000180: a7f8 8c3e d27a 3a3e 4d5e e53e 5af7 07be
00000190: a68b 683e 93bf e6bd 0f2a e33e ddc0 05be
000001a0: e97b 2c3e a3a8 93be 6ef5 4f3e 2595 833e
000001b0: add7 ca3e 4619 ac3e 71dc a9be 2563 773e
000001c0: cfd2 95bd db82 683e 3d7b 9c3e bd68 033e
000001d0: d670 13bd 3914 613e c6b3 af3c ef18 50be
000001e0: cea2 38ba 0717 813e c3d5 b23d 8621 54bc
000001f0: 561a 2dbe cded 19be c2bb 923d 170d 8d3e
00000200: a026 d4be afd0 353e 5167 263d 73b2 f23d
00000210: e138 7d3e 3438 793e 6578 b0be 5075 1f3d
00000220: 0ce3 4bbe 7001 a13c 175e 3f3e cb44 ae3e
00000230: c35b 953e 3c09 5cbe f3e8 2fbe 551b 09bc
00000240: c43b 993e 67b4 37be 53a5 563d 6494 61be
00000250: 8065 993e dedc 3d3b 6695 003e 6dbb f33d
00000260: 8016 db3d 3c93 0abe 73f8 323d 7112 a7bd
00000270: 1e16 ad3e 219e 74be cebd 06bd d44e 9a3e
00000280: 225d 55be 1a2c 623e 1a25 eebd de6a cd3e
00000290: c3f3 daba 0071 683e 27fe 66bd 2189 cbbd
000002a0: 275f cd3d 2287 49be 7e13 853d e413 27bd
000002b0: a996 0e3e 6e83 cb3e 7398 483e f032 e0be
000002c0: 0f49 c6be 188f 113e c9eb 1dbe e3e2 8f3e
000002d0: 9ba9 6dbe b996 523d 1a3f babe f441 18be
000002e0: 0951 82be a3af 53be a4d1 cf3d a424 64be
000002f0: ea0f afbe d7ef fe3d e081 3a3d defa bb3e
00000300: 519f 503e f475 21be ac8b ac3e a77c 843e
00000310: d78f 183e 73fa d73d bdae eb3d 52ae bbbe
00000320: 0a51 87bd bec5 c6be 3604 2bbe 7e42 6b3e
00000330: 93e5 c8be ec6a 76be 2912 55bd e75d 753e
00000340: ef8b 8fbd e6fb 383e a650 ab3d b6be babd
00000350: cd28 f8bd d8f1 513e e0ed 893d 9681 b0bc
00000360: 5118 883e 9185 5dbe 5352 a83d 096a 5ebe
00000370: 1dbb c2bc 059e ef3d b87c 293c a16a b8be
00000380: 9ea7 a53d 7778 ec3d 7b48 abbe 3461 6bbe
00000390: a7b2 b0be a0b1 483e 6e5c 263e 798d 0cbe
000003a0: 9dfd aebe 6eda d3bd bb40 743e c748 10be
000003b0: d0cf b3be 4ed5 7f3e d015 b53e dbc6 23be
000003c0: 8709 0dbd 665b 893d 6ad1 5bbe b1c2 c83e
000003d0: 6b8a 95be ac45 263e 56fb 62be 6239 55be
000003e0: aae7 9abe 809d 5a3e 2103 24bc dcae b5be
000003f0: 0184 42bd 870c 78bd 7d4e c4bd 3833 70be

conv1.lin.bias f4 [64]
0.1298189 -0.16615587 0.27263224 0.059636597 -0.009877373 -0.20387508 0.4302374 0.099341
-0.12417296 -0.00028273923 -0.037897144 -0.28408808 0.029644901 -0.29479927 0.43909574 -0.27439907
-0.15165208 0.33578873 -0.21161853 -0.2067104 -0.07725591 -0.18767455 -0.19212238 -0.07800035
-0.32749268 -0.038275473 -0.34635842 -0.21363717 0.28021038 -0.2748776 -0.0023083212 -0.14021985
-0.055830743 -0.14923148 -0.30931494 0.32767206 -0.38380724 0.010100637 0.11440354 0.37258136
-0.116473556 -0.086114645 -0.41502845 0.4008049 0.17822298 -0.15880676 0.14979328 0.41859782
0.17700191 0.09260955 -0.016753355 -0.38141 -0.08219913 0.23666145 -0.4000531 0.06767721
0.09421695 -0.1851955 -0.15491994 -0.10542541 0.07629071 -0.06412792 0.0436748 -0.17498286
00000000: 3fef 043e c424 2abe 7496 8b3e 8145 743d
00000010: b5d4 21bc a1c4 50be 1448 dc3e 4b73 cb3d
00000020: 654e febd 9e3c 94b9 093a 1bbd fe73 91be
00000030: ddd9 f23c eeef 96be 28d1 e03e 097e 8cbe
00000040: af4a 1bbe 80ec ab3e 87b2 58be e4ab 53be
00000050: 5938 9ebd c22d 40be bbbb 44be a6be 9fbd
00000060: 1fad a7be bec6 1cbd e455 b1be b4c3 5abe
00000070: bc77 8f3e c2bc 8cbe 3447 17bb cb95 0fbe
00000080: c7ae 64bd 23d0 18be 875e 9ebe a2c4 a73e
00000090: 6282 c4be 247d 253c 674c ea3d fcc2 be3e
000000a0: b089 eebd e05c b0bd 9c7e d4be 4d36 cd3e
000000b0: 1680 363e 3d9e 22be 6963 193e 7452 d63e
000000c0: fd3f 353e 13aa bd3d 553e 89bc 2c48 c3be
000000d0: 0458 a8bd 6157 723e c3d3 ccbe 599a 8a3d
000000e0: d1f4 c03d e4a3 3dbe 55a3 1ebe 47e9 d7bd
000000f0: 4e3e 9c3d 8055 83bd 59e4 323d b52e 33be

conv2.lin.weight f4 [64, 64]
0.046252117 0.09172141 -0.084217675 0.023903321 0.06421764 0.03202671 0.275264 -0.115498565
0.09275997 0.037313502 -0.15223259 -0.016987912 0.059690524 -0.043898482 -0.079490535 -0.06816144
0.0026867115 -0.0068823104 -0.06718829 0.026192233 -0.09219348 -0.022770626 -0.17447671 -0.115444236
0.061738234 -0.1687657 0.10545063 0.060477354 -0.09961033 -0.0058186925 0.14352809 -0.037799027
-0.030087031 -0.013920918 0.0032291424 -0.11254958 0.010490776 -0.058848247 0.034616202 -0.052414387
0.017357616 -0.16698033 0.054336082 0.22350141 -0.01924817 -0.17312643 0.034280214 0.13493125
0.006335199 -0.037160806 -0.106616005 -0.07225835 -0.09548708 0.05840111 -0.1082575 -0.024984926
-0.0023902475 -0.13497394 -0.14023444 0.017968403 -0.09053494 0.1947807 0.076069444 0.047595203
-0.15986067 -0.074637756 0.057341754 -0.14423105 0.001537028 -0.11909669 -0.21985108 0.014201914
-0.0017287433 -0.16248529 0.0146751385 -0.057855163 -0.008347926 -0.18451425 -0.057360746 -0.08861432
-0.17669497 -0.018070571 0.013288183 -0.1450747 -0.06034127 -0.11687615 -0.14607915 -0.17531633
0.04981722 0.015083946 -0.04892537 -0.047456767 0.017765703 -0.16528632 -0.17724732 -0.11489833
-0.17209204 -0.063657835 -0.10712805 -0.15550539 -0.17674 -0.1579164 -0.07876289 0.008479319
0.0207899 0.045555368 -0.03304192 -0.03884678 -0.18597333 0.059743326 -0.032396413 -0.042074636
-0.048958693 -0.093020245 0.024442242 -0.15578854 -0.16410172 -0.11083361 0.054594167 -0.027767457
0.038596205 -0.050895605 -0.09947565 0.02192787 0.013230844 0.16662917 -0.115626425 -0.05706707
-0.01226006 0.06198396 -0.09718015 0.0017928941 -0.15494993 0.12218407 0.27428788 0.06116552
0.115509585 -0.017181763 -0.10658358 0.13542733 0.045659695 0.020100918 -0.0655295 -0.028693955
0.05233594 -0.080415316 -0.046440396 -0.033627406 -0.10761897 -0.09512024 0.02552798 0.026896479
0.12583706 -0.03228042 -0.017765358 -0.027028775 -0.10789971 0.056143332 -0.019970978 0.017832063
-0.06995632 -0.08264257 0.036685947 -0.08888082 -0.07585783 0.042891465 -0.11183014 0.11136185
-0.15969537 0.06940555 -0.024030684 0.044719562 0.11579884 -0.053641178 0.008479883 -0.00907784
-0.09018393 -0.04861991 -0.08127595 0.019307593 0.013169847 0.026131481 0.033732463 -0.05484326
0.03773082 -0.14161044 0.09071478 -0.03095126 -0.16212977 0.14701372 0.00531306 0.093450114
-0.0018236338 -0.117443316 -0.1158371 -0.17128256 0.030222582 -0.08588645 0.15262604 -0.12333961
0.1119843 -0.1390033 0.079816915 -0.11634182 -0.20019507 -0.10107719 -0.11361136 0.0070316573
-0.12221327 -0.012644608 -0.082677744 0.006060467 0.012809942 -0.089439854 -0.0957086 -0.05917148
-0.10395788 -0.16349031 -0.069469914 -0.13494492 0.046659164 0.044828624 -0.041986067 -0.14958632
-0.009752621 0.087517455 -0.031423002 -0.051928572 0.049655683 0.05126303 -0.010787891 0.050305936
0.04244268 0.061366573 0.022494324 -0.09306007 -0.17314842 -0.031873204 0.0046088826 -0.028294727
-0.0042770905 -0.18942112 -0.08905477 -0.1681591 -0.12899019 -0.093350515 -0.15304239 -0.06409276
-0.12708229 -0.012895852 -0.14058761 -0.09854417 -0.10392622 -0.17203508 -0.06696331 -0.052728046
00000000: dc72 3d3d 6fd8 bb3d 517a acbd e6d0 c33c
00000010: 8a84 833d 712e 033d 67ef 8c3e 838a ecbd
00000020: f0f8 bd3d 0bd6 183d dce2 1bbe 3c2a 8bbc
00000030: 0d7e 743d e5ce 33bd efcb a2bd 3a98 8bbd
00000040: 8a13 303b 0185 e1bb 049a 89bd 1891 d63c
00000050: efcf bcbd 7789 babc 06aa 32be 076e ecbd
00000060: 3be1 7c3d ead0 2cbe 80f6 d73d 1ab7 773d
00000070: 8000 ccbd bbaa bebb 07f9 123e 27d3 1abd
00000080: 1479 f6bc 9014 64bc 05a0 533b 6580 e6bd
00000090: 81e1 2b3c dc0a 71bd b8c9 0d3d 78b0 56bd
000000a0: 8f31 8e3c e4fc 2abe 838f 5e3d 8edd 643e
000000b0: 57ae 9dbc 0e48 31be 6969 0c3d 6b2b 0a3e
000000c0: 8097 cf3b ee35 18bd 7e59 dabd 30fc 93bd
000000d0: bb8e c3bd 0136 6f3d 1cb6 ddbd 30ad ccbc
000000e0: b3a5 1cbb 9c36 0abe 9e99 0fbe 7932 933c
000000f0: 626a b9bd 9874 473e 4cca 9b3d 30f3 423d
00000100: 84b2 23be aedb 98bd 30df 6a3d 4eb1 13be
00000110: 1a76 c93a f7e8 f3bd a420 61be 25af 683c
00000120: 0097 e2ba 8b62 26be fe6f 703c 89f9 6cbd
00000130: bdc5 08bc 4ef1 3cbe 1af3 6abd 6d7b b5bd
00000140: 87ef 34be bc08 94bc aeb6 593c 768e 14be
00000150: 6828 77bd c35c efbd c695 15be 2086 33be
00000160: 240d 4c3d a822 773c f865 48bd 0762 42bd
00000170: 6189 913c d140 29be 5280 35be d14f ebbd
00000180: e538 30be 0a5f 82bd f365 dbbd ce3c 1fbe
00000190: 55fb 34be d6b4 21be 704e a1bd d7ec 0a3c
000001a0: 954f aa3c 4498 3a3d f756 07bd cd1d 1fbd
000001b0: cb6f 3ebe 6bb5 743d 1ab2 04bd 7456 2cbd
000001c0: e988 48bd 6681 bebd 193b c83c 0887 1fbe
000001d0: 480a 28be bbfc e2bd 229e 5f3d 9478 e3bc
000001e0: 0e17 1e3d e977 50bd e4b9 cbbd 14a2 b33c
000001f0: 2fc6 583c d6a0 2a3e 8ccd ecbd 29bf 69bd
00000200: 6bde 48bc e5e2 7d3d 6306 c7bd 8bff ea3a
00000210: 32ab 1ebe a43b fa3d 766f 8c3e b288 7a3d
00000220: 4a90 ec3d c5c0 8cbc 7e48 dabd 76ad 0a3e
00000230: a905 3b3d aeaa a43c 5534 86bd 960f ebbc
00000240: 365e 563d c9b0 a4bd 4938 3ebd e4bc 09bd
00000250: 5667 dcbd 66ce c2bd 0e20 d13c 0156 dc3c
00000260: 6edb 003e 7938 04bd a888 91bc 736b ddbc
00000270: 86fa dcbd 8df6 653d 2d9a a3bc 8c14 923c
00000280: 4245 8fbd 8240 a9bd 0144 163d 2607 b6bd
00000290: 5a5b 9bbd f6ae 2f3d 3307 e5bd ae11 e43d
000002a0: 2f87 23be 7f24 8e3d ffdb c4bc dc2b 373d
000002b0: f127 ed3d dab6 5bbd 35ef 0a3c 38bb 14bc
000002c0: 5ab2 b8bd ac25 47bd 0174 a6bd f52a 9e3c
000002d0: 58c6 573c b011 d63c 0d2b 0a3d 54a3 60bd
000002e0: a28b 1a3d 5402 11be acc8 b93d 7f8d fdbc
000002f0: 5905 26be c48a 163e 2d19 ae3b c662 bf3d
00000300: ff06 efba 1f86 f0bd 003c edbd b264 2fbe
00000310: 5995 f73c 3ce5 afbd 004a 1c3e 7a99 fcbd
00000320: 0658 e53d e256 0ebe 0d77 a33d 9f44 eebd
00000330: f0ff 4cbe 8f01 cfbd 13ad e8bd d169 e63b
00000340: f34a fabd 542b 4fbc f352 a9bd e296 c63b
00000350: cae0 513c 3e2c b7bd df02 c4bd cb5d 72bd
00000360: dee7 d4bd 016a 27be 3e46 8ebd 002f 0abe
00000370: ae1d 3f3d 389e 373d 95f9 2bbd 282d 19be
00000380: 75c9 1fbc 5a3c b33d 68b5 00bd 0eb3 54bd
00000390: c263 4b3d 2ff9 513d b2bf 30bc 990d 4e3d
000003a0: 60d8 2d3d 845b 7b3d 0446 b83c 4796 bebd
000003b0: d24d 31be 7a8d 02bd 1c06 973b 58ca e7bc
000003c0: d626 8cbb 9cf7 41be 5962 b6bd e631 2cbe
000003d0: 0116 04be 8e2e bfbd 25b7 1cbe 1143 83bd
000003e0: dc21 02be 2049 53bc 33f6 0fbe 87d1 c9bd
000003f0: 45d7 d4bd f729 30be 0f24 89bd 5df9 57bd

conv2.lin.bias f4 [64]
-0.065585464 -0.1512195 -0.09497489 -0.15066746 0.20869738 -0.10228155 -0.12857811 0.10541583
-0.011721571 0.1632605 0.0904299 0.033326685 -0.006410637 -0.0697889 0.02178973 -0.12626389
-0.08054672 -0.032634657 -0.123055965 0.09840501 0.041075632 0.13120514 0.009889048 -0.17977469
-0.035051484 -0.04527414 0.0022559613 0.0017517087 -0.040746532 0.09512884 0.053412996 0.01481912
0.056310423 0.06696808 -0.020373756 -0.028651856 0.033639036 0.09930283 0.055670917 -0.07744074
0.07572392 0.02735581 0.08415898 -0.008858521 -0.038996074 0.053274214 -0.12899931 0.16313958
0.02614909 -0.0055557773 -0.16745372 -0.021161756 -0.023734266 -0.12931582 0.06556099 -0.15211184
0.04897213 0.040359505 -0.02422172 0.022360029 -0.10571519 -0.04210509 0.07581677 -0.023058346
00000000: ac51 86bd 49d9 1abe 3282 c2bd 9248 1abe
00000010: c4b4 553e fd78 d1bd fba9 03be 41e4 d73d
00000020: d50b 40bc c32d 273e 5033 b93d 9081 083d
00000030: 5210 d2bb 7ced 8ebd 6080 b23c 524b 01be
00000040: aef5 a4bd ebab 05bd c404 fcbd 9188 c93d
00000050: ec3e 283d a45a 063e ac05 223c db16 38be
00000060: 2592 0fbd 6071 39bd c0d8 133b 9799 e53a
00000070: d6e5 26bd e9d2 c23d 96c7 5a3d e5cb 723c
00000080: c2a5 663d 9026 893d dde6 a6bc 4cb7 eabc
00000090: 16c9 093d 485f cb3d 3007 643d 4099 9ebd
000000a0: 2415 9b3d 4b19 e03c 8b5b ac3d 5423 11bc
000000b0: 59ba 1fbd 1036 5a3d 6518 04be 100e 273e
000000c0: 9e36 d63c 3d0d b6bb fd78 2bbe 6b5b adbc
000000d0: 5d6e c2bc 5e6b 04be d744 863d 35c3 1bbe
000000e0: 0097 483d 0250 253d a16c c6bc 612c b73c
000000f0: 3581 d8bd 6376 2cbd d345 9b3d dbe4 bcbc

classifier.weight f4 [2, 128]
0.11908174 0.0057422547 0.06735824 0.12185102 -0.002999243 -0.0006837476 0.06601143 -0.09772746
-0.059335038 -0.08872999 0.08858765 -0.038299553 0.002748789 0.0020831954 0.042462703 -0.019221881
0.00042101712 -0.08219473 0.12638864 -0.057215467 -0.067932926 0.05749123 0.14024107 0.0378701
-0.009612832 -0.07096878 -0.067693315 0.0017190416 0.09651219 -0.12688519 -0.010036725 -0.022070074
-0.085523866 0.02580084 0.02627774 -0.07034141 0.04273082 0.06809132 -0.06630234 0.0007765458
0.046428047 -0.0076503037 -0.04103607 -0.023142446 -0.023582036 0.14217837 -0.027578639 -0.00083473383
0.1377747 0.06773028 0.014892056 0.012899828 0.024434032 0.12736362 0.004702737 0.080338866
-0.09575326 0.012381479 -0.005306018 -0.118278354 -0.07001168 0.00019845655 -0.006164489 -0.104943484
0.07022256 -0.046744477 0.10329677 0.026596567 0.10094341 -0.0016950498 0.14653412 -0.1079508
-0.11188917 -0.08759288 0.13985354 -0.009008138 0.056999926 0.0011081385 -0.018117087 0.13965955
-0.107593566 -0.10958164 0.13634811 -0.130332 0.016584827 0.09593835 0.06886039 0.116577156
-0.0083717005 -0.10309388 -0.051952306 0.10075825 0.05160018 -0.11661227 0.072452664 -0.02419917
-0.032692857 0.023058388 0.14415076 -0.07965456 0.047860485 0.13204536 -0.10281013 -0.095561974
0.0553319 0.004914742 -0.04243877 0.05769157 0.0150920795 0.030146377 -0.046956178 -0.12754388
0.045042634 0.06065635 -0.0099402 0.041722916 0.08782595 0.12220423 0.06631331 0.06197603
-0.032881957 0.015908742 0.04517726 -0.03115913 0.14262767 0.024285328 0.053907573 -0.11739951
0.0110502895 0.07878287 0.011341258 0.11511817 0.01475996 0.020796522 0.04642762 -0.009662057
-0.050907478 -0.07818063 -0.02880478 -0.10413645 0.019937992 0.0889989 -0.05135148 -0.020096544
0.01615237 -0.034042172 0.017864937 -0.080651686 -0.065773465 0.09768083 0.06579449 0.112073116
0.14833996 -0.0689093 -0.09929943 -0.08590317 -0.015631277 -0.11206552 -0.023676319 -0.017383697
0.08041369 0.028926454 0.002328435 0.043232866 -0.108810395 0.020848587 0.042143602 0.1142385
0.0089706555 -0.14335056 0.023775704 0.088605426 -0.031774025 0.009503196 0.09271546 -0.009113502
0.01045901 0.009491738 0.06843683 -0.1114104 0.08480079 0.12487296 -0.068610914 0.109143704
0.022784457 -0.03809037 -0.0407054 -0.0052442118 0.073294036 0.039150763 0.06775394 -0.092634626
0.048170317 0.044220395 0.064556 0.12023083 0.032052655 0.13460787 0.068488605 -0.10357338
0.017980527 -0.12258753 0.09977884 0.04086273 0.03639056 0.099055216 -0.018627059 -0.03887329
0.03107484 -0.099222206 0.034016043 0.011839754 -0.009148124 -0.036426675 0.01571479 0.028358601
0.10289457 -0.07812984 0.01469301 0.017622976 0.08987717 -0.12749289 -0.1049376 -0.077506095
0.017993668 0.02857928 0.073112 -0.072870746 0.0065324046 0.024650974 -0.03858408 0.1469361
0.12138288 -0.05404407 -0.05264406 0.048984893 -0.10654066 0.026338601 0.12245051 0.030883735
-0.0055506434 0.041062564 0.10237859 0.001109043 0.09165855 0.09908739 -0.10803999 0.106075145
-0.011956891 0.018583734 -0.12743688 0.014343955 0.12220086 0.05306677 0.10209788 -0.014642796
00000000: 21e1 f33d 8629 bc3b 1ef3 893d 078d f93d
00000010: f38e 44bb 863d 33ba 0031 873d 5625 c8bd
00000020: 4c09 73bd 12b8 b5bd 716d b53d fedf 1cbd
00000030: 0725 343b 3886 083b 5fed 2d3d 3577 9dbc
00000040: f6bb dc39 b655 a8bd 066c 013e c45a 6abd
00000050: 6b20 8bbd ed7b 6b3d 5b9b 0f3e ae1d 1b3d
00000060: 247f 1dbc 1458 91bd cba2 8abd 7751 e13a
00000070: 2fa8 c53d 31ee 01be 1371 24bc 4dcc b4bc
00000080: 2327 afbd 495c d33c 6a44 d73c 280f 90bd
00000090: 8306 2f3d 7673 8b3d 85c9 87bd 1b91 4b3a
000000a0: 562b 3e3d 66af fabb 7015 28bd 3a95 bdbc
000000b0: 1d2f c1bc 3597 113e 99ec e1bc 0ad2 5aba
000000c0: d014 0d3e 2cb6 8a3d cffd 733c cd59 533c
000000d0: e129 c83c 9c6b 023e 6b19 9a3b b488 a43d
000000e0: 491a c4bd b0db 4a3c 1bde adbb ec3b f2bd
000000f0: 4962 8fbd c618 5039 7bff c9bb 9cec d6bd
00000100: d8d0 8f3d 2377 3fbd 428d d33d 0be1 d93c
00000110: 6bbb ce3d 6f2c deba 0a0d 163e 4f15 ddbd
00000120: 2626 e5bd e563 b3bd c435 0f3e df96 13bc
00000130: c178 693d f53e 913a 496a 94bc ea02 0f3e
00000140: 045a dcbd 576c e0bd d79e 0b3e c075 05be
00000150: e7dc 873c 537b c43d ad06 8d3d 01c0 ee3d
00000160: 7529 09bc e222 d3bd f1cb 54bd 575a ce3d
00000170: b65a 533d 6ad2 eebd 1062 943d 563d c6bc
00000180: f2e8 05bd f2e4 bc3c 429c 133e ee21 a3bd
00000190: 5b09 443d e636 073e 1e8e d2bd ffb5 c3bd
000001a0: b4a3 623d d80b a13b 47d4 2dbd ff4d 6c3d
000001b0: c544 773c 89f5 f63c 1f55 40bd dd9a 02be
000001c0: a07e 383d cb72 783d 38dc 22bc a6e5 2a3d
000001d0: 17de b33d 3646 fa3d 46cf 873d 94da 7d3d
000001e0: 3baf 06bd 0d53 823c ca0b 393d 6f41 ffbc
000001f0: fd0c 123e 06f2 c63c 30ce 5c3d 286f f0bd
00000200: 460c 353c ea58 a13d afd0 393c 13c3 eb3d
00000210: c2d3 713c 785d aa3c e32a 3e3d 9b4d 1ebc
00000220: 5c84 50bd 2b1d a0bd 01f8 ebbc 7e45 d5bd
00000230: 0055 a33c 0e45 b63d ee55 52bd 82a1 a4bc
00000240: fa51 843c ce6f 0bbd 7d59 923c b62c a5bd
00000250: 3db4 86bd e30c c83d 43bf 863d 9786 e53d
00000260: 6ee6 173e 5220 8dbd 805d cbbd 00ee afbd
00000270: 2a0d 80bc 9b82 e5bd d7f4 c1bc 4168 8ebc
00000280: efaf a43d 2cf7 ec3c a898 183b f214 313d
00000290: fcd7 debd a8ca aa3c c59e 2c3d e0f5 e93d
000002a0: a8f9 123c 7dca 12be 44c5 c23c c376 b53d
000002b0: 7b25 02bd 4bb3 1b3c 9ae1 bd3d cc50 15bc
000002c0: 445c 2b3c 3c83 1b3c 9c28 8c3d 232b e4bd
000002d0: 09ac ad3d 65bd ff3d e183 8cbd bc86 df3d
000002e0: 78a6 ba3c a604 1cbd b5ba 26bd a3d7 abbb
000002f0: 2f1b 963d 8d5c 203d 94c2 8a3d 39b7 bdbd
00000300: 3d4e 453d 7220 353d f035 843d 953b f63d
00000310: a549 033d a5d6 093e c143 8c3d 481e d4bd
00000320: e64b 933c 2c0f fbbd d958 cc3d ae5f 273d
00000330: 450e 153d 76dd ca3d c697 98bc 9939 1fbd
00000340: aa90 fe3c 0335 cbbd 6854 0b3d 87fb 413c
00000350: 03e2 15bc 2334 15bd 4ebc 803c 4c50 e83c
00000360: 63ba d23d 8a02 a0bd f3ba 703c 0f5e 903c
00000370: 8611 b83d 7f8d 02be 86e9 d6bd 84bb 9ebd
00000380: 7567 933c 181f ea3c bfbb 953d 423d 95bd
00000390: c80d d63b d7f0 c93c 570a 1ebd 6b76 163e
000003a0: 9697 f83d 515d 5dbd 4ca1 57bd 62a4 483d
000003b0: fd31 dabd 0dc4 d73c 55c7 fa3d e3ff fc3c
000003c0: 2ce2 b5bb 3831 283d deab d13d 4f5d 913a
000003d0: 7ab7 bb3d 54ee ca3d 1244 ddbd ed3d d93d
000003e0: d6e6 43bc ea3c 983c d07e 02be e802 6b3c
000003f0: 7244 fa3d 8b5c 593d b118 d13d 56e8 6fbc

classifier.bias f4 [2]
-0.054428518 -0.02014358
00000000: 70f0 5ebd 2604 a5bc
