outputs/classification/edges/rebuttal/weights/SSGConv_6.pth (torch, 22119 bytes, 6 tensors)

conv1.lin.weight f4 [64, 7]
0	0x3da3d859	0.080002494
1	0x3eb643ae	0.3559851
2	0xbe1ebf03	-0.15502553
3	0xbe09399e	-0.13400885
4	0x3ced5e6e	0.028975692
5	0xbe12d07f	-0.14337347
6	0x3ecba18d	0.3977169
7	0x3e2fbf20	0.17162752
8	0x3d0a3c9d	0.03374921
9	0xbe3d080a	-0.18460098
10	0x3ea67ed2	0.3251863
11	0x3ee03cdf	0.4379644
12	0xbdef5376	-0.11685841
13	0x3d99b8d8	0.07505959
14	0xbe22b63f	-0.15889834
15	0x3de1d5b6	0.1102709
16	0xbe4dec2a	-0.2010962
17	0x3e3da616	0.18520388
18	0xbe38ef8a	-0.18060127
19	0x3f049ef7	0.5180506
20	0x3dba8914	0.09108177
21	0xbec2a39b	-0.38015446
22	0x3e2687de	0.16262767
23	0xbc42bcf6	-0.011885872
24	0xbe8b02d6	-0.271506
25	0x3dc1afca	0.09457357
26	0xbe97a1e3	-0.29615697
27	0x3e522920	0.205235
28	0xbd35ca93	-0.044382643
29	0xbe046740	-0.12930012
30	0xbdcd3e12	-0.100216046
31	0xbea832fa	-0.32851392
32	0xbd5a65af	-0.05331963
33	0xbe3386a9	-0.17531838
34	0xbd9df04d	-0.07711849
35	0xbeadeac2	-0.33968168
36	0xbdc5eee1	-0.09664703
37	0x3db18c27	0.0866931
38	0xbe978b04	-0.29598248
39	0x3b9f8a60	0.0048687905
40	0x3d211b3b	0.03933261
41	0xbe5d38e6	-0.21603736
42	0xbe671854	-0.22567874
43	0xbe5389f0	-0.20658088
44	0x3e8ef5e1	0.27921966
45	0xbee64665	-0.44975582
46	0xbec99a8d	-0.39375725
47	0x3e8f4993	0.2798582
48	0x3dd3b864	0.10337904
49	0x3ebb65f9	0.36601236
50	0xbcfedad8	-0.031110212
51	0xbd492866	-0.049110793
52	0x3dd312be	0.10306309
53	0xbbc32c5b	-0.0059562153
54	0x3e82210a	0.25415832
55	0x3d7b5645	0.06136157
56	0x3df06d87	0.11739641
57	0x3ea0b202	0.3138581
58	0xbdbab63e	-0.09116791
59	0xbdb65346	-0.08902602
60	0x3d1429d2	0.036172695
61	0xbe96f2eb	-0.29482207
62	0xbe810607	-0.2519991
63	0xbecf4fdd	-0.40490618
64	0x3dc31ecf	0.09527361
65	0xbecf2052	-0.40454346
66	0xbe3da720	-0.18520784
67	0xbe73922d	-0.2378623
68	0xbe18539f	-0.14875649
69	0xbe6f8c80	-0.2339344
70	0x3d975cae	0.07390724
71	0x3ecfe172	0.4060169
72	0x3eb9bd66	0.36277312
73	0xbcfbcbc0	-0.030736804
74	0xbd78ae88	-0.06071332
75	0x3e333b5b	0.17503111
76	0xbe5d60a8	-0.21618903
77	0x3ea1c37f	0.31594464
78	0x3d8ca135	0.06866685
79	0xbe122e53	-0.14275484
80	0x3ed8a939	0.42316607
81	0xbc521006	-0.012821203
82	0x3cade7bf	0.02122867
83	0x3ed8f7a8	0.42376447
84	0xbe55ba78	-0.20871913
85	0xbcb5f52d	-0.022211635
86	0xbcf3d770	-0.029765815
87	0x3ed7778a	0.4208339
88	0x3e9e5933	0.3092743
89	0x3e59d314	0.21271926
90	0x3e8037d9	0.25042608
91	0x3d89825c	0.06714317
92	0xbeb468da	-0.35236245
93	0x3e4e7579	0.20162
94	0x3e5437f5	0.20724471
95	0x3c87b348	0.01656498
96	0x3de572bd	0.11203525
97	0x3db6527f	0.08902454
98	0xbe8bda8d	-0.2731518
99	0xbca9bcb4	-0.020719863
100	0x3e364abe	0.1780195
101	0xbecfb2a3	-0.40565977
102	0x3e7935fe	0.24337003
103	0x3da29ae0	0.07939696
104	0x3d301d53	0.042996716
105	0xbe8fc221	-0.28077796
106	0x3d9942b6	0.07483427
107	0xbea3cd55	-0.31992593
108	0x3d88a7e8	0.066726506
109	0x3d012343	0.03152777
110	0xbead34e3	-0.33829412
111	0xbe038d4b	-0.12846868
112	0x3e8b91c9	0.27259663
113	0x3ebfd1ee	0.3746485
114	0x3e95bfea	0.2924798
115	0xbe5a3b82	-0.21311763
116	0x3d40acc9	0.04703978
117	0xbeb8640b	-0.36013827
118	0x3dd54d7d	0.1041517
119	0xbc7ea9f0	-0.015543446
120	0x3d8d48f7	0.068986826
121	0xbe4af520	-0.1982007
122	0x3dc24f18	0.09487742
123	0x3e0df5b4	0.1386326
124	0x3ef525f1	0.4788051
125	0x3df94b4c	0.12172565
126	0xbd8d7c4a	-0.06908472
127	0xbd23e900	-0.040017128
128	0x3d8c56d8	0.06852502
129	0x3e2c2f54	0.16814929
130	0xbe4b04db	-0.19826071
131	0xbe984867	-0.2974274
132	0xbd6b55fa	-0.05745504
133	0x3e572cf6	0.21013245
134	0xbe031855	-0.1280225
135	0x3e5e1c28	0.21690428
136	0x3e9fefe6	0.31237715
137	0x3e8427c2	0.25811583
138	0x3da8c5fd	0.08240888
139	0x3eabc983	0.3355218
140	0x3dfbd703	0.122968696
141	0x3e8ee88a	0.27911788
142	0x3c98ee96	0.018668454
143	0xbe15c280	-0.14624977
144	0x3a1a2673	0.0005880363
145	0xbdb38b34	-0.08766785
146	0x3cb2bdf2	0.021819089
147	0x3e5066ea	0.20351759
148	0x3e68b2e1	0.22724487
149	0xbc67bb62	-0.014143797
150	0x3e08594a	0.13315311
151	0x3e381785	0.17977722
152	0x3e1b781b	0.15182535
153	0xbdf827a1	-0.121169336
154	0x3db32050	0.087463975
155	0x3deed917	0.116625
156	0x3ecbaf2f	0.39782092
157	0xbcaa9722	-0.020824019
158	0xbe642e00	-0.22283173
159	0xbe65fc5e	-0.22459552
160	0x3ea1ef34	0.3162781
161	0x3e59af5a	0.21258298
162	0xbe1afca5	-0.15135439
163	0x3ec370e6	0.38172072
164	0xbc437254	-0.011929113
165	0xbdb7e9c3	-0.089801334
166	0x3ea37273	0.31923255
167	0x3e7be1a8	0.245978
168	0xbe83cfe7	-0.25744554
169	0xbe83da6a	-0.25752574
170	0xbe00ce96	-0.12578806
171	0xbe2a8b84	-0.16654783
172	0x3e04fb7d	0.1298656
173	0xbe773218	-0.24140203
174	0xbdf311e7	-0.11868649
175	0xbe28095b	-0.16409819
176	0xbe9028c0	-0.2815609
177	0x3dbceb1a	0.092245296
178	0xbec0c5cb	-0.37650904
179	0xbe43f38a	-0.19135872
180	0xbe4df3fd	-0.20112605
181	0x3cfca717	0.030841393
182	0x3e97db9a	0.2965973
183	0xbd232758	-0.039832443
184	0xbcdfd4d2	-0.02732316
185	0xbe09de24	-0.13463646
186	0x3e2ed687	0.17074023
187	0x3d08233b	0.033236723
188	0x3dcf4690	0.101208806
189	0xbe198b5e	-0.1499457
190	0x3db084ef	0.08619105
191	0x3e43f295	0.19135506
192	0xbec7dabd	-0.39034072
193	0xbdc85580	-0.09781933
194	0xbdbccd2c	-0.09218821
195	0xbe0dee8d	-0.13860531
196	0xbbc0e089	-0.0058861417
197	0x3ddbd783	0.10734465
198	0x3e8a0053	0.26953372
199	0xbe9a890e	-0.3018269
200	0xbe1b136d	-0.15144129
201	0x3c2e7a92	0.01064934
202	0x3e959c2d	0.29220715
203	0x3da77d02	0.0817814
204	0x3e89d206	0.26918048
205	0x3e8ad092	0.27112252
206	0x3e248a27	0.16068326
207	0x3e286e31	0.16448285
208	0x3ed952ed	0.4244608
209	0xbe8ebd0f	-0.27878615
210	0x3dcb1465	0.09915999
211	0x3e90e944	0.28302968
212	0x3d68d2d7	0.056841698
213	0x3da6dd89	0.08147723
214	0xbdc676e2	-0.09690644
215	0x3e686a55	0.22696812
216	0x3b9829d2	0.0046436572
217	0x3da87a32	0.08226432
218	0xbeb8085f	-0.35943887
219	0xbbabc639	-0.005242136
220	0xbe9042e5	-0.28176036
221	0xbddebab1	-0.10875452
222	0xbeafe3ac	-0.34353387
223	0xbeabff0e	-0.3359303
224	0x3e3a0766	0.18166885
225	0x3cc958bf	0.02457845
226	0x3d9fc884	0.07801917
227	0x3e677dec	0.22606629
228	0x3dd65440	0.10465288
229	0xbe373f1c	-0.17895168
230	0x3d461c2d	0.048366714
231	0x3efbbee0	0.49169064
232	0xbd369760	-0.044577956
233	0x3e8ddcc3	0.2770749
234	0x3cbd0d80	0.023077726
235	0xbcf20648	-0.02954401
236	0x3dd3fd77	0.10351079
237	0x3ebbad03	0.36655435
238	0x3e16e46a	0.1473557
239	0xbe280660	-0.16408682
240	0xbd04c81c	-0.0324174
241	0x3dcf5819	0.10124225
242	0x3e79a39f	0.24378823
243	0xbe091279	-0.13385953
244	0x3eabe007	0.33569357
245	0x3e991906	0.29901904
246	0xbea57c10	-0.32321215
247	0x3e6360a5	0.22204836
248	0xbe84e02c	-0.2595228
249	0xbc40882a	-0.011751214
250	0x3df3382d	0.11875949
251	0x3c8dd7f2	0.017314885
252	0x3e0cd030	0.13751292
253	0x3de429b7	0.11140769
254	0xbe2b02f0	-0.1670034
255	0xbebcb171	-0.36854127

conv1.lin.bias f4 [64]
0	0x3e8966ca	0.26836234
1	0x3df2307a	0.118256524
2	0x3e8a6427	0.27029535
3	0x3db23ccf	0.087030046
4	0x3e12b91b	0.14328425
5	0xbdcfdd96	-0.10149686
6	0x3dbc659a	0.091990665
7	0xbe161103	-0.14654927
8	0xbecd59df	-0.4010763
9	0xbd80a47f	-0.06281375
10	0x3e98f7a5	0.29876438
11	0x3eeca8f9	0.46222666
12	0xbdbda45f	-0.09259867
13	0x3ef83bcf	0.4848313
14	0x3ddbb65c	0.10728142
15	0x3e03ca68	0.1287018
16	0xbda3186d	-0.07963643
17	0x3d200cb4	0.039074615
18	0xbdb42c4e	-0.08797513
19	0x3dc15a2a	0.094410256
20	0xbe8b2e23	-0.27183637
21	0xbb58ddc3	-0.0033091165
22	0xbd9c0e07	-0.07619863
23	0xbf06f585	-0.52718383
24	0xbd5ee9d0	-0.0544222
25	0x3dd92d72	0.10604371
26	0xbdff4e1e	-0.124660715
27	0x3e6cbc26	0.23118648
28	0x3e9b5b8b	0.3034328
29	0x3e8f39c4	0.2797376
30	0x3d1e530c	0.03865342
31	0xbe3491f5	-0.17633803
32	0x3da42ef9	0.08016772
33	0x3da0a50b	0.078439794
34	0xbec49fca	-0.3840316
35	0x3e723af1	0.23655297
36	0x3de31125	0.110872544
37	0x3e60b73a	0.21944895
38	0xbd922fce	-0.07138024
39	0xbe9da419	-0.3078926
40	0xbeb011a2	-0.34388453
41	0xbd05397f	-0.032525536
42	0xbee0928c	-0.43861806
43	0x3e29abc3	0.16569428
44	0xbeda39fb	-0.4262236
45	0xbed046a9	-0.4067891
46	0xbdc577ec	-0.09642014
47	0x3d4c376e	0.04985755
48	0xbe6aa686	-0.22915086
49	0x3ea5cc8a	0.32382613
50	0x3c218fbf	0.009860932
51	0xbd3404b9	-0.043949816
52	0x3df2c33b	0.118536435
53	0xbea09e60	-0.3137083
54	0xbd4f1d25	-0.050564904
55	0x3cfaf03d	0.030632133
56	0xbe62ca8f	-0.22147582
57	0x3bdbaa26	0.006703633
58	0x3cd631da	0.026146818
59	0xbe803644	-0.250414
60	0xbebe8a15	-0.37214723
61	0xbea71f3b	-0.32641014
62	0x3e818a91	0.2530103
63	0xbe89e9ee	-0.26936287

conv2.lin.weight f4 [64, 64]
0	0x3e0e8dbb	0.13921253
1	0x3deabdcc	0.11461982
2	0xbd456a57	-0.048197117
3	0x3cc8f098	0.024528787
4	0x3ddc4af8	0.10756487
5	0x3dc4c4ab	0.09607824
6	0x3cdee70e	0.027209785
7	0xbd22c48b	-0.03973822
8	0x3df2c3a4	0.11853722
9	0xbd8573aa	-0.06516202
10	0x3d9bdfc6	0.07611041
11	0x3e3f1f91	0.18664385
12	0x3d31a269	0.043367777
13	0x3e5e60c1	0.21716596
14	0xbb720f9e	-0.0036935578
15	0x3cd0e9e6	0.025502156
16	0x3b993c17	0.0046763527
17	0x3e550b91	0.20805193
18	0x3d1a3508	0.03764823
19	0x3d89a37f	0.067206375
20	0x3cba6397	0.022752566
21	0x3e5c6d67	0.21526109
22	0x3cd44869	0.025913434
23	0x3e41a1a1	0.18909313
24	0x3d20d99f	0.03927004
25	0x3e2c1087	0.1680318
26	0xbd973e78	-0.07384962
27	0x3ddb2b58	0.107016265
28	0x3e242e92	0.1603339
29	0x3e2d3870	0.1691606
30	0x3d801636	0.062542364
31	0x3c9bc9a2	0.019017044
32	0x3d564869	0.05231515
33	0x3df15f93	0.117858075
34	0x3c9b7ec2	0.018981341
35	0x3db599c9	0.08867223
36	0x3d288a21	0.041147355
37	0x3e0c9994	0.1373046
38	0x3dd73ad4	0.105092674
39	0x3d8a4d3d	0.06753013
40	0x3b0dc52e	0.002163242
41	0x3db2a944	0.08723691
42	0x3e2f42bf	0.17115305
43	0x3df1c6f9	0.11805529
44	0xbd7f7b19	-0.062373254
45	0x3d7f58a5	0.062340397
46	0x3d3efd01	0.046628002
47	0x3d1ee51c	0.038792714
48	0xbd46bf3b	-0.048522215
49	0x3d6273f8	0.055286378
50	0x3d440a85	0.047861595
51	0x3e16c602	0.14723971
52	0xbdcfeba7	-0.10152369
53	0x3d84c591	0.06482995
54	0x3e15e3c4	0.14637667
55	0x3da4b015	0.080413975
56	0xbb1a59cd	-0.002355206
57	0x3e814eec	0.25255525
58	0x3e4ea1ee	0.20178959
59	0xbd8aeedf	-0.06783842
60	0x3d98486c	0.074356884
61	0xbdd5fe30	-0.10448873
62	0x3ddb1712	0.1069776
63	0x3d960228	0.0732463
64	0x3d3fa365	0.046786685
65	0xbe05b902	-0.13058856
66	0xbd5c40bd	-0.053772677
67	0xbe07d9a7	-0.13266622
68	0x3dd5fc1e	0.10448478
69	0x3d9e942a	0.07743104
70	0xbe7e9989	-0.24863257
71	0xbe71cac6	-0.23612508
72	0xb9c5a967	-0.00037700983
73	0x3d7ba859	0.061439846
74	0xbda6fba4	-0.081534654
75	0xbe89cee7	-0.26915666
76	0xbdc25912	-0.09489645
77	0xbe52acb7	-0.20573698
78	0x3be3ff49	0.0069579226
79	0x3d4ea494	0.050449923
80	0xbd03d22d	-0.03218286
81	0xbdb3907a	-0.08767791
82	0xbd691b60	-0.056910872
83	0xbe5461da	-0.20740452
84	0xbe249803	-0.16073613
85	0xbe0418f2	-0.12900141
86	0xbe6a66a0	-0.22890711
87	0xbd1ddc11	-0.03853995
88	0xbc8f8cf4	-0.017523266
89	0xbcb3e750	-0.021960884
90	0xbe31876b	-0.17336814
91	0x3d7cfb44	0.061763063
92	0xbe6e9c62	-0.23301843
93	0xbcd5aaa5	-0.026082346
94	0xbe3391fb	-0.17536156
95	0x3db76ce5	0.08956317
96	0xbdceab3b	-0.10091253
97	0xbdf14773	-0.11781206
98	0xbc5a4d0a	-0.013324032
99	0xbd824fd9	-0.06362886
100	0xbc7a3b8b	-0.015272985
101	0xbe0150a1	-0.12628414
102	0x3ca43698	0.020045564
103	0xbe109924	-0.14120919
104	0xbe3a19af	-0.1817386
105	0x3d1cf73b	0.038321715
106	0xbdc93883	-0.09825232
107	0xbdfd37f5	-0.123641886
108	0x3e06268e	0.13100645
109	0xbb9592e2	-0.004564629
110	0xbe5f64e4	-0.2181583
111	0xbe1fca02	-0.15604404
112	0xbda80d4b	-0.082056604
113	0x3b2dac50	0.0026500411
114	0x3cc72375	0.0243089
115	0xbde929ca	-0.11384924
116	0xbd9ae853	-0.075638436
117	0xbda3ff73	-0.080077074
118	0xbe08110c	-0.13287753
119	0xbd09c93c	-0.033639178
120	0xbd8adf79	-0.06780905
121	0xbde36111	-0.11102498
122	0xbe810fed	-0.25207463
123	0x3da4a8dd	0.080400206
124	0xbd0a5498	-0.03377208
125	0x3cb81cc3	0.022474652
126	0x3dbc9616	0.09208314
127	0xbc124655	-0.008927901
128	0xbe2533c4	-0.16133028
129	0xbd2a300e	-0.041549735
130	0xbd1bb381	-0.038012985
131	0xbd072161	-0.032990817
132	0x3d88d100	0.066804886
133	0xbe25e2dc	-0.16199821
134	0xbd238441	-0.03992105
135	0xbe438c45	-0.19096477
136	0x3d126d28	0.03574863
137	0x3ca579c9	0.020199673
138	0xbe32d3e1	-0.17463638
139	0xbe674d67	-0.2258812
140	0xbcc70710	-0.02429536
141	0xbcfc2d49	-0.030783312
142	0xbd237183	-0.039903175
143	0x3ca356e4	0.019938894
144	0xbdc1931b	-0.09451886
145	0x3d277914	0.040886953
146	0xbdfb913e	-0.12283562
147	0xbd874c0a	-0.066063
148	0xbc30c732	-0.010789679
149	0xbd59fbee	-0.053218774
150	0xbc811659	-0.015757727
151	0xbd7ff122	-0.06248582
152	0xbc9d9182	-0.019234423
153	0xbdbf55f1	-0.09342564
154	0xbe3769f2	-0.17911509
155	0x3d7a1925	0.061059136
156	0x3c1a7a35	0.0094285505
157	0x3d0123bb	0.031528216
158	0xbc522067	-0.012825108
159	0x3d8848fb	0.06654545
160	0xbe156fec	-0.14593476
161	0xbe41a3d6	-0.18910155
162	0xbe2e21b6	-0.17005047
163	0xbd8c285f	-0.06843638
164	0xbd2928e9	-0.04129878
165	0xbe605920	-0.21908998
166	0xbe2fbbe0	-0.17161512
167	0x3dd448c9	0.10365445
168	0xbe2a6549	-0.166402
169	0xbdef5e31	-0.116878875
170	0xbd22107e	-0.03956651
171	0xbd692133	-0.056916427
172	0x3b8f9b0b	0.0043824962
173	0xbdfb6d28	-0.12276679
174	0xbda14c96	-0.07875936
175	0xbe366a6b	-0.17814033
176	0xbd52247c	-0.051304325
177	0xbe0c2040	-0.13684177
178	0xbdfc0807	-0.123062186
179	0x3d177e3e	0.03698563
180	0x3d9c0c7a	0.07619567
181	0xbe336542	-0.17519096
182	0xbd8286a2	-0.063733354
183	0x3d46b33c	0.048510775
184	0xbdf3684a	-0.11885126
185	0xbdbd6822	-0.092483774
186	0xbd1a7b0a	-0.037714995
187	0x3d24a2af	0.04019421
188	0x3d3b6139	0.045747016
189	0xbcd2aa79	-0.025716053
190	0x3d5296b8	0.051413268
191	0xbd002310	-0.03128344
192	0x3dae8e35	0.085232176
193	0x3d6fc04a	0.05853299
194	0x3e8bbf71	0.27294496
195	0xbd8b8636	-0.06812708
196	0x3df0006c	0.117188305
197	0x3c0e1f46	0.008674448
198	0x3ca2d58c	0.019877218
199	0x3e81a7ef	0.25323436
200	0xbdf61a53	-0.1201674
201	0xbd90e503	-0.070749305
202	0xbd5511d0	-0.05201894
203	0x3dd3252e	0.10309826
204	0x3e0916d1	0.1338761
205	0x3ebdc3ae	0.37063354
206	0xbdc1b510	-0.09458363
207	0xbe440199	-0.19141234
208	0xbe056a0d	-0.13028736
209	0x3dbdc943	0.09266903
210	0xbd37169c	-0.044699296
211	0x3df66fca	0.12033041
212	0x3ba919a3	0.005160527
213	0x3d634cba	0.055493094
214	0xbdc436e7	-0.09580784
215	0x3e091f15	0.13390763
216	0x3d57d3cc	0.05269222
217	0xbdeef157	-0.11667126
218	0x3c7b7207	0.01534701
219	0xbe2b3d1a	-0.16722527
220	0x3b9165ef	0.0044372003
221	0x3dc7e0c9	0.09759671
222	0xbd932ff4	-0.07186881
223	0x3e23412d	0.15942831
224	0x3d823af5	0.063589014
225	0x3e3dbc7a	0.1852893
226	0xbdd997da	-0.106246665
227	0x3d8b91c7	0.06814914
228	0x3bc8fd5d	0.006133719
229	0xbc6c59c6	-0.0144257005
230	0x3d51cc1a	0.051220037
231	0x3e1fbbd1	0.1559899
232	0xbd9c5490	-0.076333165
233	0x3d0a34ae	0.033741646
234	0x3d7c750d	0.061635066
235	0xbe19fc80	-0.15037727
236	0x3930e9ee	0.00016871814
237	0x3da134ac	0.078713745
238	0x3e17f6bf	0.1484022
239	0x3d235b92	0.03988225
240	0xbe12ec0d	-0.14347859
241	0xbe15bd32	-0.14622954
242	0x3bb25f73	0.0054435073
243	0xbd432823	-0.0476457
244	0xbd934ca9	-0.07192356
245	0xbde7782f	-0.1130222
246	0xbd6f75b2	-0.058461852
247	0xbde5b8a4	-0.11216858
248	0xbdfd2e6f	-0.12362372
249	0xbcf7b132	-0.03023586
250	0x3c8ea646	0.01741327
251	0xbe3cdbc5	-0.1844321
252	0xbcbb104c	-0.02283492
253	0xbe3d5a75	-0.18491538
254	0x3d349414	0.04408653
255	0x3ce523f8	0.027971253

conv2.lin.bias f4 [64]
0	0x3e7514d7	0.23933731
1	0xbe8c3453	-0.2738367
2	0xbe2e4eaa	-0.17022195
3	0x3e3f0d83	0.18657498
4	0x3e297ccb	0.16551511
5	0x3e53f383	0.20698361
6	0x3d56859e	0.05237352
7	0xbe7d2c4a	-0.24723926
8	0xbe5e7a87	-0.21726428
9	0x3e06f073	0.13177662
10	0x3cef89b7	0.029240472
11	0xbe3623e6	-0.17787132
12	0x3d59d063	0.05317725
13	0x3d964981	0.073382385
14	0xbcb26197	-0.02177505
15	0xb5af71d3	-1.3071643e-06
16	0xbe16fe7c	-0.14745516
17	0x3e748dbd	0.23882194
18	0xbcada226	-0.021195482
19	0x3e6567c1	0.2240286
20	0xbbcbcf13	-0.0062197535
21	0xbdcf3c40	-0.10118914
22	0x3dea277d	0.11433313
23	0xbd5477ca	-0.051872052
24	0xbe2a54a8	-0.16633856
25	0xbcdb8cd6	-0.026800554
26	0x3cb8f8a1	0.022579493
27	0xbce67145	-0.028130183
28	0x3e7d3fe9	0.24731411
29	0xbdf1d761	-0.118086584
30	0x3e4fa54c	0.202779
31	0xbe4b8a24	-0.19876915
32	0xbdfa6bec	-0.12227616
33	0x3d1c4812	0.03815467
34	0xbe35887f	-0.1772785
35	0xbd73f36a	-0.05955831
36	0xbe53771d	-0.20650907
37	0xbcc8bbf1	-0.02450368
38	0x3d832c49	0.06404931
39	0x3d9b4a16	0.0758249
40	0xbbafcae7	-0.005364764
41	0xbe94fc7f	-0.2909889
42	0xbe167b5c	-0.14695495
43	0x3d5fe63e	0.054662935
44	0x3d9407cb	0.07228049
45	0x3e21f853	0.15817384
46	0xbd71b597	-0.05901107
47	0xbdc41c3e	-0.09575699
48	0x3d6abf6d	0.057311464
49	0xbe397a6b	-0.18113105
50	0xbcd48cf2	-0.025946114
51	0x3e4a5d17	0.19762073
52	0x3dfde054	0.12396303
53	0x3dbb6ecf	0.091519944
54	0x3d131c2e	0.035915546
55	0x3da866f1	0.082227595
56	0x3dbfc454	0.093636185
57	0xbe0eab0c	-0.13932437
58	0xbe3dc91e	-0.18533751
59	0xbe6686e6	-0.22512397
60	0xbe9dbcb3	-0.3080803
61	0x3d99962a	0.07499345
62	0x3d4e9c84	0.050442234
63	0xbe8dab73	-0.27669868

classifier.weight f4 [2, 128]
0	0x3c21de25	0.009879624
1	0x3dadff90	0.0849601
2	0xbdbde632	-0.09272422
3	0xbc1bed22	-0.009516986
4	0xbe17fa4d	-0.14841576
5	0x3de441e5	0.11145381
6	0x3e4adc62	0.19810632
7	0xbd88c82b	-0.06678804
8	0xbd6bd366	-0.057574652
9	0xbd4e0814	-0.050300673
10	0x3e0f6dc9	0.14006723
11	0xbd844578	-0.064585626
12	0xbe133e53	-0.14379244
13	0x3d28c361	0.041201953
14	0x39a6a77e	0.0003178678
15	0x3d2568ec	0.040383264
16	0xbbcd214d	-0.0062600733
17	0x3d7b2a2a	0.061319508
18	0xbdcbc6fb	-0.09950062
19	0xbcaa8904	-0.020817287
20	0xbc5eb164	-0.013592098
21	0xbe2e79b9	-0.17038621
22	0x3dce5abc	0.100759
23	0xbdbaf713	-0.09129157
24	0xbbb12cd0	-0.0054069534
25	0xbd89437e	-0.06702326
26	0x3e07f44c	0.13276786
27	0xbe0e2a08	-0.13883221
28	0xbcbcd7ec	-0.023052178
29	0x3e225594	0.15852958
30	0xbc815259	-0.015786337
31	0x3d800367	0.06250649
32	0xbd070cf5	-0.03297134
33	0x3d574af1	0.052561704
34	0x3ca7195a	0.02039783
35	0xbd97263a	-0.07380338
36	0x3dc94267	0.09827118
37	0xbd377779	-0.044791672
38	0xbe45c229	-0.19312347
39	0x3cfc65e1	0.030810298
40	0x3d84e53d	0.06489036
41	0x3ad48d4a	0.0016216424
42	0x3c85e7c8	0.016345873
43	0x3e29d363	0.16584544
44	0xbe243d4a	-0.16039005
45	0x3d7c28b8	0.06156227
46	0x3deb5d3f	0.11492395
47	0x3c2e43fe	0.010636328
48	0xbd187dc8	-0.03722933
49	0x3c34fc7f	0.011046528
50	0xbda842e8	-0.08215886
51	0x3c1583ff	0.009125709
52	0xbe5f62e2	-0.21815065
53	0xbe0ed1c8	-0.13947213
54	0xbe0b1cae	-0.13585159
55	0xbd45825a	-0.048220016
56	0x3df98337	0.1218323
57	0x3c8491a3	0.016182726
58	0x3c943b60	0.018094718
59	0x3ddac5d1	0.10682262
60	0x3ca2b9d0	0.019863993
61	0x3e02cf62	0.12774423
62	0x3c2c7489	0.010525831
63	0xbd982226	-0.07428388
64	0xbcd375a9	-0.02581294
65	0xbce19d50	-0.027540833
66	0x3cab6059	0.020919966
67	0x3e0258bb	0.1272916
68	0x3d08e8ed	0.03342526
69	0x3d825fe1	0.06365944
70	0x3dbd7143	0.092501186
71	0x3d08b825	0.03337874
72	0xbc397b97	-0.01132097
73	0xbce77137	-0.028252227
74	0x3d81f99a	0.06346436
75	0xbdb43633	-0.087994
76	0xbe0581ce	-0.13037798
77	0xbcf00d46	-0.029303204
78	0xbc33c2c2	-0.010971727
79	0x3c13b41c	0.009015109
80	0x3e0b3daf	0.13597749
81	0x3ced8b8b	0.028997203
82	0xbceb9627	-0.028758122
83	0x3c333ef7	0.010940305
84	0x3dceade5	0.100917615
85	0x3d2bb1b1	0.041917507
86	0x3e1706af	0.14748643
87	0xbd8b1759	-0.067915626
88	0xbdb38020	-0.08764672
89	0xbb23eb0c	-0.0025011925
90	0x3e0c6ffa	0.1371459
91	0xbdf92fc9	-0.121673174
92	0x3baf8be5	0.005357253
93	0x3de734b8	0.11289352
94	0x3d918970	0.07106292
95	0xbbdc5a96	-0.006724666
96	0xbd8960ef	-0.06707942
97	0x3cfe1484	0.031015642
98	0xbe15ab05	-0.1461602
99	0xbde5100e	-0.11184703
100	0x3da56293	0.08075442
101	0xbc4e2ef7	-0.0125844395
102	0xbd91b087	-0.07113748
103	0xbd26c506	-0.04071524
104	0x3ae81393	0.0017706029
105	0xbbeae113	-0.007167944
106	0x3c2faa1a	0.010721708
107	0x3dfbf1ae	0.12301956
108	0xbdf46716	-0.119337246
109	0x3e0e5aa2	0.13901761
110	0x3daa0998	0.08302611
111	0xbcecc9cd	-0.02890482
112	0xbda64758	-0.081190765
113	0x3ca60d88	0.020270124
114	0xbc0be32a	-0.008538047
115	0x3daf02c1	0.08545447
116	0xbe026873	-0.12735157
117	0xbdcaa583	-0.0989485
118	0xbe011324	-0.12604958
119	0x3cfe9c03	0.031080252
120	0xbca3d829	-0.020000534
121	0xbce49841	-0.027904632
122	0x3d9eaff2	0.07748403
123	0xbcb63bcf	-0.022245316
124	0xbdbf6de8	-0.09347135
125	0x3c84a34e	0.016191151
126	0x3e13a21c	0.14417309
127	0xbd9b402b	-0.075805984
128	0xbe46c380	-0.19410515
129	0x3e2b44fc	0.16725534
130	0x3e08836c	0.13331383
131	0x3c75b36c	0.014996391
132	0xbdb4724b	-0.08810862
133	0x3b73d045	0.0037202996
134	0x3d88f009	0.06686408
135	0x3d8e0be5	0.069358625
136	0x3e080a3a	0.13285151
137	0xbde72761	-0.11286808
138	0x3dc26830	0.094925284
139	0x3c8ee010	0.017440826
140	0x3d51c95a	0.051217414
141	0xbcc2f98f	-0.02380064
142	0xbd5d768d	-0.054068137
143	0x3d90895b	0.070574485
144	0x3e53922f	0.20661233
145	0xbe02cbf3	-0.12773113
146	0x3d8f67b9	0.070022054
147	0xbe3b8bf2	-0.18315104
148	0xbda26990	-0.07930291
149	0xbc7b8318	-0.015351079
150	0xbca6201e	-0.020278987
151	0x3d777917	0.060418215
152	0x3d8427e7	0.06452923
153	0xbdc22109	-0.09478957
154	0xbadaae5b	-0.0016684042
155	0xbd2db285	-0.042406578
156	0xbdd92aec	-0.1060389
157	0x3d0d80b7	0.03454658
158	0xbce58a01	-0.028019907
159	0x3e2143c1	0.15748502
160	0x3cc0f417	0.023553891
161	0xbd617412	-0.055042334
162	0x3d07fe05	0.033201236
163	0x3baa3306	0.0051940707
164	0x3e141e26	0.14464626
165	0xbd614895	-0.05500086
166	0xbc4b6e5c	-0.012416448
167	0xbd618204	-0.055055633
168	0xbd1fca93	-0.03901155
169	0x3de3da5a	0.11125632
170	0x3e1a4e6e	0.15068981
171	0x3c472b05	0.012156253
172	0xbcac619c	-0.021042638
173	0xbd190af3	-0.037363958
174	0xbd4a7ace	-0.049433522
175	0x3d38acbf	0.04508662
176	0xbe3a3c3c	-0.1818704
177	0x3e1bcc6f	0.15214704
178	0x3e04dbae	0.12974426
179	0xbe031a43	-0.12802987
180	0xbd387258	-0.04503092
181	0x3d42e56f	0.047582086
182	0x3c281777	0.010259501
183	0xbde8bd8c	-0.11364278
184	0xbd54cb7d	-0.051951874
185	0x3d2eb9a7	0.04265752
186	0x3d7c64bf	0.061619516
187	0x3e3ecb59	0.18632258
188	0x3d4dc868	0.05023995
189	0xbd2a08c8	-0.04151228
190	0x3da9b5c9	0.08286626
191	0x3d641180	0.05568075
192	0xbe1b05fb	-0.15139
193	0x3e416353	0.18885545
194	0x3d69b16f	0.05705398
195	0xbd467674	-0.04845281
196	0xbd711bb0	-0.058864295
197	0x3c852b4c	0.016255997
198	0xbd04142d	-0.032245804
199	0x3e0e0751	0.13869978
200	0x3d982c7c	0.0743036
201	0x3cb6a403	0.022295004
202	0x3b08edca	0.0020893686
203	0x3d65b46d	0.05608027
204	0x3d8e1673	0.069378756
205	0xbd85360f	-0.065044515
206	0xbd855ba0	-0.06511617
207	0x3d8517f1	0.06498707
208	0x3d84dbc0	0.064872265
209	0xbd4e21be	-0.050325148
210	0x3aaf8a40	0.0013392642
211	0xbdcaadec	-0.09896454
212	0x3c99e46f	0.018785683
213	0xbb83d0e4	-0.0040227044
214	0xbcb9c1ac	-0.022675358
215	0xbdadfbd1	-0.08495296
216	0x3cf410ee	0.029793229
217	0xbda4fbc5	-0.08055834
218	0x3c7b0595	0.015321155
219	0xbd6ccd65	-0.057813067
220	0xbe4067d7	-0.18789612
221	0xbd39af42	-0.045333154
222	0xbe19b0c9	-0.15008844
223	0x3e2dd8a1	0.16977169
224	0x3d89b979	0.06724829
225	0xbdd7e07a	-0.105408624
226	0xba90f7c8	-0.0011060173
227	0xbb9b0cbd	-0.004731743
228	0x3e51e22c	0.20496434
229	0xbd3a635f	-0.045504924
230	0x3ccf7ea9	0.025328951
231	0xbe414d97	-0.18877254
232	0xbcbd3b89	-0.023099678
233	0x3e4154ec	0.18880051
234	0x3df66048	0.12030083
235	0xbcbddc48	-0.023176327
236	0xbd9eb172	-0.07748689
237	0x3c9af818	0.018917128
238	0xbd3e8bb1	-0.04651994
239	0x3e4c4c96	0.1995109
240	0x3d0a6472	0.0337872
241	0x3e000cb6	0.12504849
242	0x3d20d5d6	0.03926643
243	0xbd3dbe82	-0.04632426
244	0xbb7f83f2	-0.0038988558
245	0xbdbbb317	-0.09165018
246	0x3d45d0e7	0.048294928
247	0xbe180523	-0.1484571
248	0xbdef3bc0	-0.11681318
249	0x3e3c1e3d	0.1837091
250	0x3dc48804	0.095962554
251	0x3e0b3253	0.13593416
252	0x3df8827d	0.12134264
253	0x3c2f7a07	0.010710246
254	0xbd8d948d	-0.069130994
255	0x3b48bed1	0.0030631314

classifier.bias f4 [2]
0	0xbd413b93	-0.047175955
1	0x384b139f	4.8417245e-05
