outputs/classification/edges/rebuttal/weights/SuperGATConv_6.pth (torch, 24283 bytes, 10 tensors)

conv1.att_l f4 [1, 1, 64]
00000000: 5b22 53be ee58 fcbc 83d2 023e e425 04be
00000010: ee76 2cbe ee3b 1d3e 5c24 8e3e d44b d5bd
00000020: dec5 debd bf2e b2be 0324 94bd 9479 37bc
00000030: e053 373c dffe e9bd 8ffb 04be e8e6 3f3d
00000040: c005 ea3d ad01 d6bd 3cdc 22be da99 96be
00000050: c5f9 4ebe e2fc 823e 4457 043e 3ada 18bd
00000060: f73f 68bd 16ef bd3d 5c05 883e 124a b0bd
00000070: 1e73 10bc 8ca0 11be b120 5cbe 6640 a3bd
00000080: 4882 abbe e53f 343e d5c4 6fbe 0747 c33c
00000090: 0c64 4ebe 6a01 47be bc7d 3a3c 6460 1cbe
000000a0: a48a b7be 1bbf ccbd 2027 0abe 93fb ebbc
000000b0: 6ea0 89be f404 03bd 4c71 3fbe 2afa 4fbe
000000c0: bf10 7abe 1192 08be 1b88 833d 45df ac3d
000000d0: f273 363e 4815 f63d 6880 26be 4fb9 513e
000000e0: 0758 7ebe ddbc 353e 0468 60be e962 713d
000000f0: cf14 61be 430a c43e b4ff 68be 48ac 80be
-0.20618574 -0.030804124 0.12775616 -0.12905079 -0.16842243 0.15354893 0.27762115 -0.10414854
-0.10877584 -0.3480129 -0.07233431 -0.01119842 0.011189431 -0.11425566 -0.12986587 0.04685107
0.11426878 -0.104495384 -0.15904325 -0.29414254 -0.20212467 0.2558356 0.12923914 -0.037317492
-0.056701627 0.09274118 0.2656659 -0.08607878 -0.008816509 -0.142214 -0.21496846 -0.079712674
-0.33497834 0.17602499 -0.23414929 0.02383758 -0.20155352 -0.19434133 0.0113825165 -0.15271145
-0.35847962 -0.09997388 -0.13491488 -0.028806483 -0.2688021 -0.031987146 -0.18695563 -0.20310274
-0.2442045 -0.1333697 0.064224444 0.08441023 0.17817667 0.12015778 -0.1625992 0.20480846
-0.24838267 0.17747827 -0.21914679 0.05893222 -0.21980594 0.3828908 -0.22753793 -0.2513144

conv1.att_r f4 [1, 1, 64]
00000000: a006 18be e489 e63d 8d15 70be e8ac 2a3e
00000010: 3061 56be aede 463d f74d 5e3d 900f 89be
00000020: e738 1dbe 2c2f 793d a8b6 08bd fc9a 0ebe
00000030: f361 2d3d cdb6 663d e474 f63d e32c 293e
00000040: 6161 f8bc c66c f7bd 8485 c8bc d2b6 0f3e
00000050: f8ee 2bbe 7265 3dbd eeb5 bc3c bc16 8fbe
00000060: 8961 b5be 892c 40bd 58a9 69be 01be 8fbe
00000070: 7245 573d 03c2 2c3d cd27 09be 915e fdbd
00000080: 0608 0a3e b166 8abe 7d85 ce3e 3623 5dbe
00000090: 87aa 663e f4db 4f3e bc4e d6bd f6a7 273b
000000a0: 0d67 10be f20b 223e 7f3c 17be 5cd9 ddbd
000000b0: 750a ce3d 8a12 8a3e 50b6 a93d e413 dcbd
000000c0: af3a 9ebd d6ff 2b3e b8dd 1fbd 457e 383e
000000d0: 52f4 5dbd ec87 7bbc 437d bd3b 1bcd 19be
000000e0: 0ce6 8bbe d7d2 7bbe 03b6 a4be e113 e8bd
000000f0: 37d0 81be 0ae6 32bd 1d2f 79be 7d59 22bd
-0.14846277 0.11256769 -0.23445721 0.16667521 -0.20935512 0.048552208 0.05427357 -0.26769686
-0.15353738 0.060836002 -0.03337732 -0.1392631 0.04232974 0.056326676 0.12034014 0.16521029
-0.030319871 -0.12081294 -0.024477728 0.14034584 -0.16790378 -0.046239324 0.02303597 -0.27947032
-0.35425976 -0.046917472 -0.22818506 -0.2807465 0.052556463 0.04217721 -0.13394089 -0.12371553
0.13479623 -0.27031472 0.40336218 -0.21595463 0.22525989 0.20298749 -0.10464236 0.002558229
-0.14101811 0.1582487 -0.14769171 -0.10832474 0.10060588 0.2696727 0.082867265 -0.10745981
-0.07726037 0.16796812 -0.039029807 0.18016918 -0.05418808 -0.0153522305 0.0057827546 -0.15019648
-0.2732395 -0.24592148 -0.32170114 -0.113319166 -0.25354168 -0.043676414 -0.24334379 -0.039636124

conv1.bias f4 [64]
00000000: 99fa 4cbd 15d6 5bbd d76d c73d d5a4 69bd
00000010: 0a89 b7bc 018d 3bbd c9c9 66bd ccff f5bc
00000020: 9775 cebc 2175 4abd e94e 46bd 76b8 74bd
00000030: 9885 89bd 615b 8c3d 6806 4bbd 0807 7bbd
00000040: d3a0 aebc 1045 a2bd da4e 5bbd 63c7 54bd
00000050: dd53 bdbd cbe3 84bd 1b34 31bd 2ae7 563c
00000060: 7fa3 82bd fcdb 3f3c ebc6 d5bb b55a 18bd
00000070: cac5 23bd a88e 30bd 6f83 8cbd b782 60bd
00000080: 9d08 47bd 98a6 b63d b229 17bd 0673 5abd
00000090: 30c2 79bd 4871 85bd 7091 05bd cf9e 45bd
000000a0: 2758 8abd 5bb3 a7bc bc4a 163c 96d0 bb3c
000000b0: 82e6 4bbc ea4b ef3d 36ec 62bd 26df 79bd
000000c0: b29c cc3d 20a8 3abd 7fe3 83bd c7ad 6bbd
000000d0: 5fce 27bd 9f7b 51bd 6698 be3d d2c6 883d
000000e0: b9f5 30bd 0799 00bd ee8d 1abd 35d6 a03d
000000f0: 2580 d8ba 7d21 743d fdb8 46bd 4368 4e3d
-0.050043676 -0.05367096 0.09737747 -0.05704196 -0.022404213 -0.04578877 -0.05634478 -0.0300292
-0.025202556 -0.04942811 -0.0484151 -0.05974623 -0.06714934 0.06853367 -0.049566656 -0.061286002
-0.021316921 -0.07923329 -0.053541996 -0.051947962 -0.09244511 -0.064887606 -0.043262582 0.013116637
-0.06378841 0.011710163 -0.006523957 -0.03719588 -0.03998355 -0.043104798 -0.068610065 -0.05481216
-0.0485922 0.08918494 -0.036904998 -0.05333235 -0.060976207 -0.06515747 -0.032609403 -0.048247155
-0.06755095 -0.020471266 0.0091730915 0.02292661 -0.012445094 0.11684401 -0.05540105 -0.061003827
0.09990825 -0.045570493 -0.06439876 -0.057538774 -0.040968295 -0.051143285 0.093064114 0.06678547
-0.04320309 -0.03139594 -0.03773301 0.07853357 -0.0016517682 0.05960225 -0.048516262 0.0503924

conv1.lin.weight f4 [64, 7]
00000000: c364 65be fca7 3bbd 4437 d93d f8ad febd
00000010: b9f7 8cbd 20a9 2b3e 7cfc a3bc 734b 253e
00000020: 85e9 81bd b64a 7a3d 493e 7fbb 6c3c ccbd
00000030: 7091 d0bc e1ee a73d 6b3e 0d3c 1ad2 a13e
00000040: b5a5 3cbe c175 79bd 3d0a 37be c287 f4bd
00000050: 2af5 24bc 5258 d83c c97c f0bd b0a6 f03d
00000060: 7cd4 ca3d e16b b6b9 2cb2 e63c b121 5cbe
00000070: 2b65 5b3e 4b95 4a3e 554b f1bd ce38 8cbe
00000080: b4e7 01be 6f19 993e 83a9 a9bd a007 a73c
00000090: 50dd b63c 76a3 08be c6fc 803d 9f0e 813d
000000a0: 4292 f43d adb9 08be 5291 ddbd 2c8a 22bd
000000b0: c500 8d3e 7bd2 33be 8c2c 883e 7c14 aabc
000000c0: e0ab 863c 6976 503c 6459 a03e a39d dd3c
000000d0: a8e2 3f3c 4c63 0d3d da47 9c3d 0ee8 353e
000000e0: ba9a 933e 5efe d4bd 237b a6be cb9a 5d3e
000000f0: d504 643e 83c0 26be 3e02 023e 717c b73c
00000100: 9c22 6d3e c7c7 d7bb bbe9 833e 2ef1 103e
00000110: 8e0b 213d 5b53 6b3e 49b0 223d 32a4 5bbe
00000120: 6def 0e3e c1cb 083d 3779 3cbe e36a 863e
00000130: 83f7 a63e 4dc5 8e3e 05c1 35be 5e54 5fbd
00000140: 25b2 26bd 2453 dfbc b7b7 3fbd bec9 253e
00000150: 193e 68be 8da5 2c3e b514 2a3e ea10 43be
00000160: 2679 30bc 6ae8 dbbd 0071 cabc 37d7 543e
00000170: c789 32be f4fe 84be 7107 6ebe 9e78 183d
00000180: edf4 4fbe a8d1 6cbc bc74 893e e9d0 f73d
00000190: ace2 093e 4c4e a3bd ee73 8c3e 24f3 873e
000001a0: c803 f03d 07c0 103e 2fe7 fdbd 8904 c3bd
000001b0: bfe0 ef3d 0a0b afbe 6aca b4bd 2295 7a3d
000001c0: 363c febd 7d23 9f3d 245e ecbd 3cdb abbd
000001d0: 2408 8dbe 86f9 393e fe30 8ebe 2889 0b3e
000001e0: 48f0 323e 70f2 17be 504c 4fbe a8f7 0cbe
000001f0: ef63 9abd b879 6a3e e2e6 4fbe 5c39 19be
00000200: 2204 3e3e 0702 2f3e ead4 3ebd bffa 97be
00000210: 4e7b 783d a572 513e a472 003e 1f57 913e
00000220: 8084 a23e 5b1d 6a3e a195 13be 21b5 993e
00000230: 385d f0bd c903 663e f59b c8bc f4e5 913d
00000240: 6a89 813e 1392 12be 6e3e 37be 7e02 2fbe
00000250: eaaf 9dbe 0050 2f3e f597 403e fdb6 2e3e
00000260: 3ccf 54be a82a 88bd 7518 4ebe 6ba2 023e
00000270: 2ea9 a1be ad73 51be 9264 d5bc 7000 22be
00000280: 2857 b73d 2f00 253e f001 363e c457 a0bd
00000290: bdac e5bc 8c5a 353e 5fbf 383e 10b5 a7bd
000002a0: bf6f 90bd 1a8d 263e 71cb d9bd fd50 6abe
000002b0: ef22 803e fada 15bb cb46 d93d cd43 133e
000002c0: 643e 5bbe 787b 84be 4855 a2be ea7e aebd
000002d0: 663e 2c3e d504 f2bd 3b8a 0a3e dad8 59be
000002e0: a129 553e 08f5 473e 2c1c 013e bd07 e33d
000002f0: 7f07 adbe b6f1 573a c6af 413d 62d5 1abe
00000300: 9f3a 9abd 6949 2b3e d6e3 e1bc a5b8 c93d
00000310: 791b 4c3e 4c02 a3be 858d 5d3e 545a 37be
00000320: 6b76 6a3d 70fa 403e 30ae babc c69c aabd
00000330: bd3e 75be 0e0d 81bd 56ff f13c 765c 813e
00000340: a1b3 633e a0ba 71be 240e bf3d 19fe 65bd
00000350: c986 0a3d a2c6 a03e d346 f3bd 8c91 203e
00000360: 0e27 04be 0780 203e 67e8 02be a1df 07be
00000370: 859c dabd 6b60 d9bd ed74 4d3d ebbb 833e
00000380: a637 253d cb4a b0bd bef9 9ebd 8c7e 383e
00000390: d0cd bcbc 781c cb3c 7cec 6e3e 7037 7f3d
000003a0: de0f 373e 5cd9 60bd c050 5abd 9004 c9bd
000003b0: 780c 1bbe a1ea fb3d c781 3abc a148 72be
000003c0: 1d6d 11be 35aa 573e 7d1b 48bd 4378 33bd
000003d0: f1c6 463d c0f1 a9be 7ca4 d1bb a5b6 0bbe
000003e0: fb7b 5f3e 754f 14be 71bd 92bd c790 4e3e
000003f0: ef1d 61bd 7364 94be 9c67 0c3e c1a2 8fbe
-0.22401719 -0.0458145 0.10606244 -0.12435526 -0.06883187 0.16763735 -0.020017855 0.16142063
-0.063433684 0.061106406 -0.0038947037 -0.09972462 -0.025459975 0.081998594 0.008620839 0.31605607
-0.18422587 -0.060903315 -0.17875 -0.11939956 -0.010068217 0.026409302 -0.11742551 0.11750543
0.099038094 -0.0003479412 0.02816113 -0.21497227 0.21425311 0.19783513 -0.117819466 -0.2738709
-0.12686044 0.29902217 -0.08284285 0.020389378 0.022322327 -0.13343605 0.06298213 0.06301617
0.11941959 -0.1335208 -0.10818733 -0.039682552 0.2753965 -0.1756076 0.26596487 -0.02076172
0.016439378 0.012723544 0.313182 0.027052706 0.011711754 0.034518525 0.07630892 0.17764303
0.28828984 -0.10400079 -0.3251582 0.2164108 0.22267468 -0.16284375 0.12696168 0.022398205
0.23157734 -0.0065850946 0.2576426 0.14154503 0.03931766 0.22981016 0.0397189 -0.21449354
0.13958521 0.03339744 -0.18405615 0.26253423 0.3261071 0.27884904 -0.17749412 -0.05452382
-0.040697236 -0.027261324 -0.046806064 0.1619024 -0.22679938 0.16860028 0.16609462 -0.19049421
-0.010771072 -0.10737689 -0.024712086 0.20785223 -0.1743537 -0.25975764 -0.23245026 0.037224405
-0.20308276 -0.014454283 0.26846874 0.12100393 0.13465375 -0.07973918 0.27432197 0.2655269
0.11719471 0.14135753 -0.123976104 -0.095223494 0.11712789 -0.3418811 -0.0882767 0.06117738
-0.12413828 0.07770441 -0.115413934 -0.08391425 -0.27545273 0.18161592 -0.27771753 0.1362654
0.17474473 -0.14838576 -0.20243955 -0.13766348 -0.07538592 0.22897995 -0.20302919 -0.14963287
0.18556264 0.17090617 -0.04658977 -0.29683492 0.060664468 0.2045389 0.12543732 0.2838678
0.31741714 0.2286276 -0.14412548 0.30021003 -0.1173653 0.22462381 -0.024488429 0.07123938
0.2530015 -0.14313535 -0.17894909 -0.17090794 -0.30798274 0.17120361 0.18807967 0.17061992
-0.20782179 -0.06648761 -0.20126517 0.1275727 -0.31574386 -0.20454283 -0.026048932 -0.1582048
0.089521706 0.16113351 0.17774177 -0.0782924 -0.02803647 0.17710322 0.18041752 -0.08188832
-0.07052564 0.16264763 -0.106345065 -0.22882457 0.25026652 -0.0022866116 0.10609206 0.14381333
-0.21410519 -0.2587545 -0.3170569 -0.08520301 0.16820678 -0.11817328 0.13529293 -0.21274129
0.20816661 0.19527066 0.12608403 0.1108546 -0.33794782 0.0008237617 0.04728677 -0.15120462
-0.07530712 0.16727223 -0.027574461 0.09849671 0.19932355 -0.3183769 0.21636017 -0.17905551
0.05724184 0.18845534 -0.022788137 -0.083306834 -0.23949714 -0.06301318 0.029540699 0.25265855
0.22236492 -0.23606348 0.09328869 -0.05615053 0.033819947 0.31401545 -0.11878743 0.15680522
-0.12905523 0.15673839 -0.12783967 -0.13268901 -0.10674385 -0.106140934 0.050160337 0.25729308
0.040336274 -0.086080156 -0.07762478 0.18017024 -0.023047358 0.024793848 0.23332399 0.06230873
0.17877147 -0.05489479 -0.053299665 -0.09815323 -0.15141475 0.12300611 -0.01138348 -0.23660518
-0.1420178 0.21061023 -0.04885434 -0.043815862 0.04852957 -0.33192253 -0.006397782 -0.13643892
0.21824639 -0.14483435 -0.07165039 0.20172416 -0.054960188 -0.28982887 0.13711399 -0.2805386

conv2.att_l f4 [1, 1, 64]
00000000: b2e9 8e3e b135 75be 1c8f e9bd 2811 c3bd
00000010: 6d65 043e 98a9 d23d af34 18be 1cb2 68be
00000020: 6e6d 2d3e ebda f7bc adf8 a13e cacc f33d
00000030: 4536 793e 5948 93be c6f2 96bd 554c f5bd
00000040: ef32 9c3e e250 15bd 0e3b b9bd 09c4 ebbd
00000050: 1f10 30be 0d12 263e a228 5abe b500 12be
00000060: cbf8 37be df2b 9fba 9bff 5d3e 5bcf 43bd
00000070: 3425 21bc 3223 4abe 77de a6be 701b 4d3e
00000080: 7789 a2be b6b2 8fbe b271 6e3e d3aa 3d3e
00000090: 5f8a c23d b188 3dbe b3bc 92be f0a6 173e
000000a0: 2470 66be f448 d93d 790d 2ebe 31be 723e
000000b0: 9202 b4bd 92e3 bd3d cf46 5c3e 5dc2 7dbe
000000c0: fcfb ed3c a3af 703e f653 4ebd 9813 8ebe
000000d0: 0ae5 cf3c aeb1 68be d55c bfbd 30a2 863d
000000e0: 9eac bcbd e2a5 aabb 7e1b 303e 28c9 273e
000000f0: 1177 10bd f415 80bd c148 7f3e ef10 ce3d
0.2791267 -0.23946263 -0.11404249 -0.09524757 0.12929316 0.10286254 -0.14863847 -0.22724193
0.16936275 -0.030255755 0.31635037 0.11904295 0.24337108 -0.28766134 -0.07370524 -0.1197745
0.3050761 -0.03645409 -0.09044467 -0.11512 -0.1719365 0.16217823 -0.21304563 -0.14258082
-0.17966 -0.0012143812 0.21679537 -0.04780517 -0.00983553 -0.19739988 -0.32591602 0.20029998
-0.31745502 -0.28066033 0.23285559 0.18522196 0.094990484 -0.18509175 -0.2865959 0.14809775
-0.22503716 0.10609618 -0.16997327 0.23705365 -0.08789553 0.09271921 0.21511386 -0.24781175
0.02905082 0.235045 -0.05037304 -0.27749324 0.025377769 -0.2272403 -0.09343878 0.065739036
-0.092126116 -0.005207763 0.17197987 0.16385329 -0.0352698 -0.06254187 0.24930097 0.100618236

conv2.att_r f4 [1, 1, 64]
00000000: 01ef 073d 6e56 34bd 874b 5f3e 535b 203e
00000010: e0e5 8d3e 0617 14be 809a ef3c 6871 ca3e
00000020: 45cf 14bd 92cd ec3d 8318 f1bd 3d12 c0bd
00000030: 2a87 a6bd 841b 74be 2baa 1bbe ffc0 cf3c
00000040: 25ec 0f3e 44b4 fa3d 2192 123d 433f a3bd
00000050: 6b0c 8bbc 3194 f0bc d5cd 573e 550e 10be
00000060: f42d 873e e2db a4bc 73a3 1a3e 0f24 6dbd
00000070: a3b8 0c3e cefe f23d 343b 7dbd 0bc9 353b
00000080: a82d 213e 1cdb 8b3d 29cd 37be b311 413e
00000090: 92b4 b23e 3ee1 353e 6cad 7b3d 6524 5bbe
000000a0: 80c2 5a3e fa0a c43d 5f09 703d 5e49 46bd
000000b0: 5e36 1cbe c18b 1a3e c140 0ebd 008b 303e
000000c0: b64e ec3d ce87 423e 141f 0f3d ef5e 4c3e
000000d0: 15af 82bd cec8 04bd 8acc a43d d9a8 943e
000000e0: 7009 81bd b7b0 4a3e 7bd3 fa3d 5637 d8bd
000000f0: 3d89 a03d 245e abbb 8f5d 043d 9ace 82bd
0.033186916 -0.04402774 0.21806155 0.15659837 0.27714443 -0.14461908 0.029248476 0.39539647
-0.03633048 0.11562647 -0.11772253 -0.09378479 -0.08131249 -0.23838621 -0.15201633 0.025360582
0.14054926 0.12241414 0.03578389 -0.079710506 -0.016973695 -0.029367538 0.21074612 -0.14067967
0.26402247 -0.02012438 0.15101413 -0.057895716 0.13742308 0.118650064 -0.06182404 0.002773824
0.15740073 0.06828901 -0.17949356 0.18854408 0.3490339 0.17761704 0.061444685 -0.21400602
0.21363258 0.09572406 0.058602687 -0.048409812 -0.15255114 0.15092374 -0.034729723 0.17240524
0.115384504 0.18997118 0.034941748 0.1995809 -0.063810505 -0.032418065 0.08046825 0.2903507
-0.06300628 0.19793974 0.12247368 -0.105574295 0.07838676 -0.0052297283 0.032315787 -0.06387062

conv2.bias f4 [64]
00000000: 99b7 4b3d 02d5 a6be 10fa 1cbb 891a 4fbd
00000010: 3683 8b3e 2544 82be 22f0 9fbe 1167 b03d
00000020: ddc2 d63d ee63 793c acca 6cbe bdd3 883e
00000030: afac 45be 4c8a 793e d774 593e 139e 763e
00000040: 7759 93be 3190 6cbd c370 91be 940d d5bd
00000050: 4a7d 403e dc95 8dbe 238c 64be de27 763e
00000060: 7517 2ebe da2c b73d 399d 5a3e ec40 453e
00000070: fb5f 9e3e 16f1 8f3e ae42 233d 0186 813e
00000080: af87 ad3d 6f51 60bb 98f8 9f3e 93fd 0f3d
00000090: cf3f 12be 39f6 0abe a24f 7a3e 6d02 8cbe
000000a0: 829f 45be 25a1 62be da00 993d 59ce 193c
000000b0: 9548 a13e 4a8f 363e 154b 85bd 2918 e0bd
000000c0: 54b5 e9bd 3c3b 92be 5d10 a5be b3f8 523e
000000d0: 1e0e 84be ab81 8c3e c379 febd 8981 aa3e
000000e0: 433c 923e 5af1 8d3e 037e 8c3e f9b2 89be
000000f0: 28a9 5e3e 0a2d 503e 7bd8 7e3e c5aa 7cbe
0.04973564 -0.32584387 -0.002395276 -0.050562415 0.27248544 -0.25442615 -0.31237894 0.08613408
0.10486386 0.015221579 -0.23124188 0.26724043 -0.19304155 0.24369162 0.21235977 0.24083738
-0.28779194 -0.0577547 -0.28406343 -0.104029804 0.18797794 -0.27653396 -0.22319083 0.24038646
-0.17001136 0.08944102 0.21349038 0.19263047 0.30932602 0.2811362 0.039858513 0.2529755
0.08473145 -0.0034228226 0.3124435 0.035153937 -0.14282154 -0.13570489 0.2444444 -0.273456
-0.19299129 -0.22131784 0.074708655 0.009387576 0.31500688 0.17828098 -0.065084614 -0.10942108
-0.11411539 -0.28560817 -0.32239047 0.20602684 -0.2579202 0.2744268 -0.12425568 0.33301952
0.285616 0.277232 0.2743989 -0.26894358 0.21744215 0.20329681 0.24887268 -0.24674518

conv2.lin.weight f4 [64, 64]
00000000: 30dd 6a3d a701 d03d 9b22 163e 921b 353e
00000010: fbf9 a73d 0513 573e 1e14 7f3d 2be3 a6bd
00000020: 2f6f 46be cb18 8fbb ea37 4fbe 352b debd
00000030: 14f5 08bd a4cc 7d3e 6771 95bd 105d 3bbc
00000040: f2b0 4f3e a24b ebbc db1b 2bbe 1cc6 98bb
00000050: 2547 87bd 2595 573e 2579 ad3b afcc 8c3d
00000060: bcf3 0bbe da46 40be 7fc3 213e 66b1 893d
00000070: a731 463e 1f89 4d3d 48d0 5f3d 3ed9 22be
00000080: 696c bcbc fe76 683e f6aa a33d 8731 83be
00000090: 6f20 003d 04af e3bc 5e33 403d 6bb9 643e
000000a0: 436e 25be d359 643c 4310 7c3c 993d 80bc
000000b0: d919 d8bc 012c 5c3e b233 5f3d cd99 41bd
000000c0: 692b 023e 3e4e 1b3e 5969 253d 08fa 72bd
000000d0: d0c8 cc3d 94e4 d1bd ee79 783e fd23 30be
000000e0: 4559 b53d 319e e23a 5a31 62bd e7f2 123e
000000f0: 5355 52be 0532 053e 00f4 523e b51e 713e
00000100: 90a8 81be 1f20 77be 11a1 8e3d c94f 87bd
00000110: e4d6 97bd 474a 03be cb85 e63d c21d 66be
00000120: 0248 0fbe b1ac 1ebe a9f7 8dbd f675 5c3e
00000130: a5d2 ba3d 5f59 043e 14f7 13be ec14 cebd
00000140: 9715 e9bd b786 333e c592 f8bc d406 9f3d
00000150: dfa5 623c 0a26 b3bc 59ea 433e c07c ec3d
00000160: eefe 66be 6e67 473e 3921 20bc 0136 b1bc
00000170: 036e 5ebe 5a83 b0bc 14d2 41be f902 343d
00000180: 446f 18be bfbb c83d 2c86 4b3d 5720 29bc
00000190: a185 5dbe ced8 823d 6f82 213e de6a 953e
000001a0: bcca 82be 0c7c 69be 6e2e 89bd 6d4d c6bb
000001b0: 2ff5 043e 8444 a03c 1406 eb3d 62c4 213e
000001c0: 8593 25be 99a3 0ebe e5a9 2d3d 3d29 86bd
000001d0: eaa1 77be 0bb0 58be 8cb7 23be ae35 223e
000001e0: e905 7ebe 9099 11bd ae2c 2dbe 5151 873e
000001f0: 8855 40be 313f 9e3d 76be 89be 29f8 2fbe
00000200: c3b3 4f3e 3c4b 03be 8614 1dbe 7678 193e
00000210: f626 fcbd 2276 a0bd ae69 03bc 6978 33be
00000220: f737 4bbe b7de 943d 3ed7 ad3d 8776 e93b
00000230: dc18 1e3e dc99 1bbe 7461 36be fb20 84be
00000240: 6421 dcbd 53ab 47bc 6e81 cfbd d0dc febd
00000250: 97c3 e63d 7cb3 bebd 7769 4cbe 51bb 0d3e
00000260: 1a4a b23d 094d bd3d 75c8 043e 72be 563e
00000270: e4bd 5f3d 120d b1bd ea1e 8c3e 6aad 35be
00000280: 7c5d 6a3e 93a4 96be ce64 163e 0d23 2d3e
00000290: 5b66 b6bd cbf0 45be e9a2 fc3d ab61 08be
000002a0: b821 ea3d 6c99 353e ca31 6f3d b516 8e3c
000002b0: 41bd d7bd 93d0 11be 30c5 26be da58 053e
000002c0: 5512 4ebe 0dd8 343c c3a5 85be 3dbb 39bd
000002d0: ccdd 9ebd 5964 423e 32fb 48bd 7070 95be
000002e0: 137d 9d3d abd8 503e a93a 1cbe eeb6 c33d
000002f0: bc65 3d3e ab31 073d 7294 f33d 89ac 14be
00000300: 6dc3 c3bd 5cb6 3abe 1342 5d3e 3ac7 093e
00000310: 6ee7 aabd 6256 ca3d c88c 9c3d 89ce c43d
00000320: 3475 01be b303 ed3c 7ac6 7dbe b1ad 1c3e
00000330: c4ba 073e 5f3d 5b3d 95de 07be 2961 81be
00000340: 000d 993d 3f17 693e d055 063e ed39 09be
00000350: 5447 4ebe 5377 07be c669 b1bd 3efb 45bb
00000360: a2c2 30bd b88b a83d 066f acbd aa84 83be
00000370: 3b77 183e 419d 71bd 88ba 983d c9f3 efbd
00000380: cbe0 af3d 8d32 763d 69d8 1fbd 6656 5a3d
00000390: a475 543d 898d 37bc 936a 943d 07d0 adbd
000003a0: 7379 c5bd b04e 823d aef4 4dbe 6685 b1bd
000003b0: 38bd bebd e13e 153e 28d3 083e 83ef 25be
000003c0: cd50 8f3d 5ac0 dbbd c146 95bd 101a 78be
000003d0: a794 7ebe a87b a63c ede4 253e fd5e f8bd
000003e0: 4fe4 21bd eb21 aebc c987 a9bd 7788 7b3e
000003f0: 6cb7 ad3d ecdd 4b3e cf56 803d 7493 76bd
0.057339847 0.10156565 0.14661638 0.17686298 0.08201977 0.21003349 0.062275045 -0.081487976
-0.1937835 -0.004366969 -0.20236173 -0.10848085 -0.03343685 0.24785095 -0.072970204 -0.011435762
0.20282343 -0.028722588 -0.16709845 -0.0046622884 -0.066053666 0.21052988 0.0052939826 0.06874978
-0.13667196 -0.18777028 0.15797232 0.06723289 0.19354878 0.050179597 0.05464199 -0.15903184
-0.023000913 0.22701642 0.079915926 -0.25623724 0.03128093 -0.027793415 0.046923988 0.22336356
-0.16155343 0.013937431 0.0153847365 -0.015654372 -0.026379513 0.21501161 0.05449266 -0.047265816
0.12711872 0.15166566 0.04038367 -0.05932048 0.099992394 -0.10248676 0.24265262 -0.17201228
0.088549174 0.0017289576 -0.055222847 0.14350472 -0.20540361 0.13007362 0.20600891 0.2354687
-0.25323915 -0.24133347 0.06964315 -0.06607015 -0.07414034 -0.12821303 0.11255988 -0.22472289
-0.13992313 -0.15495564 -0.06932003 0.21529374 0.091222085 0.12924717 -0.14449722 -0.10062584
-0.11381071 0.17531858 -0.030343423 0.07764974 0.013833492 -0.021868724 0.19132365 0.11547232
-0.22558185 0.19473049 -0.009773546 -0.021632196 -0.21721654 -0.021547008 -0.18927795 0.043948147
-0.14886194 0.09801435 0.049688503 -0.010322652 -0.21633007 0.063890085 0.15772413 0.29183096
-0.255453 -0.22801226 -0.06698309 -0.0060517103 0.12984155 0.01956392 0.11475769 0.1579757
-0.16169555 -0.13929595 0.042398352 -0.06550834 -0.24182859 -0.21160905 -0.15987986 0.1584079
-0.24806942 -0.03554684 -0.16911575 0.26429227 -0.18782628 0.077268966 -0.26903123 -0.1718451
0.20283417 -0.12821668 -0.1533986 0.14987358 -0.12312119 -0.07835032 -0.0080208015 -0.17526402
-0.19845568 0.07269042 0.0848832 0.0071247253 0.1543917 -0.15195411 -0.17810613 -0.25806412
-0.10748556 -0.012186843 -0.10132109 -0.124444604 0.112677746 -0.09311578 -0.19962107 0.13840987
0.0870554 0.09243209 0.12967093 0.20971087 0.054624453 -0.08645071 0.27367336 -0.17741933
0.22887224 -0.29422435 0.14686891 0.16907902 -0.089062415 -0.19330136 0.1233576 -0.13318507
0.114322126 0.17734307 0.058397092 0.017344812 -0.10534144 -0.14239721 -0.16286159 0.13022175
-0.2012418 0.011037839 -0.2610303 -0.04534458 -0.07757148 0.18983592 -0.049067684 -0.29187346
0.07689872 0.20395152 -0.15256752 0.095563754 0.1849584 0.03300635 0.11893548 -0.14518942
-0.09558759 -0.18233627 0.21607237 0.13454905 -0.08344923 0.098797575 0.076440394 0.09609706
-0.12642366 0.028932428 -0.24782744 0.15300633 0.13254839 0.053525325 -0.13268502 -0.2526944
0.07473183 0.22762774 0.13118672 -0.13401003 -0.20144397 -0.13229112 -0.08662753 -0.0030209566
-0.043154366 0.08229774 -0.084196135 -0.25687152 0.14889233 -0.05898786 0.07457453 -0.1171642
0.08587798 0.060106803 -0.039024744 0.053305052 0.051870003 -0.011203178 0.0724689 -0.08486944
-0.09642305 0.06362665 -0.20112869 -0.08668022 -0.09313434 0.14574768 0.133618 -0.16204648
0.069978334 -0.107300475 -0.07288886 -0.24228692 -0.24861394 0.020322636 0.1620061 -0.121274926
-0.039524373 -0.021256408 -0.08277852 0.24563776 0.084822506 0.19908875 0.062665574 -0.060199216

classifier.weight f4 [2, 128]
00000000: 4ea6 a9bd 0679 b03d cd9d e0bc 41a4 69bd
00000010: 5865 11be aed5 1e3d 8bd9 c03d 86a0 95bb
00000020: 8b29 94bd 28bd ddbc 71cd 22bd 484f 0cbe
00000030: c104 143e 7498 bdbc 579c 27be 93da 08be
00000040: 37af 223e 5994 28bc 7f87 e33d 36aa 3abd
00000050: e2e7 0ebe 51d8 d83d bd8e 383d a8df 6f3c
00000060: 3467 a93d e252 2bbd 1915 f13d c63d 1cbe
00000070: 0c35 89bd cb5f d8bd 625d 40bd e43d db3d
00000080: 5360 90ba 7e34 31bd e949 cabd ab17 f13d
00000090: 7984 613d 39ff 96ba bb1b 10be 76ea 4a3d
000000a0: 89ba 803c 2aa1 e73c de02 1d3d 1ab8 433c
000000b0: 7d09 02be 9405 293c 1169 54bd 6fd7 1d3e
000000c0: 7130 d53c f890 273e 5ff4 7a3d ac77 b8bd
000000d0: 4c06 8b3c 006f 09be 5bd0 afbd 7f4a 2dbd
000000e0: 2ca6 adbd e350 7cbd 0637 d9bd fc25 dc3d
000000f0: 74ea aebd fb21 053c 935f 3ebd 4cbe c2bc
00000100: 7d1b 2d3d 02c3 af3d bad3 faba a906 abbd
00000110: 26fb efbd 5e41 0b3e edad e93d 89f0 b3bd
00000120: 102c 37bd be1f f0bd 7f00 913d 39a7 edbd
00000130: 6574 143e 52da d1bd e901 bcbd 4cfd 0abe
00000140: c614 4d3d 6e00 c53d 5cfc aebb aac5 f0bd
00000150: 25e1 39be d794 313e ee83 313e 06fb 76bd
00000160: 371e ae3d b8db 923c 99fe b03c 84a1 11be
00000170: f3d6 3ebe 9d4c 0dbe 51b4 90bc c0a2 7cbd
00000180: cf75 c7bc 3adb 98bd 9632 6abb 3fd9 003d
00000190: a118 c43d 7b84 dc3c 1b8c 30be d005 6a3d
000001a0: fc52 3b3d fa7d b13c da5a 603c 8522 c03d
000001b0: 7f3f 84bd e511 c5bd 4b77 9b3d 94d1 283d
000001c0: 222a c43b b198 023e bdf4 213e 93d3 88bd
000001d0: 8fff 8bbd a341 05be a345 bcbb 14b6 72be
000001e0: f913 1fbe 07ea 8cbb 0eb9 15be 199f 1c3e
000001f0: 9e61 f7bd 684b 3cbd 410e 5fbd 1ed9 31bc
00000200: a51f c1bb 72a0 093d bed1 83bd 39d1 c0bc
00000210: 7ddd 89bd 31e2 b93c ff8d 1a3e 25fc 3f3d
00000220: 60ad 853b 2b16 263d 867f 153e 704c a7bd
00000230: 291d 94bc b224 f8bd d6db ad3c bd5c 04bd
00000240: 7436 77bc e479 3dbd 9140 f43d dcbc a83c
00000250: b98b 3bbb b337 21bc 9daf 163d 91da b5bd
00000260: 6608 d1bc 65a5 98bb 6c86 a2bd 0e8e 26bc
00000270: 4e9a e1bd 0e30 8cbd a942 573b 2a5d c4bd
00000280: 269b 0ebd c18b 4a3c 5e9c b0bd 50c9 213c
00000290: ab0d 9e3d 6102 a83c 5fab 0dbe 6da3 fe3d
000002a0: 598f 173e bb9c 083e d49b a3bd a3ca aabd
000002b0: 1ee0 c7bd 27ad 3cbd 2607 eb3c 1e39 78bb
000002c0: ec27 febc 92b7 963d 5a57 8c3d e042 b9bc
000002d0: e279 ab3d f92a 0ebe ff27 073e 15d6 19bd
000002e0: 2f69 bdbc a64e 04be 3648 a0bd a365 bb3d
000002f0: 82b8 0abe 8015 e6bb f668 d4bd baa8 ce3d
00000300: 24e4 633d fb9a 183e 99c8 5fbd e741 d83c
00000310: df6f 05be fcb4 713d da79 9e3c 5ba0 763b
00000320: 3956 9fbd f57b a13d 4925 dd3c a9f1 7bbd
00000330: 8585 79bc 0509 9abd c520 cbbc f758 d0bd
00000340: a59c e93d aa94 893b f72a b33d 74da 173e
00000350: 1cfc 1a3d 994f 143e a3cf 0e3d 3dd4 f6bd
00000360: 5da7 e43b 9559 e23b 5659 09be 4cce 1e3d
00000370: 8e74 e9bc 5066 a5bd 99b8 05bd 0448 02be
00000380: e050 9abb f528 7fbd d55c 70bd 82f0 a5ba
00000390: 3da7 bdbb 0d97 0e3e 4322 0abe 61a2 143e
000003a0: 4ca7 843c 6961 0c3e b4ed ac3c aa48 7d3c
000003b0: 4f62 adbd 114a 0bbd c87b 36bd 08d0 d33c
000003c0: 7cb9 36bb aa5e 9d3d 5577 e63d c665 493b
000003d0: 7e2f b13d e8cb a0bd 97bd 553c 90ab f3bd
000003e0: 0cd6 0cbe 5761 f2bd 11c0 cfbd f50b 0a3e
000003f0: ba2c 5fbc c652 cbbd fb6d f2bd 6664 d93c
-0.08283673 0.086168334 -0.027418995 -0.05704141 -0.14198816 0.038778 0.09416493 -0.004566255
-0.07234486 -0.027067736 -0.039746705 -0.13702118 0.14454938 -0.023143984 -0.16368233 -0.1336463
0.15887152 -0.010289275 0.11109828 -0.045572482 -0.13955644 0.10588134 0.045058 0.014640726
0.082716376 -0.04182709 0.11771602 -0.1525794 -0.06699571 -0.10565146 -0.046964057 0.10705164
-0.0011015035 -0.04326295 -0.098773785 0.117720924 0.055057976 -0.0011520154 -0.14073078 0.049540006
0.015713947 0.028275091 0.038332812 0.011945749 -0.12698932 0.010316271 -0.05185801 0.15414213
0.026024075 0.16363895 0.061268207 -0.090072006 0.016970776 -0.1342125 -0.085846625 -0.042307373
-0.084789604 -0.061600577 -0.10606198 0.107494324 -0.08540812 0.008125777 -0.046477865 -0.023772381
0.042262543 0.08582117 -0.0019136586 -0.0835088 -0.11717825 0.13599154 0.11410127 -0.08786113
-0.044719756 -0.11724804 0.07080173 -0.11604161 0.14497526 -0.102467194 -0.09180052 -0.13573188
0.05006864 0.096192226 -0.005340142 -0.117564514 -0.18152292 0.17341934 0.17335483 -0.06029799
0.08501857 0.017927036 0.021605777 -0.1422177 -0.18636684 -0.13798757 -0.017664107 -0.061678648
-0.024348168 -0.07463689 -0.0035735718 0.031457182 0.0957501 0.02691864 -0.17240946 0.05713445
0.045733437 0.021666516 0.013693536 0.09381584 -0.064574234 -0.09622554 0.07591113 0.041215494
0.005986468 0.1275356 0.15816016 -0.066809796 -0.06835853 -0.1301332 -0.005745606 -0.2370227
-0.15534963 -0.004300359 -0.14621374 0.15295066 -0.12079166 -0.04597035 -0.054456953 -0.010854987
-0.005893665 0.03360028 -0.064364895 -0.023537265 -0.06731699 0.022690864 0.1509323 0.046871323
0.004079506 0.040548485 0.14599428 -0.08168876 -0.01808031 -0.12116374 0.02122299 -0.032315005
-0.015088666 -0.046258822 0.119263776 0.020597868 -0.0028617217 -0.00983994 0.03678857 -0.08879579
-0.0255167 -0.0046583884 -0.07935795 -0.010165704 -0.110157594 -0.06845103 0.003284613 -0.09588082
-0.03481593 0.0123624215 -0.08623575 0.009874657 0.07717451 0.020508947 -0.13834904 0.12433515
0.14800777 0.13341038 -0.07988706 -0.08339431 -0.09759544 -0.04606357 0.028689932 -0.0037875841
-0.031024896 0.07359232 0.068525985 -0.022614896 0.08372857 -0.1388358 0.13198851 -0.03755768
-0.023121445 -0.12920627 -0.07826273 0.09150245 -0.13546947 -0.007021606 -0.10371582 0.10090776
0.055637494 0.1490287 -0.054634664 0.026398612 -0.13030957 0.05901049 0.019345213 0.00376322
-0.077801175 0.07884971 0.026995318 -0.061509762 -0.015229587 -0.075212516 -0.0247959 -0.10173219
0.11406831 0.0041986303 0.08748429 0.14829427 0.037838086 0.14483489 0.034865987 -0.120522
0.006977959 0.0069076517 -0.13412985 0.03877096 -0.02849796 -0.08076155 -0.03264675 -0.12722784
-0.004709348 -0.06229492 -0.05868228 -0.0012660178 -0.0057877586 0.13924809 -0.13489632 0.14515068
0.016193055 0.13709034 0.02110944 0.015459219 -0.084660165 -0.034006182 -0.04455164 0.025856033
-0.0027881553 0.07684071 0.112532295 0.0030730828 0.086516365 -0.07851392 0.01304569 -0.11897957
-0.13753527 -0.11834972 -0.10144056 0.13481124 -0.0136215035 -0.09927897 -0.11837383 0.026537132

classifier.bias f4 [2]
00000000: d6e4 ddbd f1b9 59be
-0.108346626 -0.21262337
