outputs/regression/same_env/weights/a3tgcn.pth (torch, 408679 bytes, 14 tensors)

recurrent._base_tgcn.conv_z.bias f4 [128]
0	0x3db7acee	0.089685306
1	0xbe007d77	-0.12547861
2	0xbe56ade7	-0.20964776
3	0x3ddcb3d4	0.10776487
4	0x3dfddc20	0.12395501
5	0xbe2bb4e1	-0.16768219
6	0xbe71d1f1	-0.23615243
7	0x3e9b3811	0.30316213
8	0x3d5499d1	0.051904503
9	0x3e88de48	0.26732087
10	0xbe942bcc	-0.28939664
11	0x3e004a0c	0.12528247
12	0xbdf91308	-0.12161833
13	0xbe0ee309	-0.13953795
14	0x3dd94325	0.1060851
15	0x3e035a8d	0.12827511
16	0xbe301ba1	-0.1719804
17	0x3e04cc70	0.12968612
18	0xbe41fd8c	-0.18944377
19	0x3eaa5a97	0.3327224
20	0x3d932891	0.07185472
21	0x3e5bce50	0.2146542
22	0xbe7a8578	-0.24464977
23	0xbe9a05d4	-0.30082572
24	0x3da5441c	0.080696315
25	0xbece4867	-0.40289614
26	0xbe17f152	-0.1483815
27	0x3da52ee1	0.08065582
28	0xbe0cc612	-0.13747433
29	0x3e4753da	0.1946558
30	0x3e2a0abc	0.16605657
31	0x3e81e040	0.25366402
32	0x3e60cf0b	0.2195398
33	0x3eba57ab	0.3639501
34	0xbdd31dc1	-0.103084095
35	0x3e28941e	0.16462752
36	0xbead32e1	-0.3382788
37	0xbdfd81bb	-0.1237826
38	0xbe1783e7	-0.1479641
39	0x3e62d65a	0.22152081
40	0xbe7273f6	-0.23677048
41	0xbe913f79	-0.28368738
42	0xbe8a66ba	-0.270315
43	0xbeeaf1b7	-0.4588754
44	0x3e871f94	0.2639128
45	0x3e0cf57b	0.13765518
46	0xbdf1aa81	-0.11800099
47	0x3e39ab84	0.18131834
48	0xbed29821	-0.4113169
49	0xbe19de6c	-0.15026253
50	0x3e217dbe	0.15770623
51	0xbed87f3b	-0.4228457
52	0xbea36f0d	-0.31920663
53	0xbe18ec0a	-0.14933792
54	0xbe5e1090	-0.21686006
55	0xbdb3ad38	-0.08773273
56	0xbe3fad22	-0.18718389
57	0x3e268e25	0.16265161
58	0x3e308bd7	0.17240845
59	0xbe3dabe1	-0.18522598
60	0x3e4d4150	0.20044446
61	0xbe3dcb4a	-0.1853458
62	0xbe6fad7a	-0.2340602
63	0x3d455952	0.048180886
64	0x3dda80a7	0.1066907
65	0xbe8c8a61	-0.27449325
66	0xbe8c28d1	-0.2737489
67	0xbe24fe07	-0.16112529
68	0x3d84321f	0.06454872
69	0xbe13d5b5	-0.14436992
70	0xbeb73f2f	-0.35790393
71	0xbdad2ba9	-0.08455593
72	0x3e33f640	0.17574406
73	0xbd979b7e	-0.07402705
74	0xbe43d20e	-0.19123098
75	0x3e918004	0.2841798
76	0xbe36ba9b	-0.17844622
77	0xbe8e8d2f	-0.2784209
78	0xbe1364a6	-0.14393863
79	0xbdaf138d	-0.08548651
80	0x3d7100e1	0.05883873
81	0x3ec116bd	0.3771266
82	0xbdc043c3	-0.093879245
83	0x3e325a88	0.17417347
84	0x3db3e1c9	0.087832995
85	0xbe12e42b	-0.14344852
86	0xbd863293	-0.06552615
87	0x3d522da6	0.051313065
88	0xbdbdaa53	-0.092610024
89	0xbda8ea20	-0.08247781
90	0x3dd14ce3	0.10219743
91	0x3ea3ca5f	0.31990334
92	0xbdd13eb3	-0.10217037
93	0x3ee9677e	0.4558677
94	0xbe41aa67	-0.1891266
95	0xbe8bc69e	-0.2729997
96	0x3e5ae386	0.21375856
97	0x3e74f001	0.23919679
98	0x3db38793	0.08766093
99	0xbeaf00a7	-0.34180185
100	0x3df896aa	0.12138112
101	0x3e2b11ef	0.1670606
102	0x3dc0ad9d	0.09408114
103	0x3e3e9351	0.18610884
104	0xbe838bed	-0.25692692
105	0x3e1a2300	0.15052414
106	0xbd4bf80d	-0.049797107
107	0x3ee13ab4	0.439901
108	0x3e8fb035	0.28064123
109	0x3e957452	0.29190308
110	0xbec6213e	-0.38697237
111	0xbe779421	-0.241776
112	0xbe39df71	-0.18151642
113	0xbe49fa63	-0.19724421
114	0xbdcc58bb	-0.099778615
115	0xbd90f09b	-0.07077142
116	0xbd8d3713	-0.0689527
117	0xbe37e4e9	-0.17958416
118	0x3e5e95cb	0.21736829
119	0xbdcf166a	-0.10111697
120	0x3e161a33	0.14658432
121	0x3e5f56f5	0.21810515
122	0x3def61ad	0.11688552
123	0x3c8f9bb9	0.017530309
124	0x3e827323	0.25478467
125	0xbe1090f1	-0.14117791
126	0xbe738576	-0.2378138
127	0x3edcd599	0.43131712

recurrent._base_tgcn.conv_z.lin.weight f4 [128, 1]
0	0x3e644700	0.2229271
1	0x3caddc73	0.021223282
2	0xbdc8a636	-0.09797327
3	0xbd685b3f	-0.056727644
4	0x3da11be7	0.0786665
5	0xbdfecf0b	-0.12441834
6	0xbe1d4116	-0.1535686
7	0xbc83eac8	-0.016103163
8	0x3e44fd6f	0.19237302
9	0xbd19ed1e	-0.03757965
10	0x3d3cbc12	0.046077795
11	0x3dce9b3f	0.100882046
12	0xbe185e9e	-0.14879844
13	0xbe0f9908	-0.1402322
14	0xbd1ee605	-0.038793582
15	0x3dcdef7a	0.10055442
16	0xbdc21c7e	-0.09478091
17	0x3df997a0	0.12187123
18	0xbdf85bd5	-0.121268906
19	0x3d15f1ee	0.036607675
20	0x3e573c01	0.21018983
21	0x3cf8226d	0.030289853
22	0x3d34a331	0.044100944
23	0xbc76b72c	-0.01505832
24	0x3e61efa4	0.22064072
25	0x3d8bfe2f	0.06835591
26	0xbd9bac9b	-0.07601281
27	0x3d6fe4b8	0.058567733
28	0xbd51cd98	-0.05122146
29	0x3de2a03c	0.110657185
30	0x3e051720	0.12997103
31	0x3d166efe	0.036726944
32	0x3cbf37be	0.02334201
33	0xbd85f6f1	-0.06541241
34	0xbdfb8b8a	-0.12282474
35	0x3da0db1d	0.078542925
36	0x3d4cbd7a	0.049985386
37	0xbe1f22ef	-0.1554067
38	0xbe359f70	-0.17736602
39	0xbc076b37	-0.008265308
40	0xbb9f14f6	-0.0048547937
41	0x3c90f47f	0.01769471
42	0xbcdd29e4	-0.026997514
43	0x3c966f04	0.018363483
44	0x3cb9edd4	0.022696413
45	0x3dc4623e	0.09589051
46	0xbe2078e5	-0.15671118
47	0x3e14f11c	0.14545101
48	0x3dfe9418	0.124305904
49	0xbe235741	-0.15951253
50	0x3d36e135	0.044648368
51	0x3dbbe0c8	0.09173733
52	0x3d1ccfdc	0.038284168
53	0xbe107354	-0.14106494
54	0xbd388703	-0.045050632
55	0xbe391e1e	-0.18077895
56	0xbd5c4432	-0.053775974
57	0x3e31201b	0.17297404
58	0x3de22f3f	0.11044168
59	0xbe27a753	-0.16372423
60	0x3e01c508	0.12672818
61	0xbe183311	-0.1486323
62	0xbd872c6a	-0.06600268
63	0x3e671bd8	0.22569215
64	0x3dff0ce9	0.12453634
65	0x3cf57278	0.02996181
66	0x3d88c3b7	0.06677955
67	0xbe1cc007	-0.15307628
68	0x3dd71548	0.10502106
69	0xbe269f0c	-0.16271609
70	0x3d111fa7	0.035430577
71	0xbe69ece6	-0.22844276
72	0x3d946617	0.072460346
73	0xbe58b606	-0.21163186
74	0xbd9c2fc2	-0.076262966
75	0xbce8f8e6	-0.028438997
76	0xbd7e204d	-0.062042523
77	0x3d3c9f88	0.04605058
78	0xbe21208b	-0.1573507
79	0xbddf31ee	-0.10898195
80	0x3e548991	0.20755602
81	0xbc314cdb	-0.010821546
82	0xbe0bf040	-0.13665867
83	0x3c886768	0.01665087
84	0x3e25835c	0.16163391
85	0xbe0d688f	-0.13809417
86	0xbe5b5726	-0.21419963
87	0x3e468594	0.19386894
88	0xbdd12511	-0.10212148
89	0xbe44b044	-0.19207865
90	0x3e4f0241	0.20215704
91	0xbd328eb8	-0.04359314
92	0xbe19fc3e	-0.15037629
93	0xbd6bff82	-0.057616718
94	0xbde2a528	-0.11066657
95	0xbd38c24c	-0.04510717
96	0x3c6580a1	0.014007718
97	0xbd11ce01	-0.03559685
98	0x3e2a7799	0.16647185
99	0xbc5c3b0e	-0.013441814
100	0x3da85b9e	0.082205996
101	0x3e15ba8e	0.14621946
102	0x3e075a93	0.13218145
103	0x3cb929bd	0.02260291
104	0x3d0b7144	0.034043565
105	0x3dc21b87	0.09477907
106	0xbd80fae7	-0.06297856
107	0xbd6ae33e	-0.05734562
108	0x3d7b1b82	0.06130553
109	0xbcfc8c5f	-0.030828653
110	0x3d93c351	0.07214988
111	0x3c2b0ff3	0.010440814
112	0x3c31b2c8	0.010845847
113	0xbe09aa0f	-0.13443778
114	0xbe147183	-0.14496426
115	0xbe53ddf5	-0.20690139
116	0xbe54a6f8	-0.20766819
117	0xbe3d8b81	-0.18510248
118	0xbc2c5c20	-0.010520011
119	0xbe10db94	-0.14146262
120	0x3e0ceeac	0.13762921
121	0x3dc8ff3d	0.09814308
122	0x3e04d9db	0.1297373
123	0xbce0b4e8	-0.027430013
124	0x3dbabf41	0.0911851
125	0xbe19dc7c	-0.15025514
126	0xbc64ade3	-0.013957473
127	0xbc917c4f	-0.01775947

recurrent._base_tgcn.linear_z.weight f4 [128, 256]
0	0xbca15a0b	-0.019696256
1	0xbce00949	-0.027348178
2	0xbd15cafa	-0.036570527
3	0x3d7e4ba1	0.062083844
4	0xbcaa7415	-0.020807305
5	0xbd670b73	-0.056407403
6	0xbcfda959	-0.03096454
7	0xbc08efed	-0.008357984
8	0x3d29ffd6	0.04150375
9	0x3d7d028c	0.061770007
10	0x3c30a751	0.010782079
11	0x3cff6c93	0.031179702
12	0xbd824538	-0.06360859
13	0x3ce3b2ff	0.027795313
14	0xbd8de474	-0.069283396
15	0x3d1e67a8	0.038673073
16	0xbd8f5209	-0.06998069
17	0xbcda2ed2	-0.026633654
18	0xbc63acfd	-0.013896224
19	0xbd25d987	-0.040490653
20	0xbd1eaa85	-0.03873684
21	0x3c0c9813	0.008581179
22	0xbd36ecc7	-0.044659402
23	0x3d421afe	0.047389023
24	0xbcb65fc8	-0.022262469
25	0x3966f2f6	0.0002202502
26	0xbd800ce2	-0.06252457
27	0xbd79ef4a	-0.06101922
28	0xbd3ed109	-0.04658607
29	0x3d0dc079	0.034607384
30	0xbc6e3ac1	-0.014540375
31	0x3d75ff7a	0.060058095
32	0x3bc4da4f	0.0060074697
33	0xbd0e8792	-0.03479726
34	0x3d00c7f8	0.031440705
35	0xbd08b91d	-0.033379663
36	0xbd75bf64	-0.059996977
37	0x3ce5a85f	0.028034387
38	0xbc5a2f25	-0.013316904
39	0x3d90f594	0.0707809
40	0xbc2c3115	-0.010509749
41	0xbd933df8	-0.07189554
42	0xbd8d4015	-0.06896988
43	0xbd036097	-0.032074537
44	0x3d1bfa47	0.03808048
45	0xbcaf5f55	-0.021407763
46	0x3d20dfc4	0.0392759
47	0xbd0b1bbb	-0.033961993
48	0xbd855465	-0.065102376
49	0x3b5e8b4a	0.0033957534
50	0xbd1fd79a	-0.039023973
51	0xbc19d137	-0.00938826
52	0x3cfb4bec	0.03067585
53	0x3bfce115	0.0077172616
54	0x3cf5d94e	0.030010846
55	0xbd4cdc46	-0.050014757
56	0x3d453d9a	0.04815445
57	0xbd1b3c23	-0.037899148
58	0x3d203863	0.039116275
59	0xbd09b1f9	-0.033616994
60	0xbd0fae9c	-0.03507863
61	0xbd71fd5d	-0.059079517
62	0x3d03386b	0.032036226
63	0xbcb736a7	-0.022364927
64	0xbc27e0c8	-0.010246463
65	0x3d22e3e5	0.03976812
66	0xbd89628d	-0.0670825
67	0xbcc617de	-0.024181303
68	0xbc141206	-0.0090375
69	0x3c202165	0.009773587
70	0x3d3095ac	0.04311149
71	0xbd15dc25	-0.0365869
72	0xbbf80673	-0.007569128
73	0xbc4147af	-0.011796876
74	0xbd40efff	-0.047103878
75	0x3d6df3e3	0.058093917
76	0xbd0b186f	-0.03395885
77	0xbd8e6db3	-0.06954517
78	0x3cca765f	0.024714647
79	0x3cc0e1ea	0.023545224
80	0x3d610ee3	0.054945838
81	0xbcda0d48	-0.026617661
82	0x3a421b96	0.00074046233
83	0x3d109c67	0.035305407
84	0xbcfcfef1	-0.030883284
85	0xbcc33b24	-0.023831911
86	0xbd8effcf	-0.06982385
87	0x3c73c274	0.014877904
88	0xbc9e9853	-0.019359743
89	0xbc8cb60e	-0.017176654
90	0xbcebe771	-0.028796883
91	0xbd21c11a	-0.039490797
92	0xbd850bdb	-0.06496402
93	0xbd0e0d66	-0.034680746
94	0x3d19b92f	0.03753012
95	0xbd65799f	-0.05602419
96	0x3ab0c382	0.0013486
97	0x3d80ed76	0.06295292
98	0xbc4a99e2	-0.01236579
99	0xbbbf9144	-0.0058461744
100	0xbcfa1ed0	-0.03053227
101	0xbcdbd143	-0.026833182
102	0x3cca4f99	0.024696158
103	0x3cf3f615	0.029780427
104	0xbc5d3786	-0.013502007
105	0xbcdbae63	-0.026816553
106	0x3ac1b233	0.0014777839
107	0x3cc5acba	0.024130214
108	0x3d619232	0.055071063
109	0x3d102e77	0.035200562
110	0xbcc45443	-0.02396596
111	0xbc5257e0	-0.012838334
112	0xbc5980cd	-0.013275337
113	0x3b3e5905	0.002904476
114	0xbc85f1ec	-0.016350709
115	0x3b7a66ae	0.0038208175
116	0x3d2c0f06	0.042006515
117	0xbc6553a4	-0.013996992
118	0xbcd5e560	-0.026110351
119	0xbac1b6d5	-0.001477922
120	0xba8732a1	-0.0010314771
121	0xbbbf1e91	-0.005832501
122	0xbb37540f	-0.0027973687
123	0xba0916c6	-0.0005229529
124	0x3d0f440b	0.034977
125	0xbd7d1c81	-0.06179476
126	0x3cd43114	0.025902309
127	0xbd476637	-0.048681464
128	0x3c930a20	0.017949164
129	0xbd2ced40	-0.042218447
130	0xbcb93efc	-0.022613041
131	0x3d489856	0.048973404
132	0x3ca78f5c	0.020454101
133	0x3d594ae0	0.053049922
134	0x3ce22698	0.027606294
135	0x3b7bdf60	0.0038432702
136	0xbbb5f6b0	-0.005553089
137	0x3ceedd38	0.02915822
138	0xbce7fd7c	-0.028319113
139	0x3d29aef4	0.041426614
140	0xbd1eee80	-0.03880167
141	0x3d578074	0.052612737
142	0xbd2168d2	-0.039406605
143	0x3d1c1880	0.038109303
144	0xbd401154	-0.046891525
145	0x3a27e900	0.0006405264
146	0xbd71478c	-0.058906123
147	0xbd2229d2	-0.039590664
148	0xbd570e42	-0.05250383
149	0x3d27170e	0.04079347
150	0xbc24e178	-0.010063522
151	0x3b047920	0.0020213798
152	0xbcf75e30	-0.03019628
153	0xbcbaa6e0	-0.02278465
154	0xbc133748	-0.008985348
155	0xbce84394	-0.028352536
156	0xbd445026	-0.047927998
157	0xbb31fd20	-0.002715893
158	0x3c27fa50	0.01025255
159	0xbb95b580	-0.0045687556
160	0x3b72b500	0.0037034154
161	0x3d5f2066	0.054474257
162	0x3d1f00c0	0.038819075
163	0xbd256c46	-0.04038646
164	0x3cc092f4	0.023507573
165	0x3d653300	0.05595684
166	0x3d217b9e	0.03942453
167	0x3ce8ffb8	0.028442249
168	0xbcbfcee8	-0.02341409
169	0x3c56e108	0.013115175
170	0x3bcdde90	0.006282635
171	0x3d63c2f4	0.055605844
172	0xbb8ce3c0	-0.004299611
173	0xb9ce0700	-0.00039296597
174	0xbd4e2960	-0.050332427
175	0x3d6b2980	0.057412624
176	0xbce7cff8	-0.02829741
177	0xbd574670	-0.05255741
178	0xbd71b62e	-0.05901163
179	0x3d3ce510	0.04611689
180	0x3d318a00	0.043344498
181	0xbd295f3a	-0.04135058
182	0x3c927648	0.017878667
183	0x3c50d970	0.012747154
184	0x3d538334	0.051638797
185	0x3b87a040	0.0041389763
186	0x3d1f1ff0	0.038848817
187	0xbd16b09c	-0.03678952
188	0xbc52ced0	-0.012866691
189	0x3a94d040	0.0011353567
190	0xbcb3d950	-0.021954209
191	0xbd0d14e6	-0.03444376
192	0xbba39410	-0.0049920157
193	0x3c37deb8	0.011222534
194	0xbce86788	-0.02836968
195	0xbca4736c	-0.020074569
196	0xbc44ca68	-0.012011148
197	0x3d64bf1c	0.05584632
198	0x3d476a9e	0.048685662
199	0xbcc4e5fc	-0.024035446
200	0xbd6cfde8	-0.05785933
201	0x3d24580e	0.040123038
202	0x3cbb9f1c	0.022903018
203	0xbd7bc7da	-0.06146989
204	0xbbf51ec0	-0.0074804723
205	0x3d19e138	0.0375683
206	0xbd42fdcc	-0.04760532
207	0x3d6028a4	0.054726258
208	0xbcfd8998	-0.030949399
209	0x3d720740	0.059088945
210	0x3c81d14c	0.01584687
211	0x3d38a07e	0.045074932
212	0x3b52ca00	0.0032163858
213	0xbd798524	-0.06091799
214	0x3a9faa00	0.0012181401
215	0xbc371c58	-0.011176191
216	0x3d500de8	0.050794512
217	0x3b55b340	0.0032608062
218	0xbc7edd40	-0.01555568
219	0xbc27bf18	-0.010238431
220	0x3c9ff1e8	0.01952453
221	0x3c5d7d18	0.013518594
222	0xbd761002	-0.06007386
223	0x3cc96e08	0.0245886
224	0x3cd99918	0.026562259
225	0xbcfd44bc	-0.030916564
226	0xbd790b40	-0.060801744
227	0xbbb44410	-0.0055012777
228	0xbd7ace68	-0.061232
229	0xbd2a542a	-0.04158417
230	0x3d006a82	0.031351574
231	0x3d4d7b78	0.050166577
232	0xbd60eee2	-0.054915316
233	0x3b7d0440	0.003860727
234	0x3cdce1d4	0.026963152
235	0xb9aaaa00	-0.00032551587
236	0xbcd2f884	-0.025753267
237	0x3cda6018	0.02665715
238	0x3d3d01c2	0.046144255
239	0xbd54497a	-0.051827885
240	0x3b9f00e0	0.004852399
241	0xbca86534	-0.02055607
242	0x3d20981e	0.03920757
243	0xb7a73000	-1.9930303e-05
244	0xbc36cbe0	-0.011157006
245	0xbd29254e	-0.041295342
246	0xbd7e4afc	-0.06208323
247	0x3caf542c	0.021402441
248	0x3d15daa8	0.03658548
249	0xbd7e8102	-0.06213475
250	0x3cef236c	0.029191695
251	0xbc7fceb0	-0.015613243
252	0xbc385548	-0.011250801
253	0xbc0e8b88	-0.008700259
254	0x3c920898	0.017826363
255	0xbc0cd1a0	-0.0085949

recurrent._base_tgcn.linear_z.bias f4 [128]
0	0x3cd49cd2	0.025953684
1	0xbe17fcb8	-0.14842498
2	0xbcaf4048	-0.021392956
3	0xbd8e48b2	-0.06947459
4	0x3d9668dc	0.07344219
5	0xbb086253	-0.002081056
6	0x3de1aca4	0.11019257
7	0xbe456299	-0.19275893
8	0xbd8a3c46	-0.067497775
9	0xbbf3af70	-0.0074366853
10	0x3d5cb796	0.05388602
11	0xbe3b706d	-0.18304606
12	0xbe068bd8	-0.13139284
13	0x3aac0bc9	0.0013126071
14	0x3e158d3c	0.14604658
15	0xbe181921	-0.14853336
16	0x3ced04a0	0.02893287
17	0x3c912765	0.01771898
18	0x3cb0f0b2	0.021599147
19	0x3b825c40	0.003978282
20	0x3c72a620	0.014810115
21	0x3cb4f341	0.022088649
22	0x3d81cf44	0.06338361
23	0x3d0a1b12	0.033717223
24	0x3c9e9f76	0.019363146
25	0x3cb79d00	0.02241373
26	0xbe29c094	-0.16577369
27	0x3e14f575	0.1454676
28	0x3c9079f8	0.017636284
29	0x3d2dc405	0.042423267
30	0xbd1035f4	-0.035207704
31	0x3dad1145	0.084505595
32	0xbe2162e5	-0.15760382
33	0x3b6053e0	0.003422968
34	0xbd0f2b62	-0.034953482
35	0xbd0822ea	-0.03323642
36	0x3cfa8812	0.030582462
37	0x3b00df40	0.0019664317
38	0xbe13c5f2	-0.14430979
39	0x3ce501fa	0.027955044
40	0xbe6121bd	-0.21985526
41	0x3cc5d62a	0.024149973
42	0x3da4977d	0.080367066
43	0x3d4c049c	0.049809083
44	0xbe2604cb	-0.16212766
45	0xbd7a23da	-0.061069347
46	0xb8bc5995	-8.9812245e-05
47	0xbe7eec19	-0.24894752
48	0xbd08bcba	-0.03338311
49	0xbcba0e7c	-0.022711985
50	0x3d7c90f4	0.061661676
51	0xbe398b54	-0.18119556
52	0x3d7d6a3f	0.061868902
53	0x3b43bfa4	0.0029868865
54	0x3dafbcd4	0.08580938
55	0xbe73cc9f	-0.23808526
56	0xbb949c2a	-0.004535218
57	0x3d89f3e4	0.067359716
58	0x3d3b44f5	0.04572006
59	0xbd2e2d9d	-0.04252397
60	0xbe409349	-0.18806185
61	0x3dceeece	0.10104142
62	0x3e009d63	0.12560038
63	0x3d63c3e8	0.055606753
64	0x3e2f2f19	0.1710781
65	0x3d3d3088	0.04618886
66	0xbe562f85	-0.20916565
67	0x3d25dcc6	0.04049375
68	0x3ca8a338	0.020585641
69	0xbdba7346	-0.09104018
70	0x3dcfc586	0.101450965
71	0x3bfb2da0	0.007665351
72	0x3cbe8e80	0.023261309
73	0x3d857e38	0.06518215
74	0x3dccb303	0.09995081
75	0x3d018174	0.031617597
76	0xbcafccd8	-0.021459982
77	0xbe6a00c0	-0.22851849
78	0xbe227eef	-0.15868734
79	0xbd3ed833	-0.046592902
80	0x3cd5b2fc	0.026086323
81	0xbd4bee3d	-0.04978775
82	0xbe0231be	-0.12714288
83	0x3e2528e3	0.16128878
84	0x3ca93d80	0.020659208
85	0xbd82f323	-0.06394031
86	0x3d86fd26	0.06591253
87	0xbc6fa1ec	-0.0146260075
88	0xbdac8e7a	-0.08425613
89	0xbd257e02	-0.040403374
90	0x3d7de22c	0.061983272
91	0x3cbbfbc4	0.0229472
92	0xbc9fa761	-0.019488992
93	0xbc14a4d5	-0.009072502
94	0x3d8dbc66	0.069207
95	0x3de78ba8	0.11305934
96	0x3c7ba750	0.015359715
97	0xbd0cfa1b	-0.034418207
98	0x3e47ddd2	0.19518211
99	0xbe405f7a	-0.18786421
100	0x3dbfef8d	0.093718626
101	0xbc9ff580	-0.019526243
102	0x3d12c80c	0.03583531
103	0xbd3f5a03	-0.0467167
104	0x3d9d9049	0.07693536
105	0xbc2a8034	-0.010406543
106	0x3d1d8519	0.03845701
107	0x3c6a1c28	0.01428894
108	0x3d501e54	0.050810173
109	0xbe6ddb64	-0.23228222
110	0xbce3efc8	-0.027824298
111	0x3c840b67	0.016118718
112	0x3d3ae48e	0.045628123
113	0xbd3b13f8	-0.04567334
114	0x3d1fc436	0.03900548
115	0xbe076b29	-0.13224472
116	0xbe65253d	-0.22377487
117	0x3d8e1559	0.069376655
118	0xbd3e17c0	-0.04640937
119	0x3c993028	0.01869972
120	0x3c2df2dd	0.010616985
121	0x3d942953	0.072344445
122	0xba783580	-0.00094684213
123	0x3d5e8e30	0.05433482
124	0xbe504425	-0.20338495
125	0x3d395124	0.045243397
126	0x3b95f3e0	0.0045761913
127	0xbd3d8350	-0.046267807

recurrent._base_tgcn.conv_r.bias f4 [128]
0	0x00000000	0.0
1	0x00000000	0.0
2	0x00000000	0.0
3	0x00000000	0.0
4	0x00000000	0.0
5	0x00000000	0.0
6	0x00000000	0.0
7	0x00000000	0.0
8	0x00000000	0.0
9	0x00000000	0.0
10	0x00000000	0.0
11	0x00000000	0.0
12	0x00000000	0.0
13	0x00000000	0.0
14	0x00000000	0.0
15	0x00000000	0.0
16	0x00000000	0.0
17	0x00000000	0.0
18	0x00000000	0.0
19	0x00000000	0.0
20	0x00000000	0.0
21	0x00000000	0.0
22	0x00000000	0.0
23	0x00000000	0.0
24	0x00000000	0.0
25	0x00000000	0.0
26	0x00000000	0.0
27	0x00000000	0.0
28	0x00000000	0.0
29	0x00000000	0.0
30	0x00000000	0.0
31	0x00000000	0.0
32	0x00000000	0.0
33	0x00000000	0.0
34	0x00000000	0.0
35	0x00000000	0.0
36	0x00000000	0.0
37	0x00000000	0.0
38	0x00000000	0.0
39	0x00000000	0.0
40	0x00000000	0.0
41	0x00000000	0.0
42	0x00000000	0.0
43	0x00000000	0.0
44	0x00000000	0.0
45	0x00000000	0.0
46	0x00000000	0.0
47	0x00000000	0.0
48	0x00000000	0.0
49	0x00000000	0.0
50	0x00000000	0.0
51	0x00000000	0.0
52	0x00000000	0.0
53	0x00000000	0.0
54	0x00000000	0.0
55	0x00000000	0.0
56	0x00000000	0.0
57	0x00000000	0.0
58	0x00000000	0.0
59	0x00000000	0.0
60	0x00000000	0.0
61	0x00000000	0.0
62	0x00000000	0.0
63	0x00000000	0.0
64	0x00000000	0.0
65	0x00000000	0.0
66	0x00000000	0.0
67	0x00000000	0.0
68	0x00000000	0.0
69	0x00000000	0.0
70	0x00000000	0.0
71	0x00000000	0.0
72	0x00000000	0.0
73	0x00000000	0.0
74	0x00000000	0.0
75	0x00000000	0.0
76	0x00000000	0.0
77	0x00000000	0.0
78	0x00000000	0.0
79	0x00000000	0.0
80	0x00000000	0.0
81	0x00000000	0.0
82	0x00000000	0.0
83	0x00000000	0.0
84	0x00000000	0.0
85	0x00000000	0.0
86	0x00000000	0.0
87	0x00000000	0.0
88	0x00000000	0.0
89	0x00000000	0.0
90	0x00000000	0.0
91	0x00000000	0.0
92	0x00000000	0.0
93	0x00000000	0.0
94	0x00000000	0.0
95	0x00000000	0.0
96	0x00000000	0.0
97	0x00000000	0.0
98	0x00000000	0.0
99	0x00000000	0.0
100	0x00000000	0.0
101	0x00000000	0.0
102	0x00000000	0.0
103	0x00000000	0.0
104	0x00000000	0.0
105	0x00000000	0.0
106	0x00000000	0.0
107	0x00000000	0.0
108	0x00000000	0.0
109	0x00000000	0.0
110	0x00000000	0.0
111	0x00000000	0.0
112	0x00000000	0.0
113	0x00000000	0.0
114	0x00000000	0.0
115	0x00000000	0.0
116	0x00000000	0.0
117	0x00000000	0.0
118	0x00000000	0.0
119	0x00000000	0.0
120	0x00000000	0.0
121	0x00000000	0.0
122	0x00000000	0.0
123	0x00000000	0.0
124	0x00000000	0.0
125	0x00000000	0.0
126	0x00000000	0.0
127	0x00000000	0.0

recurrent._base_tgcn.conv_r.lin.weight f4 [128, 1]
0	0xbce7b2c4	-0.028283484
1	0x3d8a81bc	0.06763026
2	0x3e2089b5	0.15677531
3	0xbd8a2ead	-0.06747184
4	0x3d0c28fa	0.034218766
5	0x3dc1b85c	0.09458992
6	0x3decd55e	0.11564134
7	0xbd513829	-0.05107895
8	0xbb80d516	-0.003931652
9	0x3d8a8732	0.06764068
10	0xbe0e4ce9	-0.13896526
11	0xbdb9e2c4	-0.09076455
12	0xbe02e3a2	-0.12782148
13	0xbe0506ca	-0.12990871
14	0xbdbec779	-0.0931539
15	0x3e26084f	0.16214107
16	0xbdcaf0b3	-0.09909191
17	0xbdab8367	-0.083746724
18	0x3e18deed	0.1492879
19	0x3e595abe	0.21226022
20	0x3e0314d7	0.12800919
21	0x3e194b25	0.14970072
22	0x3e407c62	0.18797448
23	0x3e1b4396	0.151625
24	0xbe4e8a09	-0.20169844
25	0x3e32f4ec	0.17476243
26	0x3e2c0aa2	0.16800931
27	0x3e57845f	0.2104659
28	0x3e1f82e0	0.15577269
29	0xbe55a376	-0.20863137
30	0x3b854e7c	0.004068194
31	0x3e14432f	0.14478754
32	0xbe0a1c28	-0.13487303
33	0xbe0d3adc	-0.13791984
34	0xbe519bff	-0.20469664
35	0x3e525c70	0.20543075
36	0xbe172039	-0.14758386
37	0x3db2f177	0.08737462
38	0x3e57a2c7	0.21058188
39	0x3de2f7c3	0.11082413
40	0xbd4e1376	-0.05031153
41	0x3e1ba62c	0.15200108
42	0x3d228f2d	0.039687324
43	0x3ce05480	0.027384043
44	0xbe370db3	-0.1787632
45	0xbe27eb33	-0.16398315
46	0xbcfe8aea	-0.031072099
47	0x3c86989d	0.016430194
48	0x3da8e1b8	0.082461774
49	0x3dfdb037	0.12387126
50	0xbe018a90	-0.12650514
51	0xbe2fe2a9	-0.17176308
52	0xbce9abcd	-0.028524304
53	0x3ddc73ac	0.1076425
54	0x3d2cc435	0.042179305
55	0xbc8c5194	-0.017128743
56	0xbcd95bd0	-0.026533037
57	0xbe15e793	-0.1463912
58	0xbd2db4f1	-0.042408887
59	0xbe387aaf	-0.1801555
60	0xbca298a3	-0.019848173
61	0x3dc57a98	0.096425235
62	0xbe58bdf6	-0.21166214
63	0xbe16f8ca	-0.14743343
64	0x3e2ddf99	0.16979827
65	0x3e011e4a	0.1260921
66	0x3de9ebe5	0.114219464
67	0x3d18d275	0.037310082
68	0xbd3eb58f	-0.046559867
69	0x3e0ab294	0.13544685
70	0x3dd66f6e	0.10470472
71	0xbe405924	-0.18784004
72	0x3d82d5b9	0.063884206
73	0xbddfd454	-0.1092917
74	0xbe41a21a	-0.18909493
75	0xbd3e7e59	-0.046507213
76	0x3dab1ce8	0.08355123
77	0x3e54bb4c	0.20774573
78	0xbd606652	-0.05478508
79	0xbe21f523	-0.15816168
80	0xbe0fa96f	-0.14029478
81	0xbd817324	-0.063207895
82	0x3d3c3d25	0.04595675
83	0x3e48315e	0.19550082
84	0xbe4433f1	-0.19160439
85	0x3da9576b	0.08268627
86	0x3b916bc1	0.004437894
87	0xba06c70a	-0.00051413535
88	0xbde56f4d	-0.112028696
89	0x3d1b32b7	0.037890162
90	0xbe0ddc9e	-0.1385369
91	0xbba2a87d	-0.004963933
92	0x3de2c6fb	0.11073109
93	0x3e048eb1	0.12945057
94	0xbcf736bb	-0.030177465
95	0xbd962dd2	-0.07332958
96	0x3dd2337e	0.102637276
97	0x3e5be028	0.21472228
98	0x3e0c13d3	0.13679437
99	0xbd21989d	-0.039452184
100	0x3e287416	0.16450533
101	0x3c860604	0.01636029
102	0xbc9a2ead	-0.018821085
103	0x3c66d51e	0.014088897
104	0x3dd7396d	0.10509
105	0x3b84f0e3	0.0040570362
106	0x3d91c0e0	0.07116866
107	0xbc4c29af	-0.01246111
108	0xbcbaa28c	-0.022782587
109	0xbe3e9f42	-0.1861544
110	0x3e3d59da	0.18491307
111	0xbdb9858b	-0.090586744
112	0x3d921697	0.07133215
113	0x3cc6e07d	0.024276966
114	0xbdec39d5	-0.11534468
115	0xbde6abbc	-0.112632245
116	0xbcdfbdf7	-0.027312262
117	0x3e3a3f84	0.18188292
118	0xbe5700ea	-0.20996442
119	0x3c9692fb	0.018380633
120	0x3dcb727a	0.09933944
121	0xbe3d2b3f	-0.18473528
122	0xbdce3f7b	-0.10070702
123	0xbdd54ddf	-0.10415243
124	0x3e01c9e6	0.12674674
125	0x3d852574	0.06501284
126	0x3dc197eb	0.09452804
127	0x3de414ac	0.11136755

recurrent._base_tgcn.linear_r.weight f4 [128, 256]
0	0x3d7c8424	0.061649457
1	0xbae63700	-0.0017563999
2	0x3d0b7cee	0.03405469
3	0xbd6e85fe	-0.058233254
4	0xbbf2c6c0	-0.0074089468
5	0xbac0c900	-0.001470834
6	0x3d6700b6	0.056397162
7	0xbcaeb2ac	-0.021325432
8	0xbbb8b4e0	-0.0056367964
9	0x3b80bcf0	0.003928773
10	0x3d79fa3e	0.061029665
11	0x3d6e7676	0.058218442
12	0xbcd185f8	-0.025576577
13	0x3d27ed22	0.04099763
14	0xbcf94f70	-0.030433387
15	0xbd3b8074	-0.0457768
16	0xbd67771a	-0.05651007
17	0x3d685510	0.056721747
18	0x3d2ef33c	0.042712435
19	0xbd5b20b0	-0.05349797
20	0x3be93440	0.0071168244
21	0xbcab00b0	-0.020874351
22	0x3c056fb0	0.008144304
23	0xbd503e4c	-0.05084066
24	0x3bb75670	0.005595021
25	0x3d612402	0.05496598
26	0x3d7c8bc8	0.061656743
27	0xbd7ca70e	-0.061682753
28	0xbd4aeb8e	-0.04954105
29	0xbc07a558	-0.008279167
30	0xbd161f52	-0.036650963
31	0x3c761458	0.015019499
32	0xbc8420a0	-0.016128838
33	0x3d2050e2	0.039139636
34	0xbc9b62d0	-0.018968016
35	0x3d137d06	0.036007904
36	0x3c054990	0.008135214
37	0xbceb2fc8	-0.028709307
38	0x38947000	7.0780516e-05
39	0x3d3998c0	0.04531169
40	0x3cb68e48	0.022284642
41	0x3c696ed8	0.014247619
42	0xbcf78a14	-0.030217208
43	0xbac2eb00	-0.0014871061
44	0x3cfa32c0	0.030541778
45	0xbd302d22	-0.043011792
46	0x3d54fd60	0.05199945
47	0xbce91cc0	-0.028456092
48	0xbd59ffa4	-0.053222314
49	0xbce9d33c	-0.028543107
50	0x3d728fd4	0.059219196
51	0x3c4272a0	0.011868149
52	0x3d68f400	0.05687332
53	0x3d28b280	0.041185856
54	0x3d6516a6	0.055929802
55	0xbd423ce4	-0.04742135
56	0x3d36d426	0.044635914
57	0x3d5e51de	0.054277293
58	0xbd03eaee	-0.03220647
59	0x3d4b58ea	0.049645342
60	0x3d74ae92	0.059736796
61	0x3d215ba8	0.03939405
62	0x3d04ca98	0.03241977
63	0xbd0c5bae	-0.03426712
64	0xba394580	-0.0007067546
65	0x3d069fca	0.03286723
66	0xbd7fb234	-0.062425807
67	0xbd478b52	-0.04871685
68	0x3d07fa1a	0.0331975
69	0xbd1eae6e	-0.038740568
70	0xbd6459a2	-0.055749543
71	0x3cb6e2b4	0.022324897
72	0xbc44ec20	-0.012019187
73	0x3cec4860	0.028843105
74	0x3d03342e	0.032032184
75	0x3bcd1150	0.0062581673
76	0xbd132914	-0.035927847
77	0x3cef9b34	0.029248811
78	0xbd26ce12	-0.040723868
79	0xbc8f6454	-0.017503895
80	0xbbfbe010	-0.0076866224
81	0xbad91740	-0.0016562715
82	0x3d7b82f2	0.061404176
83	0xbcf1b734	-0.029506303
84	0xbab5f300	-0.0013881624
85	0xbc9c2c60	-0.019064128
86	0x3bcfe910	0.006344922
87	0xbd13b60e	-0.036062293
88	0xbce5fbec	-0.028074227
89	0xbd27c97c	-0.040963635
90	0x3d389be4	0.045070544
91	0x3bae1c30	0.005313419
92	0xbd07ed40	-0.033185244
93	0xbb623860	-0.0034518465
94	0xbca61dbc	-0.02027785
95	0xbcd50eb4	-0.026007988
96	0xbceb130c	-0.028695606
97	0xbcfe2760	-0.031024635
98	0xbd443cc8	-0.047909528
99	0x3ba63d50	0.005073227
100	0x3cc722a8	0.024308518
101	0xbd39c4ba	-0.04535363
102	0xbcfb72cc	-0.030694388
103	0x3cd38d64	0.025824256
104	0xbcc22e9c	-0.023703866
105	0xbd55fdf8	-0.052244157
106	0x3d3dc6f0	0.0463323
107	0xbd713a56	-0.058893524
108	0x3d0fe2e6	0.035128497
109	0xbd440b58	-0.04786238
110	0x3d7e7ace	0.062128834
111	0xbc0a3b70	-0.008437023
112	0x3d1ffde4	0.03906049
113	0xbb4a3780	-0.0030855834
114	0x3bf47590	0.0074603036
115	0xbd61cc98	-0.055126756
116	0x3cc3a6d0	0.023883253
117	0x3d1f4b64	0.038890257
118	0x3d76b074	0.060226873
119	0x3cf1f17c	0.029534094
120	0x3ceaa93c	0.02864515
121	0x3c8bf19c	0.017082982
122	0x3cbf51a0	0.023354352
123	0xbc6184a8	-0.013764538
124	0x3c1a83e8	0.009430863
125	0xbd453036	-0.04814168
126	0xbccc7060	-0.024955928
127	0x3cd0ddd4	0.0254964
128	0x3cad5c14	0.02116207
129	0x3cb4f9a4	0.022091694
130	0x3d79697e	0.06089162
131	0xbd7783b8	-0.06042835
132	0x3ba7b7a0	0.0051183254
133	0x3d13b2c2	0.03605915
134	0xbd79dd8e	-0.061002307
135	0x3a479a80	0.000761427
136	0xbd6c9206	-0.057756446
137	0x3d5d72cc	0.054064557
138	0xbd5dae98	-0.054121584
139	0xbd5897e8	-0.052879244
140	0x3d74f1dc	0.059800968
141	0xbce2d5cc	-0.027689837
142	0x3aa654c0	0.0012690052
143	0x3c8891d4	0.016671099
144	0x3d5f7760	0.054557204
145	0x3d0f1e60	0.034941077
146	0x3cf71730	0.030162424
147	0xbcfdee78	-0.0309975
148	0x3b99e230	0.004696153
149	0x3ca2e7b4	0.019885875
150	0xbd686456	-0.056736313
151	0xbcb4d8b4	-0.022075988
152	0x3d6b6e5c	0.057478294
153	0xbba84360	-0.005134985
154	0x3d2148be	0.039376013
155	0xbbe14740	-0.0068749487
156	0xbc796668	-0.015222169
157	0xbd01dc94	-0.0317045
158	0xbd76941c	-0.06019984
159	0xbd7c2762	-0.061560996
160	0x3d31944c	0.043354318
161	0x3d179da8	0.037015587
162	0x3c491368	0.012272693
163	0x3d290102	0.041260727
164	0x3d40591e	0.04695999
165	0xbd4f0812	-0.050544806
166	0xbca09888	-0.019603983
167	0xbc9e0014	-0.019287147
168	0x3d1fffb6	0.039062224
169	0xbd0e7696	-0.03478106
170	0x3d001d32	0.031277843
171	0xbd123a7e	-0.035700314
172	0x3d3b2c46	0.04569652
173	0xbd05ce2e	-0.03266733
174	0xbcabb810	-0.020961791
175	0xbd6ce67c	-0.057836995
176	0xbcf7159c	-0.030161671
177	0xbc0d2560	-0.008614868
178	0x3c229370	0.009922847
179	0xbc614498	-0.013749264
180	0xbb034900	-0.0020032525
181	0x3cc50024	0.024047919
182	0x3c0462e8	0.008080222
183	0xbd2a9f74	-0.041655973
184	0x3d1d15e2	0.038350947
185	0xbcd38778	-0.025821432
186	0x3d39fdf0	0.04540819
187	0x3ceafcd8	0.028685018
188	0xbca5d484	-0.020242937
189	0xbc983bec	-0.01858326
190	0xbd09a8dc	-0.033608302
191	0x3b6f1ae0	0.0036484525
192	0x3d78a0fc	0.0607004
193	0xbd239312	-0.03993518
194	0x3d604d28	0.054761082
195	0x3c9140a0	0.01773101
196	0x3c914afc	0.01773595
197	0xbd31d20a	-0.0434132
198	0x3ca5d71c	0.020244174
199	0xbd4c41e2	-0.04986752
200	0x3c48f398	0.0122651085
201	0xbd23644e	-0.03989058
202	0x3d0172b6	0.031603537
203	0xbb8b31e0	-0.004247889
204	0xbd00c0f8	-0.03143403
205	0x3c91ab84	0.01778198
206	0x3ce781a0	0.028260052
207	0x3d5538a8	0.052055985
208	0x3b35ecc0	0.0027759522
209	0xbcb85dac	-0.022505604
210	0x3cbbaea8	0.022910431
211	0x3c892048	0.016739026
212	0xbcff0e1c	-0.031134658
213	0x3d44c698	0.048040956
214	0x3d693332	0.05693359
215	0xbd2df29c	-0.0424677
216	0xbd673aae	-0.056452446
217	0xbd20a530	-0.039220035
218	0x3d52b754	0.051444367
219	0x3d6e12b8	0.05812332
220	0xbd18803c	-0.03723167
221	0x3d3137b6	0.04326602
222	0xbd43f5c6	-0.04784181
223	0xbd337934	-0.04381676
224	0x3d711612	0.05885894
225	0x3c039d90	0.008033171
226	0x3c8b2e3c	0.01698982
227	0x3cab0d34	0.02088032
228	0xbc5f0538	-0.013612084
229	0xbc7df7b0	-0.015500948
230	0x3d7ebcbc	0.06219171
231	0x3ccd5690	0.02506569
232	0xbd7aa1be	-0.061189406
233	0x3d5f16d0	0.054465115
234	0x3cd3eccc	0.02586975
235	0xbd5b9754	-0.053611115
236	0x3d7083fa	0.058719613
237	0x3d0b91b8	0.034074515
238	0x3c0c37b8	0.008558206
239	0xbd3df55a	-0.046376564
240	0x3d53b0c6	0.051682256
241	0xbd100cf8	-0.035168618
242	0x3cb9338c	0.022607587
243	0x3cac51fc	0.021035187
244	0x3d50fa32	0.051019855
245	0xbc9cbeb4	-0.019133903
246	0x3d6591a8	0.05604711
247	0xbd51bcd8	-0.051205486
248	0xbc02c438	-0.0079813525
249	0x3d2ca2ac	0.042147323
250	0x3c9529a0	0.018208325
251	0xbbb1ccb0	-0.005426012
252	0xbd21656c	-0.039403364
253	0x3bdbbfd0	0.0067062154
254	0xbd32fae2	-0.04369629
255	0xbd2bda46	-0.04195621

recurrent._base_tgcn.linear_r.bias f4 [128]
0	0xbd260246	-0.040529512
1	0xbd40ad8a	-0.0470405
2	0x3ccb98ec	0.024853192
3	0xbd6e8dcc	-0.058240697
4	0xbc11d1d0	-0.008900121
5	0x3d48e96a	0.049050726
6	0xbb9b95b0	-0.0047480687
7	0xbd372a20	-0.044717908
8	0xbc9b7ca4	-0.018980332
9	0xbcb24bd8	-0.02176468
10	0x3b4a3dc0	0.003085956
11	0xbcdf5918	-0.027264163
12	0x3b871ba0	0.004123166
13	0x3d11e922	0.035622723
14	0xbd5b97a6	-0.05361142
15	0x3cf1c568	0.029513076
16	0x3ceffc14	0.029295005
17	0xbba34350	-0.0049823895
18	0x3c5949e8	0.0132622495
19	0x3bfe3cd0	0.0077587143
20	0x3a834e40	0.0010017827
21	0xbd48c176	-0.049012624
22	0x3d381822	0.04494489
23	0xbcbc245c	-0.022966556
24	0xbcfa77ec	-0.030574761
25	0xbc8e8c88	-0.017400995
26	0x3cffa028	0.031204298
27	0xbcc69f68	-0.024245933
28	0x3d206870	0.0391621
29	0xbcebd7c4	-0.028789409
30	0x3c58eee0	0.013240546
31	0xbd6341ea	-0.055482782
32	0x3cf50000	0.029907227
33	0x3d1c4c02	0.038158424
34	0xbc777648	-0.015103884
35	0x3bce12c0	0.0062888563
36	0xbd6fec68	-0.058575064
37	0xbd1aea58	-0.037821144
38	0x3b4b6b60	0.0031039342
39	0x3d47d906	0.048790954
40	0x3c746960	0.0149177015
41	0x3c21e4e8	0.009881236
42	0x3cbb2134	0.02284298
43	0xbd59c86e	-0.05316966
44	0xbc919404	-0.017770775
45	0xbc84840c	-0.016176246
46	0xbd3b8498	-0.045780748
47	0xbcab2ff8	-0.020896897
48	0xbd7cc4d0	-0.061711133
49	0x3cb7e954	0.022450127
50	0x3cf849d4	0.030308641
51	0xbc27e888	-0.010248311
52	0x3ac34100	0.0014896691
53	0xbd74851c	-0.059697255
54	0x3d3f8232	0.046755023
55	0x3d73e594	0.059545115
56	0x3c90f2f0	0.017693967
57	0xbd3f5cee	-0.046719484
58	0x3bb57ee0	0.0055388063
59	0x3d7795a4	0.060445443
60	0x3d53b088	0.051682025
61	0x3a15db00	0.00057165325
62	0x3d4deea6	0.05027642
63	0x3c9dec34	0.01927767
64	0x3cc91b94	0.024549283
65	0x3d3f7b24	0.046748295
66	0x3d3a3bdc	0.045467243
67	0xbd394e9e	-0.04524099
68	0xbd4e9ba4	-0.0504414
69	0x3d3daf7c	0.046309933
70	0x3cae22a8	0.02125676
71	0xbceffa00	-0.029294014
72	0xbbd597a0	-0.0065183192
73	0x3c72f4f8	0.014828913
74	0x3d6705e8	0.056402117
75	0x3d794d4a	0.060864724
76	0xbd516446	-0.05112102
77	0xbd23f08e	-0.040024333
78	0x3d63d1c0	0.055619955
79	0x3d04119c	0.032243356
80	0x3d5cf956	0.053948723
81	0x3ccd4478	0.025057063
82	0x3d71a23e	0.058992617
83	0xbcfac6b0	-0.03061232
84	0xbc029f98	-0.00797262
85	0x3cb9d35c	0.022683792
86	0x3d6eb308	0.058276206
87	0xbce2c2d4	-0.027680792
88	0xbd299e70	-0.041410863
89	0xbd07f5c4	-0.033193365
90	0xbd364d1a	-0.044507124
91	0xbceaf948	-0.02868332
92	0x3d66af1e	0.05631935
93	0x3c0dbc30	0.008650824
94	0xbb4bd860	-0.0031104311
95	0x3c6baab8	0.014383964
96	0xbd653b04	-0.055964485
97	0x3d6d70ee	0.057969026
98	0x3c247978	0.010038726
99	0x3cddfc3c	0.027097814
100	0x3d004ec8	0.03132513
101	0xbcce6e4c	-0.025199078
102	0xbc7d2fc0	-0.015453279
103	0xbd348eee	-0.04408162
104	0x3d22ebf0	0.03977579
105	0x3bf4a860	0.007466361
106	0xbd1e293e	-0.03861355
107	0xbb90c060	-0.004417464
108	0xbcc59054	-0.024116673
109	0x3c4fc640	0.012681544
110	0xbc384f60	-0.011249393
111	0x3c2e6478	0.010644071
112	0xbd04c5a0	-0.032415032
113	0xbd582e14	-0.05277832
114	0xbca43a3c	-0.0200473
115	0x3d0b7060	0.034042716
116	0x3bc15920	0.005900517
117	0x3d6a5caa	0.057217278
118	0x3d7542b8	0.05987808
119	0xbce13268	-0.027489856
120	0xbd18548a	-0.037189998
121	0x3d0a1602	0.033712395
122	0x3d62486a	0.05524484
123	0xbd5373e2	-0.051624186
124	0xbc95d660	-0.018290699
125	0x3d277e70	0.040892065
126	0x3d7b8c4a	0.061413087
127	0x3d3ff3c6	0.04686334

recurrent._base_tgcn.conv_h.bias f4 [128]
0	0x3e1bc110	0.15210366
1	0xbe342657	-0.1759275
2	0x3e3460fb	0.1761512
3	0xbdf7cbdc	-0.1209943
4	0xbe8b97ac	-0.27264154
5	0x3e387b6c	0.18015832
6	0xbe65b998	-0.2243408
7	0xbe58fd56	-0.2119039
8	0x3e301379	0.17194928
9	0xbe503888	-0.20334065
10	0x3e5e92b0	0.21735644
11	0xbe2d8b53	-0.16947679
12	0xbe320b30	-0.1738708
13	0xbe6e9086	-0.23297319
14	0x3e64b7d2	0.22335747
15	0x3e2b43aa	0.1672503
16	0x3e2a196c	0.1661126
17	0x3e319ab2	0.17344168
18	0xbe2e77c7	-0.17037879
19	0x3e3d301c	0.18475384
20	0x3e2be11c	0.16785091
21	0xbe645615	-0.22298463
22	0xbe45f070	-0.19330001
23	0x3e2d060e	0.16896841
24	0xbe5a1b13	-0.2129939
25	0xbe426d63	-0.1898704
26	0xbe22ac67	-0.15886079
27	0x3e1dbc13	0.15403776
28	0xbe405c7b	-0.18785278
29	0xbe2fe4d1	-0.1717713
30	0x3e380e30	0.17974162
31	0xbe4051ff	-0.18781279
32	0x3e6d276d	0.23159571
33	0x3e5b0ee0	0.21392393
34	0x3e7b331f	0.2453122
35	0x3e699243	0.228097
36	0x3e43185f	0.19052266
37	0xbe7b49a2	-0.24539807
38	0xbe27db4a	-0.16392246
39	0x3e449123	0.1919599
40	0xbe576d89	-0.21037878
41	0xbe3a75fa	-0.18209067
42	0xbe378da2	-0.17925122
43	0xbe3fc19a	-0.18726197
44	0xbe401dda	-0.18761387
45	0xbe24ff48	-0.16113007
46	0x3e1a6372	0.15076998
47	0x3e839b5d	0.2570447
48	0xbe21d063	-0.1580215
49	0x3e8623b9	0.2619913
50	0x3e2d2ede	0.1691241
51	0x3e2caa2d	0.16861792
52	0x3e36ee39	0.17864312
53	0x3e5d33b9	0.21601762
54	0x3e47c515	0.19508775
55	0x3e714451	0.23561217
56	0x3e5f033f	0.21778582
57	0xbe6609a0	-0.22464609
58	0x3e39219c	0.18079227
59	0x3e529d69	0.2056786
60	0xbe1e8f08	-0.1548425
61	0x3e49320e	0.19648
62	0x3e466156	0.19373068
63	0xbe7eed23	-0.24895148
64	0xbe2e0321	-0.16993381
65	0xbe83753e	-0.25675386
66	0xbe22910d	-0.15875645
67	0xbe4c0d36	-0.19926915
68	0x3edef036	0.4354264
69	0xbe4f18c7	-0.20224296
70	0xbe370f03	-0.1787682
71	0x3e28b9f4	0.16477185
72	0xbe496340	-0.19666767
73	0xbe4fa1fc	-0.20276636
74	0x3e28a701	0.16469957
75	0x3e4a686e	0.197664
76	0xbe840291	-0.25783208
77	0x3e2b0957	0.16702782
78	0x3e2b7f23	0.16747718
79	0x3e3e7e3e	0.18602845
80	0x3e898fbe	0.2686748
81	0xbe25ed91	-0.16203906
82	0xbe6f8848	-0.23391831
83	0xbe8c2943	-0.2737523
84	0xbe2f722c	-0.17133397
85	0xbe2c119d	-0.16803594
86	0xbe4efb72	-0.20213106
87	0xbe5ec97f	-0.21756552
88	0x3e3900ce	0.18066713
89	0xbe6f8851	-0.23391844
90	0x3e97d20a	0.29652435
91	0x3e519506	0.20467004
92	0xbe398af6	-0.18119416
93	0x3e592e70	0.21209121
94	0x3e284f3f	0.1643648
95	0xbe545506	-0.20735559
96	0xbe4d5aea	-0.20054212
97	0x3e435106	0.19073877
98	0xbe339fdf	-0.17541455
99	0xbe61ec8b	-0.2206289
100	0x3e3195e7	0.1734234
101	0xbe628683	-0.22121625
102	0xbe63533e	-0.22199723
103	0x3e573b2b	0.21018665
104	0xbe5fe7cb	-0.21865766
105	0x3e2c1881	0.16806222
106	0x3e3b65fa	0.1830062
107	0xbe2f618a	-0.17127052
108	0x3e2d13a0	0.16902018
109	0x3e373bf1	0.1789396
110	0xbe7a59f2	-0.24448374
111	0x3e3263bb	0.17420857
112	0x3e4c39d0	0.19943929
113	0xbe1a04a3	-0.15040831
114	0xbe25f60b	-0.16207139
115	0xbe4b8cba	-0.19877902
116	0xbe474d1b	-0.19463007
117	0xbe4c029d	-0.19922872
118	0x3e4008eb	0.18753402
119	0x3e3ca6d9	0.18423022
120	0x3e2be4e9	0.16786541
121	0x3e4ba21f	0.19886063
122	0xbe424cf4	-0.18974668
123	0xbe1adceb	-0.15123336
124	0xbe53649c	-0.20643848
125	0xbe72b617	-0.23702274
126	0x3e38b024	0.18035942
127	0xbe2348f2	-0.15945795

recurrent._base_tgcn.conv_h.lin.weight f4 [128, 1]
0	0x3e6217be	0.2207937
1	0xbe34ac43	-0.17643838
2	0x3e128c11	0.14311244
3	0xbe399efb	-0.18127052
4	0x3aaad48a	0.0013033312
5	0x3e321c1c	0.17393535
6	0xbd85b50f	-0.06528675
7	0xbd8cac96	-0.06868856
8	0x3e645f18	0.223019
9	0xbdde607f	-0.10858249
10	0x3dbb7f25	0.0915511
11	0xbe7c33f4	-0.24629194
12	0xbe361db7	-0.17784773
13	0xbc42978c	-0.011876952
14	0x3d0fd84b	0.035118382
15	0x3e403e5f	0.18773793
16	0x3e0925ea	0.1339337
17	0x3e34810b	0.17627351
18	0xbe81e506	-0.25370044
19	0x3dff4021	0.124634035
20	0x3dc3c928	0.09559852
21	0xbd7c9501	-0.06166554
22	0xbddd6f3d	-0.10812233
23	0x3e018e5d	0.12651964
24	0xbd9dfa96	-0.07713811
25	0xbe19a00f	-0.15002464
26	0xbe85771e	-0.26067442
27	0x3e46d102	0.19415668
28	0xbdf8fe5d	-0.12157891
29	0xbe6026ac	-0.21889752
30	0x3def519f	0.1168549
31	0xbe3e171b	-0.18563502
32	0x3d15b95b	0.036553722
33	0x3dbace3f	0.091213696
34	0x3c8b3aa0	0.016995728
35	0x3d482b5c	0.048869476
36	0x3e6eafc3	0.23309235
37	0x3b8a797e	0.004225909
38	0xbe816da5	-0.25278965
39	0x3df27f2b	0.118406616
40	0xbdcc1fb3	-0.09966984
41	0xbe4a73fc	-0.19770807
42	0xbe37dfda	-0.17956486
43	0xbdeffc02	-0.117179886
44	0xbe0835f9	-0.13301839
45	0xbe465443	-0.19368081
46	0x3e328c10	0.17436242
47	0xbd5c6ae3	-0.053812873
48	0xbe69da83	-0.22837262
49	0xbc5697b4	-0.013097692
50	0x3d5c1e09	0.05373958
51	0x3e543f91	0.20727374
52	0x3e4a8f06	0.19781122
53	0x3d7c11e9	0.061540518
54	0x3dda4e95	0.106595196
55	0x3d7f7af6	0.062373124
56	0x3d8c1755	0.06840388
57	0xbd047d1b	-0.032345872
58	0x3e27c7a0	0.16384745
59	0x3dd068c8	0.101762354
60	0xbe637955	-0.22214253
61	0x3e458fbb	0.1929311
62	0x3e183b54	0.14866382
63	0xbba01d65	-0.0048863166
64	0xbe11ae09	-0.14226545
65	0xbc1d7575	-0.0096105235
66	0xbe8426bc	-0.25810802
67	0xbe52e9b2	-0.2059696
68	0xbd5c6468	-0.053806692
69	0xbdbaa429	-0.09113342
70	0xbe121733	-0.14266662
71	0x3e30fcc1	0.17283918
72	0xbdffc7f0	-0.12489307
73	0xbdd19322	-0.102331415
74	0x3e3d2c07	0.18473826
75	0x3db56e3b	0.088589154
76	0xbaca198d	-0.0015418992
77	0x3e0e62e7	0.13904916
78	0x3e8accf2	0.27109486
79	0x3dbb7f67	0.091551594
80	0xbc77d85d	-0.015127269
81	0xbe343170	-0.17596984
82	0xbca8d8ed	-0.02061125
83	0x3c825459	0.01590936
84	0xbe2ea1d5	-0.17053922
85	0xbe53ff34	-0.20702821
86	0xbde0cdfc	-0.109767884
87	0xbd84a6ae	-0.06477104
88	0x3de47cea	0.11156638
89	0xbd7714d6	-0.060322605
90	0x3c12d7fb	0.008962627
91	0x3de1b1c6	0.11020236
92	0xbdf5ca00	-0.12001419
93	0x3ddf713d	0.1091027
94	0x3e6ada86	0.22934923
95	0xbde880f0	-0.11352718
96	0xbe29c152	-0.16577652
97	0x3e1d0c6e	0.15336773
98	0xbe1ffb41	-0.1562319
99	0xbda329cc	-0.079669565
100	0x3e1b55e8	0.1516949
101	0xbd6c15ce	-0.057637982
102	0xbd8bf135	-0.06833116
103	0x3db54045	0.08850149
104	0xbde8a1fd	-0.11359022
105	0x3de55175	0.11197177
106	0x3e64f57c	0.2235927
107	0xbe4db84f	-0.2008984
108	0x3e3b0bc0	0.18266201
109	0x3dec648f	0.115426175
110	0xbd1daa64	-0.038492575
111	0x3e249ca4	0.16075379
112	0x3e7e317b	0.24823563
113	0xbe874283	-0.26417932
114	0xbe140ce6	-0.14458045
115	0xbe1b2cbf	-0.15153788
116	0xbdc9b001	-0.09848023
117	0xbdfdc5d7	-0.123912506
118	0x3e353a44	0.17698008
119	0x3e0fef17	0.1405605
120	0x3e709007	0.23492442
121	0x3e560fc4	0.20904452
122	0xbe39c792	-0.18142536
123	0xbe4d7a5f	-0.20066212
124	0xbdb5c546	-0.088755175
125	0xbd365950	-0.04451877
126	0x3dc8e50d	0.09809313
127	0xbe714690	-0.23562074

recurrent._base_tgcn.linear_h.weight f4 [128, 256]
0	0x3d0f3571	0.034963075
1	0xbcc7834c	-0.0243546
2	0x3d02b6c8	0.031912595
3	0xbd191260	-0.03737104
4	0x3cd642ba	0.026154865
5	0xbc873187	-0.016503109
6	0x37c69c1f	2.3676139e-05
7	0xbd13725c	-0.035997733
8	0x3c4338ea	0.011915425
9	0x3cc9f598	0.024653241
10	0xbd8815aa	-0.06644757
11	0x3d3f932b	0.04677121
12	0x39c08687	0.00036721324
13	0xbd47edca	-0.048810758
14	0x3d2dfd03	0.04247762
15	0x3ccb27e2	0.024799291
16	0x3caf0f01	0.02136946
17	0x3cb96cc5	0.022634873
18	0x3d57a0c1	0.05264354
19	0x3c116fd4	0.00887676
20	0xbc714e25	-0.014728104
21	0xbabf90fb	-0.0014615351
22	0xbcd4859b	-0.025942614
23	0x3d08a5b1	0.03336114
24	0x3c58b1ea	0.013226012
25	0x3d636a79	0.055521462
26	0x3cad9290	0.02118805
27	0x3d338646	0.043829225
28	0xb97bfa5b	-0.0002403049
29	0xbbdc29d8	-0.0067188554
30	0xbd54203a	-0.051788546
31	0x3c25ca1c	0.010118987
32	0xbc09b72b	-0.008405487
33	0xbd373093	-0.04472406
34	0xbd307601	-0.043081287
35	0xbc41704c	-0.011806559
36	0x3d0dacc7	0.0345886
37	0xbc826000	-0.015914917
38	0xbd0c15d1	-0.034200493
39	0xbd37278c	-0.04471545
40	0xbd16d363	-0.036822688
41	0xbd32565e	-0.043539397
42	0xbcd383c2	-0.025819663
43	0xbc00f820	-0.007871658
44	0x3c684ddb	0.014178718
45	0x3d84db67	0.0648716
46	0x3d38b776	0.045096837
47	0x3d9673b5	0.07346288
48	0xbcb4765e	-0.022029098
49	0x3ce9cabd	0.028539056
50	0xbc09e74d	-0.008416963
51	0xbaeae3ea	-0.0017920707
52	0xbd831b74	-0.06401721
53	0xbd1b5f2d	-0.037932564
54	0xbcc78208	-0.024353996
55	0xbd963b02	-0.073354736
56	0xbd52cdad	-0.05146568
57	0x3d7a5c2a	0.06112305
58	0x3cc6fa4c	0.024289273
59	0x3d332b81	0.04374266
60	0x3ca645e9	0.020297008
61	0xbc8fe298	-0.017564103
62	0x3b6d9891	0.0036254267
63	0x3d377450	0.04478866
64	0x3d5393ee	0.05165475
65	0xbcef8cc8	-0.029241934
66	0x3ceb160b	0.028697034
67	0x3d8eb0a6	0.06967287
68	0x3d5c195d	0.053735126
69	0x3a610b7c	0.000858478
70	0x3d41f0b4	0.047348693
71	0xbd7859a3	-0.06063236
72	0xbc92b4b7	-0.017908437
73	0x3d4e9883	0.050438415
74	0xbd08e476	-0.033421002
75	0xbcc527df	-0.024066864
76	0xbbf8cbb9	-0.007592645
77	0xbd3b57ac	-0.045737907
78	0x3ce0484d	0.027378226
79	0xba58d68a	-0.0008271715
80	0xbd729dc3	-0.059232485
81	0xbc89cc89	-0.016821163
82	0x3cc6f785	0.024287948
83	0x3c9ecde5	0.019385288
84	0x3d82a620	0.06379342
85	0x3c1f817d	0.009735462
86	0x3d58f668	0.052969366
87	0x3c33b450	0.010968283
88	0x3d34997c	0.044091687
89	0xbd219a89	-0.039454017
90	0xbd1a1347	-0.03761604
91	0xbd292dae	-0.04130333
92	0x3d84ae8f	0.06478607
93	0xbd5cf4bc	-0.053944334
94	0x3d3d2a82	0.046183117
95	0xbc4539e2	-0.012037726
96	0x3d2a2d45	0.04154708
97	0xbd7f5dae	-0.0623452
98	0x3c6c99c0	0.014440954
99	0x3cdf294a	0.027241368
100	0xbd4e2462	-0.050327666
101	0x3d532d6b	0.051556986
102	0x3c964e7b	0.01834797
103	0xbd324470	-0.0435223
104	0x3bf1ccc8	0.007379148
105	0x3cbbcdb8	0.022925243
106	0x3ae47e8b	0.0017432732
107	0xbc4499a5	-0.011999522
108	0x3b9e09e8	0.0048229583
109	0x3cec1f73	0.02882359
110	0x3d80c4b2	0.06287517
111	0xbc4ae5b0	-0.012383863
112	0xbca37476	-0.019952994
113	0xbbaa6716	-0.005200277
114	0xbcd56e44	-0.026053555
115	0xbd334437	-0.043766227
116	0x3bd52933	0.0065051555
117	0x3d59cf16	0.05317601
118	0xbbd888f5	-0.0066081234
119	0xbc95da89	-0.018292682
120	0xbd595009	-0.053054843
121	0xbc9c1dc4	-0.019057162
122	0xbc2e8b79	-0.01065337
123	0x3cf78e2c	0.03021916
124	0xbd4194d2	-0.047261067
125	0x3d8fed9b	0.070277415
126	0xbbd10f2e	-0.0063799834
127	0x3bb7ceea	0.005609383
128	0xbd77e996	-0.0605255
129	0xbc85a260	-0.016312778
130	0x3d0d9932	0.034569927
131	0x3cfada2c	0.03062161
132	0xbd043bd4	-0.03228362
133	0x3bf41480	0.007448733
134	0x3cc13d88	0.02358891
135	0xbd3d8190	-0.04626614
136	0x3935dc00	0.00017343462
137	0xbd54d096	-0.051956736
138	0xbd482778	-0.048865765
139	0xbd185ca2	-0.037197717
140	0xbcd4c66c	-0.025973521
141	0xbd583080	-0.05278063
142	0xbc8d0798	-0.017215535
143	0x3d454a12	0.048166342
144	0xbc94bfe8	-0.018157914
145	0x3c0bd578	0.008534782
146	0x3c146d88	0.009059317
147	0xbc9a8fa4	-0.018867321
148	0x3b7a8720	0.0038227513
149	0xbd30d0a0	-0.04316771
150	0xbd07dac6	-0.033167623
151	0x3ce6f7a4	0.028194256
152	0xbd45aee6	-0.0482625
153	0xbc2a31c0	-0.010387838
154	0xbd73c48a	-0.059513606
155	0xbd76e0b0	-0.060272872
156	0xbd4e02b2	-0.05029554
157	0xbd346002	-0.044036873
158	0xbc089bc0	-0.008337915
159	0x3ccd749c	0.025080018
160	0x3d7a01b4	0.06103678
161	0x3d648b34	0.055796817
162	0x3d764662	0.060125716
163	0xbc59abc8	-0.013285585
164	0xbd60b3e4	-0.054859057
165	0x3ce906e0	0.028445661
166	0x3d6d800a	0.057983436
167	0xbcf2352c	-0.02956637
168	0xbcf0e9ec	-0.029408418
169	0x3d547942	0.051873453
170	0x3d03642e	0.03207796
171	0x3d2097e8	0.03920737
172	0xbcb2b7d4	-0.021816172
173	0x3a1ae580	0.0005908832
174	0xbbc04680	-0.0058677793
175	0xbb023580	-0.0019868314
176	0xbc717958	-0.014738403
177	0x3d2898b4	0.041161254
178	0x3d072734	0.03299637
179	0x3d7fb792	0.062430926
180	0xbd008d90	-0.031385005
181	0x3cec40bc	0.028839462
182	0x3bfe3c00	0.0077586174
183	0xbca555e4	-0.020182557
184	0x3d297ce8	0.041378886
185	0xbc53da10	-0.012930408
186	0x3be98ba0	0.0071272403
187	0xbcf63068	-0.030052379
188	0x3ce8f260	0.028435886
189	0x3d228216	0.03967484
190	0xbcd4fff4	-0.026000954
191	0x3d076216	0.033052526
192	0x3d699dfa	0.057035424
193	0x3b09c820	0.0021023825
194	0x3bf77700	0.0075520277
195	0xbd6eea68	-0.058329016
196	0xbd22d0be	-0.039749853
197	0x3d571faa	0.05252043
198	0xbd450b44	-0.048106447
199	0x3d093204	0.033494964
200	0x3c356658	0.011071764
201	0xbca03b08	-0.019559398
202	0xbbb1e5c0	-0.0054289997
203	0x3cba8ff0	0.022773713
204	0x3ccede7c	0.025252573
205	0xbd0869a2	-0.033303864
206	0xbc263420	-0.0101442635
207	0x3d3e3e92	0.04644639
208	0x3bcdeb40	0.0062841475
209	0xbd6fea8a	-0.058573283
210	0xbc7b78a0	-0.015348583
211	0xbc975390	-0.018472463
212	0x3d345fc2	0.044036634
213	0xbc505040	-0.012714446
214	0xbd25ef96	-0.04051169
215	0xbcf94fac	-0.030433498
216	0x3c943b34	0.018094636
217	0x3d438ff8	0.04774472
218	0xbbead4b0	-0.0071664676
219	0xbcae243c	-0.021257512
220	0xbd37c7e0	-0.04486835
221	0x3cece8e0	0.028919637
222	0xbd6f40f4	-0.058411554
223	0xbc889080	-0.016670465
224	0x3d4ffbae	0.05077713
225	0xbd0800e6	-0.03320398
226	0xbd7dbc82	-0.061947353
227	0xbc8c950c	-0.017160915
228	0x3bcb03e0	0.0061955303
229	0xbc4ff258	-0.012692057
230	0xbd175cde	-0.0369538
231	0xbd029238	-0.031877726
232	0xbd4ed1ce	-0.050493054
233	0xbd1fe93e	-0.039040796
234	0x3d0e7dbe	0.034787886
235	0x3c7ce1b8	0.015434675
236	0xbcff2a24	-0.031148024
237	0x3a854e80	0.001017049
238	0x3c971cd8	0.018446371
239	0xbd39ee6c	-0.045393392
240	0xbd67b41e	-0.056568258
241	0xbc92d860	-0.017925441
242	0x3d73a4e2	0.059483416
243	0x3d3dd724	0.046347752
244	0xbd19ac9a	-0.03751812
245	0x3d1bfa72	0.03808064
246	0xbd2a6a02	-0.041605003
247	0xbc3c11d0	-0.011478856
248	0x3c1692b0	0.009190246
249	0x3c32a1d0	0.010902837
250	0xbcae0c1c	-0.021246009
251	0xbb9f3890	-0.0048590377
252	0x3d131d14	0.035916403
253	0x3ccdad3c	0.025107019
254	0xbd67b7e0	-0.05657184
255	0xbb9a9690	-0.0047176555

recurrent._base_tgcn.linear_h.bias f4 [128]
0	0xbc75fdda	-0.015014136
1	0x3e3b76ee	0.18307087
2	0xbb8fa5c0	-0.0043837726
3	0x3e5c2bc2	0.21501067
4	0x3cf0f53a	0.029413808
5	0x3d928624	0.071544915
6	0x3e1c077b	0.15237229
7	0x3e3afb8b	0.18260019
8	0x3e303a8b	0.17209832
9	0xbcb02eb4	-0.021506645
10	0xbd0bf648	-0.03417042
11	0x3e497c97	0.19676434
12	0x3e1b5f3c	0.15173048
13	0xbc09aa13	-0.008402365
14	0x3de5d0bf	0.11221456
15	0x3de538ad	0.11192451
16	0xbbafe562	-0.0053679207
17	0xbb9d78bc	-0.0048056524
18	0x3d91a980	0.07112408
19	0xbc98d7e0	-0.018657625
20	0x3cfdcabe	0.030980464
21	0x3c9fabbc	0.019491069
22	0x3c7ad7ed	0.01531027
23	0xbd652f58	-0.055953354
24	0xbca2dbb3	-0.019880151
25	0xbca971d4	-0.02068416
26	0x3e32c4fb	0.17457955
27	0x3e4a6071	0.19763352
28	0xbd60b4b4	-0.054859832
29	0x3dfee031	0.12445105
30	0xbd67f6f8	-0.056632012
31	0x3e3353d4	0.17512447
32	0x3e51ca5c	0.2048735
33	0xbcf66c64	-0.030080982
34	0x3df10b10	0.11769688
35	0xbd0e1b42	-0.034693964
36	0xbcb8d322	-0.022561613
37	0xbd6e2052	-0.05813629
38	0x3e278895	0.16360696
39	0x3b520719	0.0032047688
40	0x3df20f0b	0.118192755
41	0xbb0921d0	-0.0020924695
42	0x3e14db7e	0.14536855
43	0x3d9ad578	0.07560247
44	0x3d61c19b	0.055116277
45	0xbd303502	-0.043019302
46	0xbbe6f477	-0.0070481854
47	0x3e3748dc	0.17898887
48	0xbc77dea1	-0.015128762
49	0xbd4b9890	-0.04970604
50	0xbca58de8	-0.020209268
51	0x3e64714f	0.22308849
52	0x3def0897	0.1167156
53	0x3aefa42a	0.0018283178
54	0x3e0eb638	0.13936698
55	0x3e48e2fd	0.19617839
56	0x3ae9a1f7	0.0017824759
57	0xbd17f40e	-0.037097983
58	0x3c26d1e6	0.01018188
59	0xbd3059e7	-0.043054488
60	0x3df4f847	0.11961418
61	0xbe9158f7	-0.28388187
62	0x3e103740	0.14083576
63	0xbd70c26a	-0.058779158
64	0x3e1e9a67	0.15488587
65	0xbab74f80	-0.0013985485
66	0x3e47abfb	0.19499199
67	0x3de3fb28	0.11131889
68	0xbd6e5346	-0.058184884
69	0x3dd9677d	0.10615442
70	0x3e1d812c	0.15381306
71	0xbc6b7390	-0.014370814
72	0x3ca07212	0.019585643
73	0x3e244cfd	0.16044994
74	0x3d7db22c	0.061937496
75	0x3d1e6b8e	0.03867679
76	0xbc0c4cc8	-0.008563228
77	0x3dc0026e	0.093754634
78	0x3dbd9f15	0.09258858
79	0x3c3e0ebb	0.011600192
80	0xbd448758	-0.047980636
81	0xbbf6f901	-0.007537008
82	0x3da61724	0.081098825
83	0xbedbd38d	-0.42934838
84	0xbcdea524	-0.027178355
85	0x3e57afa7	0.210631
86	0x3df5ff07	0.12011533
87	0xbd474390	-0.048648417
88	0x3db433f3	0.08798971
89	0xbd5ef02b	-0.05442826
90	0x3e1b5098	0.15167463
91	0xbca1b364	-0.01973886
92	0x3e21d386	0.15803346
93	0xbd04d251	-0.032427136
94	0x3e31a745	0.17348965
95	0x3e05eb86	0.13078126
96	0xbd2b2d1e	-0.041791074
97	0xbd32d30f	-0.043658312
98	0x3e5912c7	0.21198569
99	0x3e4565d0	0.1927712
100	0x3e2c3713	0.16817884
101	0xbd5e2780	-0.05423689
102	0x3cefc638	0.029269323
103	0xbc404d3d	-0.011737165
104	0x3ba8b19c	0.005148126
105	0xbc5d015e	-0.0134890955
106	0x3e276e29	0.16350617
107	0xbccf589e	-0.02531081
108	0x3ca7548a	0.020426054
109	0x3e2ad5ff	0.16683196
110	0xbd53c076	-0.051697217
111	0xbd09b64d	-0.03362112
112	0xbc15b6a0	-0.0091377795
113	0xbd5da09b	-0.054108243
114	0x3d520038	0.05126974
115	0x3e38c0ad	0.1804225
116	0x3e547884	0.20749098
117	0x3cee0678	0.029055819
118	0xbb322753	-0.0027184084
119	0xbce7a7e4	-0.028278299
120	0xbcf44d41	-0.029821994
121	0xbb2400f2	-0.0025024978
122	0xbcca5cd8	-0.024702474
123	0x3d407400	0.046985626
124	0x3e0e4662	0.13894036
125	0xbcd37390	-0.02581194
126	0xbcbfe780	-0.023425817
127	0x3e245d7b	0.16051285
