outputs/classification/node/rebuttal/weights/AntiSymmetricConv_2.pth (torch, 2615 bytes, 5 tensors)

conv1.W f4 [5, 5]
0.19749825 0.23926188 -0.121050835 -0.12012181 -0.050154798 -0.11200888 -0.40762287 0.06843327
-0.02077716 -0.035064332 -0.15109053 0.1191377 -0.004471332 0.027419506 0.21020196 -0.1480135
-0.009574178 0.16489844 -0.0060158344 -0.09277491 0.028863924 0.6015945 -0.16444154 0.08780978
-0.3389257
00000000: fb3c 4a3e 1101 753e 80e9 f7bd 6c02 f6bd
00000010: 1e6f 4dbd e964 e5bd f2b3 d0be be26 8c3d
00000020: dd34 aabc 9e9f 0fbd 7ab7 1abe 77fe f33d
00000030: 4084 92bb df9e e03c 2f3f 573e da90 17be
00000040: 03dd 1cbc 23db 283e 7a20 c5bb c600 bebd
00000050: 0974 ec3c 1902 1a3f 5d63 28be 9dd5 b33d
00000060: ab87 adbe

conv1.bias f4 [5]
-0.23891719 -0.19003756 -0.19511715 -0.46915326 0.10536438
00000000: b5a6 74be 3599 42be cacc 47be db34 f0be
00000010: 48c9 d73d

conv1.eye f4 [5, 5]
1.0 0.0 0.0 0.0 0.0 0.0 1.0 0.0
0.0 0.0 0.0 0.0 1.0 0.0 0.0 0.0
0.0 0.0 1.0 0.0 0.0 0.0 0.0 0.0
1.0
00000000: 0000 803f 0000 0000 0000 0000 0000 0000
00000010: 0000 0000 0000 0000 0000 803f 0000 0000
00000020: 0000 0000 0000 0000 0000 0000 0000 0000
00000030: 0000 803f 0000 0000 0000 0000 0000 0000
00000040: 0000 0000 0000 0000 0000 803f 0000 0000
00000050: 0000 0000 0000 0000 0000 0000 0000 0000
00000060: 0000 803f

conv1.phi.lin.weight f4 [5, 5]
-0.744329 -0.32940134 -0.88332456 -0.5899644 0.3486782 -0.4840134 0.1266742 0.47838625
-0.30318666 -0.10426531 -0.6804026 0.44736236 -0.60236126 0.31379429 0.9067567 0.562046
-0.2127484 0.057626203 0.35837182 1.0560492 -0.12113205 -0.0774678 -0.49927405 0.44971374
1.5824728
00000000: 588c 3ebf 4ba7 a8be 8f21 62bf e807 17bf
00000010: f385 b23e 9bd0 f7be e2b6 013e 0bef f43e
00000020: 483b 9bbe 0d89 d5bd dd2e 2ebf ae0c e53e
00000030: 5934 1abf a5a9 a03e 3521 683f 3fe2 0f3f
00000040: b7da 59be 7409 6c3d 837c b73e 9f2c 873f
00000050: 1514 f8bd 70a7 9ebd d9a0 ffbe e140 e63e
00000060: 788e ca3f

linear.weight f4 [1, 5]
-0.008379447 0.015449149 -0.016881015 0.011688121 1.1389698
00000000: f349 09bc 6d1e 7d3c 0e4a 8abc 887f 3f3c
00000010: c3c9 913f
