outputs/classification/node/rebuttal/weights/AntiSymmetricConv_5.pth (torch, 2615 bytes, 5 tensors)

conv1.W f4 [5, 5]
000000 21 ba e3 3e 79 d7 19 be 2d 2a 75 3e db 76 69 3e
       0.44477943 -0.15023603 0.2394187 0.22799246
000010 fb 87 c1 be 11 fc db 3d 22 9b 1c bd 86 56 50 be
       -0.37799057 0.10741437 -0.038233884 -0.20345506
000020 2f 54 1b 3c b3 18 1e 3e 90 71 36 be 44 b6 9a 3e
       0.00948052 0.1543911 -0.17816758 0.30217183
000030 c7 4b bc 3e 2e cf 06 3e cc 5d 8e 3d 94 19 2d 3e
       0.36776564 0.1316497 0.06951484 0.16904289
000040 94 46 11 3e 06 4c 81 be b6 2b b4 3d 8b 73 23 3d
       0.1418708 -0.25253314 0.087974 0.039905112
000050 c2 84 5c 3e 76 8c 9e bd 0a 65 3c bd 26 5f 61 bc
       0.21535018 -0.077416345 -0.045994796 -0.013755595
000060 99 28 af 3d
       0.08552665

conv1.bias f4 [5]
000000 df a9 e6 3d de ce 25 be 21 2b 32 3e 14 e5 01 bf
       0.11262869 -0.16192195 0.17399265 -0.5074017
000010 6a 41 94 3d
       0.07239039

conv1.eye f4 [5, 5]
000000 00 00 80 3f 00 00 00 00 00 00 00 00 00 00 00 00
       1.0 0.0 0.0 0.0
000010 00 00 00 00 00 00 00 00 00 00 80 3f 00 00 00 00
       0.0 0.0 1.0 0.0
000020 00 00 00 00 00 00 00 00 00 00 00 00 00 00 00 00
       0.0 0.0 0.0 0.0
000030 00 00 80 3f 00 00 00 00 00 00 00 00 00 00 00 00
       1.0 0.0 0.0 0.0
000040 00 00 00 00 00 00 00 00 00 00 80 3f 00 00 00 00
       0.0 0.0 1.0 0.0
000050 00 00 00 00 00 00 00 00 00 00 00 00 00 00 00 00
       0.0 0.0 0.0 0.0
000060 00 00 80 3f
       1.0

conv1.phi.lin.weight f4 [5, 5]
000000 c0 4d d3 3d 12 09 20 bf 6a 4b 1f 3f 6f 98 e7 be
       0.10317564 -0.6251384 0.6222445 -0.45233485
000010 53 a8 5c bf dc d2 04 3e e7 29 c0 3e 3a aa 30 bf
       -0.8619434 0.12971061 0.3753197 -0.69009745
000020 ea b5 01 bf 8c fd 81 3e 22 d6 5b bf 2d 95 f4 be
       -0.50668204 0.25388753 -0.85873616 -0.47770062
000030 44 41 17 3e a2 58 e9 3e db e8 6a bf 29 90 58 bf
       0.1477099 0.45575434 -0.9176156 -0.8459497
000040 5e 6f 4b bf bc ff 8f bf 01 81 0c 3c 6f 70 c0 3e
       -0.7946681 -1.1249919 0.008575679 0.3758578
000050 fa b5 0d 3f c0 5b 41 3f 6a 37 e0 3e 39 d9 37 3f
       0.553558 0.75530624 0.43792278 0.7181583
000060 b4 e3 8b bd
       -0.0683054

linear.weight f4 [1, 5]
000000 72 16 9c bb 04 14 d7 bd 73 e9 82 bd c1 17 b2 3d
       -0.004763418 -0.105018646 -0.06392183 0.08695937
000010 1d 6e 64 3f
       0.8923052
