outputs/classification/node/rebuttal/weights/cheb_9.pth (torch, 3353 bytes, 3 tensors)

conv1.bias f4 [64]
0.25753695 0.0 -0.2767866 0.0 -0.08670107 0.23259068 0.23922218 0.36294788
0.07312001 0.0390131 0.2332853 0.0 -0.11225768 0.0 0.39096457 -0.08250205
0.81000936 -0.13971105 -0.10649615 -0.060050678 -0.0597908 -0.16816922 0.0 -0.31264573
-0.23439296 -0.059989028 -0.29979953 0.63319117 0.49554998 0.4956915 0.26818037 -0.30911338
0.0 -0.07204821 -0.21922329 0.4543218 0.31646866 0.0 -0.07879101 0.0
-0.12263148 0.0 0.71149844 0.3271968 0.0 0.74023294 -0.097325295 0.18944585
-0.110024676 -0.2620165 -0.037729092 0.0 -0.2660169 0.0 -0.08858834 -0.34599483
0.0 0.42741874 0.7447611 -0.23221031 0.0 0.23082197 -0.29294768 -0.21123931
00000000: e2db 833e 0000 0000 f9b6 8dbe 0000 0000
00000010: 5590 b1bd 402c 6e3e a9f6 743e 4ed4 b93e
00000020: f2bf 953d 33cc 1f3d 57e2 6e3e 0000 0000
00000030: 5be7 e5bd 0000 0000 822c c83e d6f6 a8bd
00000040: c65c 4f3f 6a10 0fbe a71a dabd b3f7 75bd
00000050: 33e7 74bd 8d34 2cbe 0000 0000 1a13 a0be
00000060: b504 70be 0eb7 75bd 537f 99be d118 223f
00000070: bab8 fd3e 47cb fd3e f04e 893e 1c44 9ebe
00000080: 0000 0000 038e 93bd 127c 60be de9c e83e
00000090: 2e08 a23e 0000 0000 2e5d a1bd 0000 0000
000000a0: 3726 fbbd 0000 0000 c324 363f 5786 a73e
000000b0: 0000 0000 e87f 3d3f 7c52 c7bd 18fe 413e
000000c0: 9e54 e1bd 0727 86be d289 1abd 0000 0000
000000d0: 5e33 88be 0000 0000 ce6d b5bd 3c26 b1be
000000e0: 0000 0000 a1d6 da3e aaa8 3e3f 8ac8 6dbe
000000f0: 0000 0000 985c 6c3e 3dfd 95be 1e4f 58be

conv1.lins.0.weight f4 [64, 5]
0.24171165 -0.020352907 -0.05847124 -0.12951922 -0.5052121 -0.0517946 0.29013032 -0.23870905
-0.096095026 -0.07165799 0.0023993365 0.38801748 0.02931881 0.03190009 1.0596188 -0.01120903
0.030323772 -0.15830824 0.085028715 -0.21253479 -0.025774607 -0.23102802 -0.21599141 -0.029457001
-0.35359743 0.23292346 0.17379035 0.24561654 -0.09478369 -0.48140034 0.06848573 0.03824535
-0.025627634 0.051141296 -0.36891416 0.047856014 0.18257423 -0.11958511 0.1271423 -0.5614088
0.21685725 -0.14864014 -0.33253205 -0.3569032 -0.47870338 -0.23406017 -0.1501575 0.21445781
0.23845887 -0.0036969692 0.1440014 0.050979245 0.2250672 0.18546642 -0.5172225 -0.09778788
-0.07958568 0.020032618 -0.20406614 -0.16663656 0.040688477 -0.17985778 -0.31715876 -0.0023883972
-0.027172174 -0.040524755 -0.14783883 -0.14150828 0.10471712 0.16971564 0.26667944 -0.22099021
0.100517854 0.028102607 -0.630097 -0.22635816 -0.36289868 0.1189165 -0.15130378 -0.0907092
0.0061501176 0.08267143 -0.15018123 0.32132602 -1.0651894 0.008556258 0.13137193 -0.25070003
-0.026915152 0.14249109 0.24346448 0.113253884 -0.26027563 -0.26950958 0.52307254 -0.27069098
0.040881064 -0.22278932 0.025466485 -0.069415554 0.08615088 -0.00717171 0.17179328 -0.2700466
-0.10479477 0.108632885 0.08518542 0.013785339 0.023462262 0.76504284 -0.13986306 -0.2530779
-0.13191678 0.11278123 -0.21984164 0.008784055 -0.02495423 0.03129467 0.25254002 0.95507175
0.24965075 0.15725489 -0.14677352 0.22236064 0.53627634 -0.12165118 -0.1738558 -0.045047503
-0.04912607 -0.055550423 0.015242685 -0.08890245 0.041545 0.28858787 1.2123744 0.2818673
0.013366409 0.103448555 -0.0044817915 -1.1256723 0.0959197 0.11725407 0.06250219 -0.005251312
-0.920915 0.23168911 0.10722472 -0.043084268 -0.12926377 1.1013683 0.18787183 -0.23134658
0.106731944 -0.19928095 -0.6770517 0.16652876 -0.2511314 0.15059584 0.23935087 1.0036663
-0.28457364 -0.15711571 -0.12982638 -0.13192585 0.09577851 -0.115516886 0.047598194 -0.038125515
-0.13659084 -0.017541073 -0.16500834 0.10493726 -0.0047674878 0.31951243 0.8650235 0.063793674
-0.07910302 -0.013712292 0.12683071 -0.7179476 -0.23013686 0.09531842 0.1183835 0.28768075
-0.8212991 -0.16484752 -0.13328454 -0.1688416 -0.21449175 -0.15464732 -0.13171256 0.1551044
0.110078335 -0.043503314 0.41956848 -0.20843343 -0.039682634 -0.1445881 -0.17652835 -0.13527033
-0.096278176 0.22153234 0.09791557 -0.0864171 0.27167502 -0.1731016 -0.16354588 -0.048941206
-0.21202865 0.28876334 0.011677572 -0.045873538 0.069343805 0.10489715 -1.1752229 0.27840942
0.06310401 -0.0177448 0.0015450115 -0.47941077 -0.23346472 -0.23152786 0.02999221 -0.096052244
0.006666326 0.021761822 0.2595256 0.21314713 -0.18323812 -1.103152 0.08714502 0.050552063
0.0006557225 -0.15638791 0.30968255 0.16269602 -0.15678722 0.21743739 -0.15581913 -0.41391623
0.038182046 -0.24803145 -0.108206004 0.100731246 0.04817424 0.03805099 0.18705022 -0.110254884
0.16487716 0.78761286 0.1353557 0.15044087 0.0631218 -0.30014125 0.46778274 -0.18049344
00000000: 4283 773e 24bb a6bc 8a7f 6fbd b0a0 04be
00000010: 9555 01bf 9326 54bd f68b 943e 2570 74be
00000020: 78cd c4bd 6dc1 92bd 303e 1d3b 3aaa c63e
00000030: 002e f03c aba9 023d 97a1 873f 14a6 37bc
00000040: 8f69 f83c 8e1b 22be 8923 ae3d b8a2 59be
00000050: 4525 d3bc 9c92 6cbe da2c 5dbe cf4f f1bc
00000060: b90a b5be 7d83 6e3e 19f6 313e e782 7b3e
00000070: f41d c2bd 1b7a f6be 3f42 8c3d 28a7 1c3d
00000080: 0bf1 d1bc 8979 513d 51e2 bcbe ab04 443d
00000090: bdf4 3a3e 0ae9 f4bd 9731 023e 7db8 0fbf
000000a0: d40f 5e3e 1f35 18be a441 aabe 04bc b6be
000000b0: 9c18 f5be 78ad 6fbe e3c2 19be d49a 5b3e
000000c0: 902e 743e da48 72bb 1a75 133e 9dcf 503d
000000d0: 0478 663e e9ea 3d3e b268 04bf 0345 c8bd
000000e0: d1fd a2bd 721b a43c b7f6 50be c6a2 2abe
000000f0: f6a8 263d a32c 38be a262 a2be a886 1cbb
00000100: 2e98 debc 49fd 25bd 1063 17be 8ce7 10be
00000110: ee75 d63d f0c9 2d3e 358a 883e 424b 62be
00000120: 4edc cd3d 7037 e63c 094e 21bf 6fca 67be
00000130: dbcd b9be 7e8a f33d 61ef 1abe bfc5 b9bd
00000140: ed86 c93b a44f a93d 1cc9 19be d884 a43e
00000150: 2058 88bf 8c2f 0c3c 5d86 063e c15b 80be
00000160: 2a7d dcbc 2fe9 113e c14e 793e a7f1 e73d
00000170: d942 85be 29fd 89be 15e8 053f 0298 8abe
00000180: e772 273d e222 64be 179f d03c be29 8ebd
00000190: df6f b03d aa00 ebbb 94ea 2f3e 8c43 8abe
000001a0: a49e d6bd eb7a de3d b275 ae3d e7db 613c
000001b0: ee33 c03c d9d9 433f 4338 0fbe 6d93 81be
000001c0: 3115 07be d8f9 e63d 2b1e 61be ffea 0f3c
000001d0: d06c ccbc d72e 003d ed4c 813e 957f 743f
000001e0: 72a4 7f3e 6d07 213e cc4b 16be 82b2 633e
000001f0: 6849 093f 4124 f9bd 4107 32be bb83 38bd
00000200: 6b38 49bd d788 63bd 74bc 793c 7d12 b6bd
00000210: 172b 2a3d cac1 933e 162f 9b3f e950 903e
00000220: c8fe 5a3c d6dc d33d fedb 92bb 0816 90bf
00000230: 8c71 c43d e722 f03d 2601 803d 3313 acbb
00000240: 16c1 6bbf e93f 6d3e a298 db3d 2179 30bd
00000250: b95d 04be a3f9 8c3f 7961 403e 1ee6 6cbe
00000260: 4796 da3d 4e10 4cbe 4353 2dbf 8486 2a3e
00000270: 4b94 80be cc35 1a3e 6518 753e 2378 803f
00000280: a3b3 91be f1e2 20be 35f1 04be 9217 07be
00000290: 8627 c43d 1e94 ecbd 53f6 423d 8029 1cbd
000002a0: 78de 0bbe 4cb2 8fbc f2f7 28be 59e9 d63d
000002b0: 9638 9cbb 2297 a33e 2e72 5d3f 42a6 823d
000002c0: c400 a2bd 85a9 60bc e9df 013e 6acb 37bf
000002d0: ffa8 6bbe 4e36 c33d 0c73 f23d e44a 933e
000002e0: a840 52bf cacd 28be be7b 08be d0e4 2cbe
000002f0: baa3 5bbe de5b 1ebe a8df 06be b0d3 1e3e
00000300: c070 e13d 8830 32bd aed1 d63e 936f 55be
00000310: 428a 22bd e70e 14be d9c3 34be 4e84 0abe
00000320: 7e2d c5bd 60d9 623e f587 c83d 73fb b0bd
00000330: fd18 8b3e 8c41 31be 9278 27be 9376 48bd
00000340: 0a1e 59be cad8 933e 4953 3f3c e4e5 3bbd
00000350: 2004 8e3d 51d4 d63d b46d 96bf ae8b 8e3e
00000360: ad3c 813d 8b5d 91bc fc81 ca3a 5475 f5be
00000370: 6011 6fbe a415 6dbe 39b2 f53c 0ab7 c4bd
00000380: 3271 da3b d945 b23c 8ae0 843e 3e43 5a3e
00000390: c6a2 3bbe 1634 8dbf 1779 b23d ae0f 4f3d
000003a0: cbe4 2b3a 2724 20be b68e 9e3e c999 263e
000003b0: d48c 20be e8a7 5e3e 0d8f 1fbe d4ec d3be
000003c0: c764 1c3d f5fb 7dbe 1c9b ddbd 2f4c ce3d
000003d0: 5a52 453d 5bdb 1b3d 188a 3f3e 50cd e1bd
000003e0: 8fd5 283e ffa0 493f af9a 0a3e 2c0d 1a3e
000003f0: 0146 813d 1dac 99be 3881 ef3e 46d3 38be

linear.weight f4 [1, 64]
-0.05824077 -0.124469385 0.7618135 -0.06036517 -0.0332873 -0.06503151 -0.12695384 -0.13215555
-0.09036951 0.008922688 -0.06729904 0.113545805 -0.040286496 -0.035207078 -0.10731098 -0.04690854
-0.82958966 0.028054401 0.029624209 0.017831163 -0.05994674 0.10104998 0.011145696 0.19753663
0.1371384 -0.04643076 0.63328886 -0.17561622 -0.25423685 0.15654655 -0.10930578 0.081655525
0.077793285 0.045510158 0.32274398 -0.23340307 -0.15309508 0.04947366 0.054507468 -0.10826342
0.060789526 0.030314147 -0.35515007 -0.07179839 -0.08266142 -0.7712295 0.047926582 -0.027311472
0.047660843 0.1539524 0.05807506 -0.013981357 0.5793994 -0.00740847 0.20401129 0.08001041
-0.118308455 -0.20468569 -0.7557076 0.08829522 0.011851728 0.02964244 0.08949812 0.049576122
00000000: e08d 6ebd cee9 febd 3606 433f 7841 77bd
00000010: 4458 08bd 3e2f 85bd 3000 02be c953 07be
00000020: a613 b9bd 7730 123c 14d4 89bd b48a e83d
00000030: 7403 25bd 4c35 10bd dcc5 dbbd 2b23 40bd
00000040: fd5f 54bf 58d2 e53c 78ae f23c a912 923c
00000050: b68a 75bd 4bf3 ce3d 709c 363c 0b47 4a3e
00000060: 026e 0c3e 2e2e 3ebd 381f 223f bdd4 33be
00000070: 552b 82be bd4d 203e b5db dfbd 033b a73d
00000080: 1652 9f3d dc68 3a3d b33e a53e 3701 6fbe
00000090: f5c4 1cbe e4a4 4a3d 3943 5f3d 36b9 ddbd
000000a0: 70fe 783d 6055 f83c 3bd6 b5be 090b 93bd
000000b0: 644a a9bd 4c6f 45bf aa4e 443d 4fbc dfbc
000000c0: 0438 433d b3a5 1d3e 1de0 6d3d 1012 65bc
000000d0: 8553 143f c0c2 f2bb 56e8 503e 7fdc a33d
000000e0: b44b f2bd 2099 51be 0e76 41bf 20d4 b43d
000000f0: c02d 423c b4d4 f23c ca4a b73d 5510 4b3d
