outputs/classification/node/rebuttal/weights/cheb_8.pth (torch, 3353 bytes, 3 tensors)

conv1.bias f4 [64]
0.3490692 -0.07733173 -0.057324428 0.65696466 -0.06627735 -0.05234658 -0.13477078 0.0
-0.035494424 0.18002486 0.83738995 -0.19516686 -0.083400644 0.3492366 -0.2343693 0.25987062
0.04907801 0.26064125 -0.38910374 -0.04417203 0.038908944 -0.12006189 -0.4383652 -0.10838682
0.2908793 0.35435146 0.0 -0.16356258 -0.023606507 0.44833285 0.85885787 -0.17515965
0.23054977 -0.1635699 -0.22616512 0.67541826 -0.06945329 0.17691094 -0.11685036 -0.064111926
0.03744537 -0.2376338 -0.1001357 -0.08111495 0.013270966 -0.03749142 0.0 -0.114899956
0.6566808 -0.12218121 -0.46385708 -0.20309183 -0.12483182 -0.10122728 0.0 -0.02431295
0.5890246 -0.06411371 0.0 0.71606 0.23138617 0.2626771 -0.13276628 0.0
00000000: 33b9 b23e 1960 9ebd 05cd 6abd d62e 283f
00000010: 6bbc 87bd 5e69 56bd 5a01 0abe 0000 0000
00000020: 9a62 11bd 7058 383e 305f 563f d2d9 47be
00000030: f5cd aabd 24cf b23e 81fe 6fbe c30d 853e
00000040: 0606 493d c572 853e 9b38 c7be bbed 34bd
00000050: fc5e 1f3d 02e3 f5bd 6771 e0be e9f9 ddbd
00000060: 22ee 943e 8e6d b53e 0000 0000 f37c 27be
00000070: 6f62 c1bc e28b e53e 1cde 5b3f 0d5d 33be
00000080: 3d15 6c3e de7e 27be d497 67be 36e8 2c3f
00000090: 873d 8ebd 2428 353e 3e4f efbd 1d4d 83bd
000000a0: 5160 193d 4656 73be f213 cdbd 981f a6bd
000000b0: 776e 593c 9a90 19bd 0000 0000 ab50 ebbd
000000c0: 3c1c 283f 243a fabd ad7e edbe 4ef7 4fbe
000000d0: d3a7 ffbd 4050 cfbd 0000 0000 f42b c7bc
000000e0: 51ca 163f 0c4e 83bd 0000 0000 b54f 373f
000000f0: 7ff0 6c3e 9d7d 863e e2f3 07be 0000 0000

conv1.lins.0.weight f4 [64, 5]
0.15398987 0.10309965 0.14532344 -0.070089765 -0.8254796 0.010271277 0.076241545 -0.2827778
0.073783785 -0.056038495 -0.010635013 0.20938459 -0.14650427 0.19174923 0.15567866 0.0010783746
0.05560918 0.19430612 -0.025981942 -0.92449266 0.2644353 -0.2615806 -0.24598686 0.20503122
0.4821467 0.02135551 -0.21675667 -0.056243222 -0.27242094 -0.14278479 0.041489605 0.09753174
-0.39837003 -0.26167378 -0.19186635 -0.15595704 -0.17947784 -0.0020899805 -0.13600928 0.25550073
0.21265641 -0.032338414 -0.021200718 0.06894689 0.98089087 0.07842154 -0.16167726 -0.2310339
-0.26202333 -0.72734386 0.0034979149 0.26453853 -0.08951481 0.26814038 -1.2806492 0.28492865
0.20926523 -0.14027622 0.119838044 0.4036539 0.0017599433 0.12829132 -0.07999038 -0.15792714
-0.023310453 0.02805592 0.064735636 0.2686843 -0.17386234 -0.7473469 -0.053822584 0.21731937
0.21310556 0.27402645 0.71854895 0.09048493 0.25228652 0.013238418 0.1518054 -0.74422956
0.11344548 -0.20487896 -0.17221026 -0.024484081 -0.5108155 0.18502013 -0.2017681 0.15930437
0.13332619 -0.5900069 -0.00023250807 0.31783295 0.108068995 0.026101967 1.2382593 -0.015277984
0.019745331 0.08896522 -0.2855188 -0.115301855 0.21020454 -0.12579967 -0.038012244 0.032785527
-0.22223613 -0.19114193 -0.25593522 0.21940653 -0.17986472 0.037025698 0.018865725 0.38536525
-0.20034465 0.24353527 1.0270151 0.041716658 0.11114626 -0.2095389 -0.26156306 -0.17009276
0.27753925 -0.17027344 0.2533408 -0.20712821 -0.69885176 0.24863194 0.25240463 -0.25299522
0.28496236 -0.8497115 -0.19229817 -0.18960913 -0.1385858 -0.002261843 0.07043871 -0.010586869
-0.090498 0.10915778 0.09930446 1.1038282 0.17660952 -0.27897987 -0.24326752 0.09291
-0.23586716 0.11110183 -0.027540043 -0.23337865 -0.19781296 -0.9803181 0.035928458 0.25226152
0.08686266 -0.04945721 -1.0251397 0.22484729 0.11277904 -0.09327883 0.09706637 0.41461536
0.011118215 0.021221325 0.057929445 0.012214583 -0.4389878 -0.0644162 -0.0635037 0.098125115
0.10346154 1.2159386 0.11397114 0.1679523 -0.072075285 0.11692794 0.5059897 -0.020919023
0.12927741 0.077801906 0.18714742 -1.219817 0.0749569 -0.3388363 0.19121884 -0.36456126
-0.22776678 0.21421546 0.018569676 -0.11127802 0.030963344 0.8224362 0.07684801 -0.40843225
-0.07732547 -0.36621487 -0.06164229 0.12477973 -0.22720373 -0.3440842 -0.12701948 -0.17419769
-0.04916346 -0.06343488 0.06122459 -0.27043697 -0.14321633 0.22125243 0.052366477 0.2134145
0.06647381 0.5998923 0.1465269 -0.0904567 0.18688811 -0.11491266 0.58321714 -0.0491919
-0.24004209 0.014315726 -0.012863941 -0.023072187 -0.3726022 -0.09829582 0.104907915 -0.102668665
-0.09140398 -0.105075 -0.030466584 -0.23601785 0.20561202 0.030535055 -0.02775768 -0.20887569
-0.15180348 0.14082716 -0.095170714 0.108992495 -0.14487702 0.0063549266 0.07280907 0.2652775
-0.068164915 -0.03803573 0.016848266 0.10496702 -0.73642343 0.02367538 -0.18805908 -0.09775522
-0.03715557 0.1014494 0.02989745 0.12913035 0.33070472 -0.09358778 1.2187651 0.17997397
00000000: 85af 1d3e e925 d33d abcf 143e 398b 8fbd
00000010: a252 53bf dc48 283c 8724 9c3d 40c8 90be
00000020: f41b 973d 9f88 65bd 7a3e 2ebc ea68 563e
00000030: 3705 16be e959 443e 3a6a 1f3e 3f58 8d3a
00000040: 74c6 633d 2ff8 463e 15d8 d4bc 8dab 6cbf
00000050: 1064 873e e4ed 85be fbe3 7bbe b4f3 513e
00000060: efdb f63e c0f1 ae3c 76f5 5dbe 4b5f 66bd
00000070: c27a 8bbe 2d36 12be 01f1 293d b9be c73d
00000080: 28f7 cbbe 1bfa 85be 9d78 44be 34b3 1fbe
00000090: 0ac9 37be 0ef8 08bb 0446 0bbe fed0 823e
000000a0: 9ac2 593e 4975 04bd 21ad adbc 0734 8d3d
000000b0: aa1b 7b3f 799b a03d b98e 25be 2794 6cbe
000000c0: ec27 86be 3533 3abf 463d 653b 9871 873e
000000d0: 8a53 b7bd b249 893e 50ec a3bf 2be2 913e
000000e0: a049 563e 92a4 0fbe a66d f53d b9ab ce3e
000000f0: e6ad e63a cd5e 033e ffd1 a3bd a7b7 21be
00000100: 90f5 bebc 87d5 e53c 1e94 843d fd90 893e
00000110: f808 32be 2052 3fbf 1275 5cbd f888 5e3e
00000120: 5838 5a3e 324d 8c3e d3f2 373f 2a50 b93d
00000130: b32b 813e f3e5 583c e072 1b3e d485 3ebf
00000140: 1b56 e83d cacb 51be e357 30be d792 c8bc
00000150: cec4 02bf eb75 3d3e 4c9c 4ebe af20 233e
00000160: a986 083e b10a 17bf 69cd 73b9 00bb a23e
00000170: 4753 dd3d cbd3 d53c 487f 9e3f 8250 7abc
00000180: f6c0 a13c 6633 b63d 852f 92be 6123 ecbd
00000190: dc3f 573e a1d1 00be bab2 1bbd 1e4a 063d
000001a0: de91 63be b6ba 43be f109 83be 1bac 603e
000001b0: 752e 38be 42a8 173d 4b8c 9a3c 984e c53e
000001c0: 2627 4dbe 4f61 793e 3b75 833f 16df 2a3d
000001d0: a6a0 e33d 5e91 56be 98eb 85be cc2c 2ebe
000001e0: a019 8e3e 295c 2ebe e3b5 813e 6b19 54be
000001f0: f3e7 32bf 5f99 7e3e 2e3b 813e 9788 81be
00000200: 96e6 913e b186 59bf d0e9 44be e528 42be
00000210: 70e9 0dbe 6e3b 14bb 2c42 903d 8c74 2dbc
00000220: 0457 b9bd 1d8e df3d 2360 cb3d 3e4a 8d3f
00000230: 20d9 343e 73d6 8ebe 1f1b 79be 9947 be3d
00000240: 2987 71be 5b89 e33d a89b e1bc d0fa 6ebe
00000250: 7b8f 4abe 21f6 7abf b829 133d 6c28 813e
00000260: 0de5 b13d a593 4abd c737 83bf 5e3e 663e
00000270: b3f8 e63d f908 bfbd bcca c63d 7748 d43e
00000280: 2c29 363c 58d8 ad3c 6d47 6d3d ad1f 483c
00000290: 02c3 e0be a4ec 83bd 3a0e 82bd d2f5 c83d
000002a0: a5e3 d33d e0a3 9b3f b369 e93d b0fb 2b3e
000002b0: 359c 93bd ea77 ef3d 8a88 013f 5f5e abbc
000002c0: 4c61 043e 9b56 9f3d 93a3 3f3e f722 9cbf
000002d0: 0183 993d f47b adbe dfce 433e c6a7 babe
000002e0: b23b 69be 4c5b 5b3e 6f1f 983c bbe5 e3bd
000002f0: d7a6 fd3c 2e8b 523f 7d62 9d3d 081e d1be
00000300: d15c 9ebd 8480 bbbe a07c 7cbd 848c ff3d
00000310: 18a8 68be ce2b b0be 6511 02be e160 32be
00000320: a05f 49bd 25ea 81bd a3c6 7a3d b776 8abe
00000330: 4da7 12be ff8f 623e 3b7e 563d 5589 5a3e
00000340: 6c23 883d 8b92 193f 260b 163e 5d41 b9bd
00000350: 995f 3f3e 5457 ebbd b84d 153f 727d 49bd
00000360: 98cd 75be 828c 6a3c 47c3 52bc e201 bdbc
00000370: b7c5 bebe 524f c9bd f6d9 d63d f343 d2bd
00000380: 0332 bbbd 9031 d7bd 0f95 f9bc aaae 71be
00000390: f58b 523e a724 fa3c 1364 e3bc 82e3 55be
000003a0: 5f72 1bbe ff34 103e dde8 c2bd 7537 df3d
000003b0: a45a 14be fd3c d03b ec1c 953d 74d2 873e
000003c0: 0c9a 8bbd 5bcb 1bbd 6005 8a3c f3f8 d63d
000003d0: 3f86 3cbf dff2 c13c 8f92 40be e433 c8bd
000003e0: 7030 18bd b4c4 cf3d 7feb f43c bf3a 043e
000003f0: 2152 a93e f3aa bfbd 7f00 9c3f 194b 383e

linear.weight f4 [1, 64]
-0.15378484 0.0065689026 0.01442446 -0.60172147 0.04655348 -0.03617398 -0.047090475 -0.1107458
0.12706642 -0.14631544 -0.45625672 0.06293178 0.024305949 -0.21771494 0.14304811 -0.102485225
-0.056896303 -0.14304999 0.7985449 -0.03860818 -0.033590507 0.023918273 0.65752745 -0.11023758
-0.089108884 -0.11656846 -0.035241142 0.44376168 -0.004352858 -0.09761274 -0.43901065 0.070082694
-0.13384935 0.58164155 0.11884288 -0.45539305 -0.0013292419 0.11917044 -0.048266813 -0.11794032
-0.07764862 0.05198766 0.039016712 -0.00023016936 -0.0059619546 0.010596812 0.06907469 0.020102931
-0.2326809 0.02914929 0.5088714 0.046851244 0.03174221 -0.0017939727 -0.10044655 0.014047742
-0.47957137 -0.05875949 -0.047371805 -0.5240896 -0.09642245 -0.07652462 0.026018707 -0.008241266
00000000: c679 1dbe f33f d73b 9254 6c3c 6b0a 1abf
00000010: ddae 3e3d 2b2b 14bd f1e1 40bd b2ce e2bd
00000020: b31d 023e b7d3 15be 7b9a e9be 61e2 803d
00000030: 451d c73c aaf0 5ebe 347b 123e c6e3 d1bd
00000040: 190c 69bd b27b 12be 706d 4c3f 9c23 1ebd
00000050: 3396 09bd 41f0 c33c b853 283f 3ec4 e1bd
00000060: b87e b6bd 72bb eebd 0459 10bd bb34 e33e
00000070: 6ba2 8ebb 30e9 c7bd 01c6 e0be 8487 8f3d
00000080: ce0f 09be 76e6 143f e563 f33d 4729 e9be
00000090: f539 aeba a20f f43d 6cb3 45bd b28a f1bd
000000a0: 3d06 9fbd 03f1 543d fdcf 1f3d 9e59 71b9
000000b0: 805c c3bb 409e 2d3c 0877 8d3d e7ae a43c
000000c0: e743 6ebe 7eca ee3c 6545 023f 17e7 3f3d
000000d0: 1f04 023d bc23 ebba ecb6 cdbd 8028 663c
000000e0: 618a f5be caad 70bd f008 42bd bc2a 06bf
000000f0: 2279 c5bd f1b8 9cbd 2f25 d53c 6006 07bc
