outputs/classification/node/rebuttal/weights/EGConvGNN_7.pth (torch, 4279 bytes, 5 tensors)

conv1.bias f4 [64]
00000000: b1d7 99bd 97dc e7be 8935 62bd 2937 ec3d
00000010: 41af 4a3e 12e1 153e fbc3 06bd 8b13 09bd
00000020: 9a59 a43d 7600 64be 1a6f 0b3f f8da acbd
00000030: ede3 a7bb 8d50 193f 12b1 833e 8130 cdbe
00000040: 8814 ca3e ffab af3a 5aad 97bc 33d8 81be
00000050: 26f9 3fbd 97f8 ef3b 4399 893e 03e0 d23c
00000060: 814e 1c3e 0607 463f e92d 373d dc4d 78be
00000070: 5556 8d3e e2fe d23e f571 a63e 0082 41be
00000080: 5e28 d93d 26ed 503d 5870 f73d 74fc 9cbe
00000090: 17fb 62bd 2fa8 02be db40 f53d dbdb 793d
000000a0: 12b9 e6bd 5d63 7dbd b433 63be 83e0 08be
000000b0: 5b45 7d3e c6c7 103c 5d29 34be 6a85 34be
000000c0: 36a6 2bbe 4e3b a0bc 21c0 79be 4b97 6f3e
000000d0: ccfe e33e 484e 97bd 02fb 563d 45d2 b6be
000000e0: 2f09 313e 8c40 8f3e d054 e13d 3dd5 f13e
000000f0: 2e21 d23e 9f74 153f 9f1c adbe 6198 a03e
-0.07511843 -0.45285484 -0.055226836 0.115339585 0.19793417 0.14636639 -0.032901745 -0.033465903
0.08024903 -0.22265801 0.544664 -0.084402025 -0.0051236064 0.59888536 0.2572103 -0.40076068
0.3946879 0.0013402699 -0.018515278 -0.2536026 -0.046868466 0.0073233354 0.26874742 0.025741583
0.15264322 0.77354467 0.044721518 -0.24248451 0.2760493 0.41210085 0.32508817 -0.18897247
0.106034026 0.051007412 0.12081975 -0.30661356 -0.05541524 -0.1275947 0.11975261 0.061000686
-0.11265768 -0.06186234 -0.22187692 -0.13366894 0.24733488 0.008836692 -0.17593904 -0.17629018
-0.16762623 -0.019559529 -0.24389698 0.23397557 0.44530332 -0.07387978 0.052485473 -0.35707298
0.1728866 0.27978933 0.11002505 0.47233 0.4104094 0.58381075 -0.338109 0.31366256

conv1.bases_lin.weight f4 [32, 5]
00000000: 8e8d 893e a00a fd3d 394d ba3e 09d2 d3be
00000010: f489 c03e 1668 84be a64b 7bbe 6dda fcbd
00000020: 022b a93d bbad b93e 69f2 753c 8e01 273e
00000030: 6c0e 9d3e f8d4 89bc ab58 623f 33c0 313e
00000040: 874b 9fbe 4d6b 6fbe 351d 87be 6c52 fc3e
00000050: b7e6 94bb d465 a6be b7ac f13d 6e85 5c3e
00000060: beb4 39bf 3bfd 6bbc 84fb debd 54b5 293e
00000070: 9460 4cbe bfa3 193f 3eb7 9bbe 9f51 9fbd
00000080: 7947 a13e 1168 4e3e 927a 693f afe1 493e
00000090: a948 f73e efca 67be 94da 07be 874e 20bf
000000a0: 6ed9 5fbd 9836 01bd 8142 7d3d 9023 3b3e
000000b0: 8a35 c83d a16e 9ebe 97b1 5b3e b4b8 22bc
000000c0: 8fed c6be 2d64 343d fd88 80bc b4c5 19be
000000d0: 644d 5a3e 48e3 c0bd dd53 1abf b5a2 823e
000000e0: 3147 6e3d 4f8d 8e3e ce97 36be 4455 6b3f
000000f0: 704f 66be 6bb0 8dbe d5ae 983e 8d4b a5be
00000100: 71a1 39bf 9082 4cbe 504d b43e e1f4 33be
00000110: a3d1 9bbe 25a3 1abe ee7f 4bbe 1e54 8abe
00000120: 32d2 a13e bbb1 60be ddad 2ebe 5888 75be
00000130: 60ef ca3e 1adf e33c 361c 31be 7c53 cdbd
00000140: 79af 0c3e 2569 35be f756 233d 4afa abbe
00000150: 091b 9a3b 7185 983d a487 9fbe 3b06 923e
00000160: e8b3 273e 5e93 48bf 43ec 77be 0877 b63e
00000170: ad6f ba3e a3f2 97be 73ac cebe a21f 50be
00000180: bc57 8dbe 648e 023e 6584 ecbd e54d 823d
00000190: d878 f63d 63c4 033e 08b9 e1bd 3bec f33d
000001a0: ff5c d3be ce14 4c3e 8a76 64be ef63 5ebe
000001b0: b007 a8bd 1d6f 03be cace 5cbe cecb e0be
000001c0: e74f c93b 4231 a23e 4c9a 1dbe 706e 7c3e
000001d0: 030b b43e f736 4abe 4496 a0be 5da1 ebbe
000001e0: 8ce3 3dbe 4eb4 80be efde eebd d89c 9ebe
000001f0: df7b 133e 5db8 023d 2800 9bbc cbd8 c7be
00000200: 3c4e 78be 5a52 b3be 06a9 e0be c270 c93c
00000210: 00af b63c ac04 2a3e 4339 40bd eded a5bd
00000220: c8d2 863e 87dc 8cbb 8f3c e83d 7c9b f8be
00000230: 719f 323e f555 9b3e 7dd8 d8be f1fd 10be
00000240: 03a6 f53c a4ff 453e bde2 d8be 7800 36be
00000250: edfd f3be d9e1 18bf dc3f 8ebe 601d c33e
00000260: f72b 81bd a024 b2be 681c 453f 61f5 84be
00000270: 5ca2 cfbd 1b5c 9e3e 827e e5bd 0892 d9be
0.2686581 0.12355542 0.3638704 -0.41371182 0.3760525 -0.2586066 -0.24540576 -0.12346349
0.08260156 0.36265358 0.015011408 0.16309187 0.30675066 -0.016825184 0.88416547 0.17358474
-0.3111231 -0.23380776 -0.2638947 0.49281633 -0.004544105 -0.32499564 0.11800521 0.21535274
-0.72541416 -0.014403637 -0.108878165 0.16573077 -0.19958717 0.6001548 -0.3041324 -0.0777924
0.31499842 0.20156886 0.9120265 0.19714998 0.48297623 -0.22636007 -0.13266975 -0.62619823
-0.054650716 -0.031546205 0.061831 0.18275285 0.09775837 -0.30943778 0.21454464 -0.009931732
-0.38853118 0.044040848 -0.015690321 -0.15016824 0.21318585 -0.094183505 -0.60284215 0.2551476
0.058173362 0.27842185 -0.17831346 0.9192698 -0.2249124 -0.2767366 0.29820886 -0.32284203
-0.72511965 -0.1997168 0.35215235 -0.17573883 -0.30433378 -0.15101297 -0.1987302 -0.270173
0.3160568 -0.21942799 -0.17058511 -0.23977792 0.39635754 0.027816344 -0.17295918 -0.10025689
0.13738813 -0.1771589 0.039877858 -0.33589393 0.00470293 0.07447327 -0.31158173 0.28520378
0.16377223 -0.78349864 -0.2421122 0.3563769 0.36413327 -0.29677305 -0.40365943 -0.20324567
-0.27606 0.1274963 -0.1154869 0.063625135 0.12034768 0.12867884 -0.1102162 0.11910292
-0.41281888 0.19929811 -0.22310844 -0.21717809 -0.08204591 -0.12835355 -0.21563259 -0.4390549
0.0061435583 0.31678206 -0.15390891 0.24651504 0.3516465 -0.1974753 -0.31364644 -0.46021548
-0.18543833 -0.25137562 -0.11663615 -0.30979037 0.14402722 0.031914104 -0.018920973 -0.39032587
-0.24248594 -0.35023767 -0.43878955 0.0245899 0.022300243 0.16603345 -0.04692961 -0.08102021
0.26332688 -0.00429875 0.11339676 -0.48556125 0.17443635 0.30339018 -0.42352667 -0.14159371
0.029986387 0.193358 -0.42360488 -0.17773616 -0.47654667 -0.59719616 -0.27783096 0.3810835
-0.06307214 -0.34793568 0.7699647 -0.2596846 -0.101383895 0.30929646 -0.1120577 -0.42494226

conv1.comb_lin.weight f4 [32, 5]
00000000: 2e89 453e bf70 8a3d 1396 94be 59b6 25be
00000010: 39b8 983e 7ea8 9d3e 3da4 f7bd e0a3 fa3d
00000020: cee2 fa3d 3fc9 25be 6d08 5abe 9a72 de3d
00000030: fc13 06bd 8ac1 6dbc b7a6 2b3f a617 6abc
00000040: 3e3f 6bbc bef4 8d3e 0189 833d 133a 45be
00000050: 7c05 0fbe 282b f83d 8ac5 67be c93f 483e
00000060: 2903 56bf 9773 b93e 797d c8be 1aa3 893e
00000070: c2b7 b23d f8e2 8a3f 5eb5 233e 6372 493e
00000080: 3dcc df3d 4b16 e6bd df64 96be d97a d5be
00000090: aa49 b83e a15b eb3b aced 11be 80c2 ca3e
000000a0: c0e4 b53e 25e3 9ebd 1f84 3fbd 57aa 0bbe
000000b0: 6a77 70bf 155a c8bd 1440 7e3e 6216 563e
000000c0: efbd 7b3d d846 683d 3998 453e 41da 8fbe
000000d0: 32cf 07bd 5594 0dbe 31ba 1f3d 384f 20be
000000e0: 07df 893d ae03 ed3e b708 9e3e 29d5 ce3e
000000f0: 46ff 863d c7ac 91be 6190 83be 31f0 323e
00000100: 3f45 8f3d e27d 9e3e ca65 a93d 9e60 5cbe
00000110: b996 8a3d 6adc 833f cb5d b3bd 87b6 64be
00000120: 90e1 efbd b2f6 21be 1491 8d3e 1b2f 14be
00000130: 43ce 293e bbad 45be 06e2 8d3e 5eba 853f
00000140: 3349 20be f0e5 943e 7d07 713d 6765 3dbd
00000150: b405 16bf abab 36be 04fe d0bd 3c39 6a3d
00000160: 8424 083f 9b9c 3a3f 82d4 23bd 445b e53e
00000170: 5ff7 873e 6c08 95be 4411 3fbf 0087 e83c
00000180: 4c15 b1be 70e5 d73e 6fae a4bb c522 00bf
00000190: 8859 013e 0967 8a3d 512e 00bd 3f04 a33e
000001a0: 2e63 773f cddc 003e 2554 7ebd 44eb 5abd
000001b0: 19ee b13d 22a9 643f f7dc 003e 8c6b a43e
000001c0: 357a 4cbe 28fe b33d 1f41 b0be 84bc b5be
000001d0: 7f4c af3c 8137 ccbc 1d55 c13e 73e3 88bf
000001e0: a614 df3d 3d79 9f3d b7ec 49be c037 efbd
000001f0: 3827 4c3f f338 a03d 70f2 df3e a9c5 d6bd
00000200: 2fa0 ab3a 8a24 88bf b275 95bd 5ba9 80be
00000210: 2db6 2fbe aadb 753e 4026 c43e f604 efbc
00000220: 9843 b0be 3c24 4d3e d359 923e 1ae9 11bd
00000230: 2e93 82be 6078 24bc 61a5 85bd 0fd2 8b3e
00000240: 3de0 80be 5653 0c3e 5ebf 5c3e dbdc 1bbe
00000250: 8295 713e c965 943f e564 d93e c767 863e
00000260: 6cf8 b83e 923b c63e b005 8cbf 4cf1 663e
00000270: f3c8 483d 2530 403d ecaf d2bd a185 7c3f
0.19290611 0.06759786 -0.29020748 -0.16182841 0.2982805 0.30792612 -0.12091873 0.12238288
0.12250291 -0.1619005 -0.21292277 0.10861702 -0.032733902 -0.014511475 0.6705126 -0.014287865
-0.01435834 0.27725786 0.06422616 -0.19260435 -0.13966936 0.121176064 -0.22633949 0.19555582
-0.8359857 0.36221 -0.39158228 0.2688225 0.08726455 1.0850515 0.15987155 0.19672541
0.10927627 -0.11234721 -0.29373834 -0.41695288 0.359937 0.007182554 -0.14250821 0.39601517
0.35526085 -0.07758168 -0.04675686 -0.13639198 -0.9393221 -0.09782807 0.24829131 0.20906976
0.06146043 0.056708187 0.1929635 -0.28096202 -0.03315658 -0.13826115 0.038995925 -0.1565522
0.06731992 0.4629187 0.30866024 0.40397003 0.06591658 -0.2845213 -0.2569609 0.17474438
0.069956295 0.30955416 0.08271368 -0.21521232 0.06767029 1.030164 -0.08758124 -0.22335254
-0.117129445 -0.15816763 0.27649748 -0.14471094 0.16582589 -0.19304554 0.27711505 1.04475
-0.15652923 0.29081678 0.058845032 -0.046239283 -0.5860245 -0.17838924 -0.102047 0.05718349
0.5318072 0.7289521 -0.039997585 0.44796193 0.26555917 -0.29107988 -0.7463572 0.028384686
-0.3458656 0.42167234 -0.005025677 -0.50053054 0.1263181 0.06757934 -0.03129417 0.31839177
0.9663571 0.12584229 -0.062091965 -0.053447023 0.08687992 0.89320576 0.12584291 0.32113302
-0.19968493 0.08788711 -0.34424683 -0.35495389 0.02139878 -0.02492881 0.3776025 -1.0694412
0.1089261 0.07786796 -0.19719206 -0.11680555 0.79747343 0.07823362 0.43739653 -0.104869194
0.0013094003 -1.0636151 -0.07297839 -0.25129208 -0.17159338 0.24009576 0.38310432 -0.02917717
-0.3442657 0.20033354 0.28584155 -0.035622694 -0.25502914 -0.010038465 -0.06525684 0.273087
-0.2517108 0.13703665 0.21557376 -0.15220968 0.23592189 1.1593562 0.4245979 0.2625105
0.3612703 0.38717324 -1.0939236 0.22552985 0.049019765 0.046920914 -0.10287461 0.986414

conv1.comb_lin.bias f4 [32]
00000000: 64e4 d9bd b67d febd a034 713e c64d 013f
00000010: 1051 ac3e 405b e9be f806 0a3e e0c5 03bf
00000020: 18ae 5ebe 0652 ff3e 5b7f 94be 06ae 08bf
00000030: 2d13 b4be 951d 27bf a822 f73b b7c2 dfbe
00000040: a0ab d53e 63a3 013e d849 70be f5c3 b83e
00000050: b1ee cebe 1be8 88be fb36 e7be 023f 7bbe
00000060: c4b6 86be a6d7 8a3d 5e18 36be 5ede fa3e
00000070: 0315 f7be b322 dabe cb27 8abe 6ed8 0cbf
-0.10639265 -0.12426321 0.23555231 0.505093 0.33655596 -0.4557743 0.13479221 -0.5147381
-0.21746099 0.49867266 -0.29003415 -0.5339054 -0.3517088 -0.65279514 0.007541973 -0.43703243
0.41732502 0.12659983 -0.23465669 0.36087003 -0.40416482 -0.26739582 -0.45159134 -0.24535754
-0.26311314 0.06779413 -0.17782733 0.48997778 -0.48258218 -0.42604598 -0.26983485 -0.55017745

linear.weight f4 [1, 64]
00000000: 2a7b 403a 8363 8f3d 5900 c53c c744 2cbc
00000010: c6a7 ed3d 6e15 053e 35d7 083d ffa1 cc3a
00000020: 1009 82bc 1d80 f8bc 1dfa 95bd 1da7 b43d
00000030: 2c7c 13bd 6ac2 a9bd 72b7 ecbd de83 fe3c
00000040: 4ecf bcbc 5863 e43d 7b7e 46bd e75e 853d
00000050: f658 17bd 527e dfbc d05b 403d 5396 3ebc
00000060: 6850 69bd 81ca e3bd 8bcd cbbc 5f00 473d
00000070: 11fa 3d3d d38d 2fbe aa57 edbd 2c47 bd3d
00000080: 8f02 0c3e fda1 443d 2553 3cbc 0096 853d
00000090: c343 203d ffbd b4bd b08b 52bd 7487 b8bd
000000a0: 174d 213d 4fca 3d3d 101e 0b3e b9f3 0f3e
000000b0: 319f 42bd c602 5cbc 7596 e13d f6b6 2f3d
000000c0: 0d1c b7ba 87ad 78bd e96b ce3a 17ea f9bd
000000d0: c20e 193e 3cf8 663d 2738 733d 23f1 9e3c
000000e0: 40f2 9ebd 6751 b5bd 97af 89bb 8c35 763e
000000f0: 2238 98bd 914a 03bd 5836 093c 36c3 bbbd
0.00073425716 0.07001402 0.024048017 -0.010514445 0.11604266 0.12996456 0.033408362 0.0015612243
-0.015873462 -0.030334527 -0.07323096 0.08820937 -0.03600709 -0.08289035 -0.11558427 0.031068739
-0.02304807 0.11151761 -0.048460465 0.06512242 -0.036950074 -0.027281914 0.04696256 -0.01163252
-0.056961447 -0.11122609 -0.024878284 0.04858434 0.04638106 -0.17143945 -0.11588986 0.092420906
0.13672851 0.048006047 -0.011494433 0.06522751 0.039127123 -0.088253014 -0.051402748 -0.09010211
0.03938016 0.046335515 0.13585687 0.14057817 -0.047515098 -0.013428396 0.110150255 0.042899095
-0.0013970152 -0.060712364 0.0015748712 -0.12202852 0.14947036 0.05638908 0.059379723 0.019402092
-0.07761049 -0.08853417 -0.00420184 0.24043864 -0.074325815 -0.032053534 0.008374773 -0.09168093
