outputs/classification/node/rebuttal/weights/EGConvGNN_8.pth (torch, 4279 bytes, 5 tensors)

conv1.bias f4 [64]
00000000: 8ac3 df3d 4941 6d3e b52b 3bbe 96a1 1abe
00000010: 9beb 3cbe 60a2 873e 5cca 683e 4bb8 e9be
00000020: e0e2 c6bd 5722 9f3d b9a6 ffbd b210 1cbf
00000030: c4f6 d9be 64c6 dbbd 97f8 5abe a31e 1ebe
00000040: a552 bbbd 079b 523e c56b c53d 28e1 33be
00000050: 969f 01be 1d3e 703c 8d26 47bd a352 0f3e
00000060: 7f2e 1fbe b67c 123e 4362 92bc 3950 073f
00000070: c08a d13e 8f3a 34be 221a 7dbe 5515 d83e
00000080: 6dc8 52be 52b5 513e dcd8 3c3e f7a8 8dbe
00000090: ddcf b8bc 4f09 61be 2e54 5fbe 50f0 4bbe
000000a0: 6de5 23be 5b63 90be 7eb8 c4be edac 16be
000000b0: 8b81 52be 39ee 59be 2c23 58be b3ff 443d
000000c0: 13ab 8cbd 502f 16be d682 253e 95ad 2cbf
000000d0: 41af 83bc 65ac 6b3e fdbb d63d 42b4 673e
000000e0: 650a 7a3d 0654 683e c321 603e 6cea 8e3d
000000f0: a89c 083f 7aad 163f 0f69 22be 90dc b33e
0.10925968 0.23169436 -0.18278392 -0.15100703 -0.18449251 0.2649107 0.22733444 -0.45648417
-0.09711242 0.07770222 -0.12482972 -0.60962975 -0.4257108 -0.107311994 -0.21383892 -0.15441374
-0.091466226 0.2056695 0.09639696 -0.17566359 -0.12658533 0.014663246 -0.04862075 0.13996367
-0.1554508 0.14305386 -0.01786912 0.52856785 0.4092617 -0.17600463 -0.24717 0.42203775
-0.20584269 0.20479324 0.184421 -0.27667972 -0.022560054 -0.21976207 -0.21809456 -0.1991589
-0.16005488 -0.28200802 -0.38422006 -0.14714403 -0.20557229 -0.21282281 -0.21107167 0.048095416
-0.06868567 -0.14666486 0.16163191 -0.67452365 -0.016074779 0.23014982 0.10485075 0.22627357
0.06104507 0.22688302 0.21887879 0.06978306 0.5336404 0.58858454 -0.15860389 0.35129213

conv1.bases_lin.weight f4 [32, 5]
00000000: 6a92 debd 574f e43d 9bad b6be 0130 ce3e
00000010: e236 1a3f e6fd 95bd 9749 943e aef3 3f3d
00000020: a560 8f3e f0a9 0dbf 78d3 2abc 7f0d afbe
00000030: 8960 94bd 7fe7 1a3e b758 cc3e 4360 abbd
00000040: 094c afbe 1e30 e7bd 8cbf f9bd d8c1 d13d
00000050: bcdb 853e 2435 853e 01c9 3dbe f21b 7abc
00000060: 9285 723e ff46 7f3e 3fdc b7be ff0d 8b3e
00000070: d470 643e d745 0cbf f6f4 663e 622b 053e
00000080: 50db 903e 8132 6b3e 71c7 2a3f 9830 f93d
00000090: 92c7 7a3e ccad 05be c8c4 d3be 861d 213d
000000a0: acd0 c93c 779c b0bd ac1b 8b3e caad 84be
000000b0: fb9e c6be 1abe 963e 604a 92be aabf c03e
000000c0: e70e 9a3e a31d e0be 07c2 03bd 5913 02be
000000d0: 36dd 403e 6df0 bc3d 8ee9 22bf a9f8 5cbe
000000e0: d86f 343e 908a cf3e 954d f4bd 3e30 27bf
000000f0: 2f8c 303d 9191 a2be 737e dd3c 2db3 99be
00000100: dd52 1dbf 3868 1ebd f430 d8bd 2cbd 99bd
00000110: bca9 c3bd 5692 3bbe 6a0f babd 96e6 14be
00000120: 75dc 0a3c 3e01 02be 2a35 60bf 152c 8f3e
00000130: 819a fdbd c242 1cbd e078 7ebe f79a 33bf
00000140: f2e4 52bd a70e d1be 097a e7be 04a2 963e
00000150: 5c1f 6cbe 2204 053e 0519 1d3e 9774 8a3e
00000160: f437 a8bd b1bb 36bf 9096 afbb bd7b 163e
00000170: 7cf9 b8be b3c6 123e 5a63 f23e 4221 2ebe
00000180: ab71 aebe f991 05bc ba92 8a3e 8fce b1be
00000190: 815f 993d 6a3b 8abd 6b49 883e 32c3 94be
000001a0: c806 1abf 6674 013e 3a79 a1bd e3ca 37be
000001b0: ee6c b3be f87e 57bd 0380 983e aa82 52be
000001c0: 657e b13e 5e1b 42be 77e1 953e 08d5 9a3d
000001d0: dcaf c4be 7aee 95be 79a1 0cbe f1c4 f43d
000001e0: 8e32 703e 6eeb aa3e af08 a6be 4ec4 36be
000001f0: e613 fa3e c0c1 c93e e05c b73c de61 17be
00000200: a32a 70bd a013 5dbd 586b b73e 2044 de3d
00000210: 1da6 b73c 7cf1 a9bd 91fc d5bd dfa7 d7be
00000220: 0028 2a3d ca7b 9a3e 8f6a debe 3c5b bbbe
00000230: 1163 b83d ba2f b8be 88af 56be f579 61bc
00000240: e1f4 2bbe 8035 433e 78b2 b2be f59c 93bc
00000250: 071f 89bd 01fb e03d d521 04be 9389 b3be
00000260: f03b 8c3b 6b7e 683e 2e01 e2be 6a8c 93bd
00000270: 12cc 33be 3ec2 8c3e 8e78 313e 958a b4be
-0.1086777 0.111479454 -0.35679325 0.40271 0.60239995 -0.07323818 0.28962395 0.04686325
0.2800342 -0.5533743 -0.010426395 -0.34189984 -0.07244975 0.15127371 0.39911434 -0.0836797
-0.34237698 -0.112884745 -0.12194738 0.10242051 0.26144207 0.26017106 -0.18533708 -0.015265452
0.23683766 0.24929427 -0.35910222 0.27159116 0.22308666 -0.5479407 0.22554383 0.1300483
0.28292322 0.22968484 0.66710573 0.12167472 0.24490193 -0.1305458 -0.4136107 0.039334796
0.024635635 -0.08623593 0.2716955 -0.2591384 -0.38793167 0.2944191 -0.2857237 0.37646228
0.30089495 -0.4377261 -0.03216746 -0.12702693 0.18834385 0.09225545 -0.63637626 -0.21579231
0.1762079 0.40535402 -0.1192886 -0.65307987 0.04310244 -0.31751683 0.027037835 -0.30019513
-0.61454564 -0.03867361 -0.10556212 -0.07506785 -0.09553859 -0.18317541 -0.09084971 -0.14541087
0.008475413 -0.12695786 -0.8758112 0.2796332 -0.12382985 -0.038149603 -0.24850798 -0.7015833
-0.05148787 -0.4083149 -0.45210293 0.29420483 -0.23058838 0.12989858 0.15341575 0.27042076
-0.08213797 -0.71380144 -0.0053585246 0.1469564 -0.3612784 0.1433361 0.47341424 -0.17004874
-0.34071097 -0.008152478 0.27065068 -0.34727904 0.07488919 -0.067496136 0.26618513 -0.29055172
-0.601666 0.12642059 -0.0788445 -0.17948489 -0.35044044 -0.05261132 0.29785165 -0.20557657
0.34666744 -0.18955752 0.2927358 0.07560164 -0.3841542 -0.29283506 -0.13733472 0.11951626
0.23456785 0.33382744 -0.324285 -0.17848322 0.48843306 0.39405632 0.022383153 -0.14783427
-0.05863441 -0.053973794 0.35824084 0.108528376 0.022418076 -0.082980126 -0.10448564 -0.42120263
0.041542053 0.3017257 -0.43440673 -0.36593044 0.090032704 -0.35973912 -0.20965397 -0.013761987
-0.16792633 0.19063377 -0.34901786 -0.018019179 -0.06695371 0.10985375 -0.12903531 -0.35065898
0.004279606 0.22704475 -0.44141525 -0.07204516 -0.17558315 0.27491945 0.17331144 -0.3526198

conv1.comb_lin.weight f4 [32, 5]
00000000: e97e a63e 3766 4ebe 2998 883e 2576 213e
00000010: 08d3 74bf 08b9 53be f0b0 fc3b 66c9 36bd
00000020: 7e86 d33d 3016 acbe 7a0e 56bd 3fc2 b3be
00000030: 2f48 753e bf33 ad3e ec5e e83e 89fa dabd
00000040: db3e 56be 2163 c6be 3779 9abe ca59 5dbf
00000050: d2fd 713e 65ea 66be 33bd 3e3e 5f87 a7be
00000060: 5c1a 833f 96dc 93be 440a fbbd 0339 bfbe
00000070: 5216 a43c 5ae7 54bf d131 363e 4a26 053f
00000080: 431e 5bbe c39b 4d3e 6cce f03d a597 c83d
00000090: a329 b2be 9636 ce3e 6b94 8fbc cc98 81be
000000a0: 9c20 d7be 3e20 d3be b562 d5be d63a b73e
000000b0: ee5e 253f 0160 a0be c03b cd3d 9c22 8dbe
000000c0: d685 3fbe 8f23 6dbf 06c5 873e 7ac8 24be
000000d0: e36e 0cbe fbb9 b13e 7e8b 5e3e 3efc fd3d
000000e0: 7199 ee3d 886a f7bd f00f 743e 171d 26bf
000000f0: 6419 96be 8696 46be b8a7 a23e b952 0dbb
00000100: 058a 7f3f a757 d9be 05d8 c8be bf57 ae3e
00000110: e341 b63d c7db 64bd ae5a 8c3d 522b d53e
00000120: b57b a13e 1dc6 21bd 8187 153f 0947 b5be
00000130: 2d68 e0be 984e 183d c0c2 60bd f4d6 853f
00000140: fca3 903e e13c 2cbe c8d6 973d 45ef 9b3e
00000150: c5f2 4a3f 2a62 c63e 663d 9ebe aa2f 463e
00000160: ad19 58be 5f75 1cbf b84c 563e 46ef 4bbe
00000170: 9dbc 30be 1914 7fbe e5d6 37bf 88bd d2bd
00000180: 287b 133e 595a b23d d8c0 b03e 6163 91bf
00000190: 9cfb 9d3e 6c2f 89be d2be 49bd c4c2 c23e
000001a0: 9ec4 523f b6a7 9dbe 1221 f1bd 03a3 d0be
000001b0: 32e7 193e 4d10 4ebf 1a4d 143e 85ab b1be
000001c0: 9526 e53d 05db 05be a6c3 e33e 77cb d9bd
000001d0: 63bd d93e f780 3bbe 8a25 b7be 62a7 1dbf
000001e0: fcbe 9d3d 3d6d 633e e2f1 aabd ea01 3f3e
000001f0: debb 73bc da09 883e 4127 85be 2fc6 c73d
00000200: fa87 ba3d 3c71 a23e 7081 803d b88f 40be
00000210: 341e 99bd eec0 96be b0e0 693f c385 92be
00000220: 857f 923e d007 d23e c1e0 b63e 4c9f dcbe
00000230: 626e a9be 0e4e c9bd a54b df3e 4bb6 d3be
00000240: 597d 963e 963d d73e 322e 7c3e 72bf a23e
00000250: 7993 1fbe b4a4 5cbf 698b e53d 5f90 853e
00000260: a78b d93e 35c3 a3be a98d 933d bdd8 cebd
00000270: d0fe 823e f07f b73e bc70 023e 647c 83bf
0.325187 -0.2015618 0.2667859 0.15767725 -0.9563451 -0.20676053 0.0077115223 -0.044625662
0.10328387 -0.33610678 -0.0522599 -0.35109136 0.23953317 0.33828542 0.4538492 -0.10692317
-0.20922415 -0.38747504 -0.30170605 -0.8646513 0.23631981 -0.22550352 0.18626861 -0.32720467
1.0242419 -0.2887923 -0.122578174 -0.37348184 0.020030174 -0.83165514 0.17792441 0.5201155
-0.21398263 0.2007895 0.11758122 0.09794549 -0.3479739 0.4027602 -0.017526826 -0.25311887
-0.42017066 -0.41235536 -0.4167687 0.35787076 0.64597976 -0.31323245 0.10021162 -0.27565467
-0.18703398 -0.92632383 0.26517504 -0.160921 -0.13714175 0.34712204 0.217329 0.12401627
0.116503604 -0.12080866 0.23834205 -0.6488814 -0.29316247 -0.19393358 0.31768584 -0.00215642
0.99819976 -0.42449686 -0.3922731 0.3405132 0.08899286 -0.05587366 0.06853233 0.41634613
0.31539693 -0.039495576 0.5840989 -0.35405758 -0.4382948 0.037184328 -0.054873228 1.0456223
0.2825011 -0.16820098 0.07414013 0.30455986 0.79276687 0.38746768 -0.30906218 0.1935412
-0.21103545 -0.61116594 0.20927703 -0.19915494 -0.1725945 -0.2491001 -0.7181228 -0.102900565
0.14402449 0.08708639 0.34522128 -1.1358453 0.30856025 -0.26793993 -0.049254246 0.3803922
0.82331264 -0.30792016 -0.11773886 -0.40749368 0.150296 -0.80493623 0.14482537 -0.34701172
0.111889996 -0.1307183 0.44485205 -0.10634511 0.42527303 -0.18310915 -0.35770828 -0.6158353
0.07702443 0.2220964 -0.08346917 0.18653074 -0.014876334 0.26570016 -0.2600651 0.097545974
0.09107967 0.31727016 0.06274688 -0.18804824 -0.07476464 -0.2944407 0.9135847 -0.28617677
0.28612915 0.41021585 0.3571835 -0.43090284 -0.33092028 -0.09829341 0.436124 -0.41350016
0.29392508 0.42039174 0.24626997 0.31786686 -0.155836 -0.8618882 0.11208231 0.2608671
0.4248936 -0.3198487 0.07204754 -0.10099933 0.25585032 0.35839796 0.12738317 -1.0272336

conv1.comb_lin.bias f4 [32]
00000000: 2070 5dbe c6e9 b6ba 9525 6ebe ed8f 733e
00000010: 3a26 a23e 5172 3f3e 2502 313d cc16 573e
00000020: 10f0 a93e c0f1 a7bc 5e7a 7cbe 5200 b7bd
00000030: aef8 15be 8ecf bc3e 68a8 5b3e e5d6 7abc
00000040: 5480 65be 27b9 873d 9db8 0c3f bf85 0dbe
00000050: 963f 8dbe 3ae4 f93e 7bf8 65bc 3f58 c83e
00000060: 3059 75bc 100d 4d3e 4a8d 15bf c3c3 fc3e
00000070: 8304 4f3c 01e1 e8bc 5aae 783e f86a 6f3d
-0.21624804 -0.0013955168 -0.23256524 0.23785372 0.3166979 0.18695952 0.043214936 0.2100479
0.33190966 -0.020501018 -0.24656054 -0.08935608 -0.14645645 0.36877102 0.2145096 -0.015310024
-0.22412235 0.06627112 0.549692 -0.13820551 -0.27587575 0.48806936 -0.014036293 0.39129826
-0.014974877 0.20024514 -0.58418715 0.49368104 0.012635353 -0.028427603 0.2428526 0.058451623

linear.weight f4 [1, 64]
00000000: 177d b8bc a506 3bbd dbc9 a73e 2cca b23d
00000010: 07f0 8c3b b67f c8bd 137f 73bc 6646 bcbd
00000020: 9870 86bc c5bd e23d 67ab 5e3b faf5 bd3d
00000030: 11fc b93c c25c 593d eb0f 9b3d ae1e db3c
00000040: 1ec6 5dbd ab7d 773e e307 dcbc ae86 783c
00000050: 5907 153c f63c 4e3e 6748 733e 0e41 83bc
00000060: 3c13 553e a93f 06bd 6527 823e d1c7 d9bd
00000070: 6b89 08bd ecd7 cb3c bbb6 ad3d bba9 a9bd
00000080: 1504 1e3e 41c9 f6bd caa9 52bd bc6e 8d3e
00000090: 7f4c 65bb b56d fb3c 052b bd3d d0c9 fb3c
000000a0: 446d 873b bcac 143e a3dd 463e d3ce 7bba
000000b0: 37bc d03d 9e70 7f3d 6454 d93d e2b9 f4bc
000000c0: 58cc afbb f953 a23d c256 96bc ade5 e03d
000000d0: 5810 a7bd 8a09 bcbd 7c90 81bd a5af e1bd
000000e0: 7a1d b8bd fbcb c4bd 0e20 acbd dab4 4ebd
000000f0: c071 8fbc ce92 593d a3fd b83d c54b 8cbd
-0.022520585 -0.045660634 0.3277119 0.087299675 0.0043010744 -0.09789984 -0.01486184 -0.09193115
-0.01641111 0.11071352 0.0033976675 0.09275432 0.022703202 0.053066976 0.075713955 0.026748028
-0.054144017 0.24169032 -0.02685923 0.015168829 0.00909599 0.20140442 0.23758088 -0.016022231
0.20808119 -0.032775555 0.2542068 -0.10633815 -0.033334177 0.024883233 0.08482119 -0.08284327
0.15431245 -0.12050105 -0.051431455 0.27623546 -0.0034988222 0.03069196 0.09236721 0.03073588
0.0041328985 0.14519018 0.19420485 -0.00096057093 0.10192149 0.06236326 0.10611799 -0.029873792
-0.005364936 0.07926173 -0.018351916 0.10981307 -0.08157414 -0.09181507 -0.06326386 -0.1101983
-0.08989997 -0.09609219 -0.084045514 -0.050465442 -0.017510295 0.05311852 0.09032752 -0.068503894
