outputs/classification/node/rebuttal/weights/gnn_AntiSymmetricConv_5.pth (torch, 2711 bytes, 5 tensors)

conv1.W f4 [5, 5]
000000 f6 0f 6d 3e 6c 49 94 bd 1b 06 63 3e 66 23 3a be
       0.2315062 -0.072405666 0.22170298 -0.18177566
000010 2d 3f e5 be 4d 80 27 bd 67 42 d0 bd f8 da 3c 3d
       -0.44774762 -0.04089384 -0.10168915 0.046107262
000020 25 28 af 3d c5 f1 94 3f 64 f0 67 3e 1f 18 87 bd
       0.08552579 1.1636282 0.22650295 -0.065963976
000030 c2 1a db bc 86 ab 50 bd 0b 3d 59 3f b0 d0 35 be
       -0.026746158 -0.050944827 0.8485877 -0.17755389
000040 b8 c7 55 3e af 63 27 be b2 12 97 bc 2e 5b 9e bf
       0.20876968 -0.1634662 -0.018441532 -1.2371576
000050 ec 8f f4 3e 6d 09 98 bf 9b 19 8b bf ec 7a 00 3f
       0.47766054 -1.1877877 -1.0867189 0.50187564
000060 30 9d a4 3d
       0.08037794

conv1.bias f4 [5]
000000 e8 f4 b3 3d 61 95 50 bf 9e 7f 35 bf 91 2a 45 3f
       0.087869465 -0.81477934 -0.70897853 0.77018076
000010 4e e2 9f 3d
       0.07806836

conv1.eye f4 [5, 5]
000000 00 00 80 3f 00 00 00 00 00 00 00 00 00 00 00 00
       1.0 0.0 0.0 0.0
000010 00 00 00 00 00 00 00 00 00 00 80 3f 00 00 00 00
       0.0 0.0 1.0 0.0
000020 00 00 00 00 00 00 00 00 00 00 00 00 00 00 00 00
       0.0 0.0 0.0 0.0
000030 00 00 80 3f 00 00 00 00 00 00 00 00 00 00 00 00
       1.0 0.0 0.0 0.0
000040 00 00 00 00 00 00 00 00 00 00 80 3f 00 00 00 00
       0.0 0.0 1.0 0.0
000050 00 00 00 00 00 00 00 00 00 00 00 00 00 00 00 00
       0.0 0.0 0.0 0.0
000060 00 00 80 3f
       1.0

conv1.phi.lin.weight f4 [5, 5]
000000 75 7b 9b be 74 05 ff be 36 51 bc bd 02 30 df 3e
       -0.30367628 -0.49808848 -0.09195177 0.43591315
000010 20 e2 1c bc 2b e2 92 bd dc a1 a3 bd 6b c7 a5 be
       -0.009575397 -0.07172044 -0.079898566 -0.32378706
000020 a3 ff ce 3e 0b f4 a0 3f d5 56 ba bb f7 0b 63 3e
       0.4042941 1.2574476 -0.0056866207 0.22172533
000030 02 63 ba 3d 54 94 34 be 48 cb 9e 3f f8 53 c0 bb
       0.091009155 -0.17634708 1.2405787 -0.005869385
000040 b0 5f a2 3e 8b 12 8b 3e 08 21 44 be b3 66 b5 bf
       0.3171363 0.27162585 -0.19153225 -1.4171966
000050 6b c2 9f bf 29 f2 df 3d 09 cb 51 bc bc f4 fe be
       -1.2481207 0.1093486 -0.012804755 -0.49796093
000060 b3 a4 d1 bc
       -0.02559123

linear.weight f4 [1, 5]
000000 f7 95 06 bc 9c dd f1 3d 07 5e 19 3e 67 24 46 be
       -0.008214465 0.11809847 0.14977275 -0.19349824
000010 a3 e2 28 3f
       0.6597082
