outputs/classification/node/rebuttal/weights/gnn_AntiSymmetricConv_9.pth (torch, 2711 bytes, 5 tensors)

conv1.W f4 [5, 5]
0	0x3eb4cab7	0.3531091
1	0x39b30045	0.0003414174
2	0x3e68b3aa	0.22724786
3	0x3da6bf77	0.08141988
4	0xbdf89159	-0.12137098
5	0xbc42155e	-0.011845915
6	0xbe85f16d	-0.26160756
7	0xbed2ed1f	-0.41196534
8	0x3d44ae9f	0.048018094
9	0xbf278cd6	-0.65449274
10	0xbee0f222	-0.43934733
11	0xbe97bf4e	-0.2963814
12	0xbea8c6d9	-0.3296421
13	0xbdc7586f	-0.09733664
14	0x3f34ab36	0.7057375
15	0xbee7f409	-0.45303372
16	0xbda47b29	-0.080313034
17	0x3e767e74	0.24071676
18	0x3e3c1a53	0.18369417
19	0x3eba3550	0.363688
20	0xbe7e5219	-0.24836005
21	0x3f9ad15c	1.2095141
22	0xbdaf6412	-0.08564009
23	0xbee393d2	-0.44448715
24	0x3e4a43c6	0.19752416

conv1.bias f4 [5]
0	0xbd827ef8	-0.063718736
1	0x3f03c98a	0.514794
2	0xbe2f6181	-0.17127039
3	0xbdd7daee	-0.105398044
4	0xbefa0d76	-0.48838395

conv1.eye f4 [5, 5]
0	0x3f800000	1.0
1	0x00000000	0.0
2	0x00000000	0.0
3	0x00000000	0.0
4	0x00000000	0.0
5	0x00000000	0.0
6	0x3f800000	1.0
7	0x00000000	0.0
8	0x00000000	0.0
9	0x00000000	0.0
10	0x00000000	0.0
11	0x00000000	0.0
12	0x3f800000	1.0
13	0x00000000	0.0
14	0x00000000	0.0
15	0x00000000	0.0
16	0x00000000	0.0
17	0x00000000	0.0
18	0x3f800000	1.0
19	0x00000000	0.0
20	0x00000000	0.0
21	0x00000000	0.0
22	0x00000000	0.0
23	0x00000000	0.0
24	0x3f800000	1.0

conv1.phi.lin.weight f4 [5, 5]
0	0x3f02e1e4	0.5112593
1	0xbf05fef4	-0.5234215
2	0xbf220aa9	-0.63297516
3	0x3f3822a9	0.7192789
4	0x3e705da4	0.23473221
5	0x3c6a8d48	0.014315911
6	0xbe8ed1a0	-0.27894306
7	0x3e385a44	0.18003184
8	0xbc48d56b	-0.012257914
9	0xbf865947	-1.0495995
10	0xbeaffaa0	-0.343709
11	0xbc10bf77	-0.008834711
12	0x3e5eba34	0.21750718
13	0xbdf7abb6	-0.12093298
14	0x3eb5dbba	0.355192
15	0xbf451662	-0.7698728
16	0x3dcdbdd8	0.100459754
17	0xbe574a91	-0.21024539
18	0xbd9349e1	-0.07191826
19	0x3fd9c913	1.7014488
20	0xbe056d62	-0.13030007
21	0x3e18eb1f	0.14933442
22	0xbd9aaa3e	-0.07552002
23	0xbd4159ec	-0.047204897
24	0x3f66ade5	0.9010909

linear.weight f4 [1, 5]
0	0xbbf99896	-0.0076170666
1	0xbed4ac4a	-0.41537696
2	0xbcaaa964	-0.020832725
3	0x3e2383b4	0.1596821
4	0x3f97dd57	1.1864423
