outputs/classification/node/rebuttal/weights/LEConvGNN_3.pth (torch, 7287 bytes, 6 tensors)

conv1.lin1.weight f4 [64, 5]
-0.5208798 -0.27409914 0.03247409 -0.53971815 -0.114118434 -0.4845506 -0.36924836 0.23003948
-0.09774557 0.29908225 -0.46535102 0.21049303 -0.18698101 0.047185253 -0.2930485 0.14774364
0.2434372 0.27284786 -0.39378 0.63463074 -0.27329686 0.21986121 -0.4371592 0.38724574
0.384865 0.19147146 0.29646102 -0.21128036 -0.048859276 -0.011003004 0.31891662 0.084239595
-0.30581447 -0.2008601 0.6718763 -0.21729888 0.3012758 -0.37520942 0.37799743 -0.13949607
-0.2182266 -0.08672113 -0.24164131 -0.21365419 -0.5508826 -0.19256005 0.21593934 0.24117558
-0.21649937 0.08668677 0.35861546 0.0151129365 -0.078826144 0.27619192 0.72213084 -0.42581555
0.23211363 -0.10614092 0.20156254 0.36538428 -0.064461045 -0.36008164 0.13889381 0.42356035
-0.1450322 0.11782239 0.3491821 -0.43289295 -0.44452077 -0.0651014 -0.17411691 -0.40155002
-0.47282907 0.3947881 -0.6646799 -0.11944023 0.3605817 -0.24028447 -0.16609778 -0.74896777
-0.38998672 0.32772055 -0.42616972 -0.42445368 0.21771483 -0.2437573 0.073236145 -0.04660935
-0.3744373 -0.5543819 -0.0076173446 -0.3832406 -0.47960335 -0.17418915 0.054733828 -0.32332754
-0.082024954 -0.44367597 0.37048325 0.3182736 -0.22970104 0.3524999 -0.34825048 -0.35719353
-0.5593251 -0.22624838 0.089464225 0.33949208 -0.103560545 0.17990606 0.2627736 -0.15620378
-0.43965515 0.36867955 -0.0652032 -0.44672003 0.06695228 0.00364715 -0.37753737 -0.22173293
0.07378442 -0.018801857 -0.30701572 -0.378214 -0.69294465 0.24928054 -0.2413576 0.07523131
-0.25568223 -0.02393304 0.023099361 0.5334046 -0.31965372 -0.04040856 -0.49360576 0.1517619
-0.18797176 -0.55068564 -0.5425693 -0.31938428 0.05555031 0.3744208 0.08016774 0.34932894
0.5811221 -0.21731457 -0.32148612 0.18382275 0.029533165 0.90250707 0.09488447 -0.5255965
-0.28047186 -0.32928756 0.3230497 0.17374349 -0.27925688 -0.0089177005 0.21647146 -0.47483245
0.3894911 0.1901839 0.4103147 -0.052418303 -0.45620894 0.34708807 -0.29529038 0.13701563
0.0004535173 0.24126768 0.041078597 -0.23268457 0.15414448 -0.18888173 -0.37067693 0.00023119975
-0.5026146 -0.18620418 0.1583858 0.74670434 0.18294518 0.12367158 0.30072087 0.14607647
0.8066335 -0.4364053 0.09461136 -0.08486245 0.27654603 -0.3410396 0.017454922 0.10094235
-0.2568456 -0.32304525 1.1867205 -0.15254214 -0.3184591 -0.0685303 -0.08868379 -0.3104621
0.0943075 -0.29434845 -0.13073115 -0.027139235 -0.18167473 0.11303911 -0.4276405 0.0140775675
0.248711 -0.29652774 -0.4360464 -0.05153179 0.11825382 -0.28136677 -0.57152313 0.01797068
-0.062849335 0.25921798 -0.020403339 0.23251492 0.00041953966 -0.12814356 -0.23057765 0.17522539
1.286974 0.36939925 0.1293654 -0.3480763 -0.31242755 -0.5940492 -0.33410743 0.09584723
0.110850185 0.15227942 -0.05922509 -0.27852657 -0.0017026395 0.33231232 0.14128351 -0.19380625
-0.24411483 -0.41766474 0.11508615 -0.004825808 -0.30379313 0.07376203 -0.013414567 -0.2914925
-0.25067812 -0.18681382 -0.07452929 -0.051197037 0.17711133 -0.29428464 -0.16314094 0.0011898046
00000000: 6158 05bf b956 8cbe 8d03 053d f82a 0abf
00000010: edb6 e9bd 0417 f8be 1f0e bdbe 788f 6b3e
00000020: d42e c8bd 4f21 993e 7d42 eebe 7c8b 573e
00000030: f377 3fbe 5345 413d 740a 96be 1c4a 173e
00000040: 9a47 793e b7b2 8b3e 889d c9be 2977 223f
00000050: 91ed 8bbe 4c23 613e 55d3 dfbe 1345 c63e
00000060: 060d c53e 1811 443e bdc9 973e e159 58be
00000070: aa20 48bd f245 34bc 0a49 a33e cf85 ac3d
00000080: b793 9cbe 45ae 4dbe 1600 2c3f 9983 5ebe
00000090: d240 9a3e 731b c0be e188 c13e 0fd8 0ebe
000000a0: cb76 5fbe d99a b1bd d270 77be 2ac8 5abe
000000b0: a406 0dbf 762e 45be 341f 5d3e bbf6 763e
000000c0: 03b2 5dbe d588 b13d 729c b73e 409c 773c
000000d0: 9a6f a1bd 0769 8d3e 91dd 383f 7f04 dabe
000000e0: 32af 6d3e 6960 d9bd 6966 4e3e a613 bb3e
000000f0: 2704 84bd 9f5c b8be 2e3a 0e3e e7dc d83e
00000100: 5283 14be dd4c f13d ffc7 b23e 25a4 ddbe
00000110: 3a98 e3be e253 85bd b44b 32be f797 cdbe
00000120: a716 f2be aa21 ca3e 7628 2abf 149d f4bd
00000130: 2a9e b83e 220d 76be 8915 2abe 5abc 3fbf
00000140: 57ac c7be fdca a73e eb32 dabe fe51 d9be
00000150: a3f0 5e3e 839b 79be d5fc 953d 72e9 3ebd
00000160: 3fb6 bfbe f9eb 0dbf eb9a f9bb 1d38 c4be
00000170: 928e f5be a45e 32be 9430 603d 308b a5be
00000180: b3fc a7bd 7f29 e3be fbaf bd3e c2f4 a23e
00000190: c036 6bbe de7a b43e e34d b2be 12e2 b6be
000001a0: ee2f 0fbf a8ad 67be 0539 b73d e8d1 ad3e
000001b0: 8d17 d4bd 4b39 383e 438a 863e e2f3 1fbe
000001c0: 7b1a e1be 91c3 bc3e 4189 85bd 7db8 e4be
000001d0: 471e 893d 0605 6f3b 944c c1be f50d 63be
000001e0: 491c 973d 5a06 9abc 2a31 9dbe 44a5 c1be
000001f0: d264 31bf 6643 7f3e 7226 77be e012 9a3d
00000200: c8e8 82be 390f c4bc df3a bd3c 348d 083f
00000210: a7a9 a3be 7283 25bd e5b9 fcbe 7967 1b3e
00000220: ab7b 40be bcf9 0cbf d2e5 0abf 5686 a3be
00000230: b988 633d 15b4 bf3e fc2e a43d 3edb b23e
00000240: 6bc4 143f b687 5ebe d499 a4be 083c 3c3e
00000250: 89ef f13c b40a 673f ca52 c23d 7e8d 06bf
00000260: 029a 8fbe 6198 a8be c566 a53e d0e9 313e
00000270: c2fa 8ebe 8c1b 12bc b2aa 5d3e 3d1d f3be
00000280: 616b c73e 91bf 423e c514 d23e 93b4 56bd
00000290: 3894 e9be 87b5 b13e 4d30 97be d34d 0c3e
000002a0: 10c6 ed39 e00e 773e 0842 283d dd44 6ebe
000002b0: 0dd8 1d3e 366a 41be 5ec9 bdbe 366e 7239
000002c0: 5aab 00bf 4fac 3ebe e32f 223e 0428 3f3f
000002d0: fb55 3b3e 8647 fd3d 16f8 993e 1295 153e
000002e0: 887f 4e3f 8470 dfbe 9ac3 c13d 5dcc adbd
000002f0: 7197 8d3e be9c aebe a0fd 8e3c ddba ce3d
00000300: 4481 83be 3066 a5be 75e6 973f 0234 1cbe
00000310: 120d a3be 9d59 8cbd d99f b5bd e3f4 9ebe
00000320: 4a24 c13d d7b4 96be 63de 05be 1a53 debc
00000330: f108 3abe 0d81 e73d b2f3 dabe 99a5 663c
00000340: 19ae 7e3e 7cd2 97be 7941 dfbe 0013 53bd
00000350: 0f2f f23d 4e0f 90be 574f 12bf 3f37 933c
00000360: 27b7 80bd 38b8 843e e724 a7bc 6418 6e3e
00000370: a9f5 db39 1138 03be 8c1c 6cbe 496e 333e
00000380: 90bb a43f e621 bd3e 5d78 043e 0f37 b2be
00000390: 81f6 9fbe 9c13 18bf 2110 abbe 8d4b c43d
000003a0: 6c05 e33d 23ef 1b3e 0296 72bd 099b 8ebe
000003b0: 1a2b dfba d724 aa3e a0ac 103e 2575 46be
000003c0: 3df9 79be 27d8 d5be 4ab2 eb3d d021 9ebb
000003d0: c68a 9bbe 8c10 973d c6c8 5bbc 813e 95be
000003e0: e258 80be 1f4c 3fbe d0a2 98bd fcb3 51bd
000003f0: ac5c 353e 7aac 96be 6b0e 27be 38f3 9b3a

conv1.lin1.bias f4 [64]
-0.45848575 -0.40360534 -0.11355853 0.061883274 -0.56719524 -0.28782594 0.11502761 -0.2718294
0.693049 0.39449283 -0.50138503 0.0050430433 -0.12703809 0.15433905 0.539664 1.1709105
0.19281961 -0.26134542 0.03475841 0.3482125 0.13763559 0.06284022 -0.2557107 -0.11354383
0.97630167 -0.11622954 1.182659 -0.4361662 -0.36391145 -0.10261568 0.028677104 0.07975387
0.6237795 0.20647275 -0.4183174 0.17844592 0.26800543 -0.2885912 -0.39658844 0.2584609
0.043199025 -0.07641454 -0.0934413 -0.0065753898 -0.36028674 0.3325333 0.63820064 0.7668902
0.37005416 -0.19964187 -0.057740297 0.31631145 -0.55643773 -0.35453445 0.09204226 -0.10339652
0.23897007 0.35881835 -0.18250194 0.26694477 0.13742737 0.07934777 0.44071206 -0.10039359
00000000: a5be eabe 5ca5 cebe 6091 e8bd 5179 7d3d
00000010: b533 11bf ec5d 93be 9893 eb3d 392d 8bbe
00000020: a96b 313f f7fa c93e c55a 00bf 1d40 a53b
00000030: 4616 02be 0e0b 1e3e 6b27 0a3f 65e0 953f
00000040: 8172 453e 11cf 85be d65e 0e3d e948 b23e
00000050: 58f0 0c3e 60b2 803d 83ec 82be ab89 e8bd
00000060: e8ee 793f c109 eebd 5f61 973f 2d51 dfbe
00000070: 9a52 babe 2b28 d2bd 3fec ea3c ff55 a33d
00000080: 03b0 1f3f 986d 533e b32d d6be 87ba 363e
00000090: 0238 893e 3ac2 93be a40d cbbe fd54 843e
000000a0: 76f1 303d 3a7f 9cbd 275e bfbd 5e76 d7bb
000000b0: 8177 b8be ce41 aa3e 1e61 233f eb52 443f
000000c0: bd77 bd3e eb6e 4cbe 1781 6cbd 93f3 a13e
000000d0: b472 0ebf 8a85 b5be a780 bc3d 8ec1 d3bd
000000e0: 92b4 743e 0ab7 b73e cae1 3abe fcac 883e
000000f0: c3b9 0c3e 1581 a23d 03a5 e13e 289b cdbd

conv1.lin2.weight f4 [64, 5]
-0.1638403 0.4941339 0.23099293 0.51643515 -0.24301568 0.15442216 -0.24268822 0.061251856
0.32200933 -0.08617667 0.47055373 -0.0025496543 -0.06627658 0.13163762 0.2977768 0.2907001
-0.34329948 -0.1569753 0.12343831 -0.85186595 0.47537422 -0.41445214 -0.24800597 -0.04879119
-0.93606216 -0.17315224 0.13993624 0.27759922 -0.2691004 0.9146344 -0.30672726 0.2356405
0.33080432 -0.3431416 -0.5899284 -0.13339546 0.15228331 -0.40153575 -0.070679255 -0.7348336
-0.016286245 0.1828735 -0.026499271 0.23049265 0.6252324 -0.15872905 -0.015241255 -0.06972309
-0.23163104 0.8291149 0.09268335 -0.1004038 0.011995264 -0.074547924 -1.3240507 0.042709153
-0.13294727 -0.0640377 -0.09362779 -0.866305 0.12554027 0.3055381 0.05582963 0.2862916
-0.40668637 0.115003325 -0.17405586 -0.10974439 0.20011005 0.5038169 -0.2313799 -0.06875234
-0.3709829 0.07801973 0.99325323 0.3214511 -0.21922761 -0.3992913 0.12818328 1.2236528
-0.16446283 -0.29131165 0.44853863 -0.26378983 -0.15709907 -0.118381515 -0.22746563 0.3106827
-0.23146771 -0.0560976 0.100932956 -0.12206584 -0.36840937 0.31624904 -0.32166994 -0.15631416
0.24414173 0.29042616 0.47410926 -0.12853444 -0.31517 0.23506247 0.26722494 -0.108706236
0.7594709 0.31827074 0.30929336 -0.03103582 -0.18244727 -0.94625425 -0.23339665 0.28825536
0.10185972 -0.100884564 0.32413498 -0.29141286 0.040440366 0.47633997 0.07890618 0.5027241
0.48748094 0.2637895 0.41536963 -0.34317753 1.0532929 -0.20387769 -0.1021402 0.421036
-0.22450781 0.7407181 0.1714267 0.0036505093 -0.33490524 0.24586487 1.2026199 -0.2503874
-0.2698222 0.51431316 0.4595596 0.1839765 -0.30575246 0.34964412 -0.17612466 0.13949935
-0.51595294 0.24182706 0.36247486 0.02002905 -0.1779059 -0.58155155 0.013156642 -0.29263946
0.19182369 0.3469499 0.07796162 -0.34613803 0.19376111 -0.25585657 0.1309704 0.6201629
0.12171364 0.28890762 0.21035865 -0.34086052 0.5057284 0.29702562 -0.064905 -0.3178211
-0.19977547 -0.5312363 -0.2181225 -0.12547597 0.07210852 0.028226798 -0.047146495 0.116614886
0.0761076 0.45846447 -0.04718715 -0.48958975 -0.25619623 0.2636478 0.31021962 0.32823858
-1.1960651 0.14245903 0.25917375 0.043353677 0.26653743 -0.1448499 -0.23025553 0.21882688
0.4433353 -0.18354529 -1.3128473 0.089831434 0.074057266 0.25780058 -0.076061316 -0.06831263
0.23549947 -0.2714041 -0.08480128 -0.13622943 0.3274841 -0.20486721 0.43590268 -0.08516452
0.10432436 0.44318172 0.24677321 -0.32300544 0.4610444 0.36495718 -0.037376244 -0.2059675
-0.11453172 -0.07161124 -0.3614209 -0.93057436 0.0794196 -0.18708874 -0.04235749 0.07834407
-0.922494 0.0079643885 0.3801404 0.42759186 0.4035215 1.0418135 -0.24026254 -0.07425544
-0.13228223 -0.05415572 0.39171025 0.22000794 -0.28790447 -0.36670452 0.40519527 0.92747533
0.2096659 -0.09052278 0.122964226 0.003561241 -0.18212216 0.43775877 -0.06761845 -0.2962358
-0.03587127 -0.1559119 -0.10825919 0.027093457 0.3509894 -0.38204053 -0.015133883 0.15742837
00000000: c0c5 27be 1eff fc3e 6989 6c3e 1835 043f
00000010: 1ad9 78be d820 1e3e 4383 78be 3ae3 7a3d
00000020: 68de a43e 657d b0bd 6bec f03e 1a18 27bb
00000030: 04bc 87bd 03cc 063e 3376 983e a5d6 943e
00000040: f3c4 afbe 22be 20be 3acd fc3d e313 5abf
00000050: 4064 f33e 1233 d4be 47f5 7dbe 45d9 47bd
00000060: c5a1 6fbf d24e 31be 724b 0f3e 7c21 8e3e
00000070: 87c7 89be 7b25 6a3f 5b0b 9dbe be4b 713e
00000080: 2f5f a93e 41b0 afbe 8c05 17bf d298 08be
00000090: 28f0 1b3e 1896 cdbe 49c0 90bd 0e1e 3cbf
000000a0: bb6a 85bc 3143 3b3e 0015 d9bc 4406 6c3e
000000b0: 3b0f 203f de89 22be 75b6 79bc fbca 8ebd
000000c0: b030 6dbe e040 543f c5d0 bd3d 82a0 cdbd
000000d0: c987 443c 95ac 98bd 7e7a a9bf cbef 2e3d
000000e0: 5423 08be 3326 83bd edbf bfbd 2ac6 5dbf
000000f0: a18d 003e 7d6f 9c3e 9cad 643d d094 923e
00000100: 3239 d0be dd86 eb3d b33b 32be abc1 e0bd
00000110: a6e9 4c3e 25fa 003f daee 6cbe 07ce 8cbd
00000120: 78f1 bdbe cfc8 9f3d d845 7e3f 3d95 a43e
00000130: 347d 60be e96f ccbe 7a42 033e a8a0 9c3f
00000140: f268 28be cd26 95be dba6 e53e 760f 87be
00000150: 94de 20be 0272 f2bd c0ec 68be ce11 9f3e
00000160: df05 6dbe 99c6 65bd f0b5 ce3d a8fd f9bd
00000170: 27a0 bcbe 65eb a13e ecb1 a4be d210 20be
00000180: 4a00 7a3e bdb2 943e 73be f23e 889e 03be
00000190: f65d a1be 37b4 703e b5d1 883e 60a1 debd
000001a0: af6c 423f 62f4 a23e b35b 9e3e d53e febc
000001b0: 75d3 3abe b83d 72bf 88ff 6ebe 3596 933e
000001c0: d49b d03d 919c cebd 05f5 a53e 1134 95be
000001d0: cca4 253d d5e2 f33e 9099 a13d 87b2 003f
000001e0: 1a97 f93e 6b0f 873e 54ab d43e f7b4 afbe
000001f0: 4dd2 863f 50c5 50be e22e d1bd 0892 d73e
00000200: 60e5 65be b49f 3d3f 7b8a 2f3e 623d 6f3b
00000210: b378 abbe 00c4 7b3e 73ef 993f c732 80be
00000220: 2326 8abe 07aa 033f 654b eb3e 5664 3c3e
00000230: 968b 9cbe 8e04 b33e 065a 34be ebd8 0e3e
00000240: 7e15 04bf 83a1 773e 4e96 b93e f613 a43c
00000250: f72c 36be 90e0 14bf f58e 573c d7d4 95be
00000260: 6e6d 443e 6ba3 b13e 58aa 9f3d 0139 b1be
00000270: 5069 463e a2ff 82be 1b1d 063e ffc2 1e3f
00000280: 0045 f93d b3eb 933e 4268 573e 4585 aebe
00000290: 6b77 013f be13 983e eaec 84bd 72b9 a2be
000002a0: f191 4cbe 1aff 07bf 815b 5fbe c67c 00be
000002b0: a2ad 933d e33b e73c af1c 41bd c9d3 ee3d
000002c0: 4dde 9b3d dbbb ea3e 5047 41bd 82ab fabe
000002d0: 272c 83be d8fc 863e 1bd5 9e3e e30e a83e
000002e0: a918 99bf c8e0 113e 6cb2 843e a093 313d
000002f0: 9877 883e 8853 14be 1bc8 6bbe 2714 603e
00000300: d8fc e23e 4cf3 3bbe 610b a8bf 8bf9 b73d
00000310: 56ab 973d 70fe 833e 09c6 9bbd 7ee7 8bbd
00000320: c626 713e 7af5 8abe 4bac adbd ba7f 0bbe
00000330: ffab a73e b6c8 51be a32e df3e bc6a aebd
00000340: 03a8 d53d b7e8 e23e 1eb2 7c3e f860 a5be
00000350: 030e ec3e abdb ba3e d517 19bd 25e9 52be
00000360: 9b8f eabd eaa8 92bd 290c b9be 1f3a 6ebf
00000370: bea6 a23d 3194 3fbe 0c7f 2dbd db72 a03d
00000380: 9128 6cbf 117d 023c c3a1 c23e 52ed da3e
00000390: 5f9a ce3e 255a 853f 6207 76be 3c13 98bd
000003a0: fe74 07be 63d2 5dbd 3f8e c83e c349 613e
000003b0: 3768 93be b2c0 bbbe c175 cf3e 066f 6d3f
000003c0: a8b2 563e 0264 b9bd abd4 fb3d b663 693b
000003d0: 3b7e 3abe eb21 e03e 8b7b 8abd 38ac 97be
000003e0: c1ed 12bd 5ea7 1fbe ffb6 ddbd 19f3 dd3c
000003f0: e2b4 b33e d19a c3be 1bf4 77bc e734 213e

conv1.lin3.weight f4 [64, 5]
-0.16100161 -0.5200732 -0.09055653 0.1686408 0.15622814 -0.4130014 0.3113607 -0.185748
-0.34594604 -0.45579588 -0.16203472 -0.23168588 -0.1944653 0.078233406 -0.2512618 0.14111416
0.18795133 0.26802355 -0.17755732 1.1376977 0.38850093 -0.40788227 0.005224879 0.15258926
1.0784544 -0.38801622 -0.33395362 -0.40422124 -0.27511433 -0.28531832 0.33990106 0.32469672
0.2869502 0.42493555 1.1323355 0.094055265 0.06947965 -0.40802684 0.40298074 0.4124208
0.09457293 0.37125733 0.2848076 -0.37121144 -0.68295574 0.1761071 0.2797188 -0.3556223
-0.37437734 -0.8886749 -0.055192847 -0.29539385 -0.0042667347 0.4324764 1.2529323 0.17629646
-0.2261675 0.10072749 0.34139717 0.4694963 -0.1896301 -0.3073382 -0.26090202 -0.02036348
0.061014235 0.31089538 0.38502905 -0.3357355 0.2929668 -0.047022805 -0.054357156 -0.43219543
0.29281706 0.11513462 -0.7686637 0.20529741 0.70965445 0.16774641 -0.18307199 -1.3446577
-0.11715506 -0.4810748 0.09077988 -0.23886739 -0.2603724 0.30854997 0.022280876 -0.42114973
0.040064245 0.15355682 -0.48127607 0.3197346 -0.29434374 -0.35822576 0.057941366 -0.2042893
0.003049798 0.1059846 0.2599849 -0.06590446 -0.07796632 0.06389559 -0.264577 -0.50276023
-0.6799215 0.37007952 -0.2637275 0.41907975 0.36610648 0.2553615 -0.079780586 -0.4125333
-0.3197265 -0.48159817 -0.3466011 -0.5074226 -0.121036075 0.44505024 -0.1569507 -0.6074035
-0.24929753 0.3055397 0.3735246 0.4135397 -1.2356638 -0.2020585 0.07792935 0.17925735
0.39427057 -0.85680604 0.07683015 0.17936723 0.16380632 0.27169713 -1.2829832 -0.018775418
0.09359511 0.26047647 0.05721038 -0.44643083 -0.24996786 0.3261686 -0.097564556 0.062048513
0.8827087 0.4119558 0.4718379 -0.1399891 -0.38874936 0.8783118 -0.45036423 -0.44381782
0.2970942 0.22535233 0.29477215 0.28746033 0.4239476 -0.23038511 0.20880818 -1.0445688
0.19759236 -0.124569446 0.37509328 0.1064772 -0.98227787 -0.19514331 0.08814141 0.012561533
-0.15675767 0.5818042 -0.5592242 -0.38159624 0.05728402 0.007375623 0.1324373 -0.12670584
0.09416766 0.044733446 0.35525844 0.48863527 0.22677965 -0.30862918 -0.17154302 -0.46565652
0.84670043 -0.27392372 0.05535762 -0.4626809 0.33373836 0.26109046 0.23476803 0.38563633
-0.034265045 0.27070493 1.3083624 -0.3176675 -0.12805305 -0.32727927 0.07951988 -0.2859335
0.10615863 -0.34238198 0.26198718 0.21787587 -0.5460867 -0.05280494 -0.25585496 -0.3474427
-0.034852706 -0.8004363 0.054030895 -0.38244528 -0.2580384 0.27432367 -0.20971958 -0.1507359
0.35538703 0.2257673 0.18628316 0.8260352 0.0067531248 0.12770529 0.25731057 -0.0042684097
1.1989131 0.11979778 -0.05399825 -0.17304125 0.04466567 -0.5823591 0.37265134 -0.41031358
0.042979628 0.18296443 -0.83449376 -0.011616476 -0.136117 -0.27675122 0.48380825 -1.4070693
-0.27900815 -0.42641202 0.19940041 -0.2640716 0.17244472 -0.10556891 0.25050783 0.011395769
0.15119857 0.1289932 -0.34111702 -0.32584578 -0.45360225 0.2714758 -0.51588833 -0.29281566
00000000: 9bdd 24be 8423 05bf b475 b9bd 2db0 2c3e
00000010: 45fa 1f3e eb74 d3be ab6a 9f3e b934 3ebe
00000020: d71f b1be 145e e9be 6eec 25be 103f 6dbe
00000030: e921 47be d638 a03d 63a5 80be 3b80 103e
00000040: 5076 403e 623a 893e 96d1 35be 14a0 913f
00000050: 98e9 c63e f2d5 d0be 7635 ab3b 5c40 1c3e
00000060: cb0a 8a3f 10aa c6be f8fb aabe 16f6 cebe
00000070: c9db 8cbe 3e15 92be 8307 ae3e a63e a63e
00000080: 23eb 923e 2791 d93e 5ff0 903f 0ca0 c03d
00000090: 594b 8e3d e5e8 d0be 7e53 ce3e d228 d33e
000000a0: 74af c13d 7115 be3e 4dd2 913e 6d0f bebe
000000b0: 30d6 2ebf 6b55 343e 4d37 8f3e 2014 b6be
000000c0: 63ae bfbe 3380 63bf e511 62bd dd3d 97be
000000d0: f7cf 8bbb 8c6d dd3e 1660 a03f 0f87 343e
000000e0: 7498 67be 374a ce3d 9ccb ae3e d261 f03e
000000f0: 652e 42be 6f5b 9dbe f394 85be 50d1 a6bc
00000100: 10ea 793d ae2d 9f3e 8722 c53e 86e5 abbe
00000110: bfff 953e fc9a 40bd 9ca5 5ebd b848 ddbe
00000120: 1eec 953e b3cb eb3d 25c7 44bf 7c39 523e
00000130: eaab 353f b7c5 2b3e 3977 3bbe be1d acbf
00000140: feee efbd 704f f6be cdea b93d a799 74be
00000150: 884f 85be 43fa 9d3e 6286 b63c f0a0 d7be
00000160: 681a 243d 003e 1d3e d169 f6be 41b4 a33e
00000170: 39b4 96be 5e69 b7be ed53 6d3d 3731 51be
00000180: 1fdf 473b 740e d93d be1c 853e ebf8 86bd
00000190: ceac 9fbd b1db 823d a376 87be e5b4 00bf
000001a0: 560f 2ebf 107b bd3e 4a07 87be 9f91 d63e
000001b0: 4f72 bb3e bebe 823e 0164 a3bd 9137 d3be
000001c0: 31b3 a3be 0994 f6be b375 b1be 73e6 01bf
000001d0: c3e1 f7bd a0dd e33e afb7 20be cc7e 1bbf
000001e0: da47 7fbe b36f 9c3e 9e3e bf3e 7abb d33e
000001f0: 3b2a 9ebf 6ce8 4ebe 6c99 9f3d 3d8f 373e
00000200: d5dd c93e a457 5bbf 2059 9d3d 0bac 373e
00000210: d8bc 273e e31b 8b3e cb38 a4bf e8ce 99bc
00000220: cbae bf3d 2c5d 853e 6e55 6a3d 9592 e4be
00000230: 93f7 7fbe 92ff a63e edcf c7bd 9526 7e3d
00000240: 33f9 613f dfeb d23e bd94 f13e 4d59 0fbe
00000250: 280a c7be 0bd9 603f 2496 e6be 173c e3be
00000260: bb1c 983e c3c2 663e 60ec 963e 002e 933e
00000270: a90f d93e 13ea 6bbe d0d1 553e 6eb4 85bf
00000280: a755 4a3e 441e ffbd 3a0c c03e b810 da3d
00000290: 9076 7bbf a6d3 47be 7c83 b43d e3ce 4d3c
000002a0: 1585 20be 1ff1 143f 5129 0fbf 9560 c3be
000002b0: a6a2 6a3d 36af f13b a59d 073e 2dbf 01be
000002c0: f9da c03d 6b3a 373d 6fe4 b53e 672e fa3e
000002d0: ed38 683e a504 9ebe f9a8 2fbe 886a eebe
000002e0: 5cc1 583f bb3f 8cbe acbe 623d 83e4 ecbe
000002f0: c1df aa3e a6ad 853e 0867 703e 2072 c53e
00000300: 8159 0cbd d699 8a3e 6b78 a73f 51a5 a2be
00000310: 5720 03be 2691 a7be 52db a23d e065 92be
00000320: b269 d93d b14c afbe 2f23 863e da1a 5f3e
00000330: 57cc 0bbf fe49 58bd 6cff 82be 02e4 b1be
00000340: b6c1 0ebd 65e9 4cbf 804f 5d3d decf c3be
00000350: 9c1d 84be 2774 8c3e bbc0 56be 835a 1abe
00000360: 4af5 b53e 8b2f 673e 03c1 3e3e 0b77 533f
00000370: 5149 dd3b 2dc5 023e 36be 833e 04de 8bbb
00000380: fc75 993f 8a58 f53d 452d 5dbd ba31 31be
00000390: 59f3 363d 7c15 15bf 28cc be3e 9f14 d2be
000003a0: 680b 303d 075b 3b3e 62a1 55bf 0853 3ebc
000003b0: 4162 0bbe 56b2 8dbe b7b5 f73e d91a b4bf
000003c0: 28da 8ebe ad52 dabe 9f2f 4c3e 6534 87be
000003d0: 5995 303e 8334 d8bd 9042 803e 52b5 3a3c
000003e0: ccd3 1a3e cb16 043e e4a6 aebe 42d5 a6be
000003f0: 8e3e e8be e0fe 8a3e 4211 04bf efeb 95be

conv1.lin3.bias f4 [64]
0.11234242 -0.48218983 -0.28486082 -0.6564203 0.16969308 0.29125464 -0.23332596 -0.19144078
0.8130107 0.35727775 -0.20479012 -0.5868936 -0.07058097 -0.3323815 0.3973348 1.4070216
-0.4466189 -0.31848624 -0.25744298 -0.05866081 -0.009275581 0.10150057 0.1992615 0.25285745
0.8012691 0.22357422 1.2967662 0.53666484 -0.2603706 -0.09613282 -0.17698659 0.62147814
0.59526587 0.028123852 -0.29960772 -0.077346675 -0.25905186 -0.34804413 -0.14848395 -0.43296367
0.37265345 0.098436885 -0.5163794 -0.3868228 -0.12099931 0.07386938 -0.014269986 1.1833543
-0.18601866 -0.13659628 0.19181281 -0.07405177 -0.6742112 -0.34085456 -0.32884118 0.17426944
0.15865013 0.63458586 -0.01790793 -0.05120504 0.29085103 -0.008237602 0.28819528 0.19852136
00000000: c813 e63d 96e1 f6be 47d9 91be 290b 28bf
00000010: 06c4 2d3e 541f 953e 00ed 6ebe 0d09 44be
00000020: 7821 503f 1ced b63e 80b4 51be a93e 16bf
00000030: c18c 90bd e82d aabe 786f cb3e 4919 b43f
00000040: 3cab e4be a110 a3be 91cf 83be 5146 70bd
00000050: 9bf8 17bc 88df cf3d 350b 4c3e 8876 813e
00000060: f91f 4d3f a4f0 643e 6ffc a53f de62 093f
00000070: 4c4f 85be 49e1 c4bd f93b 35be 3119 1f3f
00000080: 5863 183f fe63 e63c 2f66 99be ef67 9ebd
00000090: 72a2 84be d732 b2be 2d0c 18be 6aad ddbe
000000a0: 6fcc be3e 4799 c93d 7131 04bf a30d c6be
000000b0: 7cce f7bd d448 973d a9cc 69bc 2778 973f
000000c0: ad7b 3ebe e5df 0bbe 946a 443e 74a8 97bd
000000d0: 1b99 2cbf 7d84 aebe df5d a8be b073 323e
000000e0: 2e75 223e 3874 223f a7b3 92bc 60bc 51bd
000000f0: 6dea 943e 02f7 06bc 558e 933e 2f49 4b3e

linear.weight f4 [1, 64]
-0.022400856 0.06958846 -0.015269639 0.20488821 0.14398882 -0.07572362 0.120537944 0.02457279
-0.09148203 -0.11925277 0.09810718 0.040406384 0.056514215 -0.06414412 -0.0912101 -0.34492534
-0.016591772 0.020051144 -0.007647569 0.011926839 -0.08846044 0.09776721 -0.009939762 -0.14181678
-0.09635324 -0.040978886 -0.2639706 -0.013047919 0.12590525 0.15111619 0.020408966 -0.10673789
-0.10951213 0.04334684 -0.015716458 0.09555413 0.07349201 0.053582184 0.12651943 0.074611634
-0.09593893 -0.06073495 -0.01865495 0.116248064 0.8655124 -0.04581766 -0.06981642 -0.31652364
0.004945133 0.019055298 -0.120869994 -0.08759397 0.10959628 0.19390717 0.067642935 -0.12204757
-0.09804187 -0.07428691 -0.031756967 -0.08623988 -0.1216808 0.054909382 -0.10408904 -0.003446062
00000000: 0082 b7bc 6584 8e3d 822d 7abc 37ce 513e
00000010: ce71 133e fc14 9bbd 99dc f63d e04c c93c
00000020: ee5a bbbd cc3a f4bd 6bec c83d 2a81 253d
00000030: 737b 673d fe5d 83bd 5ccc babd 0e9a b0be
00000040: 78eb 87bc 4c42 a43c 7598 fabb ca68 433c
00000050: bf2a b5bd 2d3a c83d 62da 22bc 6b38 11be
00000060: d954 c5bd 7ad9 27bd 2827 87be f0c6 55bc
00000070: 4eed 003e 34be 1a3e b430 a73c 6599 dabd
00000080: e547 e0bd 758c 313d cdbf 80bc e2b1 c33d
00000090: fb82 963d fe78 5b3d 4f8e 013e fccd 983d
000000a0: a17b c4bd 36c5 78bd 44d2 98bc 7713 ee3d
000000b0: 3892 5d3f 4cab 3bbd e9fb 8ebd 630f a2be
000000c0: c80a a23b db19 9c3c b08a f7bd 7864 b3bd
000000d0: 0474 e03d 9a8f 463e 6188 8a3d 14f4 f9bd
000000e0: 2dca c8bd bc23 98bd 9813 02bd 899e b0bd
000000f0: c933 f9bd a9e8 603d a22c d5bd 54d7 61bb
