outputs/classification/node/rebuttal/weights/ssg_conv_8.pth (torch, 3569 bytes, 3 tensors)

conv1.lin.weight f4 [64, 5]
000000 13 16 7a bd cc ed 90 3e f6 f5 aa be 21 b7 5f be
       -0.061056208 0.28306425 -0.33390778 -0.21847202
000010 77 27 09 bf 7a ca af be 23 62 38 3e 6d 7a 47 bb
       -0.53575844 -0.34334165 0.18006186 -0.0030437962
000020 b7 61 56 be db 03 a7 3b 6d d6 b1 3e c8 09 d5 be
       -0.20935713 0.005096895 0.34733906 -0.41609025
000030 00 49 20 bd 6c 13 a7 bd a1 78 68 3f ee e5 45 3e
       -0.03913212 -0.08158001 0.90809065 0.19325992
000040 7d 8e 24 be 57 bc 20 3d fd 4c aa 3e 3f b9 45 3e
       -0.1606998 0.039242115 0.33261862 0.19308947
000050 cf 6a 41 bd a2 d7 03 be 1f 37 0d 3e 73 40 8f be
       -0.047221 -0.12875226 0.13790558 -0.27978858
000060 ce 01 bd be 0a 28 00 bf 91 aa 06 3e f6 8d 55 3e
       -0.3691544 -0.50061095 0.13151003 0.20854935
000070 c3 76 96 bd 05 38 ff be 97 c3 f4 bb dd aa 8b bd
       -0.07346871 -0.49847427 -0.007469605 -0.06819699
000080 f3 9b f4 bd b2 96 5f 3e d5 db a4 3f c0 bf 2d be
       -0.119438075 0.2183483 1.2879587 -0.16967678
000090 e6 3b 8a bc 23 81 d8 3d 14 87 d2 be 4d 90 fe bd
       -0.016874265 0.10571506 -0.4111868 -0.12429867
0000a0 4b 18 13 be 52 b5 ef be 19 fc 88 3e 18 f5 9b be
       -0.14364736 -0.46818024 0.26754835 -0.3046043
0000b0 7b 33 72 bf 2a c7 27 3e 53 6c a7 3e 2c 3d 18 3c
       -0.946098 0.16384569 0.32699832 0.009291928
0000c0 a6 16 bf 3e d9 a6 43 3f 2f 94 95 bc b5 1e c0 be
       0.37321967 0.76426464 -0.018259136 -0.37523428
0000d0 f9 a2 44 3e 65 08 8a be b2 00 9f 3e 7a 7a 04 3e
       0.19202794 -0.2695953 0.31055218 0.12937346
0000e0 0d 4d ce be d3 db ac be 06 80 3d 3e be e0 98 3e
       -0.4029316 -0.33761463 0.18505868 0.29858965
0000f0 af eb ad bd 6a b8 98 3e b9 a7 5f be 92 39 00 3f
       -0.08492219 0.29828197 -0.21841325 0.50087845
000100 d9 68 ab 3f 3a e2 c6 be ab cb b9 be d9 5f 2b be
       1.3391372 -0.38844472 -0.362882 -0.16735782
000110 44 9b 7b be e9 24 c7 3e 16 37 bd 3e ac f1 d6 3e
       -0.24570948 0.38895348 0.3695609 0.41981256
000120 0e c5 c4 3e f5 c6 87 be 48 8e 32 3f f8 c9 43 3c
       0.3843159 -0.2651898 0.69748354 0.011950009
000130 14 22 ca bd 0d 5e 8a be 32 83 f4 3e f3 a3 8d 3f
       -0.09869781 -0.2702488 0.47756344 1.1065658
000140 37 8e d5 3e 93 71 1d bd 76 26 3d be 26 c5 8e 3e
       0.41710064 -0.03843839 -0.18471703 0.27884787
000150 fb 3f 14 bf c6 14 49 be 0f 1a 92 3d 09 02 9d 3e
       -0.57910126 -0.1963683 0.071338765 0.30665615
000160 eb 0a 9b 3d 4f 7a 15 bf bc 65 11 be 98 0e 4a bd
       0.07570442 -0.58389753 -0.14198965 -0.049330324
000170 af b6 c1 3e 30 b6 bc 3e cf da 04 3f 43 19 f6 bd
       0.3783469 0.36857748 0.51896375 -0.12016537
000180 b5 61 ed be 1b 9b ad 3d 23 35 87 be cf ac 56 3e
       -0.46363607 0.0847685 -0.26407728 0.20964359
000190 d7 8a 59 3e fe cf c0 bd ed ab bc 3d ed 3e 8a bd
       0.2124437 -0.09414671 0.0921248 -0.067502834
0001a0 bd ff 58 3f 88 b0 a1 bc 7f 68 9c be b0 52 a9 bd
       0.84765226 -0.019737497 -0.30548474 -0.082677245
0001b0 61 0c 07 be e4 74 8f be 4b e2 76 be 0e 6d ba be
       -0.13188316 -0.28018868 -0.24109761 -0.36411327
0001c0 0c be ae be 60 70 1f 3e e5 e5 8d be 4e 18 5f bd
       -0.3412937 0.15570211 -0.27714458 -0.054466538
0001d0 f8 52 16 3e 75 e1 bb be 22 a7 ed bd 4d b8 c7 be
       0.14680088 -0.36695448 -0.11604144 -0.39007798
0001e0 c8 8e 9e 3e 11 34 8d bb 59 66 9c bd 19 c8 54 3e
       0.30968308 -0.0043091853 -0.07636709 0.20779456
0001f0 bb 5b 9b 3e c5 f5 84 3e f0 32 df be 00 50 dd 3e
       0.30343422 0.25968757 -0.4359355 0.43225098
000200 f7 b2 95 3c c1 6b 85 bf 6a 71 6f be d0 29 aa be
       0.018273814 -1.0423509 -0.23383108 -0.33235025
000210 28 44 61 3e b9 b5 03 3e 48 a9 06 bf 3f a1 15 bd
       0.21998656 0.1286229 -0.5260205 -0.03653073
000220 bd e6 ba 3d db a5 8a 3e 29 4c 14 be 3e ee 92 bf
       0.09126041 0.27079663 -0.14482178 -1.1478956
000230 4f da a4 3e af 61 89 be a3 f4 d6 3e 30 bc 46 be
       0.32197806 -0.2683234 0.41983518 -0.19407725
000240 55 28 b5 3f 13 c6 da be 88 e7 e6 3d b7 16 86 be
       1.4152933 -0.42729244 0.1127463 -0.26189205
000250 09 db 06 bd 0f c5 f6 be a5 ac 87 3e 0a bd a0 3e
       -0.032923732 -0.4819722 0.26498905 0.31394225
000260 46 af d2 bd 41 ba 22 3d 62 1b 9e bf f1 ef 42 3e
       -0.10287337 0.039728407 -1.2352107 0.19036843
000270 d4 e0 fc 3d c5 81 0a 3e 36 40 ea be a5 b2 c1 3e
       0.1234757 0.13526066 -0.45752114 0.37831607
000280 53 63 82 3e 3e cb f3 3c 44 1d aa bd ee b7 ef bd
       0.25466403 0.02976 -0.08306363 -0.11705004
000290 c2 e0 6e be 1f 91 00 3e b0 95 ef bd 8b 4c ae be
       -0.23327926 0.1255536 -0.116984725 -0.34042773
0002a0 8f f9 c2 be 74 82 5c 3d 52 87 57 3e 9f 8e bd 3e
       -0.38081023 0.053835347 0.21047714 0.37022874
0002b0 e9 5e 94 be 82 bd 50 be 43 6d 0d bf 7c bd 50 3e
       -0.2897866 -0.20384791 -0.55244845 0.20384783
0002c0 b2 2b 9c be b5 5a bc 3d 99 9d 99 3e f6 f4 8b 3f
       -0.30502087 0.091969885 0.3000305 1.0934131
0002d0 91 66 a6 be 18 55 a5 be f7 e0 09 3e 12 f9 da 3e
       -0.32500127 -0.32291484 0.13464724 0.4276815
0002e0 47 00 6b 3f f1 c3 ae 3d b5 b3 8f be 69 09 b8 3e
       0.917973 0.085334666 -0.28066793 0.3594468
0002f0 5d e3 a2 be 5c 04 53 be 61 9c 93 3e 49 7c aa be
       -0.3181409 -0.20607132 0.28830245 -0.33297947
000300 4c ad b0 be 3d c3 2c 3d a3 51 63 be f5 b1 c0 3e
       -0.34507215 0.04217838 -0.2219911 0.3763577
000310 ef 54 9a 3e 90 39 48 3e c6 3d 95 be d1 db a1 3f
       0.30142924 0.19553208 -0.29148692 1.2645208
000320 f3 15 5e be 34 82 22 3d 45 d0 81 3e 47 3d 01 3e
       -0.2168806 0.039674953 0.2535421 0.12621032
000330 65 f5 73 3f e5 05 5f be 2e 61 9e be 14 35 c7 be
       0.9529632 -0.21779592 -0.30933517 -0.38907683
000340 75 59 12 3c a0 74 06 3d 38 b3 43 be 29 cd b3 be
       0.008932461 0.032826066 -0.19111335 -0.35117462
000350 f0 fa 1c 3d 65 ab 6e be 7b d6 ba be ae 09 44 be
       0.03832525 -0.2330757 -0.3649176 -0.19144318
000360 09 d6 6e be 83 87 93 3e 31 46 f6 3d 9f f0 dc b8
       -0.23323835 0.28814325 0.12025107 -0.00010535237
000370 37 d5 02 3e 00 88 56 3d 34 d9 28 3e 61 60 4c be
       0.12776648 0.052375793 0.16489106 -0.1995864
000380 9e bc 9b 3f 1b 16 82 3e 2b 9f f1 3e b8 f9 92 3e
       1.2166936 0.2540749 0.47191748 0.28706145
000390 49 3f c8 be 07 f9 a2 3f 94 58 01 bf c1 60 2b 3e
       -0.39110783 1.2732247 -0.50525784 0.16736127
0003a0 67 8d 0b be 02 ef c9 bd 13 c6 2b 3d a8 f5 02 bc
       -0.1362816 -0.0986004 0.041936945 -0.007993139
0003b0 18 a5 98 be ca 8c b5 be bf 2c f4 be 0b a6 d5 bc
       -0.29813457 -0.35458976 -0.4769039 -0.026080152
0003c0 bf ae ea bc 86 00 4c 3e 7c 0b 8a be 99 e7 f7 be
       -0.028647779 0.19922075 -0.26961887 -0.48418882
0003d0 77 0e 88 be 1c 70 ef 3d 53 7e c5 3e cd 74 9a be
       -0.26573536 0.11691305 0.3857294 -0.30167237
0003e0 af b1 52 3e a8 91 3b bf 06 31 05 be a7 cf 11 3e
       0.20575593 -0.7326913 -0.13006982 0.1423937
0003f0 46 c0 22 3d b7 65 bb 3e 04 7a 63 bf ee 9f 48 bd
       0.039734147 0.3660104 -0.88858056 -0.048980646

conv1.lin.bias f4 [64]
000000 8c 69 a5 3e 4b cc 65 be b8 77 b0 be 5d 4f ae 3c
       0.32307088 -0.22441213 -0.34466338 0.021278078
000010 3f e4 12 3e 68 99 42 3f f2 65 c1 bc e5 12 21 3e
       0.14344881 0.7601533 -0.023608182 0.15729864
000020 44 75 85 be 7f 75 0a bf 9f 57 5f bd 43 de 03 bf
       -0.2606603 -0.54085535 -0.05452692 -0.5151102
000030 57 de f4 be 62 f1 7b be 87 ad 1a be f4 bd df be
       -0.47825882 -0.24603799 -0.15105258 -0.4369961
000040 71 7c 3d 3e f6 19 2f 3e a9 a7 5d be 3b 2f 08 be
       0.18504502 0.17099747 -0.21645989 -0.13299267
000050 79 19 47 3b 6b d2 d8 be 0e 27 2d be 67 46 62 3d
       0.0030380173 -0.42348036 -0.1690943 0.055242922
000060 29 0b 6c be 25 9b 9d 3d 83 6a 7d 3e 1a ee 5c 3f
       -0.23051132 0.07695607 0.24747662 0.86300814
000070 6a 7f 17 bf 81 62 66 bd a4 cb 64 3f 21 45 8a be
       -0.59178793 -0.056246284 0.8937323 -0.27005866
000080 4e 09 02 3f 47 85 d0 bd ef 5d 87 be 3c ee a0 be
       0.5079545 -0.10181671 -0.26438853 -0.31431758
000090 02 09 1c 3a 02 a0 c0 be d8 6c ce 3e c5 0a ed bd
       0.000595227 -0.37622076 0.40317416 -0.1157432
0000a0 54 d1 4a be ab bd c5 3e a1 06 91 3e f2 71 0e 3e
       -0.19806415 0.38621268 0.2832537 0.13910654
0000b0 88 86 ad 3e 84 95 9c be 1d c5 49 be 4a 5d a3 bd
       0.33891702 -0.3058282 -0.19704099 -0.07976778
0000c0 70 cc a1 bd b0 58 b6 3e fa ee 9c 3e 48 5f 29 3f
       -0.079003215 0.35614538 0.30651075 0.6616101
0000d0 2c 86 3c bc 4d 11 da 3e 21 98 c8 be c5 88 1a 3f
       -0.011506598 0.42591324 -0.39178565 0.60364944
0000e0 f9 4d 93 3f 15 bb b1 3d 94 7c 3f be 86 4d a6 be
       1.150817 0.08678261 -0.18699867 -0.3248102
0000f0 f4 44 ce 3e d2 31 d1 be bd 5b 30 3f 77 6b 36 be
       0.40286982 -0.40858322 0.6888998 -0.17814432

linear.weight f4 [1, 64]
000000 76 4e 33 bb f8 c8 33 bd 68 66 c9 3d 33 a1 b7 ba
       -0.0027359999 -0.04389283 0.098339856 -0.0014009833
000010 88 87 21 3c 7d 58 31 bd d1 d1 b2 3e 58 59 17 bd
       0.009858973 -0.04329728 0.34925702 -0.03695044
000020 f5 d3 83 bd 8b 57 07 3e ae a9 1c 3c 6b de a1 3d
       -0.06436912 0.13216989 0.009561939 0.07903751
000030 3b 65 28 3f da c6 f9 3d 4d 92 fb 3d 98 53 a5 3e
       0.65779465 0.12196131 0.12283764 0.3229034
000040 51 5f e7 bd 4e e7 b1 bd bd 21 ac 3d 6c 86 9b bd
       -0.11297477 -0.08686696 0.084048726 -0.07593998
000050 9d 9d 74 3d 6d e1 f9 3b 44 ae 72 3d 8c bd 51 3d
       0.059720624 0.00762575 0.059248224 0.051206157
000060 2a 89 6b 3b 25 70 f9 bd 54 45 7f bd 8b 0e 22 bf
       0.003593991 -0.12179593 -0.062321976 -0.6330344
000070 d4 26 54 3d cb a4 7b 3c 48 36 34 be f4 92 d8 3d
       0.051794842 0.015359114 -0.17598832 0.10574904
000080 bc eb 94 bd ea 23 30 3c ef 49 98 bd 0d e9 c9 3d
       -0.07271525 0.01075075 -0.07435977 0.09858904
000090 c7 74 03 3e dd 65 42 bd e8 2a 30 bd 71 c9 9d 3d
       0.12837516 -0.047460426 -0.04300967 0.077044375
0000a0 b1 41 0b 3e 69 44 31 3c b3 7d 5e bb c8 0b 2f b9
       0.13599278 0.010819533 -0.0033949434 -0.0001669369
0000b0 1a 37 7b 3e 24 63 73 3d 7e 9e 0f bd ec 17 f5 3c
       0.24532738 0.05942072 -0.03506326 0.029918633
0000c0 e1 d8 1c 3c 11 05 9e bd 7e 12 03 be 1b 1b b3 be
       0.009573192 -0.0771581 -0.12800023 -0.34981617
0000d0 4c 48 2a 3d 85 c1 2b be 45 7f d2 3c 08 c3 0f bd
       0.041572854 -0.1677304 0.025695452 -0.035098106
0000e0 00 aa 2f bf f6 30 46 3e 2c de 63 bd 20 e6 4b bd
       -0.68618774 0.19354615 -0.0556318 -0.04978001
0000f0 36 3f 8b bd 8a ff db 3d 4c d4 0c be 55 82 b6 3b
       -0.06799166 0.107420996 -0.1375286 0.005569736
