outputs/classification/node/rebuttal/weights/SuperGATConv_2.pth (torch, 4623 bytes, 5 tensors)

conv1.att_l f4 [1, 1, 64]
000000 d4 f0 a8 bd be 6c ec 3e 1f 2a 48 be aa d1 da 3d
       -0.08249059 0.46176714 -0.19547318 0.106845215
000010 65 72 b6 3d ed 82 7f bd a1 bc 5f 3e 27 59 96 3d
       0.08908538 -0.06238072 0.218493 0.07341223
000020 f4 d3 eb 3b d5 ad 51 3e c8 cf 81 be 54 96 26 bd
       0.0071968976 0.20476468 -0.25353837 -0.040670708
000030 fe 4d 27 3e 84 b9 47 be 74 3a 16 bc be 18 65 3c
       0.16338345 -0.19504362 -0.00916921 0.01398295
000040 cd e5 07 bd 3a 76 21 3e ce e5 24 be 91 86 4e bd
       -0.03317814 0.15767756 -0.16103289 -0.0504213
000050 ad be 72 be 9f 03 5c 3e d4 12 57 3e f1 7f 7b be
       -0.2370555 0.21485756 0.21003276 -0.24560525
000060 f4 e7 21 3e 8b 77 99 3e de 67 40 be 92 67 45 bd
       0.1581114 0.29974017 -0.18789622 -0.048194475
000070 fe a7 59 3d 5c cc e1 bd bb 06 af 3d ac 77 86 3c
       0.053138725 -0.110253066 0.085462056 0.016414486
000080 11 43 be bd 79 c9 91 3d e3 3d 96 bd a3 f5 b1 3b
       -0.09290136 0.07118506 -0.07336023 0.0054308935
000090 c3 1e bf 3d 93 fc 43 3e d8 1b d6 3b d2 52 7b 3d
       0.09332039 0.19139318 0.006534081 0.06135828
0000a0 09 09 37 be 0a f9 46 be e3 f5 b7 3d b9 20 5d 3e
       -0.1787454 -0.19430938 0.08982446 0.21594514
0000b0 b3 6f c9 bd a4 12 12 bd 95 5f 79 bd 6d f4 0b 3e
       -0.09835758 -0.03566231 -0.06088217 0.1366746
0000c0 77 ff 0c be 68 c3 31 3e 82 49 06 3e 81 95 38 3e
       -0.13769327 0.17359698 0.13113979 0.18025781
0000d0 e1 87 da bd 32 b1 1d 3e ef ad a6 bd 2f 9d 93 be
       -0.10670448 0.15399626 -0.08138644 -0.2883086
0000e0 12 b8 6b be cb b4 3d be 12 4e 7e bc b6 a9 45 be
       -0.23019436 -0.18525998 -0.015521543 -0.19303021
0000f0 ae b4 0f 3e 89 fc 87 bc f7 36 fc 3d bb 13 b6 bd
       0.14033768 -0.01659991 0.12315171 -0.08890482

conv1.att_r f4 [1, 1, 64]
000000 8c 3c c5 be dd d9 b5 3e ad b9 3c 3e ea 74 02 bf
       -0.38522756 0.3551778 0.18430205 -0.50959647
000010 38 a6 df bd b8 84 a8 be e6 ce f1 be f7 14 a3 3d
       -0.109203756 -0.32913756 -0.47228163 0.07962983
000020 f3 e3 c5 bd 65 e1 96 be 8d 64 0e be 47 b7 29 bd
       -0.096626185 -0.29468837 -0.13905545 -0.041434553
000030 b1 c6 15 be b6 6d 6c be 77 20 8a 3e 3b c0 ea 3e
       -0.14626576 -0.23088726 0.26977894 0.45849785
000040 3c c4 16 3d 8e d8 d9 bd 80 25 ad be 98 7a 82 3e
       0.036808237 -0.10637008 -0.33817673 0.25484157
000050 be 91 3c 3d 35 78 0f be ed 6c 5a 3e 6e ca a0 3d
       0.046037428 -0.14010699 0.21330614 0.078511104
000060 ab 17 3c 3b 84 78 97 3e 96 c2 46 3e 80 34 a1 3e
       0.002870063 0.29584134 0.19410166 0.31485367
000070 fa 42 41 be b8 61 39 3e 02 be d9 3e db ff 14 3c
       -0.18873206 0.18103683 0.42527777 0.009094204
000080 72 6f d3 3e ec 11 71 be 17 1c 80 3d 45 2a cc bd
       0.41295964 -0.23541993 0.06255358 -0.09969
000090 b6 e6 d3 be a0 64 71 bc b0 7c 97 3e c3 6f 06 3e
       -0.41386956 -0.0147334635 0.29587317 0.13128571
0000a0 0f 12 7a bd 31 92 7b be 2b 9c 3c be b4 c8 83 be
       -0.06105238 -0.24567486 -0.18418948 -0.25739062
0000b0 38 fa 6f be e9 c3 b0 bd 5f 96 8a be ae 92 8e 3e
       -0.23435295 -0.08631117 -0.2706785 0.27846283
0000c0 2b 18 5e 3e 9f ce ad bc 2f 6e 27 3e a2 ef 28 be
       0.21688907 -0.021216689 0.16350625 -0.16497663
0000d0 77 e8 d2 3d fb 60 66 ba d5 fe d4 3d 0b df ac 3d
       0.102982454 -0.0008788255 0.10400168 0.084409796
0000e0 ab 7c 5c bd 49 ca ae bd bd c3 84 bc 92 19 79 3d
       -0.05382983 -0.085346766 -0.016206617 0.0608154
0000f0 a8 68 16 bd c8 e3 81 3d 81 e9 46 bd ff 4c 93 be
       -0.0367209 0.06342274 -0.04856253 -0.2876968

conv1.bias f4 [64]
000000 80 3d a0 3d 50 23 33 bd 6b 2f 4f be dc b0 88 3e
       0.0782423 -0.04373485 -0.20232932 0.26697433
000010 aa 1e 0c 3e 4b c8 be 3d 5a 0a 95 3e 91 01 dc 3e
       0.13683572 0.093155466 0.2910946 0.42969945
000020 0f 6c f9 3d fd 77 8b 3e 71 98 d5 bd 2d 29 db 3e
       0.12178814 0.2723998 -0.104294665 0.42804852
000030 0c 0e cb 3e 34 1c cb 3d ad 6d f5 bd 75 3e f2 bd
       0.39659154 0.09917489 -0.119838096 -0.11828319
000040 dc 1f e9 bd f2 f1 df 3d 45 75 a4 3d e9 b9 d2 3e
       -0.1138303 0.10934819 0.0803018 0.41157463
000050 95 56 8c bc be 93 e6 bd a1 5e e3 bd 2b e0 e5 bd
       -0.01713113 -0.11258648 -0.111020334 -0.11224397
000060 67 ac 82 3d 5b 86 f7 bd 3d 3e 33 be 33 af 9e bd
       0.063805394 -0.12086173 -0.17504211 -0.0774826
000070 24 29 7c 3e a5 25 ca bd 6d 32 c0 3e a8 36 6c bd
       0.24625069 -0.098704614 0.37538472 -0.05766931
000080 95 c3 5e 3e 84 3e 49 3d d1 91 38 3d 9b 86 48 be
       0.21754296 0.049131885 0.045060936 -0.19582598
000090 74 03 2d 3e c4 c8 ed 3d fe 47 24 3f 6f 3c 01 3f
       0.16895849 0.11610559 0.6417235 0.5048284
0000a0 2d 3b 5e bd 16 98 b1 3d 1d 43 af bd 45 2f da bd
       -0.054255653 0.08671586 -0.08557723 -0.10653547
0000b0 0d b2 c5 bd d4 38 b4 3d bc 14 a6 3e 32 95 fe 3e
       -0.09653101 0.087999016 0.32437694 0.49723202
0000c0 51 83 04 3f a0 06 f3 3d 57 9d 83 3e ac 82 bf 3e
       0.5176287 0.11866498 0.25705978 0.37404382
0000d0 0f 15 51 3e 1d b8 e9 3e a8 7b a0 bd 2d b9 95 3d
       0.2041819 0.4564828 -0.078360856 0.0731071
0000e0 17 7d cb bd 22 35 16 3f 17 64 c8 bd 5a 3f b0 3d
       -0.09935968 0.58674824 -0.097847156 0.08605833
0000f0 35 7e c4 bd 5c 2d a7 3e 21 4b a5 3d 12 06 cc 3d
       -0.095943846 0.32651794 0.0807097 0.09962095

conv1.lin.weight f4 [64, 5]
000000 d7 b7 49 3b 77 ec ed bd a1 e5 40 3e 20 d1 06 be
       0.0030779743 -0.11617368 0.18837596 -0.13165712
000010 fb b7 ce be 7b d7 be 3c a4 a1 a3 3d 15 c1 05 be
       -0.4037474 0.023296108 0.07989815 -0.13061936
000020 82 79 80 3e e4 3d 67 3f 2a 1a 76 bd f4 64 a4 3e
       0.25092703 0.9032881 -0.060083546 0.3210827
000030 a7 04 c7 3c e5 dd ed 3b 67 d1 58 3f bc 0a f7 3d
       0.02429421 0.007259118 0.8469452 0.12062594
000040 84 9a f8 3d 5a 55 1a bd 4a 51 04 3c 6c 51 45 bf
       0.121388465 -0.037679054 0.008076021 -0.77077365
000050 e1 28 3f bd d2 c7 09 bd ca da 3d 38 58 31 2a 3e
       -0.046669845 -0.03363783 4.5264875e-05 0.16620386
000060 1d d3 56 bf b4 6e 36 bd 11 09 1d be ec 75 77 3e
       -0.83915883 -0.04453917 -0.1533549 0.24166077
000070 36 f6 60 bd 12 60 25 bf 4c a0 f3 3c 71 87 bf 3d
       -0.054922305 -0.64599717 0.029739521 0.09352005
000080 ae bf f8 3d 81 ec dc bd 61 35 7a bf 74 71 c1 bc
       0.12145935 -0.10787297 -0.977377 -0.023613669
000090 36 7a 62 3e b6 41 2a 3e 40 2a 1f be 17 47 8b bf
       0.22116932 0.16626629 -0.15543461 -1.088107
0000a0 6a e2 3d be 0e 3a 86 be c5 d3 49 3e c2 82 45 3e
       -0.18543401 -0.26216167 0.1970969 0.19288161
0000b0 32 3e 5a bf 24 ee 9b 3e b0 04 c3 bd 0d f3 fa 3d
       -0.8525115 0.30455124 -0.095223784 0.122533895
0000c0 c1 ba 91 bd 7a 69 6e bf 48 00 18 3e b0 2f 2e be
       -0.071156986 -0.93129694 0.14843857 -0.17010379
0000d0 fc 09 00 3e 0f d8 40 3d d0 33 da 3e 95 d7 df 3d
       0.12503809 0.04708105 0.42617655 0.10929791
0000e0 fe 5c 4c 3e a7 b8 b8 bd 3e 0b 55 3d 6a 32 83 bf
       0.19957349 -0.09019595 0.052012675 -1.024976
0000f0 be ae 3d be 5b 55 82 3e fa 97 0d bd 5b 3f 89 bd
       -0.1852369 0.25455746 -0.034568764 -0.06701537
000100 ea 46 41 bf 0c 0c 12 bc 4d 8b 74 3d 1b a0 17 3e
       -0.7549883 -0.008914005 0.05970316 0.14807169
000110 5e c8 e9 bd bb c3 17 bf fb c9 6a bd 15 78 08 bc
       -0.1141517 -0.59283036 -0.05732153 -0.008329411
000120 4d 92 56 3e 38 6c 12 3a dd 91 5c 3f 3a 18 51 3d
       0.20954247 0.0005585584 0.8616007 0.051048495
000130 ce 0b 7d 3e 6b 05 3e 3e 4d a9 62 be a6 5f 4e 3f
       0.24711534 0.18556754 -0.22134896 0.806147
000140 98 fd 73 3e b3 b8 16 bd 57 76 3c be 7c 5e 78 3e
       0.23827207 -0.036797237 -0.18404518 0.24254793
000150 5e 6e 57 3f 30 02 59 3e ad d0 8d be 38 cf 91 3d
       0.8415278 0.2119224 -0.2769827 0.07119602
000160 7f 2d 16 3e 6a c6 3a bf 80 a8 eb 3d 01 ba 33 3e
       0.14665793 -0.72959006 0.11506748 0.17551424
000170 59 9e 7c 3e d3 d1 86 bd 38 2c dc be bc 64 d8 bc
       0.2466978 -0.065829895 -0.43002486 -0.026415221
000180 fa 2c f8 bd 38 df 76 bd f5 70 62 3e a8 6d 68 bf
       -0.121179536 -0.06027147 0.22113402 -0.9079232
000190 66 69 57 3e 45 20 71 be e8 db 53 3e ac b5 8d be
       0.210363 -0.23547466 0.20689356 -0.27677667
0001a0 4b 29 07 3f 77 de 16 3e 6d 7b 8f 3e 08 98 cf 3d
       0.52797383 0.14733301 0.28023854 0.101364195
0001b0 13 f4 ac bc b2 ba 17 3f e8 5f ed 3d f4 2a 1d 3e
       -0.021112477 0.5926925 0.11590558 0.15348417
0001c0 69 83 49 3e ec ad 69 be c6 96 10 3f f5 60 42 3e
       0.19679035 -0.22820252 0.5648006 0.18982299
0001d0 2b f7 ef 3d 00 d6 2c 3e 29 c5 95 3e 99 ae 14 3f
       0.117170654 0.1687851 0.29251984 0.58078915
0001e0 73 57 67 be c6 49 fe 3d 92 32 2c 3e 1d 1f ec 3d
       -0.22591953 0.12416415 0.16816166 0.11529372
0001f0 1c 72 c8 be b1 4f b6 bd e1 58 89 3e 5a 26 21 be
       -0.3914956 -0.08901919 0.26825622 -0.15737286
000200 43 70 26 3e 60 1c fd 3e 5d e5 76 be 94 97 81 be
       0.16253762 0.4943571 -0.24110933 -0.25310957
000210 62 be 2e be c6 62 40 3d cc 1b aa bd b0 75 20 be
       -0.17064813 0.046969198 -0.08306083 -0.15669894
000220 68 65 22 3e 63 0a 44 3e b5 eb 6f be 87 9a 27 3e
       0.15858996 0.19144587 -0.23429759 0.16367541
000230 9c b3 53 3d 2c e3 8b 3e 47 30 2e be c4 19 11 3e
       0.05168496 0.27321756 -0.17010604 0.14169985
000240 1f 59 5a bf a6 9e 5c bc 5a 52 fa bb f0 76 18 bd
       -0.8529224 -0.013465559 -0.0076392116 -0.037222803
000250 e9 38 3e 3e 34 d4 a7 3e c6 ea a7 3d c7 d6 19 be
       0.18576397 0.32779086 0.08199076 -0.15023337
000260 a8 80 e0 bd e0 7d 06 3c 79 85 83 3f 7a 52 49 3d
       -0.10962039 0.008208722 1.0275108 0.04915092
000270 75 5c 68 be 39 03 96 be e9 86 2f 3e 24 10 14 3e
       -0.2269152 -0.29299334 0.17141308 0.14459282
000280 f7 37 3c bc 52 4f b8 be c8 63 95 3e e0 2a 7d be
       -0.011487952 -0.35998017 0.2917769 -0.24723387
000290 dd c3 31 3f 4a 3d 79 be 5f dd 1a be 19 a9 2e 3d
       0.6943949 -0.24339786 -0.15123509 0.042641733
0002a0 30 d6 07 3e 61 02 dd bd 9e 78 a3 bd 1d 33 37 be
       0.132653 -0.10791469 -0.0798199 -0.17890592
0002b0 10 a2 65 bd 94 f8 c4 bc 25 22 7e 3e 0f 59 5f 3c
       -0.056062758 -0.024044313 0.24817713 0.013632073
0002c0 ff 30 25 be 15 b8 42 bd b5 71 ad bc 0b 80 93 bc
       -0.16131972 -0.047538836 -0.021172384 -0.018005392
0002d0 b5 e4 a9 3d fa 56 12 bd b6 76 54 be e6 2a 63 3e
       0.082955755 -0.03572748 -0.2074841 0.22184333
0002e0 60 b8 03 bf b9 1f 95 3d a5 69 79 3e a1 a4 e5 3d
       -0.5145321 0.07281441 0.24356706 0.11213041
0002f0 4b e7 e4 bd 36 af 86 3f 67 73 36 bd e2 5b aa be
       -0.11176928 1.052222 -0.04454365 -0.33273226
000300 dc e3 90 3d c7 d3 f6 bd c7 fa 74 3f 27 a2 06 bd
       0.07074711 -0.12052112 0.95695156 -0.032869484
000310 dc 1b c9 bd 9d 04 74 be de 34 12 be 65 23 6a 3f
       -0.09819767 -0.23829885 -0.1427798 0.9146026
000320 44 f0 42 3e 87 33 db 3d ee 4b 14 be 59 8e 1f be
       0.19036967 0.107031874 -0.1448209 -0.15581645
000330 12 65 24 3f 2e 44 68 3d bd ce 6a 3e 21 59 7a 3c
       0.6421672 0.056705646 0.22930427 0.015280039
000340 97 4d 5a 3e 20 89 0c bf fa 78 4f 3e 05 21 2a be
       0.2131866 -0.54896736 0.20260993 -0.16614158
000350 5f 18 31 be 88 ca a5 3c d7 5a 64 3e 88 11 0f be
       -0.17294453 0.020238176 0.22300278 -0.13971531
000360 41 a7 0c 3c ee 55 99 3e d1 1e 3f 3e 51 73 28 3f
       0.008584798 0.29948372 0.186641 0.6580096
000370 7a a4 89 3d 2f 59 de bd 04 a2 7d bd ad cf 79 3e
       0.067208245 -0.10856854 -0.06192209 0.24395628
000380 4d 6f 65 3e 4a f8 1c 3e c9 f2 4d be 3a 8e e5 bd
       0.22405739 0.1532909 -0.20112146 -0.11208768
000390 48 de 16 bc ae 57 00 be 75 f8 03 be 9f 83 92 3e
       -0.009208269 -0.12533447 -0.12887748 0.28616044
0003a0 41 b8 87 3b 38 fd c1 bc 5a a1 4a bf 81 92 0e be
       0.004141838 -0.023680314 -0.7915245 -0.13923074
0003b0 25 fa d8 3d 23 d7 5f bd 3a 6f 77 be 9c 34 44 3f
       0.10594586 -0.05464853 -0.24163523 0.76642776
0003c0 a2 1d 14 bd 00 9c c2 3e cd e4 81 bc 77 ba 81 bd
       -0.036161073 0.38009644 -0.015856171 -0.063343935
0003d0 b6 6e 73 bf 5b e6 66 be 04 4a 53 be d9 5b 14 3e
       -0.95090806 -0.22548811 -0.20633703 0.14488162
0003e0 c3 c3 b9 3d 44 1c 36 bf 9d 81 52 be d1 9d 10 be
       0.09070542 -0.7113688 -0.20557256 -0.14122702
0003f0 72 25 33 b9 b4 2b ba bd f7 a4 1a bc 60 78 ac 3c
       -0.0001708472 -0.09090367 -0.009438745 0.021053493

linear.weight f4 [1, 64]
000000 b0 e1 6c bd b9 10 78 3e fb 71 8f 3e d2 1f a1 be
       -0.05783242 0.24225129 0.28016648 -0.3146959
000010 5e 81 e4 bd d8 03 8d bd 43 36 01 bf 30 d1 a2 be
       -0.11157487 -0.06885499 -0.5047342 -0.31800222
000020 c1 b3 e7 bd 3e fe 8b be 33 c6 c9 3d c8 af 97 be
       -0.11313582 -0.2734241 0.098522566 -0.29626298
000030 60 49 1b bd 5e 7c 02 be dd de 4e 3e 84 82 ac 3e
       -0.037911773 -0.12742755 0.20202203 0.33693326
000040 68 6a 42 3e f6 51 d7 bd f9 a5 59 bd ad e3 91 be
       0.18985903 -0.1051368 -0.0531368 -0.28494015
000050 b0 7a c2 3d 8a 7a f7 3d f3 78 36 3e 95 ca b8 3d
       0.09496057 0.12083919 0.17819576 0.090230145
000060 56 de 92 bc eb 9d 75 3e e2 be 61 3b ab 47 70 3d
       -0.017928284 0.23986022 0.003444605 0.058662098
000070 55 91 9e be d3 07 f1 3d 70 db 0c 3e ab 48 2b 3d
       -0.30970255 0.117690705 0.13755584 0.04181735
000080 dc dd 79 3e b4 05 41 bb 52 13 0b 3e fc 54 9f 3c
       0.24401039 -0.0029452862 0.13581589 0.019449703
000090 d0 6f ec bd db e7 88 3e 03 4b 13 3e 93 80 80 3e
       -0.11544764 0.26739392 0.14384083 0.25098094
0000a0 46 e0 2b 3e ba a8 92 bd 1a c8 41 3d 97 f0 0b 3e
       0.16784772 -0.07161088 0.047309972 0.13665996
0000b0 28 00 b5 3c d5 31 d9 3b 08 7c 72 be 0f 63 29 3e
       0.022094801 0.006628255 -0.23680127 0.16541694
0000c0 6c 61 69 be 73 b7 04 be f1 67 8b 3d 38 3a 84 be
       -0.2279107 -0.12960605 0.068069346 -0.25825667
0000d0 f8 4f aa bd d7 ab 9e 3d 9b cf b0 3d d4 7c 03 bd
       -0.08316034 0.077476196 0.086333476 -0.032101467
0000e0 a1 cb ab 3d 34 8a 30 be 9e b0 36 3c ce d2 be bd
       0.083884485 -0.1724022 0.011150507 -0.093175516
0000f0 d9 ac c7 3d e9 5a f5 bd 87 ee 26 bd 61 76 13 be
       0.09749765 -0.1198023 -0.04075482 -0.14400627
