outputs/classification/edges/exp_ii/weights/cheb_8.pth (torch, 59131 bytes, 10 tensors)

conv1.bias f4 [64]
000000 bd 86 f3 3d a3 17 dd 3d 56 05 01 3d cf 10 ac bd
       0.11890934 0.10795524 0.03149923 -0.084016435
000010 30 de a4 bd 1c 4f 2a 3d d2 49 2d 3c 5d 4f d6 3d
       -0.080501914 0.04157935 0.010576682 0.10464356
000020 32 84 ca 3d 30 8d b0 bd 62 1f 89 3d 2f fa 02 be
       0.098884955 -0.086206794 0.06695439 -0.1279075
000030 46 3f e2 3d d8 c1 ae 3d cb 43 43 3d 79 f3 bf 3d
       0.11047225 0.085330665 0.047672074 0.093726106
000040 8e a3 97 bd 05 b7 e2 bd 08 bc 4c 3d ea cc ab 3d
       -0.074042425 -0.110700645 0.049984008 0.08388694
000050 e4 24 aa 3d 4e e4 41 3c c4 89 9f 3d 28 37 9d bc
       0.083078176 0.011834217 0.077899486 -0.01919134
000060 7a 54 49 3c 09 3b d8 3d 99 79 bd bd f5 c8 ff 3a
       0.012288207 0.10558135 -0.092517085 0.0019514846
000070 5c 62 05 3e a2 d4 b4 3c e3 1c 3e 3d dd 90 d3 3d
       0.13025802 0.022074047 0.046414267 0.10330365
000080 5b be a9 3d 3d 56 4f bd 25 c7 cd bd 97 90 4a bd
       0.082882605 -0.050619353 -0.100477494 -0.049454298
000090 61 32 74 3d 9f 59 c7 bd 10 9f 42 bb 9c 2c 2d bd
       0.059618358 -0.09733891 -0.002969686 -0.04227887
0000a0 ea 83 95 3d dd a5 34 bd ca 08 06 3e b9 b3 ea 3d
       0.07300551 -0.044103492 0.1308929 0.114600606
0000b0 f9 da 07 be f4 79 c7 3d 42 4f 01 be 0a 0e 9b bd
       -0.13267125 0.097400576 -0.1262789 -0.07571037
0000c0 e4 13 ce 3d 79 9e 27 bd a4 7a 01 3d 4f 28 0c be
       0.100623876 -0.040922616 0.0316111 -0.13687252
0000d0 0f 6f dd bb 05 f7 bd bd bc c4 09 be 08 46 91 bd
       -0.006757624 -0.09275631 -0.13453954 -0.070934355
0000e0 e3 98 d2 bc 67 4a bd 3d 99 55 97 bc 70 79 8f 3d
       -0.025707668 0.09242707 -0.018473433 0.07005584
0000f0 06 68 ee bd b6 07 db bd 22 fe 3c 3d b7 53 8c 3c
       -0.11640935 -0.1069483 0.046140797 0.017129762

conv1.lins.0.weight f4 [64, 7]
000000 48 1a 9c 3e f5 ad 31 3e ff 27 bf bd 98 7c ad 3e
       0.304888 0.17351516 -0.093338005 0.3388412
000010 98 7a 28 3d 20 f3 8d 3e 96 2b 1c bd c1 5f 36 be
       0.04113254 0.27724552 -0.038127504 -0.17809965
000020 19 fa f1 3c 69 2d 49 be 89 fd a1 3e 7f 9b 6b 3e
       0.029538201 -0.19646229 0.31638744 0.23008536
000030 35 5b 88 3e 11 85 0f be 69 e3 29 be 83 35 25 3c
       0.26632085 -0.14015605 -0.16590656 0.010083559
000040 4c a0 21 be a9 c0 bc bd c2 8c b1 bd ed 8d a0 bd
       -0.15783805 -0.092164345 -0.086694255 -0.0783957
000050 29 62 6b 3e 60 32 37 be e4 00 97 bd b5 37 b8 be
       0.22986664 -0.1789031 -0.07373217 -0.3598
000060 14 b3 16 be 89 1b 63 be 7f c6 b3 bd 14 f0 a7 be
       -0.1471675 -0.22178473 -0.087780945 -0.32800353
000070 ea 62 3e 3e 47 75 81 3e 0c 60 61 3e b0 a5 8b be
       0.1859242 0.25284788 0.22009295 -0.27274847
000080 d8 5b c8 bd 48 c2 e8 bd 2c 41 2b 3e cf c8 f3 3d
       -0.09783143 -0.11365181 0.1672408 0.119035356
000090 db a4 6c be 34 f3 fb 3d 5a ea 0f 3d c6 f8 0b 3e
       -0.23109762 0.12302247 0.035135604 0.13669118
0000a0 ad 52 a4 3e 57 e6 e3 3d 15 48 a6 bc 89 8d 2a bd
       0.32094327 0.11127918 -0.020298043 -0.041638885
0000b0 77 1b 3f be d8 fb 1d 3e c1 34 2e 3d 31 a3 a2 3e
       -0.18662821 0.15428102 0.04253078 0.3176513
0000c0 08 57 92 3e 5b cb 0a 3e 23 86 10 3d d8 b5 2a be
       0.28582025 0.13554136 0.035284173 -0.1667093
0000d0 85 09 ac 3e 64 b8 4e bd 72 b2 29 be 23 da c3 3e
       0.33601013 -0.050468817 -0.16571978 0.38252363
0000e0 ef 8f 3b be 53 78 9a bd 07 95 88 3e d5 d3 32 39
       -0.18316625 -0.07542481 0.266762 0.00017054316
0000f0 09 77 9f 3e f7 eb a8 3d 6c ec ac bd 05 11 2b be
       0.31145504 0.08248132 -0.084435314 -0.16705711
000100 83 06 0d bd a5 80 12 3e 5a 3d 26 be ff ac 4a be
       -0.03443004 0.14306886 -0.16234341 -0.19792555
000110 02 f4 fd 3d a9 10 f7 3c b6 1d a3 be 4e 06 b3 3d
       0.124000564 0.030159311 -0.31858605 0.08741437
000120 b8 4e 51 be 3e a8 ec bc 59 d5 90 be 80 89 a2 bd
       -0.20440185 -0.028888818 -0.2828777 -0.07936382
000130 73 b9 44 be fc 6a 9f 3d 59 53 83 be 77 de e6 bd
       -0.19211368 0.077840775 -0.25649527 -0.112729006
000140 a8 8e 9d 3c 6c 1f 4e 3e aa 0d d0 be 58 b5 43 be
       0.019233063 0.20129174 -0.40635425 -0.19112146
000150 23 03 58 bd c2 da 17 3e e6 54 e0 3d e8 0c ae 3e
       -0.052737366 0.14829543 0.10953693 0.33994222
000160 2e 44 73 3e 66 07 11 3e a7 d0 98 3d 2a 81 c0 3e
       0.23756477 0.14162979 0.07461672 0.37598544
000170 a9 d0 65 bd c3 01 04 3e 2d d8 0f be 9f 3a 0b 3e
       -0.056107197 0.12891297 -0.14047308 0.13596581
000180 48 9b 62 3e 07 b4 8d 3d 0a 12 f5 bd 2f 56 a5 3e
       0.22129548 0.06919103 -0.11966331 0.32292315
000190 7c 60 8c 3e 90 bc 86 bd f8 79 a9 3e a0 3c 95 3e
       0.27417362 -0.06578934 0.33100867 0.29147816
0001a0 23 1a 81 3d 1c 72 2b 3e 3c 35 82 3e 93 52 0b be
       0.06303813 0.16742748 0.2543124 -0.13605718
0001b0 bd bb 27 3d 2b 94 d5 3d c2 ae b2 bd d1 0e 58 3e
       0.040950526 0.104286514 -0.08724739 0.21099402
0001c0 c4 4a 1a be 77 c7 9e bd af c3 71 be 1f d4 b5 be
       -0.15067583 -0.07752889 -0.23609804 -0.35513398
0001d0 64 86 49 3d df eb 30 3e 8f b4 7e 3c c9 8a 30 bd
       0.04920043 0.17277478 0.015545978 -0.043101106
0001e0 30 bd ee 3d d9 6c 7e 3d 72 11 92 be 4d 9f f2 39
       0.116571784 0.062115524 -0.28528935 0.00046276525
0001f0 c2 27 8c be 52 11 28 3e d8 46 71 be 56 6b 86 be
       -0.27374083 0.16412857 -0.23562181 -0.26253766
000200 98 c7 2e 3e 95 e5 7f be 09 b9 3d be bd 2a a1 3d
       0.17068326 -0.24989922 -0.18527617 0.0786948
000210 68 bc 86 3e 70 8a e8 bc 40 1b c0 3d 59 4b 26 3e
       0.26315618 -0.028386325 0.093801975 0.1623968
000220 c8 12 59 3e a0 31 91 bc d0 04 4f 3d 78 cd 36 be
       0.2119857 -0.017723858 0.0505417 -0.17851818
000230 0f 00 c0 bd 53 08 ba bd f6 49 cb 3e a9 0d 84 bd
       -0.09375011 -0.09083619 0.39704865 -0.06447918
000240 67 f1 96 bd 09 42 82 3d b6 01 a0 3e 49 0d f4 3d
       -0.073702626 0.063602515 0.31251305 0.119165964
000250 1e b4 80 3b 88 31 89 3e 26 fd 34 be 59 5f 47 3e
       0.0039277216 0.26795602 -0.17674693 0.19469966
000260 25 56 0c 3e 37 0e 42 be 22 9b 0c be bd e2 37 3d
       0.13704737 -0.18950735 -0.13731053 0.04489397
000270 2a 27 49 bb c0 00 b7 3e 6b e2 1e be a2 03 32 3e
       -0.003069351 0.3574276 -0.15516059 0.17384198
000280 1d a0 10 bd 42 a2 fb bd fb 5b 22 3d 81 ad 8b be
       -0.035308946 -0.122868076 0.0396385 -0.2728081
000290 86 b6 a5 3d 6d eb cd 3d 29 fe 5c be 9e 8a 5d 3e
       0.08091454 0.100546695 -0.2158133 0.2163491
0002a0 1a d4 8e 3d a2 19 15 bd c0 d0 16 be aa e7 28 3e
       0.06974049 -0.0364014 -0.1472807 0.16494623
0002b0 5a cd 6d 3d c2 80 64 3e 7b 6a 2c 3e 14 5e 33 bd
       0.058057167 0.22314742 0.16837494 -0.04379089
0002c0 a5 78 06 3e fd 14 33 be 5d df 74 3e e2 84 9c 3d
       0.1313196 -0.17488475 0.23913331 0.07642533
0002d0 b3 9f ac 3e 98 4b a3 3e 1c 5d 98 bd db 4a a6 bd
       0.3371559 0.3189361 -0.07439634 -0.08119746
0002e0 ee 48 86 bd a7 44 9b be 6a de 08 3e fb 49 90 be
       -0.06556879 -0.30325815 0.13366094 -0.28181443
0002f0 45 42 00 3e 24 84 75 3e dc 47 09 be e8 76 db 3d
       0.1252528 0.23976189 -0.13406318 0.10716039
000300 7c 90 fc bd 7f ca d3 bc b4 c9 5f be 71 1d 0b 3e
       -0.12332246 -0.025853394 -0.21854287 0.1358545
000310 48 3f f8 3d 50 72 fc 39 7b 80 d2 bc 05 5d 9e 3e
       0.12121445 0.00048150355 -0.02569603 0.30930343
000320 bb 68 8c bd 7b 6a 39 3e c6 a7 b1 3e a7 a1 3b 3e
       -0.06855913 0.18107025 0.34698313 0.18323384
000330 fc e9 31 3d f2 d0 d7 bd 93 7f 05 be 64 f8 51 be
       0.043436036 -0.105379 -0.13036947 -0.2050491
000340 75 e4 f3 3d b2 99 61 3e 44 69 d3 3c 81 80 5c bd
       0.11908809 0.22031286 0.02580703 -0.05383349
000350 f0 40 8b bd 56 ae 6d 3d 89 7c 85 3d 42 be 45 be
       -0.06799495 0.058027588 0.06517894 -0.19310859
000360 df a3 31 be e1 3e 65 3d 60 93 11 3e 23 00 62 3e
       -0.17347668 0.05596817 0.14216375 0.22070365
000370 e6 d2 97 3e 0a 53 3f 3e ac 21 3d 3c 0e 27 a4 3e
       0.2965309 0.1868402 0.0115436725 0.32061046
000380 e1 cc 86 be 37 75 0a be bc b3 50 3e f4 16 73 3e
       -0.26328185 -0.13521276 0.20381063 0.23739225
000390 18 ee 87 be e9 ae 35 be f0 3a 34 bd 22 8b 3f 3c
       -0.2654884 -0.17742504 -0.04400152 0.011690887
0003a0 47 23 c1 3d ac be 0b bd e5 ca 2a 3d 46 8d 3c bc
       0.09430557 -0.034117386 0.0416974 -0.011508292
0003b0 5b 86 1f be fe f3 69 3e c1 ce 60 be 6a 12 00 be
       -0.15578596 0.22846982 -0.2195387 -0.12507024
0003c0 e7 bb 86 3e 2f ce ac 3d 32 59 2b be 29 2c 24 be
       0.26315233 0.08437764 -0.16733244 -0.16032471
0003d0 86 32 74 3e 0f 1f 88 bd 7c e8 bf bd 2b ed 99 3c
       0.23847398 -0.06646549 -0.09370515 0.018789848
0003e0 84 9c ab 3d 55 3d 9a 3d 45 ad a7 be 59 28 02 3d
       0.08379462 0.075312294 -0.32749382 0.03177676
0003f0 cd 04 ed bc da 84 ef bd fd fa 8b 3d 86 df e6 bd
       -0.028932953 -0.11695261 0.068349816 -0.112731025

conv1.lins.1.weight f4 [64, 7]
000000 02 e2 84 3d 0b b6 a3 be 9b 89 b2 bc bd d1 2e 3e
       0.0648842 -0.31974825 -0.021794131 0.17072196
000010 63 3e 65 be f0 dc 73 bd f3 32 81 be d6 0a 9e be
       -0.2238708 -0.059536874 -0.25234184 -0.30867642
000020 7c fd 26 be c7 96 1c be 63 25 6c be 50 d4 89 be
       -0.16307634 -0.15291892 -0.23061137 -0.26919794
000030 49 b7 9a be b3 4c 5d be 13 68 f5 bd 2b c7 dd 3c
       -0.3021796 -0.2161129 -0.11982741 0.02707251
000040 0b 54 95 3e d8 59 a5 3e 2a 55 80 3e 97 26 e7 3d
       0.29165682 0.32295108 0.25064975 0.11286657
000050 e7 90 a1 3e 08 4e bb bd be ca df bd 2f 22 9a 3d
       0.31555864 -0.09145743 -0.10927342 0.07526051
000060 67 21 32 be c5 0c 53 3c 7c 16 66 3e d2 4e ac 3e
       -0.17395554 0.012881462 0.22469515 0.33653885
000070 2d 58 8d 3e f4 93 81 3d 8d 78 46 be 0e c4 a7 3e
       0.27606335 0.06327048 -0.19381924 0.32766765
000080 e8 a3 69 3e 83 42 2a be d1 59 b9 3d 74 95 a3 3e
       0.22816432 -0.16626935 0.09050334 0.3194996
000090 67 65 a4 3e b1 59 91 be 60 35 09 3e 00 c0 52 be
       0.32108614 -0.28388742 0.13399267 -0.20581055
0000a0 f6 43 2c 3e 6b db 85 3e 82 d1 2a 3e 16 1e 63 be
       0.168228 0.26143965 0.16681483 -0.22179446
0000b0 33 41 e3 3d ce 3a 87 3e c5 f2 b0 3d bc ff f1 bc
       0.1109642 0.26412052 0.086400546 -0.029540889
0000c0 4d 56 58 be 56 61 88 bd 2b 37 3e bd 55 b5 93 be
       -0.21126671 -0.0665919 -0.04643933 -0.28849283
0000d0 a8 78 b9 be 4b 1f 16 3e 53 1a 8c be 4e 58 86 be
       -0.36224866 0.14660375 -0.27363834 -0.26239246
0000e0 c8 69 c6 be 8d df 22 3e 28 7e 02 be da fa be bd
       -0.3875258 0.1590559 -0.12743437 -0.0932519
0000f0 62 72 4c be b0 c2 ca be d6 7c 9e 3d 27 97 69 3e
       -0.19965509 -0.3960166 0.07738654 0.22811566
000100 09 bc 16 bc 30 c2 68 be 6f d5 4a 3e 61 07 99 3e
       -0.0092001045 -0.22730327 0.19807981 0.29888442
000110 8f 65 94 bd a4 0d 19 bd 72 d7 a3 3c dc bb 41 3c
       -0.07245933 -0.037366524 0.020000193 0.011824574
000120 c0 83 93 bd 33 1c 67 be 79 1a 71 bc fe e8 90 bd
       -0.07202864 -0.22569351 -0.014715784 -0.0707569
000130 5e b3 8b 3e 78 35 52 3e 98 35 22 be 93 8b 0b 3d
       0.27285284 0.20528209 -0.15840757 0.034068655
000140 a3 3b f8 3c 9c 86 6b bd 65 4a b8 3e 52 f5 20 be
       0.030301875 -0.05750142 0.3599426 -0.15718582
000150 74 6c 2f be 9a a3 5f 3e 6c d9 82 3e 76 17 51 bd
       -0.17131215 0.21839753 0.25556505 -0.051047765
000160 69 59 be bd d4 6c 76 be b5 09 b6 be 1a df 93 be
       -0.092943974 -0.24064952 -0.3555428 -0.2888115
000170 a5 b0 63 be 3d f3 9c be bf ff 12 3e 0b 6e ba be
       -0.22235353 -0.30654326 0.14355372 -0.3641208
000180 35 13 44 be a3 a8 9e bd 9d 38 34 be 95 c5 c1 3d
       -0.19147952 -0.07747009 -0.17599721 0.09461514
000190 76 df a0 be ca cd d8 bd 70 12 c8 bc 1d bf 3c 3e
       -0.31420487 -0.10586126 -0.024422854 0.18432279
0001a0 b0 a0 e6 bd 67 0b b8 3d 2f b7 19 be d4 92 67 bd
       -0.112611175 0.0898655 -0.15011285 -0.05653651
0001b0 04 5d 35 be 32 ff 13 be 70 39 94 be 2d f2 b0 3d
       -0.17711264 -0.14452818 -0.2895007 0.08639941
0001c0 fb 95 32 be 44 79 c7 3b 7f 05 21 3e 4a 71 3f 3e
       -0.17440026 0.006087454 0.15724753 0.1869556
0001d0 a6 1f a8 3e 93 a7 82 3e 7e f1 0d 3e 8b 05 64 3e
       0.32836646 0.25518474 0.13861653 0.2226774
0001e0 da 49 2e 3e ce 66 3d be c9 c6 60 bc 5e 4c 87 bc
       0.1702036 -0.18496248 -0.013719269 -0.016515907
0001f0 f9 3e 36 be ce 59 85 bd ef 07 d1 3d ea 3e 8f 3e
       -0.1779746 -0.065112695 0.10206591 0.27977687
000200 20 1d 89 3e f9 46 9b 3e 54 ca be 3d d3 e6 95 3e
       0.26780033 0.30327585 0.09315935 0.29277667
000210 09 9b c4 3d 28 ca 2d 3e cc ba ac 3d 7f 25 5f bd
       0.09599883 0.16971648 0.08434066 -0.05447912
000220 f3 33 d3 3d 63 da e2 3d ba 7c 42 3e 41 56 c0 bd
       0.10312643 0.1107681 0.18992892 -0.093914516
000230 32 56 e7 3d 49 05 b2 3d 0d ee 50 3e 4b 68 7f be
       0.11295737 0.08692414 0.20403309 -0.24942128
000240 2a 74 9b bd f7 bd 9f 3d 95 74 99 bd 35 f7 ce bc
       -0.07590516 0.07799905 -0.074929394 -0.025264362
000250 8c cd 97 3d e0 94 64 be 9a 42 7d 3e a5 66 de bd
       0.07412252 -0.22322416 0.24732438 -0.10859422
000260 51 a9 40 be 13 a3 8b be a8 b6 49 be 3f 62 af 3d
       -0.18814589 -0.27272853 -0.19698584 0.08563661
000270 0f 05 94 3d b4 98 c2 3d 3b f1 1d be 68 17 2f bd
       0.07227527 0.09501782 -0.15424053 -0.04274693
000280 48 03 71 3c 39 ef cb bb d3 e2 b7 bd c6 d4 89 be
       0.014710255 -0.006223586 -0.0897881 -0.26920146
000290 b0 8b 72 be 4d 36 3c 3d fa ab 4c 3e f8 4e d9 bd
       -0.23686099 0.045950223 0.19987479 -0.10610765
0002a0 1c b5 42 3e 87 0a 0d 3e bf 84 98 3e 70 ca 9f 3e
       0.190144 0.13773547 0.29788777 0.31209135
0002b0 ce 97 9a 3e 9b be 76 3e b0 26 ec 3d c9 64 f8 bd
       0.30193943 0.24096148 0.115308166 -0.12128598
0002c0 77 73 23 bd b4 0b 66 bd 75 8d cd bd d5 5b 86 3e
       -0.039905038 -0.056163505 -0.100367464 0.26241937
0002d0 bb 21 3e be 0b be f9 bd fb 20 21 be ee e7 05 3d
       -0.18567555 -0.12194451 -0.15735237 0.03269189
0002e0 eb 19 2e 3d df bc 57 3e 4a 9e 06 be ad 0f 98 3c
       0.042505186 0.21068142 -0.1314632 0.018562162
0002f0 30 3b 65 3d 0c 66 30 3e dc 73 e8 3d 4c 5c f2 3b
       0.05596465 0.17226428 0.113502234 0.0073962566
000300 57 cf 1e be d3 1a 94 3e 3b 19 3a 3e 3e 3f 24 3e
       -0.15508781 0.28926715 0.18173687 0.1603975
000310 d1 96 38 3e 76 ef d1 3d 97 6a 4f 3e 2d 88 aa be
       0.18026282 0.10250752 0.20255505 -0.3330702
000320 2c 86 d7 3d 5c af 25 be 33 33 2a be d6 36 33 bd
       0.10523638 -0.16180176 -0.16621093 -0.043753468
000330 43 51 ff bd 66 00 d9 3d 24 78 56 bd 28 09 ab be
       -0.12466671 0.10595779 -0.05236067 -0.33405423
000340 45 e1 69 3e 4a 87 3a 3e 0b de 08 3d 92 f1 2f 3c
       0.2283984 0.18215671 0.03341488 0.010738747
000350 63 3c 84 be 72 81 1d be f6 63 35 3d 30 24 cf bd
       -0.2582732 -0.1538141 0.044284783 -0.10114324
000360 0a 6e f9 bc 26 4f 9d bd c1 dd 53 3d 84 b1 3a 3d
       -0.030447979 -0.07681112 0.051725153 0.04557945
000370 96 ba 66 be e8 56 4a 3d 2e 2c 94 be 91 09 bc bc
       -0.22532114 0.049399287 -0.28939956 -0.02295378
000380 96 ba 31 be dd 71 88 3e 54 ff d1 3d 9a 33 0a be
       -0.17356333 0.2664937 0.10253778 -0.13496247
000390 8f de 83 be 0e 26 a3 be 33 c0 89 be f2 52 46 be
       -0.25755736 -0.3186497 -0.2690445 -0.19367579
0003a0 27 8e 38 bd 37 70 e9 3d 9b c9 c7 3d 6d 3f 38 3e
       -0.045057442 0.113983564 0.0975525 0.17992945
0003b0 74 f5 41 3e e0 0b 83 3d 25 c9 01 3e 1e 7e a8 3e
       0.18941289 0.06398749 0.12674387 0.3290872
0003c0 ca 58 dc bd 46 a7 9c 3e 92 3c fd bd 4a 37 b0 3e
       -0.10759123 0.3059637 -0.123650685 0.34417182
0003d0 43 e6 86 bd 58 34 2a be 1e 31 37 be e6 71 7c bd
       -0.06586888 -0.1662153 -0.1788983 -0.06163206
0003e0 13 71 af bd 5a ec 7c 3c b9 66 c4 bd 97 60 55 3e
       -0.08566489 0.01543721 -0.09589905 0.20837627
0003f0 4d f0 2d bb 68 cd af bd 3e c0 e6 bd 4a a8 91 3d
       -0.0026540936 -0.085841 -0.11267136 0.07112177

conv1.lins.2.weight f4 [64, 7]
000000 ae 31 a1 bd 4b d6 9c 3e b1 4b 03 3d 71 7a 12 3e
       -0.07870804 0.30632243 0.032054607 0.1430452
000010 63 dd b0 3d bc a9 9a 3e 8e 7c b3 3e 87 0d df 3d
       0.08635976 0.30207622 0.35055965 0.10891252
000020 49 a7 e5 bd ba 39 6c be 50 dd f3 3d 27 32 f8 bc
       -0.11213548 -0.23068896 0.119074464 -0.030297352
000030 91 a9 ce bd 5a 7b ab 3e 50 af d0 be 9a 23 b9 bd
       -0.10090936 0.33492547 -0.40758753 -0.090399936
000040 95 bb 09 3c dd af 94 be cf 6b 33 be 36 eb 18 be
       0.008406539 -0.29040423 -0.17521594 -0.14933476
000050 86 bb bc 3d 14 3b 8c 3d 58 d4 4e bc d8 4a 28 be
       0.09215455 0.06847206 -0.012623869 -0.164348
000060 8b 2f 64 3d 3a 83 13 3d cc 98 9a 3e bf 31 a0 be
       0.055709403 0.03601382 0.301947 -0.31287953
000070 45 53 0a 3d 38 61 5b 3e f8 25 93 3e 78 ec 5b 3e
       0.03377082 0.21423805 0.28739905 0.21476924
000080 32 a4 2f 3e a5 d1 cd bd c1 6c 70 3d 13 7d 7e 3e
       0.1715248 -0.10049752 0.058697466 0.248524
000090 03 af 65 3e b2 b2 2c 3d f2 6a 10 be cd 12 0b 3e
       0.22430043 0.042162605 -0.14103296 0.1358139
0000a0 8e 31 c0 bc 91 de 79 bd 14 1d 9a be 97 22 6c 3d
       -0.02346113 -0.06100327 -0.3010031 0.057650175
0000b0 51 5f b2 bd 44 d9 fc 3d e8 82 88 3d 96 2b 5d be
       -0.087095864 0.12346128 0.066655934 -0.21598658
0000c0 a3 90 4b 3e 00 68 af 3e d9 d3 07 be 01 b7 95 bd
       0.19879393 0.34259033 -0.13264407 -0.07310296
0000d0 73 14 68 3e 64 b4 ad 3e a4 a5 8e 3d c1 29 95 3e
       0.22664051 0.3392669 0.06965187 0.29133418
0000e0 50 d1 af 3d 3f 85 61 3d d7 59 23 3d 04 5c 81 be
       0.08584845 0.055058714 0.0398806 -0.25265515
0000f0 58 2d 12 3e 99 28 47 bb ec 62 97 3e b7 ea 4a 3e
       0.1427511 -0.0030389188 0.2956766 0.19816099
000100 2b e9 b2 3e 98 f3 40 be ef e2 70 bd 4f 2c 17 be
       0.34943518 -0.18842924 -0.05881017 -0.14762996
000110 29 ba 1a be 0b 2f 11 3e 0e 31 f8 3d 25 35 d8 bc
       -0.15110077 0.14178102 0.121187314 -0.026392529
000120 b8 92 2d 3d 12 cf 81 3d 67 a2 9e 3d 0a ba 34 bd
       0.04237625 0.06338324 0.077458195 -0.044122733
000130 e9 91 05 bc 28 b1 39 be 47 62 97 3e e6 83 38 be
       -0.0081524635 -0.18133986 0.29567167 -0.18019065
000140 5b 74 0a bd 8f 89 f2 3d 21 26 b9 3d fe a3 26 be
       -0.03380237 0.118426435 0.09040476 -0.16273496
000150 e0 ba 97 be 63 77 43 3e 8f 09 43 be 12 1f a6 be
       -0.29634762 0.19088511 -0.19046615 -0.3244558
000160 f5 47 9c 3d 58 cc db 3d b8 6e 8d be fe d5 01 be
       0.07630912 0.10732335 -0.27623534 -0.12679288
000170 66 d1 58 be 9d 66 86 3c fb a6 e6 bd c8 4e 4b be
       -0.21173629 0.016406352 -0.11262318 -0.19854271
000180 01 d6 35 be a1 bb 3c 3d e2 dc 01 3e 2b 80 ee bd
       -0.17757417 0.046077374 0.12681916 -0.1164554
000190 df 6e a7 3e 33 0a 99 3c 7c 42 11 3c c0 0c a9 3d
       0.32701775 0.018681621 0.008865949 0.08254385
0001a0 e2 d1 3f 3e 45 4d 84 3d 10 91 80 3e 04 f0 35 3e
       0.18732408 0.064600505 0.25110674 0.1776734
0001b0 42 dc 00 be c3 5f 8d 3c c0 a7 87 be ee 47 ee bc
       -0.12584022 0.017257577 -0.2649517 -0.029087033
0001c0 d8 46 60 3d eb b2 3b be 7c 3d e9 bb 7b b8 8e 3e
       0.054755062 -0.1832997 -0.007117925 0.27875122
0001d0 fd 04 50 bd 15 87 99 3d 01 9b 88 3e 18 8f 96 be
       -0.050786007 0.07496468 0.2668076 -0.29406047
0001e0 bd df f5 3c e3 1a 8f be 12 2d 0a 3e 25 6e 1d bd
       0.030013913 -0.279502 0.13493755 -0.03843512
0001f0 29 cd f6 bd b9 65 66 3d 31 7f 02 be 8f f4 46 3e
       -0.1205085 0.056249354 -0.12743832 0.19429229
000200 9a 59 6c 3e 0d 38 be 3c 0e 3b eb bd 6d 0d 6a be
       0.23081055 0.023220086 -0.11485873 -0.22856684
000210 f1 4c f5 bd b9 2b dd 3d 14 a8 99 3c 38 f4 08 ba
       -0.11977566 0.10799355 0.018756904 -0.000522438
000220 3a 80 96 be 67 1e 49 be 0e 09 c1 3d 65 28 09 3e
       -0.29394704 -0.19640504 0.09425555 0.13394316
000230 67 63 8b 3c 50 00 b2 bd a5 09 33 be dc 37 f0 bd
       0.017015172 -0.08691466 -0.17484148 -0.11729404
000240 89 1a 0f 3e 81 53 94 3e a2 d9 31 3e f0 2d 5f be
       0.13974966 0.28969958 0.17368177 -0.21794868
000250 68 09 da bd 45 70 ec bd e2 b7 e0 bd 8b 24 1f 3e
       -0.10646325 -0.11544851 -0.10972573 0.15541284
000260 08 33 6a 3e ac c9 f9 3c cc b7 6c 3e 59 da a5 3e
       0.2287103 0.030491672 0.23116988 0.3239315
000270 eb c7 8e 3e bd 0f d1 3d ea c4 81 3e a6 e4 44 3e
       0.278869 0.1020808 0.25345546 0.19227847
000280 ff a0 fe bd a3 68 31 3e 32 30 0a be b1 a0 31 3e
       -0.12433051 0.17325072 -0.13494948 0.17346455
000290 b2 67 d1 3d 01 32 73 3e 61 06 bf bd 4c 84 20 bd
       0.102248564 0.23749544 -0.093273886 -0.039188668
0002a0 c1 00 5e bc d7 3d f7 bd 69 67 e4 bd dc 7e d9 3d
       -0.013549984 -0.12072342 -0.111525364 0.106199
0002b0 0b 73 80 3e 41 64 ac bd e4 e5 89 bd 6b e3 8a bd
       0.2508777 -0.084175594 -0.06733301 -0.06781658
0002c0 6c bb 5e bd 69 43 3c be 26 82 80 be a4 ea 90 3e
       -0.05437796 -0.1838509 -0.25099295 0.28304017
0002d0 c3 9c 83 3b 22 a2 aa bd 11 1f 9a be d2 cd ae 3d
       0.00401649 -0.08331706 -0.30101827 0.08535351
0002e0 a1 bc 69 3e 6f c1 15 3e e7 94 08 3e 1c e1 20 bc
       0.22825862 0.1462457 0.13338052 -0.009819295
0002f0 a0 0f b8 be e2 19 9d 3e 40 1e 86 3d c8 c9 ba 3d
       -0.3594942 0.3068381 0.065487385 0.09120518
000300 bb 1c f7 bd 9c 38 e2 bb 6d e3 4e 3e c1 a2 87 bd
       -0.12066027 -0.006903721 0.20203944 -0.0662284
000310 21 15 7b 3d f9 f8 82 be c0 aa 79 be d2 10 d4 3d
       0.061299447 -0.25580576 -0.24381542 0.10354771
000320 89 ad 57 be 4a 2b 70 3d 6e 3c a8 bd 4a b9 71 be
       -0.21062292 0.058635034 -0.08214651 -0.23605838
000330 10 32 90 3c 29 fd 83 be da c4 d8 3d 6a 87 42 3b
       0.017601997 -0.25779083 0.105844215 0.0029682764
000340 d5 60 21 be 0f 22 5e 3d 9b a7 e8 3c 3f a6 a0 3e
       -0.15759595 0.0542317 0.028400233 0.31376836
000350 6f ef 39 3d 86 70 9d 3e 5f 1b 90 3d ae 88 11 3e
       0.045394357 0.3074991 0.070364706 0.14212295
000360 cc 80 87 3d 15 d9 1e 3e 61 11 84 3e 40 ef 9a 3e
       0.06616363 0.15512498 0.2579451 0.30260658
000370 fd 1f 78 3e 9e e0 d2 bd 98 b0 54 be 3a 77 51 3d
       0.24230953 -0.102967486 -0.2077049 0.051139094
000380 8c 91 b5 bd 70 34 5a be 31 95 95 bc da d0 92 3d
       -0.088656515 -0.21309066 -0.018259617 0.071687415
000390 68 5d 71 3e e1 c8 d3 3d bf 87 a7 bd e7 fe 7d bd
       0.23570788 0.10341049 -0.081801884 -0.062010672
0003a0 15 be 24 be 8e fd 96 bd 68 a1 32 be 87 ad 34 3e
       -0.16088136 -0.073725805 -0.17444384 0.1764432
0003b0 da 8b 32 be f5 8c bb be 49 37 83 bd 58 b6 a4 3d
       -0.17436162 -0.3663098 -0.06407029 0.08042592
0003c0 53 60 be bd ad 04 c7 3d d4 89 9b 3b 7a a2 27 3e
       -0.09295716 0.09717689 0.004746655 0.16370574
0003d0 ba de 96 bd 2a 8e 93 3e 31 97 86 be 08 d1 0b be
       -0.073667005 0.288194 -0.26287225 -0.13653958
0003e0 bf 3a 61 3e c1 18 de bd 3f ea da bd b6 7e 92 3c
       0.21995066 -0.10844565 -0.1068921 0.017882686
0003f0 b4 77 37 3e 99 30 9f 3e 90 bc 7a bc de fe 30 3e
       0.17916757 0.31091765 -0.015303746 0.17284724

conv2.bias f4 [64]
000000 10 e8 a8 bd ab 26 fc 3d a1 e6 1d 3d 49 7a 04 be
       -0.082473874 0.12312063 0.038550023 -0.12937273
000010 cb fa 6a 3c ae fb e6 3b 84 43 ee bd b6 84 02 3d
       0.01434202 0.0070490455 -0.11633971 0.031864844
000020 aa a6 2c 3d 57 83 81 3c c1 db fe bd 98 a8 a6 bc
       0.04215113 0.015809698 -0.124442585 -0.020344064
000030 57 42 31 3c ee 8b d9 bd c3 9b 9e 3a 5d ec d4 3d
       0.010819039 -0.106223926 0.0012100864 0.10396645
000040 44 79 f0 3d e0 6b 19 3d 0f cf f2 bd 58 cc cf bb
       0.117418796 0.037456393 -0.118558995 -0.0063414983
000050 f5 93 f5 3d 79 f7 0e 3c 2c 69 dc 3d 3b 7a 76 bd
       0.11991111 0.008725994 0.107622474 -0.06017516
000060 13 7c b5 3c f9 36 f1 3d c7 76 30 3d b4 d3 84 3d
       0.02215389 0.11778063 0.043082025 0.06485692
000070 e1 e0 88 3c cf b7 8f 3d d7 73 82 3d 5d 24 f5 bd
       0.016708793 0.070174806 0.06369751 -0.11969826
000080 3d 49 d1 3d fc a8 c1 bd 89 e0 ee 3d 15 a4 f1 bd
       0.10219047 -0.09456059 0.116639204 -0.11798874
000090 d4 28 c2 3d 58 24 fb 3d d7 b4 ee bd 25 63 b6 3d
       0.094804436 0.122627914 -0.11655586 0.08905629
0000a0 64 6b a5 3d a4 63 92 3d b9 85 8e bd 50 7d 66 bd
       0.08077124 0.07147911 -0.06959099 -0.05627185
0000b0 ed 7a 00 be 4f 12 ea bd 4c 7c 83 bd ea df e1 bd
       -0.12546892 -0.11429273 -0.06420192 -0.11029036
0000c0 d3 9b a1 bd e0 42 e8 3d 8a 49 a3 bd 0a 24 d1 bd
       -0.07891049 0.113408804 -0.07973011 -0.10211952
0000d0 b1 12 c9 bd 2d 6d 00 bd 3c 36 37 bd b7 d8 90 3d
       -0.09818018 -0.03135412 -0.044729456 0.07072585
0000e0 15 5e f1 bd 69 15 cb 3c 83 4d 9f 3d 91 09 96 3c
       -0.11785523 0.024790483 0.07778456 0.018315108
0000f0 61 cf eb bd 8e 60 f2 bd bc 67 da 3c 99 ee 26 bd
       -0.11514164 -0.118348226 0.026660793 -0.04075489

conv2.lins.0.weight f4 [64, 64]
000000 d7 33 39 be b0 f2 ab be 74 1a 16 3e 71 9b 36 be
       -0.18086182 -0.33583593 0.14658529 -0.17832734
000010 7a da 95 3d 42 27 03 be ff b1 14 3c 3a dc 97 be
       0.07317062 -0.12807944 0.009075641 -0.29660207
000020 5c 60 af bd 61 d2 5b be 1d 91 93 3d 89 c7 ea 3d
       -0.08563301 -0.21466972 0.072054125 0.114638396
000030 11 ed f6 3c 30 c6 72 bd 03 b4 8a be f9 28 1f be
       0.030142339 -0.059271038 -0.27090463 -0.15542974
000040 f1 3d 32 3e 3b 83 0a 3d d3 fd 1b bd f4 1e 88 be
       0.17406441 0.033816557 -0.038083863 -0.26586115
000050 32 50 72 bd 1a 49 01 be 51 bc a2 be 81 30 cc bc
       -0.05915851 -0.12625542 -0.317843 -0.024925472
000060 34 16 2e be 7d a4 f4 bd 10 e2 05 be bc a7 07 3d
       -0.17000657 -0.11945436 -0.13074517 0.03311895
000070 1c c0 75 bd 9f c2 9a bd 31 4e 1a 3e b8 3c 2f 3d
       -0.059997663 -0.07556652 0.1506889 0.042782515
000080 5e f8 56 bd ff 50 20 3e 20 8a 43 be b6 97 cc 3d
       -0.052482955 0.15655898 -0.1909566 0.09989874
000090 60 6d 57 be 6b 06 9e 3c c4 03 39 bb fc fe 25 be
       -0.21037817 0.01929017 -0.0028231004 -0.1621055
0000a0 78 54 61 3c 51 38 84 3d fa bb 43 be f7 dc b1 bd
       0.013753049 0.06456054 -0.19114676 -0.08684724
0000b0 41 c2 6d bd ae 4f 9a be e2 09 d9 3c 02 f2 31 be
       -0.058046583 -0.30138916 0.02649397 -0.17377475
0000c0 02 d0 0d be ed 14 4c 3d 67 2e 94 3c 6e c6 14 be
       -0.1384888 0.049824644 0.018088533 -0.1452882
0000d0 23 09 a2 3c 7a c4 27 be 51 8c 3b bd d9 63 52 3d
       0.019779747 -0.16383544 -0.045788113 0.051364753
0000e0 1f 15 7f bd 3b af ef bd 1d 53 83 bb 66 f4 91 be
       -0.062276002 -0.117033444 -0.0040077106 -0.28506774
0000f0 82 de fd 3d 76 25 89 be 7e e2 82 be a1 9c 8b bd
       0.123959556 -0.26786393 -0.25563425 -0.06816984
000100 27 65 ef 3d a5 a1 69 3e 0e 74 cb 3d 5f b6 2f 3e
       0.11689215 0.22815569 0.09934245 0.17159413
000110 c9 96 6d 3d bf e0 9a 3e 3d af 29 3e f0 b5 8f 3e
       0.058005128 0.30249593 0.16570754 0.28068495
000120 10 43 70 3e 01 e0 5b 3e e9 36 4b 3e 31 7a 6f bd
       0.23463082 0.2147217 0.19845165 -0.05846614
000130 dc 8d 8a 3e 58 1d 8a 3e 25 f1 40 3e 02 fc da bd
       0.27061355 0.26975513 0.1884199 -0.10692598
000140 68 57 64 3d cd 62 48 3d be 82 9a 3d ec 84 66 3c
       0.05574742 0.04892235 0.07544468 0.014069777
000150 d7 a5 e8 bc a1 06 9d 3b 1e ea 5f 3e 15 5a 32 3e
       -0.028399391 0.00479205 0.21866652 0.17417176
000160 48 c3 db 3d c1 b6 99 3e 37 c3 f3 3d ff aa c7 3d
       0.10730606 0.30022243 0.11902469 0.09749412
000170 91 47 b1 bd ad e7 59 3e 36 09 6a 3e 64 e3 e5 3d
       -0.08656228 0.21279784 0.22855076 0.11225012
000180 93 52 52 3e ac a1 b8 3c f6 7c c8 bd 27 1b 37 bd
       0.20539312 0.022538029 -0.097894594 -0.04470363
000190 89 46 74 3e 90 23 1c 3e 01 53 66 bd 27 fd 4c 3e
       0.23855032 0.15247941 -0.056231502 0.20018445
0001a0 63 9e 94 3c de e4 08 3e 1b 74 a0 3e ea e5 9c bc
       0.01814193 0.13368556 0.3133858 -0.0191526
0001b0 ba 8b 55 3c 8b 7c ac 3e 89 96 a6 bc de 4a d7 bd
       0.013033802 0.3368877 -0.020335453 -0.10512327
0001c0 14 0d 22 3e 72 8e b7 bd 38 8a 7c 3e 75 5f a6 3e
       0.15825301 -0.08962716 0.24662101 0.32494703
0001d0 4c 64 c2 3d 41 73 69 3d 40 22 a6 bd 56 81 83 3c
       0.09491786 0.05699468 -0.081120014 0.016052883
0001e0 5b f7 a8 bd 33 1f ad 3d d9 80 0d 3e 7c ef 45 3e
       -0.08250304 0.084532164 0.13818683 0.19329637
0001f0 d1 da 00 3d 4e 32 ae 3b 39 cf 8d 3e 92 a7 09 3e
       0.03145868 0.0053160554 0.2769716 0.13442829
000200 06 d0 99 3e 74 dd 59 3e 6c b6 24 be d5 2d b8 bd
       0.30041522 0.21275884 -0.16085213 -0.08993117
000210 4f b6 70 3d 6e 50 1e 3e 32 c0 a3 3c 73 66 c2 3d
       0.058767613 0.15460369 0.019989107 0.09492197
000220 6c f5 d1 3d f4 24 3e 3e 90 a5 d8 3c bb d9 d7 bd
       0.10251889 0.18568784 0.026446134 -0.10539576
000230 62 b9 e9 3d 9e a6 1b be 95 8e 50 3e b8 73 b0 bd
       0.11412312 -0.15200278 0.2036689 -0.086158216
000240 6c 79 53 3e 5e e8 83 bd 1a e9 5d bd ca 65 f3 bc
       0.20651788 -0.06440805 -0.05417738 -0.029711623
000250 7f be 6e 3d 5b 3c 00 be 87 0d 4f 3e f4 60 f7 3d
       0.05828714 -0.12523024 0.20220004 0.12079039
000260 57 ce 5a 3e 8d 6f 9e bd 6a cc 03 3e 70 46 b0 bd
       0.21367775 -0.077361204 0.12870947 -0.08607185
000270 1f fb 2a 3e 1a eb 63 be f3 42 a3 3d 8b 64 19 bb
       0.16697358 -0.22257653 0.07971754 -0.0023405876
000280 37 e7 ac 3d 76 c1 66 bd 49 b7 d6 3d f2 d2 5a 3e
       0.08442538 -0.056336842 0.104841776 0.21369532
000290 06 0b a0 bc be 83 f2 bc 7b dc 05 bd f6 1e f1 3c
       -0.019536506 -0.029603835 -0.03268097 0.029433709
0002a0 b0 5e 27 be 20 60 31 bd db 55 79 b8 66 d4 cf 3c
       -0.16344714 -0.043304563 -5.9446185e-05 0.025369834
0002b0 1a c7 88 be f0 9f 79 bd 94 9b 31 3d 90 7e 09 3e
       -0.26714402 -0.060943544 0.04336126 0.13427186
0002c0 36 5c 35 3e ff 37 79 3d ba 97 2a 3e f2 90 e9 bd
       0.17710957 0.060844418 0.16659442 -0.11404599
0002d0 52 e9 e6 3d 7a 4e d0 3d 19 e9 fb 3c 28 45 a7 3d
       0.11274971 0.10171218 0.030750798 0.081674874
0002e0 40 ea 57 3e f4 61 3a 3e 28 bd 12 3d 3a 4b 31 3e
       0.21085453 0.18201429 0.035824925 0.17313853
0002f0 c2 76 d8 bd e0 12 1f 3d 54 3a 29 3e 37 0d 58 be
       -0.10569526 0.03883636 0.16526157 -0.21098791
000300 b4 14 ac 3c 3c 27 ef 3c 29 a6 e3 bd 8c dc 39 be
       0.021005966 0.029193513 -0.11115677 -0.18150538
000310 b8 0d 9d be 92 49 9e 3d da 0a 84 ba be b7 11 be
       -0.3067453 0.07728876 -0.0010074035 -0.14230248
000320 34 22 14 3e 69 58 6f 3a 3b 65 d5 bd f6 e4 7e be
       0.14466172 0.00091303006 -0.10419699 -0.24892029
000330 e1 f3 e0 3c 50 1a 37 3c 76 4e 2f be d3 66 5a be
       0.02746004 0.011175707 -0.17119774 -0.21328287
000340 69 a3 82 be 16 6a b3 bc 2f d0 9a 3d 12 6d ad 3d
       -0.25515297 -0.021901172 0.07559239 0.08468069
000350 b7 48 26 3e 3e 02 ad bd 65 18 df 3d 56 a7 45 bc
       0.16238676 -0.08447693 0.10893325 -0.012063822
000360 87 a2 59 be 6f 96 8b 3d c5 76 e4 bd 31 07 28 bd
       -0.21253406 0.06815802 -0.11155466 -0.041022483
000370 67 dd 5c bd db 62 cf bc 13 09 a0 bd 4a 25 0b 3d
       -0.053922083 -0.025315693 -0.07814231 0.03397111
000380 a8 57 9a be f8 4c 80 be ec 95 27 be 24 dd 22 bd
       -0.30145 -0.25058722 -0.16365784 -0.039761677
000390 5e fe 04 be 38 38 f6 3c 3c ee 38 be b0 4d 8d be
       -0.12987658 0.030056104 -0.18059629 -0.27598333
0003a0 29 49 15 be 08 19 13 bd 87 fb 30 3c 60 52 5f be
       -0.1457869 -0.035912544 0.010802156 -0.21808767
0003b0 23 33 3f 3e 6d dd 08 be 48 c6 00 3e 8e 33 f1 bb
       0.18671851 -0.13365717 0.12575638 -0.007360882
0003c0 18 6b 0b bd 3d bd fd 3c db 53 00 3d 11 db 9b 3d
       -0.03403768 0.030974025 0.03132997 0.07610143
0003d0 3b 24 5b be 7e 7f 3f 3e f2 0c c5 3d 1f f3 5a be
       -0.2140054 0.18700978 0.0962161 -0.21381806
0003e0 a1 cd c6 bd a0 b7 12 3d 38 6a 23 be 09 7a f2 3d
       -0.09707189 0.03581965 -0.15958488 0.118396826
0003f0 17 cd 55 be eb 91 31 be 29 3b 94 be 6c 18 19 3e
       -0.20879017 -0.1734082 -0.28951386 0.14950722

conv2.lins.1.weight f4 [64, 64]
000000 f3 43 69 3e de ec 97 3e 74 a9 3f bd 8b 0c 07 3e
       0.22779827 0.29672903 -0.046792462 0.13188379
000010 29 68 68 3e 60 e0 8f bd 9a 5c 8a 3e d0 e3 2f 3d
       0.22695984 -0.07025218 0.27023774 0.04294187
000020 99 1f 7d 3e 54 73 04 be 9c 10 1b be bf d1 22 be
       0.24719085 -0.12934619 -0.15143055 -0.15900324
000030 75 43 e3 3d 8f 80 84 3c 3c 25 9a bc 7e 42 80 3e
       0.11096851 0.016174583 -0.018816583 0.2505073
000040 3f d8 99 3d dd 91 04 3d 78 b7 05 3e ee f3 52 3b
       0.07511949 0.03236567 0.13058269 0.003218885
000050 35 c4 90 3e d3 0f 23 3e ec 16 a4 bd 65 b1 88 3a
       0.28274694 0.15924005 -0.080121845 0.0010428844
000060 ef 55 92 bd 54 5f 82 3e fb 6e 2c 3e 7e 58 ea bd
       -0.07145297 0.25463355 0.1683921 -0.1144266
000070 53 d6 3b 3e 97 58 b1 3d 20 39 6d 3e a1 28 44 bd
       0.18343477 0.08659475 0.23166323 -0.04789031
000080 2d d0 f1 bd fb 09 c3 3d a9 ec 8f 3e 47 16 4f 3d
       -0.118072845 0.09523388 0.28110245 0.050558355
000090 77 8b 22 3e 24 d0 46 3e 24 83 b2 3d a9 7f df 3c
       0.15873514 0.19415337 0.08716419 0.027282553
0000a0 7a c8 9f 3d 85 4e 0f 3d a3 ba 18 3e 96 a4 66 3e
       0.0780191 0.03498699 0.14914946 0.22523722
0000b0 40 1b 69 3d d8 cd cd bc 0b eb 5d 3e ba 6b 4a bd
       0.056910753 -0.025122568 0.21671693 -0.049419142
0000c0 43 ad ca 3b e8 6e f5 3d fd cb 2e 3e 29 92 62 3e
       0.006185205 0.11984044 0.17070003 0.22126068
0000d0 04 45 9f 3d ef c6 64 bd 2c 17 4c 3d 91 3c 26 bd
       0.077768356 -0.05585378 0.049826786 -0.040585104
0000e0 c0 48 28 3d 31 63 6b bd 01 1b 39 3e 05 e9 90 3e
       0.041085005 -0.057467643 0.18076707 0.2830278
0000f0 95 84 e2 3d 31 a9 db 3d b8 6f 69 3d 3a 8c 7c 3e
       0.11060444 0.1072563 0.05699131 0.24662867
000100 5b 61 32 be 06 dc 23 be a9 b2 81 3d 65 13 40 3d
       -0.1741995 -0.16001901 0.06332905 0.046893496
000110 68 9e 2a be 76 46 c1 3c bc 0a 31 be 12 24 58 be
       -0.1666199 0.023593169 -0.17289251 -0.2110751
000120 81 61 38 bd 58 ab b1 3d 7f 07 50 be ec dd 19 be
       -0.045014862 0.08675259 -0.2031536 -0.15026063
000130 ed 37 60 be 1f 93 a1 bc 36 f2 7b be 1e 13 8f bd
       -0.21896334 -0.019723473 -0.24604115 -0.06986068
000140 76 9b f4 bd 7a d1 6f be ca 03 d8 bd 76 5a a2 be
       -0.11943714 -0.23419753 -0.10547598 -0.3170964
000150 48 a2 9c be 2c de 25 3d df e0 85 be 26 d4 77 3d
       -0.3059256 0.040495083 -0.26148126 0.060505055
000160 9e 87 44 3d dc 86 89 3d d4 be 64 bd b9 3f 9c be
       0.047980897 0.067151755 -0.05584605 -0.30517367
000170 67 68 ca bd ea 3d a5 bd 16 85 79 be 6a b6 7f 3d
       -0.098831944 -0.0806845 -0.24367175 0.062429823
000180 0c 78 e6 3d b4 36 2b be 9d 1d 65 be c6 6b 25 bd
       0.11253366 -0.16720086 -0.22374578 -0.040385984
000190 a9 d9 03 3e d8 6b 87 3d 9b 3f f5 bd d0 52 1f be
       0.12876 0.066123664 -0.119750224 -0.15558934
0001a0 4e 1c ad bd ff 62 01 be e0 05 98 be 66 55 7e be
       -0.08452664 -0.1263542 -0.29691982 -0.24837264
0001b0 f3 05 be 3d 64 27 85 be 0c 32 3e be 5d 6a c5 3d
       0.092784785 -0.26006615 -0.18573779 0.09639428
0001c0 99 aa 30 be ec a7 34 bd a7 ed 8b be a4 bd 52 3d
       -0.17252578 -0.044105455 -0.27329752 0.051450387
0001d0 ed a1 e4 bc f1 08 3c 3d 03 b2 f3 3c 4d c7 1d bd
       -0.027909243 0.045906965 0.029747969 -0.038520146
0001e0 d8 bd 69 ba a5 06 2c be b0 47 7d be 74 0f 18 bb
       -0.00089165336 -0.1679941 -0.24734378 -0.002320257
0001f0 3a 73 79 3d 2c ba a4 3d 6a 49 c2 bd bd 7b 94 bc
       0.060900904 0.08043322 -0.09486659 -0.01812541
000200 37 8f 0d be 60 54 16 3e 11 64 26 3e 7f 82 fa bd
       -0.13824163 0.14680624 0.1624911 -0.122319214
000210 32 10 cf bc 42 b0 35 bd 9f a9 64 be b3 00 97 bd
       -0.025276277 -0.044357546 -0.2233033 -0.0737318
000220 94 ad 47 be d6 a5 9c 3d 7c d7 4e bc 6f 57 49 3e
       -0.19499809 0.07648818 -0.012624618 0.1966226
000230 fc 69 0f 3d b8 30 e8 bd 5f 83 b6 3d 6f b6 58 be
       0.035013184 -0.11337417 0.08911776 -0.21163343
000240 e7 1a fd bc 97 7e a3 3b a5 51 0b be a7 7b 5b 3c
       -0.030896617 0.004989456 -0.13605364 0.01339618
000250 56 84 4b 3c 70 0e fb bd c5 98 db bb c9 f5 3c be
       0.012421688 -0.12258613 -0.006701561 -0.18453135
000260 35 7c 7b ba e7 30 0c be 91 d5 48 be 47 56 5a 3e
       -0.00095933984 -0.1369053 -0.19612719 0.21321975
000270 3a 87 12 bc 67 d7 54 3e 70 e9 16 3d 94 e5 c5 3c
       -0.008943373 0.20785294 0.036843717 0.024157323
000280 0a e9 ed 3d 84 ce 18 be 03 52 04 3e 0d 3b 5d be
       0.11616714 -0.1492253 0.1292191 -0.21604557
000290 7c f7 30 be 77 48 00 be df 08 81 bd 17 3b 1d 3d
       -0.17281908 -0.12527643 -0.0630052 0.03838643
0002a0 06 5a 32 bd 47 ca 52 3d 16 32 00 be ce 9e cd 3d
       -0.043542884 0.051462438 -0.12519106 0.10040055
0002b0 f8 e1 d6 bd b9 e9 75 be 55 73 90 bd d4 ef e0 3d
       -0.10492319 -0.2401494 -0.07053248 0.109832436
0002c0 63 f1 f9 3c 5e 87 41 be 55 21 f2 3d f1 06 bb 3d
       0.03051061 -0.18899295 0.11822764 0.09132183
0002d0 ec 24 ac bd e3 eb dc bc 5f 4d 08 be 39 b1 93 3d
       -0.0840548 -0.026967948 -0.13310765 0.07211537
0002e0 6d b5 19 bd d9 c4 58 be ff 42 5c 3e 8f 39 e8 bd
       -0.037526537 -0.21168841 0.21509932 -0.113391034
0002f0 a8 e6 b2 3d c9 2e 60 be fa e9 7d 3d ef 96 d5 bd
       0.087354004 -0.21892847 0.061990716 -0.10429179
000300 2a 58 0c 3c 13 a9 85 3e 75 db cc bd a6 ef e5 bd
       0.008565942 0.26105556 -0.100027956 -0.1122735
000310 f9 18 f1 bd 49 48 44 3e 27 f8 df 3d 15 4b 5b bd
       -0.11772341 0.191682 0.10936003 -0.0535384
000320 84 18 ac 3d 96 a8 32 bd eb 10 7e 3e b8 32 73 bc
       0.084031135 -0.043617807 0.24811141 -0.014843635
000330 c7 de 37 3e 0a df 69 3e e1 39 87 3e ca bb 75 3e
       0.17956077 0.22838989 0.26411346 0.23997417
000340 be 2c a4 bd 4a 05 66 3d 04 c9 84 3e 99 a0 6f 3d
       -0.080163464 0.056157388 0.25934613 0.058502767
000350 b9 62 88 3d 30 f7 bc 3d fb 46 37 3e c7 fc bf 3a
       0.06659455 0.09226835 0.1789817 0.0014647477
000360 59 d2 62 3e e0 d6 d9 bd 91 95 c5 bd bb 6e e4 bd
       0.22150554 -0.10636687 -0.09647668 -0.11153933
000370 3a 85 76 3d 91 c9 84 3e 90 4b 8c 3e 7a bd b2 3d
       0.06018565 0.25935033 0.274014 0.08727546
000380 4f 99 73 3e a7 8b d6 3c 99 1c a5 3b 5d 13 2d bd
       0.23788951 0.026189638 0.0050388095 -0.042254794
000390 ca 02 03 bc 5b 79 09 be 26 4d 83 bd 91 4b 2e 3e
       -0.00799627 -0.134252 -0.06411199 0.17021014
0003a0 e1 ec 8e 3e 52 1e 21 bd 33 2f d9 3d 4f 0a 3d 3e
       0.279151 -0.039335556 0.10604706 0.18460964
0003b0 55 7f 02 3e 15 9a d9 3d 4e a1 8e bd b2 ca d1 bd
       0.12743886 0.10625092 -0.0696436 -0.10243739
0003c0 c7 ab e3 bc dd f2 59 bd bc 1f 32 bd 2f 8a 5e bb
       -0.02779187 -0.053210128 -0.043487296 -0.0033956876
0003d0 e5 f4 1c be de 43 9d 3d d6 d4 45 bd 97 9a ce 3d
       -0.15327795 0.0767896 -0.04829868 0.100880794
0003e0 df 3a 94 3e e2 43 80 3e 1c 6b b6 3d dc c0 3f 3e
       0.28951165 0.2505179 0.08907148 0.18725914
0003f0 9a 45 bd b8 2a 67 d9 3d f6 7d fe bd 15 4d 25 3e
       -9.0251866e-05 0.1061538 -0.12426369 0.16142686

conv2.lins.2.weight f4 [64, 64]
000000 9b dc 34 be 24 c4 1b bd 67 59 e5 3c 10 d2 6d 3d
       -0.1766228 -0.03802885 0.027996732 0.05806166
000010 e0 54 fd 3d 8e 2a 8a bd f0 bb 75 3b 04 58 7b be
       0.12369704 -0.06746398 0.0037496053 -0.24545294
000020 89 db 73 3d 51 a6 83 bd fb 58 57 be 25 d0 d5 bd
       0.059535537 -0.06428207 -0.21030037 -0.10440091
000030 d4 02 9a 3d 43 c9 11 be 04 94 37 be a0 b5 26 be
       0.07520071 -0.14236932 -0.17927557 -0.16280222
000040 fa 37 36 bd 94 3b 67 3c 74 22 2c be e8 f7 49 3d
       -0.044486977 0.014113326 -0.16810018 0.049308687
000050 4e 45 86 3d 2b 0c 24 be 8d 57 9d 3d 44 28 da bd
       0.065561876 -0.16020267 0.076827146 -0.10652211
000060 dc 97 c2 3d 53 de e7 3c 0e dd da 3d 4f 65 ae bd
       0.09501621 0.028304255 0.10686694 -0.08515417
000070 c5 b1 9e 3b 29 ea c6 3c 52 f2 c2 3c 14 80 8e be
       0.004842969 0.024281578 0.023797188 -0.2783209
000080 36 1e 89 bd b7 9c ec 3d 5a 7c 08 be bf 8c 01 be
       -0.066952154 0.115533285 -0.13328686 -0.12651347
000090 e9 10 22 be 73 08 c5 38 15 1c ef bd 47 8a 78 be
       -0.15826763 9.395266e-05 -0.11675278 -0.24271499
0000a0 72 a4 43 be a7 5e 95 3e 73 0f 0f 3e 17 f8 6d 3d
       -0.191057 0.29173777 0.13970737 0.058097925
0000b0 7c ab 37 3e b0 9c 2d 3e 9a f7 32 be b3 f7 81 be
       0.1793651 0.16954303 -0.17477265 -0.25384292
0000c0 0e 18 6d 3d 41 8f d2 bc b5 34 5b 3e 0a bf c8 bd
       0.05788427 -0.025703074 0.21406825 -0.09802063
0000d0 26 d8 a1 3c 87 64 6d bb c4 45 62 3e 30 ba e6 3c
       0.019756388 -0.003622325 0.22096926 0.028164953
0000e0 86 87 20 3e 00 2b 20 3d 17 f1 01 3e 1f 56 7f be
       0.15676698 0.039103508 0.12689625 -0.24935196
0000f0 99 fa 79 bc f5 f3 8e bd 19 6b dd 3d 57 78 bf bd
       -0.015257501 -0.06980125 0.10811443 -0.09349125
000100 7d e5 30 3e 05 77 36 be f4 94 bb bd 3e 6f 56 3d
       0.17275043 -0.1781884 -0.0915927 0.052352183
000110 02 fd f1 3d 88 ea 3f bd 45 ee 91 bd 90 6c 93 3e
       0.118158355 -0.046854526 -0.071255244 0.28793764
000120 b0 f0 c6 bd 49 39 f8 3d 68 53 f0 3d 60 ad 93 bd
       -0.09713876 0.12120301 0.117346585 -0.07210803
000130 a5 a8 4e 3e cc 58 85 bd 2e 4a f1 bc 56 83 d8 3d
       0.2018152 -0.06511077 -0.029454317 0.10571925
000140 d7 14 66 3e 9b 29 58 be 83 53 b8 3d c7 69 f5 3c
       0.22468887 -0.21109621 0.090003036 0.029957665
000150 f6 c9 fe 3d 3d ec f0 bd 5d 40 f0 3c df 79 36 3e
       0.12440865 -0.11763809 0.029327566 0.17819928
000160 72 6c 03 be 8f ea 24 3d a8 4f 26 3e 6b b5 ce bd
       -0.12834337 0.040262755 0.16241324 -0.100931965
000170 39 a4 1a be 4d db 67 be c4 2b 99 bc 6a c3 92 3e
       -0.15101708 -0.2264225 -0.018697627 0.28664714
000180 22 bb d3 3c 62 a5 47 bd a4 0a 33 3e 14 5a a8 3d
       0.025846068 -0.048741706 0.17484528 0.08220306
000190 45 08 39 3e 72 92 2b be 94 67 6c 3e 46 4d bf 3d
       0.18069561 -0.16755083 0.23086387 0.093409106
0001a0 d8 d6 5d be f8 d6 1d bd c9 7e 13 3e e6 ff 95 3d
       -0.21663988 -0.03853509 0.14403833 0.073241994
0001b0 ad 30 1e 3e 47 d4 22 be 88 14 31 be 04 cb 2c 3d
       0.15448256 -0.1590129 -0.17292988 0.0421858
0001c0 70 fd 88 3e 9e 7f 25 3e 43 74 fa bd 14 02 f7 3d
       0.26755857 0.16161963 -0.122292064 0.12060943
0001d0 27 9e 40 3e 40 68 07 3e c8 5c 99 3c 16 88 33 3e
       0.1881033 0.13223362 0.018721 0.17532381
0001e0 44 54 a8 bc 70 2e 19 3e 46 c0 67 3e 08 ed fb 3d
       -0.020547993 0.14959121 0.2263194 0.123010695
0001f0 c1 b3 8d 3d e2 b1 e1 3d 85 78 2a bd 8d cc 25 3e
       0.06919051 0.110202566 -0.041618843 0.16191311
000200 a3 a3 08 3e 66 ef 32 3e 43 73 55 3d 3f 23 e6 3c
       0.13343672 0.17474136 0.052111875 0.028092979
000210 7c 8b d0 3d fa 3f 37 3e a4 4f 13 3e 71 6f fe 3c
       0.101828545 0.17895499 0.14385849 0.031058999
000220 a9 16 cf 3d 79 e1 12 3d 9b 7f be 3d 5f a4 1e 3e
       0.10111744 0.03585956 0.093016826 0.1549239
000230 5e f9 40 3e f8 fb 99 bc a7 9a 1a 3e a1 91 50 3c
       0.18845126 -0.018796906 0.15098058 0.012730033
000240 2c 35 f6 3c c3 27 b2 bd f5 20 77 3e a5 b4 00 3e
       0.030054651 -0.0869899 0.24133666 0.1256891
000250 0f bc 23 be f2 57 5e 3e 4d 8c 43 3e 16 20 5c bd
       -0.15989707 0.21713236 0.19096489 -0.053741537
000260 5b af 41 3e 45 f1 3c 3c 87 a5 03 bd 67 db fd 3c
       0.18914549 0.0115321325 -0.03214028 0.030988408
000270 5e 13 05 bd 32 c1 25 bd 2a 77 15 be ce c2 34 3e
       -0.032489173 -0.04046745 -0.14596239 0.17652437
000280 46 d7 b1 b9 5f 4f 09 be 48 72 ff bc 99 f8 e6 bd
       -0.00033920462 -0.13409184 -0.031182423 -0.11277885
000290 d0 fe 3f be eb d6 d4 b9 f8 e5 7f bd 17 b1 c0 ba
       -0.18749547 -0.00040595917 -0.062475175 -0.0014701214
0002a0 29 c2 84 bd 9e 01 4f be 7c 2e 0e be d5 c4 70 3e
       -0.064823456 -0.2021546 -0.1388492 0.23512585
0002b0 95 fe ab bd a9 2c 40 be ec 99 94 bd fa 52 74 3d
       -0.08398167 -0.18767036 -0.07255921 0.059649445
0002c0 d5 3d b8 bd 99 77 d8 bd d7 9c 29 be 48 e8 7c 3c
       -0.089961685 -0.105696864 -0.16563736 0.01543624
0002d0 d6 ff be 3d f6 de cc bb d0 2f ac bd be 7b 4c be
       0.093261406 -0.006252165 -0.08407557 -0.19969079
0002e0 48 b2 96 bd 9e ee c6 3d 15 95 87 bd ae a4 6a be
       -0.07358223 0.09713481 -0.06620232 -0.22914383
0002f0 16 5c 4e 3e dd 95 a6 bd f4 9a 1c 3e 2e d7 e3 3d
       0.20152315 -0.08134053 0.15293485 0.11125027
000300 03 88 56 3d c3 ad 54 3e 61 b5 04 bd 09 65 7b 3e
       0.052375805 0.2076941 -0.03239954 0.2455026
000310 1f 05 1c 3d 0c 18 54 be 74 0d e5 bd e3 c7 28 3e
       0.03809082 -0.20712298 -0.111842066 0.164825
000320 65 74 6f 3d a0 4d 00 3e f6 1f d6 bd d4 ea c2 3c
       0.05846061 0.12529612 -0.10455315 0.023793615
000330 81 62 89 3d c4 90 2a be 3b e4 01 3c e6 c0 02 3d
       0.06708241 -0.16656786 0.00792795 0.031922244
000340 24 6f 15 be 5b e6 56 bc 5a a8 b4 bd 5b ff 68 3e
       -0.14593178 -0.013116444 -0.08821173 0.2275366
000350 fd 3a 44 bd 17 83 ec 3d f8 13 16 3e 66 5d 91 3d
       -0.047907818 0.11548441 0.14656055 0.070978925
000360 b5 e1 9b 3c 8e c9 e5 3d cc 32 36 be c3 2f 22 bd
       0.019028524 0.11220084 -0.17792815 -0.03959633
000370 54 eb 30 be e2 8d 06 3e 0a 02 67 bd 9a ae eb bd
       -0.1727727 0.13140061 -0.05639843 -0.11507912
000380 1c 12 03 be 2c cc 13 3e b0 49 bb bd 74 44 cb bd
       -0.12799877 0.14433354 -0.09144914 -0.09925166
000390 c2 fb 32 be 12 ff 18 be d1 45 5e be fa 72 a2 bd
       -0.1747885 -0.14941052 -0.2170632 -0.07932086
0003a0 ea 9b 14 be 74 f2 19 bb a4 9e 16 3e 2e 9f c7 3b
       -0.14512601 -0.002349046 0.14708954 0.0060919737
0003b0 2c c4 11 3e cc 9d 99 bd 48 e6 12 be da e4 61 be
       0.1423499 -0.075008005 -0.14345658 -0.22059956
0003c0 38 86 18 3e 0c f7 93 bd 56 c4 b9 bc d0 45 53 be
       0.1489495 -0.07224855 -0.022676628 -0.206321
0003d0 05 50 aa 3d 9c 44 aa 3d 89 25 87 be b3 39 9c bd
       0.08316044 0.083138674 -0.26395825 -0.07628193
0003e0 30 b5 32 3e c8 cc df 3d 80 e2 75 3e 1f 9b 61 3e
       0.1745193 0.10927731 0.24012184 0.2203183
0003f0 31 9e 43 3e be 12 9f 3d 90 b7 4e be 74 f4 97 3d
       0.19103314 0.07767247 -0.20187211 0.074196726
