outputs/classification/edges/exp_ii/weights/gat_1.pth (torch, 61743 bytes, 12 tensors)

conv1.att_src f4 [1, 3, 64]
0.028864421 -0.017623331 0.3393377 0.18118954 -0.02123781 -0.12942159 -0.28281125 -0.17692506
-0.08545671 -0.31781697 0.0014300504 -0.19692059 0.14148034 0.13132252 0.05309241 0.19347697
0.3075449 0.08849178 0.29667282 0.13878423 -0.028907532 -0.12584844 -0.26691562 0.08597258
-0.18439034 -0.2933871 0.21926132 -0.03834244 0.31923977 -0.17883097 0.024968853 0.25147069
0.021473214 -0.36142233 0.12491096 0.015873719 -0.13651487 -0.10905047 0.1232699 0.08678603
-0.19676818 -0.1981702 0.11872839 -0.37589368 -0.0762798 -0.04527164 -0.14054969 -0.007051197
-0.2779066 0.13030505 0.063732974 -0.2529776 0.12957135 0.020551171 0.12397987 -0.06532656
-0.27552268 -0.2663094 0.2186962 0.32933325 0.12632838 -0.087635495 0.068371296 0.09701404
0.08313954 0.08803031 -0.09246662 -0.05748858 -0.15089539 0.076895304 0.08668605 0.07882323
0.27649596 0.19285046 0.2414533 0.288666 0.05580898 -0.06237397 0.10877036 0.07435341
-0.14990285 -0.076667204 0.061272956 0.2860178 -0.36142442 -0.34100673 -0.007941054 0.13352567
-0.11652465 0.051039893 -0.12697507 0.054848865 0.262754 -0.13284358 -0.07150441 -0.3027784
-0.33912203 -0.1218754 0.3048142 0.021903424 0.17452544 0.06620244 0.227046 -0.026338149
-0.17955995 -0.0054934053 -0.008087316 -0.025373176 0.18844786 -0.20869054 -0.07246074 -0.07015792
-0.19804591 0.17342071 0.21062452 -0.31331772 0.21575378 0.24145918 -0.12614673 -0.016517198
-0.105053306 0.1783185 0.18283774 -0.14489979 0.3085579 0.013060664 0.14901844 0.28187487
-0.1152993 -0.2646559 -0.13009207 -0.14196615 -0.012349329 0.13010313 -0.0152823925 -0.07524424
-0.1846806 -0.07823678 0.24857613 -0.09837568 0.1671746 -0.19733074 0.119715706 0.34722534
0.060499847 0.17108928 0.059270598 0.062475763 -0.07170283 -0.2810152 -0.022187106 -0.22287449
0.3433238 0.13312027 -0.08275279 0.05526514 0.0750658 -0.18930027 0.045163017 0.21932074
-0.13534783 0.18831775 -0.23968528 0.14549448 -0.04657608 -0.116385035 0.22794925 -0.17320582
0.29739287 -0.33412418 0.19899665 0.108341075 -0.20037863 -0.13343145 0.2100113 0.14420664
-0.2697971 -0.22694038 -0.37632516 -0.06754678 -0.31472307 -0.016963866 0.11554816 -0.13307658
0.25031656 -0.101684235 0.33879778 -0.13106251 -0.016853807 0.24891798 0.30283764 0.07217292
00000000: 1475 ec3c ce5e 90bc acbd ad3e c089 393e
00000010: eafa adbc 1887 04be a3cc 90be d82b 35be
00000020: ed03 afbd e8b8 a2be 8770 bb3a 8da5 49be
00000030: 39e0 103e 6979 063e 6d77 593d d41e 463e
00000040: 8676 9d3e 2e3b b53d 80e5 973e 741d 0e3e
00000050: 7dcf ecbc 6ade 00be 2aa9 88be 6412 b03d
00000060: d2d0 3cbe d536 96be 0a86 603e f60c 1dbd
00000070: 6573 a33e 771f 37be 7b8b cc3c c4c0 803e
00000080: 98e8 af3c 590c b9be 51d1 ff3d 9a09 823c
00000090: 8eca 0bbe da55 dfbd ee74 fc3d e0bc b13d
000000a0: 997d 49be 21ed 4abe df27 f33d 2375 c0be
000000b0: 9538 9cbd c16e 39bd 42ec 0fbe ba0d e7bb
000000c0: c649 8ebe b06e 053e 6f86 823d 4886 81be
000000d0: 5aae 043e ee5a a83c 28e9 fd3d eec9 85bd
000000e0: 4f11 8dbe b559 88be e6f1 5f3e 5e9e a83e
000000f0: 3a5c 013e 3d7a b3bd 4006 8c3d 4caf c63d
00000100: 1045 aa3d 3c49 b43d 245f bdbd 2579 6bbd
00000110: 5284 1abe 497b 9d3d 7588 b13d 136e a13d
00000120: e190 8d3e 977a 453e 893f 773e 08cc 933e
00000130: f597 643d d97b 7fbd ffc2 de3d 9a46 983d
00000140: 2280 19be b203 9dbd 5af9 7a3d ed70 923e
00000150: 9f0c b9be 6f98 aebe 321b 02bc f4ba 083e
00000160: 7aa4 eebd 350f 513d c105 02be 34a9 603d
00000170: b187 863e 2608 08be e770 92bd c505 9bbe
00000180: 67a1 adbe cf99 f9bd 9b10 9c3e cf6e b33c
00000190: ccb6 323e 2595 873d bf7e 683e 1ac3 d7bc
000001a0: 90de 37be 0602 b4bb a980 04bc 68db cfbc
000001b0: 7af8 403e f9b2 55be 4c66 94bd f5ae 8fbd
000001c0: 8ccc 4abe 3395 313e f4ad 573e 2e6b a0be
000001d0: 8fee 5c3e 1341 773e 9c2c 01be 134f 87bc
000001e0: 3026 d7bd 2099 363e d139 3b3e 9c60 14be
000001f0: 4dfb 9d3e 65fc 553c 4a98 183e e751 903e
00000200: 0a22 ecbd fa80 87be db36 05be 935f 11be
00000210: d754 4abc c139 053e 0063 7abc a719 9abd
00000220: e91c 3dbe 9b3a a0bd be8a 7e3e 3079 c9bd
00000230: d12f 2b3e 1211 4abe 822d f53d 85c7 b13e
00000240: b0ce 773d 0732 2f3e bac5 723d 96e6 7f3d
00000250: efd8 92bd 39e1 8fbe bcc1 b5bc 3639 64be
00000260: 23c8 af3e ae50 083e 4b7a a9bd b35d 623d
00000270: 19bc 993d eed7 41be dbfc 383d 9e95 603e
00000280: 9f98 0abe 5ed6 403e 0f70 75be 81fc 143e
00000290: 8fc6 3ebd 475b eebd 876b 693e de5c 31be
000002a0: e143 983e 5312 abbe c7c5 4b3e ede1 dd3d
000002b0: 0e30 4dbe 41a2 08be 340d 573e e8aa 133e
000002c0: d822 8abe 0f63 68be b1ad c0be f755 8abd
000002d0: 6223 a1be cef7 8abc 84a4 ec3d 3a45 08be
000002e0: 7e29 803e d33f d0bd e776 ad3e 4035 06be
000002f0: ff10 8abc 5be4 7e3e 890d 9b3e 65cf 933d

conv1.att_dst f4 [1, 3, 64]
-0.029762298 -0.1096875 -0.13052179 0.15724756 0.15720186 -0.09429105 -0.17037773 0.2032047
-0.012351263 0.0960611 -0.14296892 -0.33520934 -0.10254694 -0.06941718 0.07814005 0.32473153
-0.249812 0.012699795 -0.29639217 0.14605363 -0.3592542 0.18699588 -0.024674214 -0.13861543
-0.11286452 0.16242215 0.15591472 -0.16045578 0.08950537 -0.35702747 0.30293456 0.18753979
0.29628155 0.28064284 -0.022872712 0.113182716 -0.12442117 -0.0840477 0.07178318 -0.20379807
-0.26654637 -0.3520478 -0.0060521667 -0.004822076 0.19173421 -0.23530576 -0.033300575 0.1984253
-0.0007844759 -0.13945004 -0.12310805 0.24185446 -0.10791225 -0.27013502 0.10307343 -0.3244403
0.09183481 0.2581188 0.1948446 0.118541405 -0.18689813 -0.18916464 -0.019890614 -0.07099172
-0.18212363 0.23269561 0.12622614 0.14544554 0.116779804 -0.18144397 0.30180857 -0.38394785
-0.2470646 -0.1331049 0.18603125 -0.23285626 -0.32874027 0.056916974 -0.35705167 0.14560701
-0.17952286 0.11336492 -0.15256423 0.16045946 0.1749118 0.18212958 -0.23183167 -0.13441385
-0.095697306 0.21025482 -0.115996726 -0.11864026 -0.30641815 -0.1806139 -0.29630864 0.08378342
0.36836416 0.061491303 -0.3437226 -0.0555724 -0.2780784 0.13452558 -0.21183604 -0.030805213
-0.36820358 0.18977663 -0.01918016 0.0036530315 -0.07264806 0.16104968 0.057183705 -0.20319632
-0.20393793 0.2983131 0.019209228 0.2185273 0.08989667 -0.3117097 0.054291062 -0.1684043
0.115674615 0.11467297 0.25283694 0.05590514 -0.20787275 0.013495478 -0.03079802 0.051666904
-0.24614412 0.13827847 0.13158184 0.16344239 -0.33817047 -0.03860242 0.3157321 0.14877819
0.14031535 0.20630701 0.1265743 -0.37647718 -0.2824149 0.08824007 0.28273448 -0.22222933
0.15836957 -0.13127823 0.19388586 -0.16446497 0.1738829 0.02287515 -0.0036075632 0.19468981
-0.12471936 0.20153856 -0.16521592 0.024870759 -0.33504695 0.044070277 0.059657626 0.26818854
-0.33650264 0.03142761 0.018058678 -0.18983749 -0.09799716 0.13789429 -0.33534354 0.28280836
-0.14171144 -0.09153075 0.24713227 -0.04453982 0.14999704 0.1430556 -0.2798567 0.173364
0.067944124 0.1170408 -0.17673473 0.14953914 -0.069574095 -0.081717424 0.02174207 0.032458737
0.15829843 -0.11963789 -0.0166588 -0.062616244 0.0071124393 0.1607951 0.34387836 -0.36601868
00000000: 10d0 f3bc d7a3 e0bd 81a7 05be 8105 213e
00000010: 86f9 203e ab1b c1bd 8077 2ebe e514 503e
00000020: f45c 4abc afbb c43d 7266 12be 8fa0 abbe
00000030: 2104 d2bd 982a 8ebd e407 a03d 3643 a63e
00000040: b8ce 7fbe cd12 503c b7c0 97be 158f 153e
00000050: 2bf0 b7be d97b 3f3e 9421 cabc 34f1 0dbe
00000060: 8325 e7bd fe51 263e 1ca8 1f3e 854e 24be
00000070: 974e b73d 4ecc b6be 3d1a 9b3e 6e0a 403e
00000080: 37b2 973e 6bb0 8f3e 8e5f bbbc 57cc e73d
00000090: 87d0 febd 3321 acbd 0f03 933d 71b0 50be
000000a0: c478 88be 9c3f b4be 4151 c6bb 8102 9ebb
000000b0: f955 443e fef3 70be 2f66 08bd 0030 4b3e
000000c0: 49a5 4dba fecb 0ebe 1320 fcbd b2a8 773e
000000d0: 1901 ddbd 234f 8abe 2a18 d33d 0a1d a6be
000000e0: e413 bc3d 2628 843e 5885 473e d6c5 f23d
000000f0: 3962 3fbe 60b4 41be a4f1 a2bc 1b64 91bd
00000100: 9e7e 3abe c247 6e3e 6d41 013e adef 143e
00000110: 402a ef3d 73cc 39be a786 9a3e d094 c4be
00000120: 81fe 7cbe a74c 08be fa7e 3e3e df71 6ebe
00000130: a550 a8be c621 693d 7acf b6be 011a 153e
00000140: d7d4 37be de2b e83d cc39 1cbe 7c4f 243e
00000150: 141c 333e 2d80 3a3e 4865 6dbe c9a3 09be
00000160: f3fc c3bd 0a4d 573e b18f edbd aaf9 f2bd
00000170: d7e2 9cbe daf2 38be c4b5 97be a496 ab3d
00000180: 3a9a bc3e 4ede 7b3d 69fc afbe e39f 63bd
00000190: 4b60 8ebe 13c1 093e 8ceb 58be 375b fcbc
000001a0: 2e85 bcbe ce54 423e b61f 9dbc b367 6f3b
000001b0: 82c8 94bd 35ea 243e 7639 6a3d b212 50be
000001c0: 1bd5 50be 7fbc 983e ac5c 9d3c 9fc5 5f3e
000001d0: bf1b b83d 6a98 9fbe 4e60 5e3d 2d72 2cbe
000001e0: d0e6 ec3d a9d9 ea3d d873 813e cafc 643d
000001f0: 98dc 54be 231c 5d3c 214c fcbc ada0 533d
00000200: 340d 7cbe df98 0d3e 64bd 063e 715d 273e
00000210: ae24 adbe 921d 1ebd a3a7 a13e 4f59 183e
00000220: d4ae 0f3e 2542 533e b19c 013e 9ec1 c0be
00000230: b098 90be 36b7 b43d 93c2 903e 1690 63be
00000240: a22b 223e cd6d 06be 048a 463e 8169 28be
00000250: 5c0e 323e ab64 bb3c de6c 6cbb c45c 473e
00000260: dd6c ffbd 2060 4e3e 5d2e 29be c3bd cb3c
00000270: 468b abbe 0983 343d 8e5b 743d 0250 893e
00000280: 134a acbe 3dba 003d cbef 933c c264 42be
00000290: bcb2 c8bd 2934 0d3e 26b2 abbe 42cc 903e
000002a0: ce1c 11be 7974 bbbd 3e10 7d3e 636f 36bd
000002b0: d398 193e 2b7d 123e 6149 8fbe 5586 313e
000002c0: 4a26 8b3d 16b3 ef3d f3f9 34be ca20 193e
000002d0: dd7c 8ebd 775b a7bd 6d1c b23c 74f3 043d
000002e0: fc18 223e b604 f5bd 0978 88bc f23c 80bd
000002f0: 770f e93b 78a7 243e d310 b03e cd66 bbbe

conv1.bias f4 [192]
0.060091317 -0.06919826 -0.10468998 -0.06435681 -0.058115173 0.10211002 -0.073184915 -0.12297679
-0.106467515 -0.05072897 -0.13881652 0.16326982 0.04509826 -0.117336676 0.1979435 -0.12486233
-0.0007783498 -0.07716306 -0.007720437 -0.11554154 0.057563674 -0.08410361 -0.04768609 -0.050783005
-0.055990737 -0.05201843 0.08849285 -0.072630905 -0.062048048 -0.08995957 -0.11605687 0.10543665
-0.066582866 -0.13182667 -0.09697493 -0.04938826 -0.057670094 -0.04202002 0.027615748 -0.017770011
-0.13855895 -0.13179505 0.088841185 0.10736241 -0.03634817 0.14818846 0.118666686 0.11499266
-0.091754325 -0.048326567 -0.016782887 -0.07361383 -0.07494757 -0.07286536 -0.0763634 -0.1635317
-0.11083882 -0.14942458 0.0 -0.059649773 0.008981905 -0.12403496 -0.051214345 0.0
-0.022505447 0.12546515 0.10198435 -0.04335891 -0.11492534 -0.066091515 0.11495381 0.24861357
-0.044116095 -0.073114045 0.06312531 -0.092525244 -0.024958447 -0.0012188407 -0.06283468 -0.060870226
-0.09110585 -0.043660995 0.09922845 -0.1186198 -0.06198676 -0.069586895 -0.017998828 0.0044414112
0.04712422 -0.070062794 0.44710937 -0.08003806 0.08582336 0.093820386 0.0 -0.04975633
0.099450946 -0.04707562 -0.011105373 -0.06068053 0.059649833 -0.06816324 0.0 -0.081093624
0.0 0.14556667 0.055627055 -0.12321066 -0.06979406 0.0020488675 -0.08892705 -0.09596205
-0.08851449 0.012542606 0.047085594 -0.10597686 -0.16634287 0.0 -0.07776129 -0.08055775
0.021400524 0.060329262 -0.09622276 -0.08720418 -0.002927843 -0.07206545 -0.03606808 -0.101775385
0.09746732 -0.09448824 -0.116519965 -0.11171464 -0.038013365 -0.08427509 -0.022835445 0.14030856
-0.022807222 -0.11681757 0.10743579 -0.033555407 0.1139117 0.07447358 0.017763251 0.120382965
-0.09399538 -0.071289696 0.108501695 0.10572786 -0.13149789 -0.057081867 -0.10964337 -0.10064895
0.04385442 -0.05826637 0.10223963 0.022349693 -0.11803459 0.0474533 -0.07379834 -0.05151639
-0.057309654 0.1382601 -0.052971747 0.06261813 0.067218415 -0.10376053 0.04003538 0.03308686
0.068665646 -0.10426211 0.12785052 -0.1015115 -0.11979809 -0.06193137 0.0 0.37405524
-0.0799809 -0.10508108 -0.059206 0.07219528 -0.11029028 0.13834289 -0.055565078 0.14071044
-0.15557003 -0.022399312 0.010490277 -0.02899078 0.008929602 -0.05740014 -0.0846441 0.05517108
00000000: 5022 763d d1b7 8dbd b367 d6bd 81cd 83bd
00000010: 2d0a 6ebd 0f1f d13d f9e1 95bd 41db fbbd
00000020: a40b dabd 2ec9 4fbd eb25 0ebe 3430 273e
00000030: f4b8 383d 364e f0bd b3b1 4a3e d2b7 ffbd
00000040: 2c0a 4cba ab07 9ebd b8fb fcbb 0ba1 ecbd
00000050: e3c7 6b3d 833e acbd 7d52 43bd d701 50bd
00000060: 8b56 65bd 4711 55bd bd3b b53d 83bf 94bd
00000070: 1826 7ebd b93c b8bd 39af edbd 2cef d73d
00000080: 995c 88bd 92fd 06be cb9a c6bd 584b 4abd
00000090: 7a37 6cbd 2f1d 2cbd 6c3a e23c 6a92 91bc
000000a0: 66e2 0dbe 48f5 06be 5ef2 b53d d3e0 db3d
000000b0: d2e1 14bd b7be 173e 8507 f33d 4681 eb3d
000000c0: b1e9 bbbd 14f2 45bd 447c 89bc d9c2 96bd
000000d0: 1d7e 99bd 6f3a 95bd 6a64 9cbd db74 27be
000000e0: 77ff e2bd c202 19be 0000 0000 5253 74bd
000000f0: d728 133c 0b06 febd 22c6 51bd 0000 0000
00000100: 585d b8bc f079 003e 2cdd d03d 1d99 31bd
00000110: fa5d ebbd fd5a 87bd e76c eb3d 8e94 7e3e
00000120: 14b3 34bd d1bc 95bd d847 813d e07d bdbd
00000130: a875 ccbc 82c1 9fba 78af 80bd 0f53 79bd
00000140: b495 babd dfd5 32bd 4938 cb3d f0ee f2bd
00000150: d4e5 7dbd 9383 8ebd 4772 93bc 4289 913b
00000160: 5305 413d 157d 8fbd 85eb e43e ffea a3bd
00000170: 28c4 af3d e724 c03d 0000 0000 4bcd 4bbd
00000180: f0ac cb3d 5ed2 40bd 4ff3 35bc 268c 78bd
00000190: 6253 743d 2b99 8bbd 0000 0000 6a14 a6bd
000001a0: 0000 0000 6e0f 153e 32d9 633d df55 fcbd
000001b0: 30f0 8ebd 4b46 063b 631f b6bd c087 c4bd
000001c0: 1647 b5bd 817f 4d3c d3dc 403d 650a d9bd
000001d0: c955 2abe 0000 0000 5041 9fbd 76fb a4bd
000001e0: 2750 af3c d11b 773d 7010 c5bd 1b98 b2bd
000001f0: 0ee1 3fbb 0d97 93bd 20bc 13bd 9d6f d0bd
00000200: f29c c73d 0d83 c1bd 05a2 eebd a5ca e4bd
00000210: e7b3 1bbd 6b98 acbd 6611 bbbc 0cad 0f3e
00000220: 36d6 babc 0d3e efbd 4c07 dc3d 6571 09bd
00000230: 8a4a e93d 9b85 983d 3d84 913c 588b f63d
00000240: a680 c0bd 5500 92bd 2336 de3d d987 d83d
00000250: 62a7 06be adce 69bd b48c e0bd 0921 cebd
00000260: b1a0 333d b8a8 6ebd 0363 d13d b416 b73c
00000270: 1ebc f1bd 645e 423d 9623 97bd da02 53bd
00000280: 87bd 6abd 0e94 0d3e e7f8 58bd ef3d 803d
00000290: cfa9 893d 6780 d4bd 23fc 233d 1686 073d
000002a0: 93a0 8c3d 6087 d5bd 3feb 023e 43e5 cfbd
000002b0: b358 f5bd c0ab 7dbd 0000 0000 2b84 bf3e
000002c0: 07cd a3bd c034 d7bd fe81 72bd 1edb 933d
000002d0: dfdf e1bd c2a9 0d3e 3598 63bd 6616 103e
000002e0: c04d 1fbe c37e b7bc 69df 2b3c 127e edbc
000002f0: 774d 123c 691c 6bbd e359 adbd 12fb 613d

conv1.lin_src.weight f4 [192, 7]
-0.05791342 0.065216325 0.116597876 0.04936301 0.015828412 0.24281012 0.2655786 0.090449564
-0.14151193 0.11030704 0.014883379 -0.005009123 -0.16185142 -0.08580321 0.0106649315 -0.06081535
-0.2692289 -0.1433907 -0.19108792 -0.15149653 -0.25750667 -0.026430676 -0.11908626 -0.21652009
0.07710544 0.035499636 -0.0022784246 -0.23715828 -0.13008289 -0.06944527 -0.012623942 -0.2229834
0.099516176 0.09362067 -0.1436119 -0.05387516 -0.07485026 0.013502213 0.078989096 0.16326036
0.18879452 0.14243446 -0.056033675 0.018962445 0.074174084 0.031795014 0.124870494 -0.18634215
0.037589256 -0.25658834 0.0443229 0.14553754 -0.121902324 0.09460429 -0.15617062 0.026124096
-0.1302188 0.05760009 -0.06770253 -0.20606746 -0.031862438 -0.15162642 0.08538608 0.022200912
0.07947657 0.06763852 0.07507051 0.07122165 -0.14957845 -0.106622845 0.092667855 -0.0634604
0.10276074 0.14627163 -0.013538345 -0.008993363 -0.0743164 -0.0716577 -0.03129929 -0.051912867
0.17241178 0.21711288 0.14138503 -0.070695184 0.090802625 -0.072045356 -0.029719893 0.17189983
0.061330337 0.1247584 0.14161733 -0.14030524 0.0066211554 -0.20829451 -0.12729065 -0.0038126174
-0.1620656 0.04818301 -0.021162068 0.015899353 0.10166003 0.030241596 0.18937686 0.091830604
0.06329579 0.010720598 -0.013009962 -0.16759445 -0.025906835 -0.19645779 -0.05092877 -0.0146233495
-0.020608107 -0.2056692 -0.03208812 -0.0027694288 -0.019069582 -0.044724774 -0.2230515 0.092211686
-0.043177716 -0.016416186 -0.032245032 -0.17461444 -0.25342602 -0.12253104 0.09078075 -0.25411236
-0.106787086 -0.11928006 -0.19028243 0.073747724 -0.0023570983 0.015641253 0.054589134 -0.22466177
-0.25470728 -0.15223034 -0.25275782 0.037856422 0.18049538 -0.111768186 0.0906397 -0.19306144
0.097285226 0.09015908 -0.17774622 0.10071635 -0.105252825 0.04857538 -0.18434033 0.0011804315
-0.18889149 0.0064459057 -0.1135236 0.1011083 0.11130307 -0.16741455 0.07191992 0.13612941
-0.09863663 -0.038127284 -0.026294898 0.10065182 -0.085288964 0.027231943 -0.17146191 -0.19592853
-0.12787046 0.030249352 -0.008259743 -0.17248426 -0.04661338 0.12711719 -0.05607703 0.16169973
0.05932136 0.080997154 -0.0026444707 0.12592103 -0.01074151 -0.067469716 0.11555262 -0.019472087
0.055709682 -0.15475814 -0.09396948 -0.056965023 0.030060071 0.06300317 0.12861429 0.038086023
-0.014376632 -0.07119655 -0.02451026 0.092944145 -0.053072635 -0.15127769 -0.14570907 -0.15606993
0.03672824 -0.23333646 0.022750702 0.057313435 -0.029209895 -0.017458107 -0.13920633 0.02054651
-0.12030477 -0.11152486 -0.13672234 0.086719885 0.0076159784 0.046561975 -0.14807825 -0.027061414
-0.04616746 0.12763372 0.09352743 -0.13429013 0.15705255 0.031913266 -0.006693209 0.26607603
0.03025161 0.091493286 -0.169883 -0.054189615 -0.002068775 -0.08023279 -0.11791623 -0.0613875
0.11911948 0.19752306 0.07856114 0.099901706 -0.10430375 0.16336939 -0.17358382 -0.21410492
-0.2674273 -0.17042896 0.040799737 0.07782157 -0.20361544 -0.17298798 0.09731698 -0.15816742
0.004036767 -0.05216317 0.01622463 -0.031336196 0.026985217 0.18572281 0.08312775 -0.0634284
00000000: 9f36 6dbd 2390 853d deca ee3d de30 4a3d
00000010: 96aa 813c 37a3 783e ebf9 873e 9f3d b93d
00000020: 81e8 10be a8e8 e13d 6bd9 733c 9223 a4bb
00000030: 61bc 25be 98b9 afbd f7bb 2e3c 8419 79bd
00000040: 5fd8 89be 03d5 12be 8dac 43be e821 1bbe
00000050: ead7 83be 2585 d8bc 7fe3 f3bd 71b7 5dbe
00000060: 75e9 9d3d 1168 113d 9f51 15bb 9fd9 72be
00000070: 7334 05be 5239 8ebd a7d4 4ebc c355 64be
00000080: 23cf cb3d 32bc bf3d ff0e 13be 33ac 5cbd
00000090: 184b 99bd 6338 5d3c 09c5 a13d b92d 273e
000000a0: 5a53 413e 57da 113e 9183 65bd 2157 9b3c
000000b0: 95e8 973d 7d3b 023d 1abc ff3d 7ad0 3ebe
000000c0: 31f7 193d 8c5f 83be ee8b 353d cb07 153e
000000d0: eda7 f9bd e5bf c13d 31eb 1fbe 3302 d63c
000000e0: 1458 05be 12ee 6b3d a0a7 8abd 5903 53be
000000f0: 3082 02bd f543 1bbe e6de ae3d b0de b53c
00000100: 9dc4 a23d 1086 8a3d 91be 993d a8dc 913d
00000110: 182b 19be 145d dabd a5c8 bd3d 87f7 81bd
00000120: 3974 d23d 3bc8 153e efcf 5dbc e658 13bc
00000130: 3233 98bd 46c1 92bd af33 00bd 96a2 54bd
00000140: b78c 303e d752 5e3e 3dc7 103e a3c8 90bd
00000150: baf6 b93d 848c 93bd 2277 f3bc 8206 303e
00000160: 8535 7b3d 5581 ff3d 2204 113e 2dac 0fbe
00000170: 47f6 d83b 284b 55be 7b58 02be 1bdd 79bb
00000180: 86f4 25be 8c5b 453d 135c adbc 5c3f 823c
00000190: 2233 d03d 39bd f73c 02ec 413e af11 bc3d
000001a0: 39a1 813d 72a5 2f3c bc27 55bc e19d 2bbe
000001b0: 923a d4bc 3b2c 49be b09a 50bd c696 6fbc
000001c0: 55d2 a8bc f29a 52be d56e 03bd 4e7f 35bb
000001d0: d037 9cbc 5331 37bd 9d67 64be 7bd9 bc3d
000001e0: 1edb 30bd 3d7b 86bc 5e13 04bd 21ce 32be
000001f0: 0ec1 81be 8ef1 fabd 42eb b93d 041b 82be
00000200: 30b3 dabd 1b49 f4bd 66d9 42be 0c09 973d
00000210: 8c79 1abb 1622 803c db98 5f3d bc0d 66be
00000220: fe68 82be 45e2 1bbe 7969 81be 560f 1b3d
00000230: c8d3 383e b8e6 e4bd 4fa1 b93d e6b1 45be
00000240: 7a3d c73d 53a5 b83d 1b03 36be 6044 ce3d
00000250: cb8e d7bd faf6 463d b6c3 3cbe b5b8 9a3a
00000260: c56c 41be 2d38 d33b 107f e8bd de11 cf3d
00000270: ddf2 e33d b86e 2bbe c04a 933d 8265 0b3e
00000280: 0002 cabd 5b2b 1cbd 6668 d7bc 8b22 ce3d
00000290: fbab aebd 8615 df3c b693 2fbe 7da1 48be
000002a0: 79f0 02be 7dcd f73c e053 07bc b79f 30be
000002b0: aced 3ebd 022b 023e 07b1 65bd 9d94 253e
000002c0: f4fa 723d d6e1 a53d db4e 2dbb 71f1 003e
000002d0: 29fd 2fbc 902d 8abd daa6 ec3d ed83 9fbc
000002e0: d62f 643d eb78 1ebe 1273 c0bd 2854 69bd
000002f0: 8a40 f63c ce07 813d 77b3 033e 1700 1c3d
00000300: f78b 6bbc 7fcf 91bd bec9 c8bc 8059 be3d
00000310: b162 59bd 8ae8 1abe c234 15be ccd0 1fbe
00000320: 5a70 163d c1ef 6ebe ae5f ba3c 7ec1 6a3d
00000330: 9749 efbc 4e04 8fbc 1b8c 0ebe 2851 a83c
00000340: 5962 f6bd 2567 e4bd f100 0cbe 329a b13d
00000350: 758f f93b c5b7 3e3d d3a1 17be e6af ddbc
00000360: 171a 3dbd 6ab2 023e 4f8b bf3d 5a83 09be
00000370: 62d2 203e 7cb7 023d b552 dbbb 1e3b 883e
00000380: 39d2 f73c d560 bb3d cff5 2dbe eef5 5dbd
00000390: 4994 07bb 1751 a4bd 107e f1bd 7671 7bbd
000003a0: eaf4 f33d 7c43 4a3e aae4 a03d 4499 cc3d
000003b0: 349d d5bd 4e4a 273e f5bf 31be 523e 5bbe
000003c0: 3bec 88be ee84 2ebe a01d 273d ea60 9f3d
000003d0: 9180 50be c323 31be 204e c73d a4f6 21be
000003e0: db46 843b 0ca9 55bd 84e9 843c 625a 00bd
000003f0: 1a10 dd3c 1f2e 3e3e e23e aa3d c0e6 81bd

conv1.lin_dst.weight f4 [192, 7]
-0.05791342 0.065216325 0.116597876 0.04936301 0.015828412 0.24281012 0.2655786 0.090449564
-0.14151193 0.11030704 0.014883379 -0.005009123 -0.16185142 -0.08580321 0.0106649315 -0.06081535
-0.2692289 -0.1433907 -0.19108792 -0.15149653 -0.25750667 -0.026430676 -0.11908626 -0.21652009
0.07710544 0.035499636 -0.0022784246 -0.23715828 -0.13008289 -0.06944527 -0.012623942 -0.2229834
0.099516176 0.09362067 -0.1436119 -0.05387516 -0.07485026 0.013502213 0.078989096 0.16326036
0.18879452 0.14243446 -0.056033675 0.018962445 0.074174084 0.031795014 0.124870494 -0.18634215
0.037589256 -0.25658834 0.0443229 0.14553754 -0.121902324 0.09460429 -0.15617062 0.026124096
-0.1302188 0.05760009 -0.06770253 -0.20606746 -0.031862438 -0.15162642 0.08538608 0.022200912
0.07947657 0.06763852 0.07507051 0.07122165 -0.14957845 -0.106622845 0.092667855 -0.0634604
0.10276074 0.14627163 -0.013538345 -0.008993363 -0.0743164 -0.0716577 -0.03129929 -0.051912867
0.17241178 0.21711288 0.14138503 -0.070695184 0.090802625 -0.072045356 -0.029719893 0.17189983
0.061330337 0.1247584 0.14161733 -0.14030524 0.0066211554 -0.20829451 -0.12729065 -0.0038126174
-0.1620656 0.04818301 -0.021162068 0.015899353 0.10166003 0.030241596 0.18937686 0.091830604
0.06329579 0.010720598 -0.013009962 -0.16759445 -0.025906835 -0.19645779 -0.05092877 -0.0146233495
-0.020608107 -0.2056692 -0.03208812 -0.0027694288 -0.019069582 -0.044724774 -0.2230515 0.092211686
-0.043177716 -0.016416186 -0.032245032 -0.17461444 -0.25342602 -0.12253104 0.09078075 -0.25411236
-0.106787086 -0.11928006 -0.19028243 0.073747724 -0.0023570983 0.015641253 0.054589134 -0.22466177
-0.25470728 -0.15223034 -0.25275782 0.037856422 0.18049538 -0.111768186 0.0906397 -0.19306144
0.097285226 0.09015908 -0.17774622 0.10071635 -0.105252825 0.04857538 -0.18434033 0.0011804315
-0.18889149 0.0064459057 -0.1135236 0.1011083 0.11130307 -0.16741455 0.07191992 0.13612941
-0.09863663 -0.038127284 -0.026294898 0.10065182 -0.085288964 0.027231943 -0.17146191 -0.19592853
-0.12787046 0.030249352 -0.008259743 -0.17248426 -0.04661338 0.12711719 -0.05607703 0.16169973
0.05932136 0.080997154 -0.0026444707 0.12592103 -0.01074151 -0.067469716 0.11555262 -0.019472087
0.055709682 -0.15475814 -0.09396948 -0.056965023 0.030060071 0.06300317 0.12861429 0.038086023
-0.014376632 -0.07119655 -0.02451026 0.092944145 -0.053072635 -0.15127769 -0.14570907 -0.15606993
0.03672824 -0.23333646 0.022750702 0.057313435 -0.029209895 -0.017458107 -0.13920633 0.02054651
-0.12030477 -0.11152486 -0.13672234 0.086719885 0.0076159784 0.046561975 -0.14807825 -0.027061414
-0.04616746 0.12763372 0.09352743 -0.13429013 0.15705255 0.031913266 -0.006693209 0.26607603
0.03025161 0.091493286 -0.169883 -0.054189615 -0.002068775 -0.08023279 -0.11791623 -0.0613875
0.11911948 0.19752306 0.07856114 0.099901706 -0.10430375 0.16336939 -0.17358382 -0.21410492
-0.2674273 -0.17042896 0.040799737 0.07782157 -0.20361544 -0.17298798 0.09731698 -0.15816742
0.004036767 -0.05216317 0.01622463 -0.031336196 0.026985217 0.18572281 0.08312775 -0.0634284
00000000: 9f36 6dbd 2390 853d deca ee3d de30 4a3d
00000010: 96aa 813c 37a3 783e ebf9 873e 9f3d b93d
00000020: 81e8 10be a8e8 e13d 6bd9 733c 9223 a4bb
00000030: 61bc 25be 98b9 afbd f7bb 2e3c 8419 79bd
00000040: 5fd8 89be 03d5 12be 8dac 43be e821 1bbe
00000050: ead7 83be 2585 d8bc 7fe3 f3bd 71b7 5dbe
00000060: 75e9 9d3d 1168 113d 9f51 15bb 9fd9 72be
00000070: 7334 05be 5239 8ebd a7d4 4ebc c355 64be
00000080: 23cf cb3d 32bc bf3d ff0e 13be 33ac 5cbd
00000090: 184b 99bd 6338 5d3c 09c5 a13d b92d 273e
000000a0: 5a53 413e 57da 113e 9183 65bd 2157 9b3c
000000b0: 95e8 973d 7d3b 023d 1abc ff3d 7ad0 3ebe
000000c0: 31f7 193d 8c5f 83be ee8b 353d cb07 153e
000000d0: eda7 f9bd e5bf c13d 31eb 1fbe 3302 d63c
000000e0: 1458 05be 12ee 6b3d a0a7 8abd 5903 53be
000000f0: 3082 02bd f543 1bbe e6de ae3d b0de b53c
00000100: 9dc4 a23d 1086 8a3d 91be 993d a8dc 913d
00000110: 182b 19be 145d dabd a5c8 bd3d 87f7 81bd
00000120: 3974 d23d 3bc8 153e efcf 5dbc e658 13bc
00000130: 3233 98bd 46c1 92bd af33 00bd 96a2 54bd
00000140: b78c 303e d752 5e3e 3dc7 103e a3c8 90bd
00000150: baf6 b93d 848c 93bd 2277 f3bc 8206 303e
00000160: 8535 7b3d 5581 ff3d 2204 113e 2dac 0fbe
00000170: 47f6 d83b 284b 55be 7b58 02be 1bdd 79bb
00000180: 86f4 25be 8c5b 453d 135c adbc 5c3f 823c
00000190: 2233 d03d 39bd f73c 02ec 413e af11 bc3d
000001a0: 39a1 813d 72a5 2f3c bc27 55bc e19d 2bbe
000001b0: 923a d4bc 3b2c 49be b09a 50bd c696 6fbc
000001c0: 55d2 a8bc f29a 52be d56e 03bd 4e7f 35bb
000001d0: d037 9cbc 5331 37bd 9d67 64be 7bd9 bc3d
000001e0: 1edb 30bd 3d7b 86bc 5e13 04bd 21ce 32be
000001f0: 0ec1 81be 8ef1 fabd 42eb b93d 041b 82be
00000200: 30b3 dabd 1b49 f4bd 66d9 42be 0c09 973d
00000210: 8c79 1abb 1622 803c db98 5f3d bc0d 66be
00000220: fe68 82be 45e2 1bbe 7969 81be 560f 1b3d
00000230: c8d3 383e b8e6 e4bd 4fa1 b93d e6b1 45be
00000240: 7a3d c73d 53a5 b83d 1b03 36be 6044 ce3d
00000250: cb8e d7bd faf6 463d b6c3 3cbe b5b8 9a3a
00000260: c56c 41be 2d38 d33b 107f e8bd de11 cf3d
00000270: ddf2 e33d b86e 2bbe c04a 933d 8265 0b3e
00000280: 0002 cabd 5b2b 1cbd 6668 d7bc 8b22 ce3d
00000290: fbab aebd 8615 df3c b693 2fbe 7da1 48be
000002a0: 79f0 02be 7dcd f73c e053 07bc b79f 30be
000002b0: aced 3ebd 022b 023e 07b1 65bd 9d94 253e
000002c0: f4fa 723d d6e1 a53d db4e 2dbb 71f1 003e
000002d0: 29fd 2fbc 902d 8abd daa6 ec3d ed83 9fbc
000002e0: d62f 643d eb78 1ebe 1273 c0bd 2854 69bd
000002f0: 8a40 f63c ce07 813d 77b3 033e 1700 1c3d
00000300: f78b 6bbc 7fcf 91bd bec9 c8bc 8059 be3d
00000310: b162 59bd 8ae8 1abe c234 15be ccd0 1fbe
00000320: 5a70 163d c1ef 6ebe ae5f ba3c 7ec1 6a3d
00000330: 9749 efbc 4e04 8fbc 1b8c 0ebe 2851 a83c
00000340: 5962 f6bd 2567 e4bd f100 0cbe 329a b13d
00000350: 758f f93b c5b7 3e3d d3a1 17be e6af ddbc
00000360: 171a 3dbd 6ab2 023e 4f8b bf3d 5a83 09be
00000370: 62d2 203e 7cb7 023d b552 dbbb 1e3b 883e
00000380: 39d2 f73c d560 bb3d cff5 2dbe eef5 5dbd
00000390: 4994 07bb 1751 a4bd 107e f1bd 7671 7bbd
000003a0: eaf4 f33d 7c43 4a3e aae4 a03d 4499 cc3d
000003b0: 349d d5bd 4e4a 273e f5bf 31be 523e 5bbe
000003c0: 3bec 88be ee84 2ebe a01d 273d ea60 9f3d
000003d0: 9180 50be c323 31be 204e c73d a4f6 21be
000003e0: db46 843b 0ca9 55bd 84e9 843c 625a 00bd
000003f0: 1a10 dd3c 1f2e 3e3e e23e aa3d c0e6 81bd

conv2.att_src f4 [1, 1, 64]
-0.23256849 0.28670123 -0.07764719 -0.3247261 0.081702515 0.22133815 0.11814685 0.12215507
0.07584955 0.15323211 -0.061184324 0.034147725 0.10515636 0.10434133 -0.04864124 0.09649237
0.01686259 0.08795421 -0.037254278 -0.09674667 0.025132684 0.031903427 0.015485279 0.14453031
-0.13203721 -0.07820878 0.19924633 -0.2309978 0.051157467 0.121502265 -0.20597121 -0.07990036
-0.068648815 0.23794977 0.16514999 -0.15939371 -0.032325048 0.33260432 -0.15197697 -0.18475632
-0.31155524 -0.32472718 -0.1800791 -0.069582604 -0.33028919 -0.09592691 -0.15072785 -0.07475175
0.059403304 -0.08778147 0.13322924 -0.010834258 -0.12645411 0.05168153 0.40180907 0.10384593
-0.116886996 -0.03655423 0.070909195 0.15172487 0.26159403 -0.059974078 -0.1972178 0.19780166
00000000: 6f26 6ebe 81ca 923e 7d05 9fbd 8042 a6be
00000010: a653 a73d 78a6 623e faf6 f13d 702c fa3d
00000020: 0257 9b3d e1e8 1c3e 6a9c 7abd 7cde 0b3d
00000030: 385c d73d e8b0 d53d 093c 47bd cb9d c53d
00000040: 6a23 8a3c 5621 b43d f197 18bd 1e23 c6bd
00000050: 0fe3 cd3c 2bad 023d f8b5 7d3c c1ff 133e
00000060: c334 07be ed2b a0bd 3b07 4c3e b08a 6cbe
00000070: 7e8a 513d 2ed6 f83d 1eea 52be cda2 a3bd
00000080: c097 8cbd 1ba9 733e 141d 293e 1b38 23be
00000090: 4567 04bd 1d4b aa3e da9f 1bbe c330 3dbe
000000a0: 2b84 9fbe a442 a6be a866 38be 5381 8ebd
000000b0: aa1b a9be 5475 c4bd 6758 1abe 7217 99bd
000000c0: e150 733d c5c6 b3bd 3f6d 083e 2c82 31bc
000000d0: 307d 01be 03b0 533d ebb9 cd3e 2dad d43d
000000e0: 7362 efbd e3b9 15bd d738 913d c45d 1b3e
000000f0: a7ef 853e 61a7 75bd 77f3 49be 858c 4a3e

conv2.att_dst f4 [1, 1, 64]
0.055040073 0.2690442 0.25843444 -0.37362164 -0.2546759 0.28359377 -0.34076494 -0.027778665
-0.052960947 0.0050007016 -0.22131126 -0.323195 -0.16561742 0.01801134 0.31365034 0.0021298802
0.1316721 0.22623304 -0.178785 0.3317717 0.32798153 -0.027286483 0.213141 -0.2815215
-0.035489637 0.067697376 -0.14607187 0.0316536 0.10903562 0.083358295 0.0667473 0.24658898
0.10275845 -0.059973776 -0.119650066 0.06719011 -0.25040197 -0.1471954 -0.025624327 0.03790945
0.06331501 0.08254308 -0.36488098 -0.035628777 0.050886586 -0.17218503 0.025588779 -0.046945073
-0.20889324 0.30221355 0.17707562 -0.12859145 0.09646169 -0.17385206 0.13045466 -0.011578367
-0.0001191204 0.025504904 -0.37746847 -0.026014896 -0.047593676 -0.10009624 -0.03288623 0.1637609
00000000: b371 613d 29c0 893e 8551 843e 564b bfbe
00000010: e164 82be 3433 913e be78 aebe 1590 e3bc
00000020: 94ed 58bd eddc a33b 6b9f 62be d179 a5be
00000030: 9d97 29be 858c 933c c796 a03e 7695 0b3b
00000040: 0dd5 063e a2a9 673e 6a13 37be fbdd a93e
00000050: 32ed a73e e787 dfbc a241 5a3e 9623 90be
00000060: 955d 11bd eca4 8a3d dd93 15be 35a7 013d
00000070: 114e df3d c1b7 aa3d cfb2 883d d281 7c3e
00000080: 0673 d23d 10a7 75bd 180b f5bd f89a 893d
00000090: b034 80be 64ba 16be 1cea d1bc f046 1b3d
000000a0: 4dab 813d 590c a93d aed1 babe 7bef 11bd
000000b0: 746e 503d 4651 30be 8f9f d13c 7a49 40bd
000000c0: 1ce8 55be bcbb 9a3e 5053 353e 7aad 03be
000000d0: b58d c53d 4606 32be e895 053e 31b3 3dbc
000000e0: 47d0 f9b8 a9ef d03c 8c43 c1be 311d d5bc
000000f0: 96f1 42bd 42ff ccbd b6b3 06bd f0b0 273e

conv2.bias f4 [64]
-0.045120608 0.033522807 0.14088105 -0.10221209 -0.058531843 0.09734621 -0.06092175 -0.027355049
-0.06332385 0.02341102 -0.015296611 0.025161056 0.057203595 -0.007128946 -0.099530846 0.062201884
-0.0024560895 0.008704903 0.012944152 -0.09116022 0.052114252 -0.04736968 0.016670404 0.042426817
-0.07541149 0.008548681 0.0047616935 -0.10971107 0.087693654 -0.04797434 0.06574661 -0.06192312
-0.09985928 -0.0024765825 0.054410648 0.084130876 0.034475684 0.13394028 -0.008571803 0.049408443
0.07300599 -0.04218863 -0.10786609 -0.057683878 0.020587847 0.14721091 0.16955908 0.08645844
-0.13099906 0.020923896 -0.05291969 0.042113446 0.20353962 0.025000094 0.028834919 0.020428235
0.25314328 -0.022826662 0.04687241 -0.07694269 -0.029743576 -0.064384036 0.12216026 0.05402626
00000000: 63d0 38bd 364f 093d 1f43 103e 9254 d1bd
00000010: 16bf 6fbd 735d c73d 1689 79bd b217 e0bc
00000020: efaf 81bd 78c8 bf3c a39e 7abc 8f1e ce3c
00000030: 514e 6a3d ef99 e9bb d4d6 cbbd 67c7 7e3d
00000040: 58f6 20bb 029f 0e3c b513 543c 36b2 babd
00000050: c175 553d b606 42bd 5f90 883c bec7 2d3d
00000060: 5771 9abd c40f 0c3c fb07 9c3b 33b0 e0bd
00000070: bb98 b33d be80 44bd 29a6 863d 19a3 7dbd
00000080: 0683 ccbd 294e 22bb b3dd 5e3d cf4c ac3d
00000090: 6036 0d3d a427 093e bf70 0cbc 8260 4a3d
000000a0: 2a84 953d fccd 2cbd e6e8 dcbd ee45 6cbd
000000b0: d8a7 a83c 75be 163e e5a0 2d3e 1f11 b13d
000000c0: 9e24 06be 9768 ab3c 51c2 58bd 267f 2c3d
000000d0: b16c 503e ffcc cc3c 3537 ec3c 1d59 a73c
000000e0: ff9b 813e fbfe babc 49fd 3f3d 2194 9dbd
000000f0: cda8 f3bc c7db 83bd 292f fa3d a44a 5d3d

conv2.lin_src.weight f4 [64, 192]
-0.05067868 -0.03968132 0.046361767 0.00046389934 -0.030588794 0.15971418 -0.12503071 0.063996
0.10253929 0.13391435 -0.14887916 -0.021047072 -0.15496588 0.14915735 0.06747526 -0.075910926
-0.0459822 0.009772257 -0.102454804 -0.081563234 -0.02847688 -0.10756805 0.028665338 -0.094403155
-0.025029538 0.0629294 0.036833853 0.1809882 -0.008912025 -0.013553038 0.21903539 -0.137756
0.12257173 0.13280115 0.12342618 0.10208126 0.10740004 -0.0072530895 0.13036032 0.029194996
-0.1962984 -0.006414335 -0.0030039714 -0.012138228 0.07664209 0.110461816 0.15020533 0.13911489
0.11743412 0.22390132 0.14518945 -0.1272576 0.06959051 0.28427216 0.20366797 0.011840209
-0.03793785 0.22318032 0.08780128 0.07411188 0.043565765 -0.08235596 -0.043851722 -0.1230298
-0.039257936 -0.0015838043 0.022031222 -0.025563251 0.025151884 0.08458527 0.14442012 0.14934522
-0.00883303 0.073237896 -0.16649723 -0.15164946 0.02719399 -0.011961098 0.15392053 0.18365519
0.06934123 0.041972972 0.16385698 -0.13680476 0.17234445 0.08170312 0.19370833 -0.18356027
-0.3224572 -0.000932405 -0.16173208 0.10456487 -0.04889345 0.029319096 -0.13876121 0.07467329
0.061964206 0.15395497 0.006459326 0.118240364 0.08082968 -0.06729156 0.05667721 -0.057970487
0.100412205 -0.018130405 -0.02583153 -0.12608498 0.18126193 -0.070065066 -0.043153673 -0.06532884
-0.02012501 0.08121416 -0.09022238 -0.0109693725 -0.058947038 0.1205931 0.048570223 0.23088092
-0.0447706 -0.034594867 0.13261974 -0.026954716 0.0778602 0.081740394 0.11066919 -0.17782913
-0.1992149 0.08981419 -0.00037804685 0.05635124 -0.21610568 -0.12386804 0.13224563 -0.064191885
0.06741157 -0.089083664 -0.060655296 -0.036122862 -0.0034789075 0.1037842 0.25456378 -0.112080626
-0.06763348 0.1212671 0.06389412 0.15758444 -0.078102626 0.040254146 0.081724435 0.06932935
0.03336446 0.11239587 -0.010338434 -0.040035427 -0.03181607 0.093823105 0.059299253 -0.050277594
0.097785614 -0.10619259 -0.015607954 0.10316683 -0.063342884 0.15635926 -0.07850047 -0.045866612
0.16873594 0.05273757 -0.11348973 -0.10809405 -0.021759558 -0.15851012 0.1428106 -0.23245274
0.017697461 0.059869222 -0.17030883 0.06951335 -0.009916043 0.11967657 0.025004795 0.09518223
-0.028679391 0.22682203 0.15261719 -0.00403594 0.03902532 -0.039415404 -0.053739607 -0.10084854
-0.018172216 -0.0072823116 0.042818252 0.069317445 -0.08017431 0.09080925 -0.08629275 -0.15972863
-0.10794441 -0.10707167 0.07414051 0.15363628 0.17154796 -0.031849604 0.05188752 0.018875187
-0.07182615 -0.05092861 0.15853088 0.08081217 -0.09119823 -0.14156005 -0.13488312 -0.104801506
-0.07493487 -0.1583648 0.0035316658 -0.08456326 -0.12542745 -0.04521075 0.054689623 0.017119257
-0.17779604 -0.045380216 0.056209017 -0.037030723 -0.16890796 -0.103302814 0.13326964 0.032591026
-0.09084759 0.08015711 -0.018659899 0.18401438 -0.0446748 -0.03180252 -0.000594088 -0.012445962
-0.14318404 -0.010475091 -0.114802286 -0.053508263 0.06657828 -0.18017411 -0.04358396 0.1471518
-0.008688327 0.04993049 -0.15075125 0.07752285 -0.037133615 0.01830017 -0.14119446 -0.066370524
00000000: 7394 4fbd e188 22bd d6e5 3d3d 8437 f339
00000010: 5a95 fabc 1d8c 233e 0d08 00be 5610 833d
00000020: 1f00 d23d d820 093e c773 18be e96a acbc
00000030: 60af 1ebe b4bc 183e 7830 8a3d 3077 9bbd
00000040: d557 3cbd d11b 203c d3d3 d1bd a00a a7bd
00000050: 5948 e9bc a34c dcbd 92d3 ea3c 7156 c1bd
00000060: bf0a cdbc 21e1 803d 18df 163d f854 393e
00000070: be03 12bc 900d 5ebc d04a 603e e90f 0dbe
00000080: e306 fb3d 06fd 073e ddc6 fc3d fb0f d13d
00000090: 8df4 db3d 53ab edbb 2d7d 053e 582a ef3c
000000a0: 7302 49be 582f d2bb 47de 44bb 6bdf 46bc
000000b0: 87f6 9c3d ce39 e23d 6dcf 193e 2274 0e3e
000000c0: 4d81 f03d 6346 653e 8bac 143e d14f 02be
000000d0: 7885 8e3d 1f8c 913e 568e 503e 70fd 413c
000000e0: b864 1bbd 6289 643e 28d1 b33d f8c7 973d
000000f0: 0472 323d 3eaa a8bd dd9d 33bd 0cf7 fbbd
00000100: eecc 20bd a797 cfba d27a b43c 066a d1bc
00000110: 530b ce3c 0b3b ad3d dee2 133e f4ed 183e
00000120: 6ab8 10bc c0fd 953d 407e 2abe ff49 1bbe
00000130: eec5 de3c 7bf8 43bc 589d 1d3e 1b10 3c3e
00000140: c602 8e3d daeb 2b3d 20ca 273e 8c16 0cbe
00000150: 107b 303e f753 a73d 7a5b 463e 39f7 3bbe
00000160: 1c19 a5be a46c 74ba 189d 25be 1b26 d63d
00000170: 8044 48bd 9a2e f03c 6b17 0ebe 4fee 983d
00000180: 2ece 7d3d 5fa6 1d3e c1a8 d33b 0128 f23d
00000190: 088a a53d 28d0 89bd 5d26 683d 7672 6dbd
000001a0: eaa4 cd3d 3786 94bc a59c d3bc 6c1c 01be
000001b0: ba9c 393e 467e 8fbd e8c1 30bd 20cb 85bd
000001c0: 34dd a4bc 9c53 a63d 83c6 b8bd e2b8 33bc
000001d0: 7372 71bd 84f9 f63d 92f1 463d 0c6c 6c3e
000001e0: 6061 37bd 59b3 0dbd 78cd 073e 23d0 dcbc
000001f0: 2b75 9f3d 8267 a73d 87a6 e23d d718 36be
00000200: fefe 4bbe 81f0 b73d 9734 c6b9 8fd0 663d
00000210: cf4a 5dbe 87ae fdbd 666b 073e 0977 83bd
00000220: 140f 8a3d 7f71 b6bd b071 78bd 91f5 13bd
00000230: 62fe 63bb d08c d43d 2f56 823e 878a e5bd
00000240: 6c83 8abd e35a f83d ecda 823d d15d 213e
00000250: 45f4 9fbd 88e1 243d 245f a73d 8cfc 8d3d
00000260: 2ca9 083d ce2f e63d 8962 29bc 30fc 23bd
00000270: 9151 02bd 5426 c03d c6e3 723d e1ef 4dbd
00000280: d343 c83d 807b d9bd 81b8 7fbc 2249 d33d
00000290: eab9 81bd a41c 203e dbc4 a0bd a1de 3bbd
000002a0: 1dc9 2c3e 5a03 583d 4e6d e8bd 6a60 ddbd
000002b0: 1a41 b2bc 7a50 22be f13c 123e 1708 6ebe
000002c0: 44fa 903c 6e39 753d 7065 2ebe 045d 8e3d
000002d0: e676 22bc fd18 f53d dbd6 cc3c e7ee c23d
000002e0: 0bf1 eabc 0944 683e ae47 1c3e eb3f 84bb
000002f0: 04d9 1f3d 0c72 21bd 101e 5cbd ae89 cebd
00000300: e6dd 94bc 75a0 eebb 3162 2f3d 4ef6 8d3d
00000310: 6e32 a4bd 33fa b93d 41ba b0bd e78f 23be
00000320: f511 ddbd 6448 dbbd fbd6 973d d452 1d3e
00000330: 45aa 2f3e bb74 02bd 0288 543d 23a0 9a3c
00000340: 9719 93bd 859a 50bd eb55 223e da80 a53d
00000350: 23c6 babd 1ef5 10be cd1e 0abe 2ca2 d6bd
00000360: 7477 99bd 622a 22be 8573 673b 812f adbd
00000370: 0e70 00be e82e 39bd 3a02 603d af3d 8c3c
00000380: 2a10 36be 9be0 39bd 6d3b 663d 87ad 17bd
00000390: 35f6 2cbe 6d90 d3bd d677 083e 2b7e 053d
000003a0: 4d0e babd 6929 a43d a5dc 98bc 446e 3c3e
000003b0: ecfc 36bd 5c43 02bd 92bc 1bba 26ea 4bbc
000003c0: d69e 12be b79f 2bbc 761d ebbd 7b2b 5bbd
000003d0: 315a 883d 907f 38be 1885 32bd f6ae 163e
000003e0: 7c59 0ebc ea83 4c3d 895e 1abe 4dc4 9e3d
000003f0: 6b19 18bd 3dea 953c 4895 10be 45ed 87bd

conv2.lin_dst.weight f4 [64, 192]
-0.05067868 -0.03968132 0.046361767 0.00046389934 -0.030588794 0.15971418 -0.12503071 0.063996
0.10253929 0.13391435 -0.14887916 -0.021047072 -0.15496588 0.14915735 0.06747526 -0.075910926
-0.0459822 0.009772257 -0.102454804 -0.081563234 -0.02847688 -0.10756805 0.028665338 -0.094403155
-0.025029538 0.0629294 0.036833853 0.1809882 -0.008912025 -0.013553038 0.21903539 -0.137756
0.12257173 0.13280115 0.12342618 0.10208126 0.10740004 -0.0072530895 0.13036032 0.029194996
-0.1962984 -0.006414335 -0.0030039714 -0.012138228 0.07664209 0.110461816 0.15020533 0.13911489
0.11743412 0.22390132 0.14518945 -0.1272576 0.06959051 0.28427216 0.20366797 0.011840209
-0.03793785 0.22318032 0.08780128 0.07411188 0.043565765 -0.08235596 -0.043851722 -0.1230298
-0.039257936 -0.0015838043 0.022031222 -0.025563251 0.025151884 0.08458527 0.14442012 0.14934522
-0.00883303 0.073237896 -0.16649723 -0.15164946 0.02719399 -0.011961098 0.15392053 0.18365519
0.06934123 0.041972972 0.16385698 -0.13680476 0.17234445 0.08170312 0.19370833 -0.18356027
-0.3224572 -0.000932405 -0.16173208 0.10456487 -0.04889345 0.029319096 -0.13876121 0.07467329
0.061964206 0.15395497 0.006459326 0.118240364 0.08082968 -0.06729156 0.05667721 -0.057970487
0.100412205 -0.018130405 -0.02583153 -0.12608498 0.18126193 -0.070065066 -0.043153673 -0.06532884
-0.02012501 0.08121416 -0.09022238 -0.0109693725 -0.058947038 0.1205931 0.048570223 0.23088092
-0.0447706 -0.034594867 0.13261974 -0.026954716 0.0778602 0.081740394 0.11066919 -0.17782913
-0.1992149 0.08981419 -0.00037804685 0.05635124 -0.21610568 -0.12386804 0.13224563 -0.064191885
0.06741157 -0.089083664 -0.060655296 -0.036122862 -0.0034789075 0.1037842 0.25456378 -0.112080626
-0.06763348 0.1212671 0.06389412 0.15758444 -0.078102626 0.040254146 0.081724435 0.06932935
0.03336446 0.11239587 -0.010338434 -0.040035427 -0.03181607 0.093823105 0.059299253 -0.050277594
0.097785614 -0.10619259 -0.015607954 0.10316683 -0.063342884 0.15635926 -0.07850047 -0.045866612
0.16873594 0.05273757 -0.11348973 -0.10809405 -0.021759558 -0.15851012 0.1428106 -0.23245274
0.017697461 0.059869222 -0.17030883 0.06951335 -0.009916043 0.11967657 0.025004795 0.09518223
-0.028679391 0.22682203 0.15261719 -0.00403594 0.03902532 -0.039415404 -0.053739607 -0.10084854
-0.018172216 -0.0072823116 0.042818252 0.069317445 -0.08017431 0.09080925 -0.08629275 -0.15972863
-0.10794441 -0.10707167 0.07414051 0.15363628 0.17154796 -0.031849604 0.05188752 0.018875187
-0.07182615 -0.05092861 0.15853088 0.08081217 -0.09119823 -0.14156005 -0.13488312 -0.104801506
-0.07493487 -0.1583648 0.0035316658 -0.08456326 -0.12542745 -0.04521075 0.054689623 0.017119257
-0.17779604 -0.045380216 0.056209017 -0.037030723 -0.16890796 -0.103302814 0.13326964 0.032591026
-0.09084759 0.08015711 -0.018659899 0.18401438 -0.0446748 -0.03180252 -0.000594088 -0.012445962
-0.14318404 -0.010475091 -0.114802286 -0.053508263 0.06657828 -0.18017411 -0.04358396 0.1471518
-0.008688327 0.04993049 -0.15075125 0.07752285 -0.037133615 0.01830017 -0.14119446 -0.066370524
00000000: 7394 4fbd e188 22bd d6e5 3d3d 8437 f339
00000010: 5a95 fabc 1d8c 233e 0d08 00be 5610 833d
00000020: 1f00 d23d d820 093e c773 18be e96a acbc
00000030: 60af 1ebe b4bc 183e 7830 8a3d 3077 9bbd
00000040: d557 3cbd d11b 203c d3d3 d1bd a00a a7bd
00000050: 5948 e9bc a34c dcbd 92d3 ea3c 7156 c1bd
00000060: bf0a cdbc 21e1 803d 18df 163d f854 393e
00000070: be03 12bc 900d 5ebc d04a 603e e90f 0dbe
00000080: e306 fb3d 06fd 073e ddc6 fc3d fb0f d13d
00000090: 8df4 db3d 53ab edbb 2d7d 053e 582a ef3c
000000a0: 7302 49be 582f d2bb 47de 44bb 6bdf 46bc
000000b0: 87f6 9c3d ce39 e23d 6dcf 193e 2274 0e3e
000000c0: 4d81 f03d 6346 653e 8bac 143e d14f 02be
000000d0: 7885 8e3d 1f8c 913e 568e 503e 70fd 413c
000000e0: b864 1bbd 6289 643e 28d1 b33d f8c7 973d
000000f0: 0472 323d 3eaa a8bd dd9d 33bd 0cf7 fbbd
00000100: eecc 20bd a797 cfba d27a b43c 066a d1bc
00000110: 530b ce3c 0b3b ad3d dee2 133e f4ed 183e
00000120: 6ab8 10bc c0fd 953d 407e 2abe ff49 1bbe
00000130: eec5 de3c 7bf8 43bc 589d 1d3e 1b10 3c3e
00000140: c602 8e3d daeb 2b3d 20ca 273e 8c16 0cbe
00000150: 107b 303e f753 a73d 7a5b 463e 39f7 3bbe
00000160: 1c19 a5be a46c 74ba 189d 25be 1b26 d63d
00000170: 8044 48bd 9a2e f03c 6b17 0ebe 4fee 983d
00000180: 2ece 7d3d 5fa6 1d3e c1a8 d33b 0128 f23d
00000190: 088a a53d 28d0 89bd 5d26 683d 7672 6dbd
000001a0: eaa4 cd3d 3786 94bc a59c d3bc 6c1c 01be
000001b0: ba9c 393e 467e 8fbd e8c1 30bd 20cb 85bd
000001c0: 34dd a4bc 9c53 a63d 83c6 b8bd e2b8 33bc
000001d0: 7372 71bd 84f9 f63d 92f1 463d 0c6c 6c3e
000001e0: 6061 37bd 59b3 0dbd 78cd 073e 23d0 dcbc
000001f0: 2b75 9f3d 8267 a73d 87a6 e23d d718 36be
00000200: fefe 4bbe 81f0 b73d 9734 c6b9 8fd0 663d
00000210: cf4a 5dbe 87ae fdbd 666b 073e 0977 83bd
00000220: 140f 8a3d 7f71 b6bd b071 78bd 91f5 13bd
00000230: 62fe 63bb d08c d43d 2f56 823e 878a e5bd
00000240: 6c83 8abd e35a f83d ecda 823d d15d 213e
00000250: 45f4 9fbd 88e1 243d 245f a73d 8cfc 8d3d
00000260: 2ca9 083d ce2f e63d 8962 29bc 30fc 23bd
00000270: 9151 02bd 5426 c03d c6e3 723d e1ef 4dbd
00000280: d343 c83d 807b d9bd 81b8 7fbc 2249 d33d
00000290: eab9 81bd a41c 203e dbc4 a0bd a1de 3bbd
000002a0: 1dc9 2c3e 5a03 583d 4e6d e8bd 6a60 ddbd
000002b0: 1a41 b2bc 7a50 22be f13c 123e 1708 6ebe
000002c0: 44fa 903c 6e39 753d 7065 2ebe 045d 8e3d
000002d0: e676 22bc fd18 f53d dbd6 cc3c e7ee c23d
000002e0: 0bf1 eabc 0944 683e ae47 1c3e eb3f 84bb
000002f0: 04d9 1f3d 0c72 21bd 101e 5cbd ae89 cebd
00000300: e6dd 94bc 75a0 eebb 3162 2f3d 4ef6 8d3d
00000310: 6e32 a4bd 33fa b93d 41ba b0bd e78f 23be
00000320: f511 ddbd 6448 dbbd fbd6 973d d452 1d3e
00000330: 45aa 2f3e bb74 02bd 0288 543d 23a0 9a3c
00000340: 9719 93bd 859a 50bd eb55 223e da80 a53d
00000350: 23c6 babd 1ef5 10be cd1e 0abe 2ca2 d6bd
00000360: 7477 99bd 622a 22be 8573 673b 812f adbd
00000370: 0e70 00be e82e 39bd 3a02 603d af3d 8c3c
00000380: 2a10 36be 9be0 39bd 6d3b 663d 87ad 17bd
00000390: 35f6 2cbe 6d90 d3bd d677 083e 2b7e 053d
000003a0: 4d0e babd 6929 a43d a5dc 98bc 446e 3c3e
000003b0: ecfc 36bd 5c43 02bd 92bc 1bba 26ea 4bbc
000003c0: d69e 12be b79f 2bbc 761d ebbd 7b2b 5bbd
000003d0: 315a 883d 907f 38be 1885 32bd f6ae 163e
000003e0: 7c59 0ebc ea83 4c3d 895e 1abe 4dc4 9e3d
000003f0: 6b19 18bd 3dea 953c 4895 10be 45ed 87bd

classifier.weight f4 [2, 128]
0.023422433 0.066997506 0.09273082 -0.14778207 -0.09795569 0.12521325 -0.12965429 -0.12025184
-0.013480938 0.042022467 0.015675373 -0.017856436 0.10866435 0.060548443 0.031189684 0.02478091
-0.13704315 0.0756778 -0.025159303 0.13977045 0.10517661 -0.04325606 -0.02429569 0.06928733
0.0059508057 0.08382778 -0.019042986 0.024927238 -0.011739436 -0.050764456 0.10796942 -0.10115718
-0.15431038 -0.007291843 -0.102498025 -0.13701506 0.10726103 0.023355905 -0.08471337 0.083362214
-0.12869777 -0.103688024 -0.11212972 -0.019564621 -0.14879581 -0.0047836527 0.004884094 0.010735709
-0.002618923 0.07024361 -0.1158236 -0.0193261 -0.07783941 0.018701194 0.055237122 0.096576996
0.013937457 0.055960566 -0.03342277 -0.047513083 0.023958657 -0.04065203 0.034504786 0.035765424
-0.11626055 0.07666547 0.02035152 0.013294399 -0.069169916 0.01886973 -0.010001896 -0.11969382
0.028549375 -0.021767018 -0.036000732 -0.061976183 0.046095893 0.024808561 -0.07290676 0.11663676
-0.08485993 0.04810692 0.008986841 0.0738347 0.07285274 -0.06287907 0.035343643 -0.04460917
-0.13891621 0.070642516 -0.023975447 0.010855242 -0.020344665 -0.06911098 0.015860919 -0.0040219934
-0.008870166 0.028636808 -0.13194923 -0.05139801 0.0368806 0.024599513 -0.11837833 0.072208256
-0.07550883 -0.081790484 -0.027478829 -0.008336128 0.027198885 0.087593116 0.13041298 0.05953055
-0.011086471 0.0026984578 -0.008877653 -0.108687215 0.10034526 0.0022869555 0.11763223 -0.004283409
0.06140051 0.10468583 0.0656425 -0.053711146 0.021587241 -0.07310779 -0.040067483 0.12007751
-0.11405837 0.054674614 -0.030405909 -0.013881934 -0.0113777 -0.03979293 0.11656568 0.06939521
0.189984 -0.051666904 0.028107047 -0.0553316 -0.012302864 0.03177879 0.13426502 0.016069205
-0.08792731 -0.05106271 -0.097722426 0.08812148 -0.014575331 -0.015767058 0.044674255 -0.052358273
0.021547167 0.024595678 0.049720522 0.057598837 0.03039539 -0.030844692 -0.023979638 0.015722852
-0.021349102 -0.011582593 -0.0102792755 -0.19020589 -0.08779982 -0.113287844 -0.07886043 0.02656433
-0.09245126 -0.019099334 -0.010545907 0.13565575 -0.056166098 -0.06821559 -0.16200972 -0.06674254
0.15271398 0.0096328175 0.015573749 -0.17083773 -0.017218541 0.059159648 0.05390923 -0.06121741
0.0003002075 0.069210865 -0.04767256 0.048660133 0.09800853 0.012016754 -0.14044777 0.052319042
0.03245728 0.038904343 -0.052265447 -0.14689279 -0.05037036 0.09049451 0.052002795 -0.0630441
0.048354667 -0.1179328 0.08751404 -0.10040487 -0.08482197 0.023333186 0.2000849 -0.002841018
-0.006359885 -0.016348518 -0.10222408 0.21121894 -0.0108671235 0.044677246 0.0678286 -0.033305835
-0.066019736 -0.033354968 -0.030886827 0.17046815 -0.12476641 -0.019295871 -0.054449733 0.06604598
0.05805196 -0.022186121 -0.021571308 -0.06887041 -0.08495201 -0.054457285 -0.0699124 -0.025815811
-0.17268255 -0.06118643 -0.05868393 0.01422105 -0.05525068 -0.21568069 -0.05056733 0.0263745
0.16221751 0.09367949 0.0068679764 -0.11035703 -0.08461917 0.018217256 0.049768504 -0.103143096
-0.053037137 0.08765949 -0.09596413 0.1224465 0.06957399 0.027191542 -0.1289928 -0.0027217325
00000000: 67e0 bf3c fd35 893d a8e9 bd3d 2f54 17be
00000010: fe9c c8bd e737 003e 18c4 04be 9946 f6bd
00000020: 27df 5cbc c01f 2c3d a469 803c a947 92bc
00000030: 6a8b de3d a501 783d 8281 ff3c 5601 cb3c
00000040: 0a55 0cbe f6fc 9a3d e21a cebc fc1f 0f3e
00000050: d666 d73d 442d 31bd c107 c7bc 84e6 8d3d
00000060: fafe c23b e6ad ab3d 0900 9cbc 3534 cc3c
00000070: c356 40bc 64ee 4fbd 121f dd3d 7f2b cfbd
00000080: 8a03 1ebe 6af0 eebb 7cea d1bd ad4d 0cbe
00000090: acab db3d e254 bf3c 347e adbd cfb9 aa3d
000000a0: 59c9 03be 635a d4bd 44a4 e5bd fc45 a0bc
000000b0: ee5d 18be 30c0 9cbb c00a a03b d4e4 2f3c
000000c0: 3da2 2bbb e2db 8f3d ec34 edbd c551 9ebc
000000d0: 456a 9fbd 3f33 993c 5240 623d 29ca c53d
000000e0: ef59 643c e836 653d 51e6 08bd 149d 42bd
000000f0: f244 c43c be82 26bd e454 0d3d c47e 123d
00000100: 031a eebd c902 9d3d 3bb8 a63c c0d0 593c
00000110: f5a8 8dbd b194 9a3c fede 23bc 0922 f5bd
00000120: 61e0 e93c bf50 b2bc 8175 13bd bdda 7dbd
00000130: 0ccf 3c3d 533b cb3c 2450 95bd 41df ee3d
00000140: 0bcb adbd c30b 453d 8b3d 133c a636 973d
00000150: d133 953d bec6 80bd 7fc4 103d 1bb8 36bd
00000160: 0d40 0ebe 06ad 903d 2868 c4bc 2fda 313c
00000170: dba9 a6bc 0f8a 8dbd c2ee 813c edca 83bb
00000180: 2c54 11bc bd97 ea3c b31d 07be b886 52bd
00000190: 1d10 173d eb84 c93c 5670 f2bd ece1 933d
000001a0: 60a4 9abd c581 a7bd 481b e1bc 4194 08bc
000001b0: 32d0 de3c 0564 b33d fb8a 053e 4ed6 733d
000001c0: 08a4 35bc 9cd8 303b 9373 11bc 6797 debd
000001d0: d181 cd3d bfe0 153b 2be9 f03d d75b 8cbb
000001e0: 1a7f 7b3d 8665 d63d 936f 863d 3800 5cbd
000001f0: bad7 b03c 89b9 95bd cd1d 24bd 33eb f53d
00000200: 6f97 e9bd 7df2 5f3d d015 f9bc 0d71 63bc
00000210: 8869 3abc e9fd 22bd fdb9 ee3d 131f 8e3d
00000220: 2a8b 423e ada0 53bd c040 e63c 63a3 62bd
00000230: f491 49bc 7a2a 023d c57c 093e 91a3 833c
00000240: 3c13 b4bd 2227 51bd b222 c8bd 0979 b43d
00000250: 5ecd 6ebc eb29 81bc 5afc 363d a175 56bd
00000260: af83 b03c e07c c93c bfa7 4b3d c2ec 6b3d
00000270: c1ff f83c 02ae fcbc f270 c4bc 36cd 803c
00000280: 50e4 aebc ebc4 3dbc 686a 28bc 55c5 42be
00000290: 64d0 b3bd 7503 e8bd 9481 a1bd 709d d93c
000002a0: 1657 bdbd 3576 9cbc bdc8 2cbc 57e9 0a3e
000002b0: 6c0e 66bd 9eb4 8bbd e0e5 25be 50b0 88bd
000002c0: 0e61 1c3e f7d2 1d3c 0a29 7f3c 16f0 2ebe
000002d0: e60d 8dbc 6351 723d edcf 5c3d 1bbf 7abd
000002e0: 2b65 9d39 6dbe 8d3d 4d44 43bd d94f 473d
000002f0: b2b8 c83d ebe1 443c 8ad1 0fbe 7e4c 563d
00000300: edf1 043d 295a 1f3d 4b14 56bd 106b 16be
00000310: 2751 4ebd 3055 b93d e200 553d 441d 81bd
00000320: 8b0f 463d c086 f1bd 903a b33d 12a1 cdbd
00000330: 24b7 adbd 3d25 bf3c 0ee3 4c3e 5f30 3abb
00000340: 9566 d0bb 54ed 85bc dc5a d1bd c749 583e
00000350: 050c 32bc 7dff 363d b9e9 8a3d b36b 08bd
00000360: 5b35 87bd 389f 08bd 5f06 fdbc 348f 2e3e
00000370: 8885 ffbd 6012 9ebc af06 5fbd 1d43 873d
00000380: e4c7 6d3d abbf b5bc 50b6 b0bc ee0b 8dbd
00000390: 52fb adbd 9a0e 5fbd 3b2e 8fbd ae7b d3bc
000003a0: b2d3 30be 9f9e 7abd 905e 70bd 68ff 683c
000003b0: 894e 62bd 66db 5cbe b01f 4fbd 560f d83c
000003c0: 591c 263e 08db bf3d c30c e13b de02 e2bd
000003d0: d14c adbd 5b3c 953c 0fda 4b3d b03c d3bd
000003e0: 783d 59bd d286 b33d d788 c4bd 3bc5 fa3d
000003f0: cf7c 8e3d ccc0 de3c b016 04be 185f 32bb

classifier.bias f4 [2]
-0.07026392 -0.048043683
00000000: 88e6 8fbd 74c9 44bd
