outputs/classification/edges/exp_ii/weights/gat_4.pth (torch, 61743 bytes, 12 tensors)

conv1.att_src f4 [1, 3, 64]
-0.16102453 -0.08586993 0.18518157 -0.058389064 0.050858486 -0.01965624 -0.12759374 0.1232661
-0.11908539 0.1760914 -0.2786272 0.25051698 0.22511505 0.018232137 0.23933944 -0.17638999
-0.05373063 0.29888546 0.2119056 0.1516575 -0.1937315 0.15521975 -0.10618043 -0.15812847
-0.14336482 -0.024419375 0.22929102 -0.05307139 0.067908406 0.09755202 -0.09090943 -0.1909695
-0.12455089 0.2541281 -0.33358416 0.32996547 -0.018149583 -0.08274491 -0.34823996 -0.16322821
0.055274937 0.17605534 0.026917132 -0.052699957 0.017307825 0.17059025 0.048669387 0.15429346
-0.12355225 -0.35616598 -0.21126582 0.22025102 -0.36632732 0.07815277 0.21043155 0.20367369
-0.20683117 0.17691453 0.28181523 -0.048034355 0.15170646 -0.057633884 0.1420583 -0.16123627
-0.16626716 -0.15467195 -0.17017706 0.12329457 0.1512217 0.35789895 0.28908417 -0.042863756
0.31503847 -0.013993177 0.13883772 -0.19111744 0.13774359 0.016468653 0.18162228 0.15055762
-0.095668785 -0.037133373 0.012831714 -0.01207545 0.12668104 0.044946864 0.093047686 -0.3373487
-0.07328631 0.3050322 0.1286397 0.086495265 -0.3420517 0.15846473 -0.027550815 0.20847584
0.10867903 -0.21942668 0.35626733 -0.12843622 -0.20692576 0.16990387 -0.03848007 -0.0016386138
-0.37447947 0.22078323 -0.22722119 0.36610153 0.16777158 -0.15438482 -0.062440526 -0.35334972
0.20773046 0.09778211 0.22492814 -0.14176136 -0.116432585 -0.1258297 -0.10002435 -0.021522151
-0.36389223 -0.03331824 0.25136316 0.18442316 -0.04589034 -0.19974434 -0.06778672 -0.13268676
0.2864836 0.07856327 0.25921154 -0.15533161 0.009192987 -0.21451595 0.197125 0.036894884
-0.07950124 0.2483764 -0.01820474 -0.3243142 -0.25074658 -0.14553802 -0.020950692 -0.29913783
0.074314296 -0.17266664 0.07116155 0.2572688 0.079871744 0.02135881 0.08923391 0.12920202
-0.22195932 -0.013499079 0.009308192 0.100862764 0.1495138 0.07211548 -0.22171421 -0.30341378
0.07199259 0.054372277 0.086865954 -0.107120015 -0.3080167 -0.048696835 0.2500346 -0.00890744
-0.27487943 -0.23594409 -0.098045915 0.2550967 -0.19213623 0.056189694 -0.31736204 -0.23306692
0.32635126 -0.10911964 -0.11434231 -0.018184422 0.010808318 -0.15381439 0.044813596 -0.114702016
0.16199505 -0.20647378 -0.0609363 -0.15359758 -0.33338642 -0.051084932 0.32147837 -0.011799265
00000000: 9de3 24be 93dc afbd 3da0 3d3e 5f29 6fbd
00000010: fd50 503d 1f06 a1bc efa7 02be f072 fc3d
00000020: 0ae3 f3bd 4e51 343e 39a8 8ebe c343 803e
00000030: 8f84 663e 905b 953c 6615 753e 949f 34be
00000040: a614 5cbd 8407 993e c8fd 583e 1b4c 1b3e
00000050: 8d61 46be edf1 1e3e 2075 d9bd 6eec 21be
00000060: 3ace 12be 240b c8bc 44cb 6a3e 6361 59bd
00000070: 9013 8b3d 5ac9 c73d b92e babd 828d 43be
00000080: 8914 ffbd 141d 823e 8bcb aabe 3cf1 a83e
00000090: 6fae 94bc 2a76 a9bd 824c b2be 4c25 27be
000000a0: f967 623d da47 343e 5181 dc3c e9db 57bd
000000b0: 24c9 8d3c 36af 2e3e 8d59 473d 1bff 1d3e
000000c0: f608 fdbd 635b b6be 1156 58be 7c89 613e
000000d0: 418f bbbe 8f0e a03d 5e7b 573e d68f 503e
000000e0: 8dcb 53be 1529 353e 164a 903e acbf 44bd
000000f0: f058 1b3e 8211 6cbd bb77 113e 1f1b 25be
00000100: f041 2abe 5362 1ebe e542 2ebe dd81 fc3d
00000110: dcd9 1a3e 883e b73e d702 943e e891 2fbd
00000120: b94c a13e a343 65bc 7a2b 0e3e 4ab4 43be
00000130: a80c 0d3e 45e9 863c 31fb 393e c72b 1a3e
00000140: ffed c3bd 2a19 18bd 1c3c 523c 1cd8 45bc
00000150: adb8 013e 341a 383d c98f be3d f8b8 acbe
00000160: 2217 96bd 2e2d 9c3e 20ba 033e 6e24 b13d
00000170: 6721 afbe 9444 223e 3fb2 e1bc b17a 553e
00000180: 1c93 de3d 63b1 60be ac68 b63e c984 03be
00000190: 59e4 53be 48fb 2d3e 479d 1dbd c1c6 d6ba
000001a0: c6bb bfbe 0015 623e acac 68be a971 bb3e
000001b0: 50cc 2b3e 0e17 1ebe a3c1 7fbd 41ea b4be
000001c0: 4bb7 543e fd41 c83d 9053 663e e429 11be
000001d0: 3574 eebd 80d9 00be 91d9 ccbd 394f b0bc
000001e0: 1550 babe b578 08bd acb2 803e 6dd9 3c3e
000001f0: 82f7 3bbd c889 4cbe c4d3 8abd 0adf 07be
00000200: faad 923e c8e5 a03d 60b7 843e 400f 1fbe
00000210: 2f9e 163c 12aa 5bbe 23db 493e 171f 173d
00000220: 8cd1 a2bd 6256 7e3e 1b22 95bc 830c a6be
00000230: db61 80be eb07 15be c9a0 abbc 9828 99be
00000240: 1832 983d 86cf 30be 26bd 913d bcb8 833e
00000250: cc93 a33d acf8 ae3c 45c0 b63d 894d 043e
00000260: 4e49 63be 3e2b 5dbc 6381 183c 2391 ce3d
00000270: 251a 193e 48b1 933d 0d09 63be 0d59 9bbe
00000280: da70 933d 77b5 5e3d c7e6 b13d bd61 dbbd
00000290: 5db4 9dbe 5576 47bd 8904 803e 83f0 11bc
000002a0: ffbc 8cbe 549b 71be 4ccc c8bd 099c 823e
000002b0: 5cbf 44be 2a27 663d 477d a2be 18a9 6ebe
000002c0: 8317 a73e 1e7a dfbd 4d2c eabd 7ff7 94bc
000002d0: 5f15 313c 8581 1dbe 768e 373d e4e8 eabd
000002e0: 08e2 253e dd6d 53be 5798 79bd af48 1dbe
000002f0: a0b1 aabe 6f3e 51bd d098 a43e b451 41bc

conv1.att_dst f4 [1, 3, 64]
0.30632377 -0.21043976 0.07344657 0.37017068 -0.37767917 0.28618965 0.23413505 -0.12565787
0.059866626 0.20682019 0.047860477 -0.1536715 -0.1363294 -0.15877543 -0.020569978 -0.17828488
0.1038616 -0.14258099 0.09771221 -0.08962445 -0.34703314 0.15770246 -0.18563227 0.1932116
0.0025815975 0.107348226 0.3701287 -0.15285161 0.045872156 -0.0071868976 -0.18743972 0.3259574
0.04070553 0.13964361 -0.045043018 0.13925925 -0.24456131 -0.15257439 -0.0076800385 0.17305054
-0.10562087 0.013121557 -0.06524768 -0.2652931 0.11622621 0.32283688 -0.12633282 0.104596995
0.3430663 -0.33667937 -0.11977187 -0.02335345 -0.2919 -0.053759225 0.211315 -0.03879977
-0.12548146 0.117536254 0.29287487 -0.058808193 0.13421671 -0.27627805 -0.04496735 0.20018621
0.031930435 -0.15174465 0.21417981 0.039404146 -0.11737581 -0.005552339 0.035782315 -0.19071269
0.048640206 0.2370991 0.29276878 -0.052509796 -0.16560997 0.208723 -0.09594387 -0.23746113
0.06765731 -0.22093299 0.14841911 0.18944286 0.16671865 -0.13104694 0.13498567 -0.094347626
-0.0156201245 0.22862214 0.05454843 0.36682975 0.34562153 -0.06319298 -0.17716347 0.24473344
0.26341587 0.27128586 0.15249896 0.23675355 0.18291119 0.09209877 -0.08448433 0.1936009
-0.08302008 0.20949265 0.07613272 -0.12704772 -0.106002375 -0.2603916 0.3049117 0.04994166
0.025787117 -0.0057740817 0.21153897 -0.1660925 -0.28546894 0.08628472 -0.3398542 0.14974593
0.29582486 -0.029141609 -0.04919412 -0.082664646 0.06620077 -0.046390694 -0.012741787 -0.17991872
0.07228923 -0.23421465 0.30130875 -0.19147278 0.32419348 -0.21200046 0.21513669 0.23041093
-0.05895239 0.1438199 0.32980475 -0.212881 -0.119185396 -0.36356 0.22253245 0.14647588
-0.023691993 -0.22904432 0.18540269 0.2969229 -0.049734905 0.34368128 0.024651624 0.25824302
-0.08257815 0.15383282 -0.17932482 0.089184925 -0.29332545 0.16716047 0.09680178 -0.0060608797
-0.06083154 -0.119694136 0.02193478 -0.02002883 0.04650112 0.06330602 -0.30314124 -0.14851257
-0.12109532 -0.12172496 -0.16466945 -0.12748495 0.17372335 -0.18943831 -0.029347586 0.11700917
0.022866597 0.22885232 0.22087617 0.27395502 -0.08968868 0.35000432 0.026249336 0.2006676
0.21265991 0.08586649 -0.025488978 -0.0461701 -0.25142917 -0.030414816 -0.14620519 -0.16527098
00000000: 78d6 9c3e 857d 57be 286b 963d 0387 bd3e
00000010: 2a5f c1be 7387 923e 19c1 6f3e 75ac 00be
00000020: b536 753d acc8 533e 5909 443d 105c 1dbe
00000030: ef99 0bbe 0796 22be 5f82 a8bc 5090 36be
00000040: 64b5 d43d c000 12be 571d c83d 068d b7bd
00000050: 54ae b1be c17c 213e 6316 3ebe 43d9 453e
00000060: 0530 293b 63d9 db3d 8281 bd3e 2285 1cbe
00000070: 71e4 3b3d 1180 ebbb 33f0 3fbe e3e3 a63e
00000080: d8ba 263d bcfe 0e3e 077f 38bd fa99 0e3e
00000090: 486e 7abe 763c 1cbe d5a8 fbbb 2934 313e
000000a0: c14f d8bd cdfb 563c 93a0 85bd 7fd4 87be
000000b0: 0208 ee3d e04a a53e 645d 01be f336 d63d
000000c0: 63a6 af3e 3d61 acbe f44a f5bd bc4f bfbc
000000d0: eb73 95be a232 5cbd f662 583e 82ec 1ebd
000000e0: 367e 00be d9b6 f03d b2f3 953e dce0 70bd
000000f0: 1b70 093e 5174 8dbe af2f 38bd 9dfd 4c3e
00000100: 7dc9 023d f362 1bbe f451 5b3e 3e66 213d
00000110: bb62 f0bd 65f0 b5bb 7a90 123d 304a 43be
00000120: f43a 473d 1bca 723e cae5 953e 8314 57bd
00000130: a995 29be 7bbb 553e 387e c4bd 0329 73be
00000140: ea8f 8a3d 423c 62be 2efb 173e 4ffd 413e
00000150: 4bb8 2a3e 2b31 06be af39 0a3e 5439 c1bd
00000160: 8deb 7fbc ec1b 6a3e 2d6e 5f3d 1cd1 bb3e
00000170: 4ef5 b03e 526b 81bd 576a 35be 679b 7a3e
00000180: 72de 863e fbe5 8a3e b028 1c3e 866f 723e
00000190: 124d 3b3e 489e bc3d 1f06 adbd 503f 463e
000001a0: 6f06 aabd 3e85 563e 79eb 9b3d cc18 02be
000001b0: c617 d9bd 0c52 85be 631d 9c3e a08f 4c3d
000001c0: 813f d33c 8234 bdbb ac9d 583e 2714 2abe
000001d0: fc28 92be 0bb6 b03d 5f01 aebe ff56 193e
000001e0: 5b76 973e 62ba eebc c67f 49bd 154c a9bd
000001f0: 4594 873d 2b04 3ebd eec2 50bc 9d3c 38be
00000200: 600c 943d f7d5 6fbe 2445 9a3e 7111 44be
00000210: b0fc a53e a616 59be cb4c 5c3e d8f0 6b3e
00000220: 1078 71bd 8645 133e 2bdc a83e 7afd 59be
00000230: 7917 f4bd 8924 babe 8cdf 633e c6fd 153e
00000240: b615 c2bc 988a 6abe 34da 3d3e 4706 983e
00000250: d4b6 4bbd fef6 af3e 34f2 c93c 6e38 843e
00000260: bc1e a9bd 5a86 1d3e eda0 37be 96a6 b63d
00000270: c12e 96be 1d2c 2b3e 0340 c63d 589a c6bb
00000280: 7e2a 79bd 3322 f5bd 91b0 b33c 8013 a4bc
00000290: f577 3e3d 96a6 813d 5435 9bbe ae13 18be
000002a0: d300 f8bd f04a f9bd 1c9f 28be 6a8b 02be
000002b0: 89e4 313e 1efc 41be 596a f0bc 81a2 ef3d
000002c0: bb52 bb3c 4358 6a3e 5d2d 623e d543 8c3e
000002d0: b3ae b7bd c433 b33e d908 d73c cf7b 4d3e
000002e0: 85c3 593e c5da af3d 43ce d0bc dc1c 3dbd
000002f0: 53bb 80be 7e28 f9bc d0b6 15be cc3c 29be

conv1.bias f4 [192]
-0.037342656 -0.044800077 0.018736538 -0.06834858 0.044043973 -0.047282837 -0.018805342 -0.050490234
-0.09279226 -0.045066137 -0.009780463 0.04720148 -0.086638615 -0.105740465 0.027247973 -0.042731814
-0.033146873 -0.055741675 0.13187559 -0.11240702 -0.053839266 0.059649862 0.05987564 -0.08068491
0.06463976 0.013532241 -0.076947875 0.058655612 -0.08542507 -0.05799735 -0.055245083 0.02325481
-0.08425781 -0.07699697 -0.08815933 0.0 -0.06376786 -0.058453638 -0.0393087 -0.044680215
0.07545462 0.002280669 -0.22053918 -0.08440145 -0.110754706 -0.059259683 -0.04824976 0.06653913
-0.049987108 0.05172678 -0.07738638 0.08296346 -0.08622437 -0.020572804 -0.07092829 0.05429939
0.024192503 -0.0026277604 -0.07417257 -0.13584247 -0.109710485 -0.059496157 -0.05662309 0.032134976
0.081527755 -0.21061286 0.03908018 -0.021672111 0.05229523 0.0 -0.039658315 -0.039401963
0.0 -0.015325857 -0.053849287 -0.049554992 -0.038940676 -0.04304525 -0.07244571 -0.014064578
-0.027318826 -0.03501553 -0.05140813 -0.08402764 0.24358983 -0.0045647495 0.17251746 -0.062419407
-0.0018303622 0.12112095 0.036814585 0.12063971 -0.02885348 -0.0081593925 0.052490484 0.030376473
-0.07948086 -0.02026151 0.16355705 -0.051640663 -0.008436236 -0.021433353 -0.0058566188 -0.01990723
-0.06590472 -0.05039021 -0.0027531297 -0.06390683 0.011266103 0.089685164 -0.08730545 -0.067753986
-0.03421033 0.07245928 -0.08401314 0.046917923 0.22618434 -0.0036520744 0.06943409 -0.044175617
-0.030573796 -0.02889076 0.0011270611 -0.08819484 -0.013766497 -0.07748336 0.006364409 -0.02141502
0.06054944 0.05966635 -0.072186716 0.014008937 -0.10003662 -0.07020679 0.056813326 -0.010227193
-0.05723998 -0.07865002 -0.06364669 0.03725054 -0.026851563 -0.0963786 0.051641513 0.063962504
-0.013120585 -0.049435724 -0.021830553 0.018003162 -0.0081557315 -0.0060467995 0.01805641 0.037948325
0.058198113 -0.1498604 0.035532 -0.07748786 0.01030391 0.03745027 0.003101374 0.011832524
-0.09041535 -0.08251512 -0.022452531 -0.019687716 0.03424187 -0.05618853 0.061866943 0.0030372324
-0.022129815 -0.07702097 -0.08680032 -0.07691062 0.13620423 -0.016299961 -0.04354749 0.1255758
-0.04460169 0.27926692 0.008726935 0.059649907 0.05712449 -0.06908472 0.2913535 -0.060475525
0.07155685 0.112452045 -0.0010392194 -0.08129916 -0.022546783 0.17627455 -0.00962053 -0.0631868
00000000: 9df4 18bd 4980 37bd 5e7d 993c 57fa 8bbd
00000010: 7467 343d a6ab 41bd a90d 9abc d9ce 4ebd
00000020: de09 bebd 4597 38bd 3c3e 20bc 5756 413d
00000030: 966f b1bd 758e d8bd 2437 df3c 8e07 2fbd
00000040: 04c5 07bd 6251 64bd 650a 073e a735 e6bd
00000050: 9086 5cbd 6a53 743d 2940 753d 213e a5bd
00000060: da61 843d 55b6 5d3c d996 9dbd de40 703d
00000070: 57f3 aebd a18e 6dbd ab48 62bd df80 be3c
00000080: 5c8f acbd 96b0 9dbd e18c b4bd 0000 0000
00000090: b998 82bd 156d 6fbd 2902 21bd 9a02 37bd
000000a0: f487 9a3d 4777 153b 06d5 61be abda acbd
000000b0: 5dd3 e2bd 48ba 72bd 8aa1 45bd ab45 883d
000000c0: 48bf 4cbd 76df 533d c07c 9ebd bfe8 a93d
000000d0: 6796 b0bd 4c88 a8bc da42 91bd 0a69 5e3d
000000e0: 5b2f c63c 8136 2cbb cae7 97bd 4a1a 0bbe
000000f0: e4af e0bd 3eb2 73bd 9ded 67bd f79f 033d
00000100: 06f8 a63d e6aa 57be 8a12 203d b689 b1bc
00000110: 8633 563d 0000 0000 c270 22bd f463 21bd
00000120: 0000 0000 4e19 7bbc 1291 5cbd 2dfa 4abd
00000130: 4280 1fbd 3750 30bd 6b5e 94bd 1e6f 66bc
00000140: bbcb dfbc 726c 0fbd 5591 52bd af16 acbd
00000150: 9d6f 793e e593 95bb 6ba8 303e 7eab 7fbd
00000160: c4e8 efba 430e f83d e4ca 163d f411 f73d
00000170: 225e ecbc f9ae 05bc 4300 573d 15d8 f83c
00000180: dcc6 a2bd 77fb a5bc 807b 273e 2985 53bd
00000190: 2338 0abc 0095 afbc e1e8 bfbb 7d14 a3bc
000001a0: 0ef9 86bd f765 4ebd da6d 34bb 96e1 82bd
000001b0: 7695 383c dbac b73d 33cd b2bd 9ac2 8abd
000001c0: 2220 0cbd 8865 943d 150f acbd 022d 403d
000001d0: de9c 673e a457 6fbb 7633 8e3d 7ef1 34bd
000001e0: e675 fabc 51ac ecbc e5b9 933a 7f9f b4bd
000001f0: e08c 61bc 99af 9ebd 888c d03b 8d6e afbc
00000200: b102 783d b464 743d a1d6 93bd be85 653c
00000210: 00e0 ccbd 94c8 8fbd 17b5 683d f58f 27bc
00000220: 7874 6abd 4313 a1bd 3259 82bd 0694 183d
00000230: cff7 dbbc 2562 c5bd 0d86 533d c6fe 823d
00000240: b9f7 56bc 1d7d 4abd fdd5 b2bc 5e7b 933c
00000250: 9e9f 05bc 3b24 c6bb 09eb 933c b46f 1b3d
00000260: 2561 6e3d 0175 19be 018a 113d f5b1 9ebd
00000270: bbd1 283c 7465 193d 6c40 4b3b 34dd 413c
00000280: af2b b9bd b0fd a8bd 5fee b7bc 2248 a1bc
00000290: 3441 0c3d f225 66bd 3168 7d3d 4e0c 473b
000002a0: 9649 b5bc 2cbd 9dbd 5ec4 b1bd 5183 9dbd
000002b0: 1f79 0b3e 7f87 85bc da5e 32bd f196 003e
000002c0: 43b0 36bd 13fc 8e3e 6bfb 0e3c 7653 743d
000002d0: 5ffb 693d 4a7c 8dbd 492c 953e 2fb5 77bd
000002e0: 668c 923d 424d e63d 6b36 88ba 2d80 a6bd
000002f0: 08b4 b8bc 5181 343e 6d9f 1dbc 1568 81bd

conv1.lin_src.weight f4 [192, 7]
0.15524182 0.01773232 0.10323672 0.15119004 -0.03296557 0.0037311125 -0.1108972 -0.16213882
0.13299443 0.06121664 0.13462107 0.13851434 -0.14871246 -0.12545991 -0.034411423 -0.1549762
-0.016153837 0.012311696 0.016743891 -0.22038703 -0.18376781 -0.17711881 -0.12562007 0.022592712
0.12235968 -0.15242873 0.08707121 0.06662261 0.07438395 0.0653974 -0.018921325 0.128328
0.109501705 -0.013818578 0.12931466 -0.004231596 -0.05007332 0.03693949 0.04784007 0.03992787
0.019991504 -0.11107825 0.033522386 0.089942224 -0.09724653 -0.020042073 0.07663465 -0.036800306
-0.0712365 -0.09189898 -0.16408916 0.1179604 -0.06153109 -0.09844525 -0.04677389 -0.06610503
0.01340116 0.033095453 0.07038125 -0.088847175 0.06662172 -0.05730583 0.1889564 0.01757951
0.0052525513 -0.17559059 0.07261987 -0.07855434 0.124451175 -0.11440198 0.09870586 -0.007745834
0.08377872 -0.1580801 -0.089467205 0.013814403 0.018835202 -0.14479487 -0.20877597 -0.11683339
-0.11762256 0.064345 -0.09855876 0.133193 -0.15418562 -0.012522566 -0.17515531 -0.027761197
0.04234249 -0.16343938 -0.15336728 0.043287717 -0.072800435 -0.08048614 -0.07944299 -0.19704227
0.051941402 0.07947186 -0.053812295 -0.073751554 0.09681858 -0.24346925 -0.2104809 -0.23678079
-0.22562398 0.014492027 0.116132684 0.11353793 -0.13881329 -0.08349755 0.157713 0.028621541
0.1536908 0.2147889 0.17953296 0.17840627 0.05901147 0.048136838 -0.030307986 -0.08835259
0.02327196 -0.15723884 -0.11016015 -0.1917495 0.025534794 -0.04018052 0.12809262 -0.2554218
-0.09731336 -0.075172186 0.08744004 -0.112087786 -0.23521562 0.015282531 0.0824222 -0.20670003
-0.013253203 -0.2083098 0.07782622 0.08714993 -0.030967187 0.11583319 0.07115159 -0.0037972247
0.03456665 -0.17063129 -0.17183657 -0.13211644 -0.069182016 -0.21043168 0.06314912 -0.10716386
-0.13898419 -0.17107645 0.20060344 0.11585155 -0.0983655 0.12685367 0.010144836 0.041024856
0.06285736 0.023245621 0.1099332 0.08607642 -0.054140154 -0.0355472 0.11396746 0.028688781
0.1360447 -0.04950093 -0.10322009 0.15918522 0.1905832 -0.06382234 0.03357132 -0.10861005
0.0327171 -0.07174343 0.09850577 -0.019390207 0.04741543 0.20104015 -0.2156002 -0.24339956
-0.11692735 0.013860409 -0.1151167 0.047470547 -0.25441527 0.018877445 0.18205374 0.09985694
-0.1053346 -0.13713738 -0.02304197 -0.02279749 0.04925162 -0.16080119 -0.0014203911 0.049150713
-0.116113245 -0.02184063 0.09144405 -0.007571501 -0.16148062 -0.03710641 -0.08544801 -0.20286894
0.08995406 0.050143175 0.013493145 -0.05545673 0.080414034 -0.119734205 -0.029597767 -0.15541516
0.11299406 0.02624007 0.003312261 0.13185728 0.12797724 -0.08608327 0.07638713 -0.06939505
-0.19273393 0.041540205 0.07966835 0.052699886 -0.17530827 0.029442493 -0.022376835 -0.13379037
0.009894364 -0.20541197 -0.24935666 -0.112834334 0.0105894115 -0.2551574 -0.11740111 0.04048263
-0.035634737 0.093641736 0.106112674 -0.118701324 0.10843921 -0.12043765 -0.19701514 -0.21515006
-0.03216981 -0.10067429 -0.24879743 -0.012869073 -0.0031333137 0.056062687 0.043619357 -0.099986
00000000: b6f7 1e3e 5f43 913c c66d d33d 90d1 1a3e
00000010: e806 07bd ae85 743b 121e e3bd b807 26be
00000020: b12f 083e 4dbe 7a3d 1bda 093e b4d6 0d3e
00000030: 1448 18be 9078 00be fef2 0cbd 15b2 1ebe
00000040: 0d55 84bc ffb6 493c 7c2a 893c 23ad 61be
00000050: a12d 3cbe a25e 35be 8ca2 00be 5a14 b93c
00000060: b697 fa3d 4716 1cbe 6452 b23d 6f71 883d
00000070: 9d56 983d 12ef 853d e500 9bbc 6a68 033e
00000080: 6e42 e03d 5167 62bc 106b 043e 33a9 8abb
00000090: ae19 4dbd dd4d 173d f3f3 433d 688b 233d
000000a0: 39c5 a33c fe7c e3bd c54e 093d a133 b83d
000000b0: 3029 c7bd 462f a4bc a1f2 9c3d ebbb 16bd
000000c0: 71e4 91bd 8835 bcbd fd06 28be 3995 f13d
000000d0: 0608 7cbd aa9d c9bd fa95 3fbd 1362 87bd
000000e0: 8a90 5b3c 198f 073d 0b24 903d 82f5 b5bd
000000f0: f870 883d 85b9 6abd c97d 413e e802 903c
00000100: 981d ac3b 05ce 33be bab9 943d 19e1 a0bd
00000110: 42e0 fe3d 964b eabd 4c26 ca3d c4d0 fdbb
00000120: 2d94 ab3d c0df 21be 953a b7bd ce55 623c
00000130: 484c 9a3c 1b45 14be 5ec9 55be 5846 efbd
00000140: 19e4 f0bd 50c7 833d 2dd9 c9bd bf63 083e
00000150: d6e2 1dbe 732b 4dbc ea5b 33be 736b e3bc
00000160: 526f 2d3d a75c 27be 500c 1dbe 764e 313d
00000170: 6518 95bd ebd5 a4bd 02b3 a2bd 73c5 49be
00000180: 82c0 543d 24c2 a23d 486a 5cbd 0e0b 97bd
00000190: d248 c63d 0150 79be 4e88 57be aa76 72be
000001a0: f909 67be f86f 6d3c f9d6 ed3d 9386 e83d
000001b0: 1225 0ebe c300 abbd 847f 213e b977 ea3c
000001c0: 1f61 1d3e 9ff1 5b3e 7dd7 373e 22b0 363e
000001d0: 03b6 713d 222b 453d 7448 f8bc 34f2 b4bd
000001e0: d6a4 be3c 3803 21be a59b e1bd fb59 44be
000001f0: 582e d13c 5494 24bd b62a 033e a5c6 82be
00000200: 3a4c c7bd e0f3 99bd c413 b33d 488e e5bd
00000210: 5ddc 70be 9563 7a3c f8cc a83d 2ca9 53be
00000220: f623 59bc 2a4f 55be 5a63 9f3d aa7b b23d
00000230: e6ae fdbc f439 ed3d edb7 913d dcda 78bb
00000240: c295 0d3d f8b9 2ebe edf5 2fbe 8849 07be
00000250: 4daf 8dbd 677b 57be 5354 813d ba78 dbbd
00000260: df51 0ebe aa2e 2fbe fd6a 4d3e 9443 ed3d
00000270: da73 c9bd eee5 013e 8736 263c ae09 283d
00000280: 5cbb 803d 9a6d be3c a824 e13d d648 b03d
00000290: 11c2 5dbd f199 11bd c667 e93d bc04 eb3c
000002a0: 4d4f 0b3e 7dc1 4abd 0e65 d3bd 7301 233e
000002b0: 3e28 433e 49b5 82bd 1582 093d f26e debd
000002c0: 5e02 063d 38ee 92bd 65bd c93d 36d8 9ebc
000002d0: af36 423d 78dd 4d3e 4dc6 5cbe bc3d 79be
000002e0: 9b77 efbd c516 633c 4ec2 ebbd 7a70 423d
000002f0: b842 82be dfa4 9a3c 4c6c 3a3e cc81 cc3d
00000300: abb9 d7bd be6d 0cbe 83c2 bcbc cdc1 babc
00000310: 11bc 493d 11a9 24be 6b2c baba 4252 493d
00000320: c8cc edbd 1feb b2bc 0547 bb3d 5b1a f8bb
00000330: 2d5b 25be e4fc 17bd 5eff aebd e0bc 4fbe
00000340: d639 b83d ee62 4d3d 5a12 5d3c 9926 63bd
00000350: 1db0 a43d 3537 f5bd 0477 f2bc 2725 1fbe
00000360: 6e69 e73d 6af5 d63c 8512 593b 9805 073e
00000370: 770c 033e 6d4c b0bd db70 9c3d fe1e 8ebd
00000380: 0b5c 45be 1026 2a3d 2929 a33d d6db 573d
00000390: 0384 33be 6231 f13c a04f b7bc 5800 09be
000003a0: f81b 223c 8457 52be 5a57 7fbe b015 e7bd
000003b0: 367f 2d3c fea3 82be fe6f f0bd 1dd1 253d
000003c0: bbf5 11bd 3dc7 bf3d 9a51 d93d ae19 f3bd
000003d0: 6015 de3d 04a8 f6bd 56be 49be 4c50 5cbe
000003e0: 7ec4 03bd 522e cebd c1c4 7ebe ced8 52bc
000003f0: 4858 4dbb fda1 653d 36aa 323d 76c5 ccbd

conv1.lin_dst.weight f4 [192, 7]
0.15524182 0.01773232 0.10323672 0.15119004 -0.03296557 0.0037311125 -0.1108972 -0.16213882
0.13299443 0.06121664 0.13462107 0.13851434 -0.14871246 -0.12545991 -0.034411423 -0.1549762
-0.016153837 0.012311696 0.016743891 -0.22038703 -0.18376781 -0.17711881 -0.12562007 0.022592712
0.12235968 -0.15242873 0.08707121 0.06662261 0.07438395 0.0653974 -0.018921325 0.128328
0.109501705 -0.013818578 0.12931466 -0.004231596 -0.05007332 0.03693949 0.04784007 0.03992787
0.019991504 -0.11107825 0.033522386 0.089942224 -0.09724653 -0.020042073 0.07663465 -0.036800306
-0.0712365 -0.09189898 -0.16408916 0.1179604 -0.06153109 -0.09844525 -0.04677389 -0.06610503
0.01340116 0.033095453 0.07038125 -0.088847175 0.06662172 -0.05730583 0.1889564 0.01757951
0.0052525513 -0.17559059 0.07261987 -0.07855434 0.124451175 -0.11440198 0.09870586 -0.007745834
0.08377872 -0.1580801 -0.089467205 0.013814403 0.018835202 -0.14479487 -0.20877597 -0.11683339
-0.11762256 0.064345 -0.09855876 0.133193 -0.15418562 -0.012522566 -0.17515531 -0.027761197
0.04234249 -0.16343938 -0.15336728 0.043287717 -0.072800435 -0.08048614 -0.07944299 -0.19704227
0.051941402 0.07947186 -0.053812295 -0.073751554 0.09681858 -0.24346925 -0.2104809 -0.23678079
-0.22562398 0.014492027 0.116132684 0.11353793 -0.13881329 -0.08349755 0.157713 0.028621541
0.1536908 0.2147889 0.17953296 0.17840627 0.05901147 0.048136838 -0.030307986 -0.08835259
0.02327196 -0.15723884 -0.11016015 -0.1917495 0.025534794 -0.04018052 0.12809262 -0.2554218
-0.09731336 -0.075172186 0.08744004 -0.112087786 -0.23521562 0.015282531 0.0824222 -0.20670003
-0.013253203 -0.2083098 0.07782622 0.08714993 -0.030967187 0.11583319 0.07115159 -0.0037972247
0.03456665 -0.17063129 -0.17183657 -0.13211644 -0.069182016 -0.21043168 0.06314912 -0.10716386
-0.13898419 -0.17107645 0.20060344 0.11585155 -0.0983655 0.12685367 0.010144836 0.041024856
0.06285736 0.023245621 0.1099332 0.08607642 -0.054140154 -0.0355472 0.11396746 0.028688781
0.1360447 -0.04950093 -0.10322009 0.15918522 0.1905832 -0.06382234 0.03357132 -0.10861005
0.0327171 -0.07174343 0.09850577 -0.019390207 0.04741543 0.20104015 -0.2156002 -0.24339956
-0.11692735 0.013860409 -0.1151167 0.047470547 -0.25441527 0.018877445 0.18205374 0.09985694
-0.1053346 -0.13713738 -0.02304197 -0.02279749 0.04925162 -0.16080119 -0.0014203911 0.049150713
-0.116113245 -0.02184063 0.09144405 -0.007571501 -0.16148062 -0.03710641 -0.08544801 -0.20286894
0.08995406 0.050143175 0.013493145 -0.05545673 0.080414034 -0.119734205 -0.029597767 -0.15541516
0.11299406 0.02624007 0.003312261 0.13185728 0.12797724 -0.08608327 0.07638713 -0.06939505
-0.19273393 0.041540205 0.07966835 0.052699886 -0.17530827 0.029442493 -0.022376835 -0.13379037
0.009894364 -0.20541197 -0.24935666 -0.112834334 0.0105894115 -0.2551574 -0.11740111 0.04048263
-0.035634737 0.093641736 0.106112674 -0.118701324 0.10843921 -0.12043765 -0.19701514 -0.21515006
-0.03216981 -0.10067429 -0.24879743 -0.012869073 -0.0031333137 0.056062687 0.043619357 -0.099986
00000000: b6f7 1e3e 5f43 913c c66d d33d 90d1 1a3e
00000010: e806 07bd ae85 743b 121e e3bd b807 26be
00000020: b12f 083e 4dbe 7a3d 1bda 093e b4d6 0d3e
00000030: 1448 18be 9078 00be fef2 0cbd 15b2 1ebe
00000040: 0d55 84bc ffb6 493c 7c2a 893c 23ad 61be
00000050: a12d 3cbe a25e 35be 8ca2 00be 5a14 b93c
00000060: b697 fa3d 4716 1cbe 6452 b23d 6f71 883d
00000070: 9d56 983d 12ef 853d e500 9bbc 6a68 033e
00000080: 6e42 e03d 5167 62bc 106b 043e 33a9 8abb
00000090: ae19 4dbd dd4d 173d f3f3 433d 688b 233d
000000a0: 39c5 a33c fe7c e3bd c54e 093d a133 b83d
000000b0: 3029 c7bd 462f a4bc a1f2 9c3d ebbb 16bd
000000c0: 71e4 91bd 8835 bcbd fd06 28be 3995 f13d
000000d0: 0608 7cbd aa9d c9bd fa95 3fbd 1362 87bd
000000e0: 8a90 5b3c 198f 073d 0b24 903d 82f5 b5bd
000000f0: f870 883d 85b9 6abd c97d 413e e802 903c
00000100: 981d ac3b 05ce 33be bab9 943d 19e1 a0bd
00000110: 42e0 fe3d 964b eabd 4c26 ca3d c4d0 fdbb
00000120: 2d94 ab3d c0df 21be 953a b7bd ce55 623c
00000130: 484c 9a3c 1b45 14be 5ec9 55be 5846 efbd
00000140: 19e4 f0bd 50c7 833d 2dd9 c9bd bf63 083e
00000150: d6e2 1dbe 732b 4dbc ea5b 33be 736b e3bc
00000160: 526f 2d3d a75c 27be 500c 1dbe 764e 313d
00000170: 6518 95bd ebd5 a4bd 02b3 a2bd 73c5 49be
00000180: 82c0 543d 24c2 a23d 486a 5cbd 0e0b 97bd
00000190: d248 c63d 0150 79be 4e88 57be aa76 72be
000001a0: f909 67be f86f 6d3c f9d6 ed3d 9386 e83d
000001b0: 1225 0ebe c300 abbd 847f 213e b977 ea3c
000001c0: 1f61 1d3e 9ff1 5b3e 7dd7 373e 22b0 363e
000001d0: 03b6 713d 222b 453d 7448 f8bc 34f2 b4bd
000001e0: d6a4 be3c 3803 21be a59b e1bd fb59 44be
000001f0: 582e d13c 5494 24bd b62a 033e a5c6 82be
00000200: 3a4c c7bd e0f3 99bd c413 b33d 488e e5bd
00000210: 5ddc 70be 9563 7a3c f8cc a83d 2ca9 53be
00000220: f623 59bc 2a4f 55be 5a63 9f3d aa7b b23d
00000230: e6ae fdbc f439 ed3d edb7 913d dcda 78bb
00000240: c295 0d3d f8b9 2ebe edf5 2fbe 8849 07be
00000250: 4daf 8dbd 677b 57be 5354 813d ba78 dbbd
00000260: df51 0ebe aa2e 2fbe fd6a 4d3e 9443 ed3d
00000270: da73 c9bd eee5 013e 8736 263c ae09 283d
00000280: 5cbb 803d 9a6d be3c a824 e13d d648 b03d
00000290: 11c2 5dbd f199 11bd c667 e93d bc04 eb3c
000002a0: 4d4f 0b3e 7dc1 4abd 0e65 d3bd 7301 233e
000002b0: 3e28 433e 49b5 82bd 1582 093d f26e debd
000002c0: 5e02 063d 38ee 92bd 65bd c93d 36d8 9ebc
000002d0: af36 423d 78dd 4d3e 4dc6 5cbe bc3d 79be
000002e0: 9b77 efbd c516 633c 4ec2 ebbd 7a70 423d
000002f0: b842 82be dfa4 9a3c 4c6c 3a3e cc81 cc3d
00000300: abb9 d7bd be6d 0cbe 83c2 bcbc cdc1 babc
00000310: 11bc 493d 11a9 24be 6b2c baba 4252 493d
00000320: c8cc edbd 1feb b2bc 0547 bb3d 5b1a f8bb
00000330: 2d5b 25be e4fc 17bd 5eff aebd e0bc 4fbe
00000340: d639 b83d ee62 4d3d 5a12 5d3c 9926 63bd
00000350: 1db0 a43d 3537 f5bd 0477 f2bc 2725 1fbe
00000360: 6e69 e73d 6af5 d63c 8512 593b 9805 073e
00000370: 770c 033e 6d4c b0bd db70 9c3d fe1e 8ebd
00000380: 0b5c 45be 1026 2a3d 2929 a33d d6db 573d
00000390: 0384 33be 6231 f13c a04f b7bc 5800 09be
000003a0: f81b 223c 8457 52be 5a57 7fbe b015 e7bd
000003b0: 367f 2d3c fea3 82be fe6f f0bd 1dd1 253d
000003c0: bbf5 11bd 3dc7 bf3d 9a51 d93d ae19 f3bd
000003d0: 6015 de3d 04a8 f6bd 56be 49be 4c50 5cbe
000003e0: 7ec4 03bd 522e cebd c1c4 7ebe ced8 52bc
000003f0: 4858 4dbb fda1 653d 36aa 323d 76c5 ccbd

conv2.att_src f4 [1, 1, 64]
0.04742787 0.11440004 0.26621 0.03664099 0.21771139 -0.11206939 0.19930355 0.19450977
-0.16636583 -0.13090478 0.057817306 -0.22966786 0.026493628 -0.08501572 0.0026342124 0.21945213
-0.3533847 0.34008998 -0.3550021 0.20286815 0.14396575 0.018330054 0.15705149 -0.2678702
0.3084958 -0.34933206 0.20587008 -0.32184538 -0.0019685004 0.12263471 -0.3251334 0.15072377
-0.24893391 -0.14536117 0.10978468 -0.050263807 0.11594478 -0.32209677 0.063799925 0.10228208
0.2864723 0.26966575 -0.08883046 -0.19089487 0.27422062 -0.30994207 -0.036157046 -0.17174323
0.29629403 0.019641208 0.23833758 -0.047666095 0.118065886 -0.27569196 0.09108976 -0.24301352
0.15362138 -0.2131714 0.059250295 -0.10811485 -0.092238866 -0.21605296 -0.2977389 -0.27321246
00000000: ba43 423d 914a ea3d ad4c 883e dd14 163d
00000010: bcef 5e3e a384 e5bd 3b16 4c3e 922d 473e
00000020: ce5b 2abe e70b 06be d7d1 6c3d 0d2e 6bbe
00000030: 2a09 d93c b91c aebd c0a2 2c3b 0fb8 603e
00000040: d7ee b4be 4620 ae3e d6c2 b5be abbc 4f3e
00000050: c26b 133e e928 963c 1bd2 203e 4826 89be
00000060: 29f3 9d3e a7db b2be 9bcf 523e ebc8 a4be
00000070: f501 01bb e827 fb3d e377 a6be 5557 1a3e
00000080: 88e8 7ebe 8fd9 14be cad6 e03d 6ce1 4dbd
00000090: 7574 ed3d dee9 a4be 89a9 823d 4479 d13d
000000a0: 7fac 923e a111 8a3e bfec b5bd f279 43be
000000b0: a566 8c3e bab0 9ebe 6919 14bd 75dd 2fbe
000000c0: dab3 973e 99e6 a03c c40e 743e 863d 43bd
000000d0: 87cc f13d 7f27 8dbe 458d ba3d 89d8 78be
000000e0: ec4e 1d3e 9a49 5abe 70b0 723d 526b ddbd
000000f0: bbe7 bcbd fd3c 5dbe 3c71 98be 81e2 8bbe

conv2.att_dst f4 [1, 1, 64]
-0.16010894 -0.22041357 -0.32358485 0.06213814 0.22675031 -0.188593 0.1659546 -0.3669672
-0.14737645 -0.23355171 -0.028447378 0.15824632 0.09084844 0.110928275 0.071711905 -0.34962973
-0.004857799 -0.21627289 0.3671585 0.1454246 0.040626314 -0.12059654 -0.2543863 -0.18499865
-0.35565576 0.23325178 -0.03154016 -0.22516085 -0.1608607 0.0710639 0.1558781 0.24099493
-0.36255693 -0.10666809 0.23592363 -0.06044265 -0.030587118 0.3179899 0.21917163 -0.16861826
-0.38311592 0.20212172 -0.32808614 -0.05424288 -0.0251238 0.2238726 -0.071875244 0.15810482
0.15843466 0.18218465 0.25064248 0.104459174 -0.045849357 -0.1504477 -0.18103106 0.05636938
-0.08101813 0.025185158 -0.16834591 -0.3092747 0.102866694 0.099182345 0.06853345 0.30120444
00000000: 99f3 23be 18b4 61be eaac a5be 9084 7e3d
00000010: 3c31 683e 861e 41be 01f0 293e 20e3 bbbe
00000020: dae9 16be 2e28 6fbe 7a0a e9bc 530b 223e
00000030: bf0e ba3d 5d2e e33d b1dd 923d ab02 b3be
00000040: 2c2e 9fbb a476 5dbe 33fc bb3e 30ea 143e
00000050: c767 263d 52fb f6bd ec3e 82be 4970 3dbe
00000060: 8318 b6be 8ed9 6e3e 4130 01bd 9190 66be
00000070: abb8 24be f389 913d 829e 1f3e 60c7 763e
00000080: 10a1 b9be cd74 dabd f795 713e b692 77bd
00000090: d691 fabc 92cf a23e 876e 603e 44aa 2cbe
000000a0: c527 c4be fff8 4e3e e8fa a7be c82d 5ebd
000000b0: 6dd0 cdbc dc3e 653e 5433 93bd 3be6 213e
000000c0: b23c 223e 9d8e 3a3e 3654 803e b1ee d53d
000000d0: 89cc 3bbd f60e 1abe 3560 39be 94e3 663d
000000e0: d5ec a5bd 1b51 ce3c df62 2cbe 4159 9ebe
000000f0: c6ab d23d 1d20 cb3d 445b 8c3d 7837 9a3e

conv2.bias f4 [64]
0.0006646236 -0.025334464 -0.006680264 0.04260766 0.09082183 -0.054300074 -0.08623894 -0.08080406
-0.02584058 -0.08820556 -0.0033129354 -0.044585086 0.07882058 -0.048688598 0.0638881 -0.006710511
0.007406829 -0.0341253 0.055172972 -0.057829335 0.10006549 0.08504786 -0.04850662 -0.018204775
0.06999057 -0.0048831683 0.09238324 0.07110432 0.010426315 -0.027405076 0.012029731 0.06978353
-0.09681416 0.11077219 0.06741506 -0.049383238 -0.016420366 -0.0008376463 -0.051440213 -0.119887605
-0.08742806 -0.0129251145 -0.03479362 0.0044121104 -0.05941444 0.070837915 0.0012574409 0.017187834
0.046295803 0.09497263 -0.03736291 -0.04784177 -0.08785507 0.028668081 0.08622008 0.032613028
-0.035152227 0.021695796 0.029140595 0.05747569 0.008590569 0.029544083 -0.04085145 -0.047465183
00000000: 233a 2e3a 398a cfbc 1ee6 dabb 5f85 2e3d
00000010: cc00 ba3d c169 5ebd 0b9e b0bd 997c a5bd
00000020: a0af d3bc 1ea5 b4bd d51d 59bb da9e 36bd
00000030: af6c a13d b26d 47bd c4d7 823d d9e3 dbbb
00000040: fcb4 f23b f8c6 0bbd 0efd 613d 74de 6cbd
00000050: 23ef cc3d 932d ae3d e1ae 46bd 2e22 95bc
00000060: 3757 8f3d fc02 a0bb 6d33 bd3d 249f 913d
00000070: 22d3 2a3c 9c80 e0bc 5918 453c abea 8e3d
00000080: 8146 c6bd 88dc e23d e810 8a3d 1446 4abd
00000090: 0184 86bc 7e95 5bba f9b2 52bd a287 f5bd
000000a0: 7c0d b3bd dcc3 53bc c183 0ebd 7793 903b
000000b0: 8e5c 73bd 7813 913d b7d0 a43a 80cd 8c3c
000000c0: aba0 3d3d 0381 c23d da09 19bd bbf5 43bd
000000d0: 5ced b3bd 53d9 ea3c 2794 b03d 3d95 053d
000000e0: c8fb 0fbd 62bb b13c 42b8 ee3c a16b 6b3d
000000f0: 75bf 0c3c 6f06 f23c da53 27bd da6a 42bd

conv2.lin_src.weight f4 [64, 192]
-0.039314542 -0.03470806 -0.03951079 0.009782234 -0.08145496 -0.124960475 0.19403909 -0.11873614
-0.051812086 -0.04541674 0.029289836 -0.15314707 -0.12612362 -0.039970573 -0.01683134 -0.14493035
-0.16480947 -0.034955055 0.08538241 0.005269311 0.09702353 0.070725836 0.038048293 -0.002311141
-0.10717692 -0.00908912 0.07049768 -0.039830677 0.051370207 0.049490444 -0.17079635 0.092676505
-0.101058014 -0.07323095 0.08325653 0.11278365 -0.19671863 0.09805276 -0.11816174 -0.074147575
-0.13308872 0.058030926 0.064766124 0.018886456 -0.09673158 0.05931489 -0.092461556 -0.12924984
-0.030850431 0.101104796 0.04173998 0.082021005 0.10055696 0.07917153 0.12100136 0.03727683
0.12871806 0.14061032 -0.17398901 -0.1554841 -0.048464287 -0.07585988 0.12024258 -0.009006261
0.1735383 -0.06359161 -0.08076378 0.09103232 -0.04176489 -0.11017069 0.021647204 -0.16482855
0.005669035 -0.13392189 -0.06813758 -0.012334842 0.02490657 -0.12654945 0.013565394 -0.00029518487
-0.152233 -0.15180391 -0.1871902 -0.0631308 0.08600382 0.029810889 -0.1750638 0.09594563
0.10468898 0.15695113 0.08740489 0.04011908 0.062593035 -0.058291305 0.1951723 0.15930118
-0.12678407 -0.0076318244 0.0007303834 0.09343562 -0.16936655 0.047441106 -0.05820452 -0.10683091
-0.019996125 0.12364881 0.029541256 0.012243403 -0.17793044 0.18201818 0.030935826 0.07327515
0.11404854 0.020275578 -0.103840694 0.14321211 0.23655163 -0.058625247 0.16170466 0.03773
0.109776646 -0.15085092 -0.14250338 -0.09897479 -0.016439382 -0.0901662 -0.020143589 -0.080561556
0.14010899 0.029753767 -0.023804 -0.020785889 -0.1508792 -0.14409943 0.016593147 -0.12554994
-0.1063718 -0.17393176 -0.11354996 -0.08033152 -0.0026395447 -0.15400226 -0.020740883 0.09162257
-0.080701075 -0.018767623 0.040305544 0.13163799 0.12623027 -0.009667174 0.11458414 0.1689578
0.095679365 -0.14809072 -0.06383393 0.0003863154 0.021214472 -0.025037061 -0.088892855 0.15664391
0.0657621 -0.15253712 0.11863248 0.045349717 -0.02814409 -0.079090565 -0.10460799 -0.06745366
0.14808065 0.015992388 0.08878621 -0.052015983 0.19907746 -0.09265288 -0.029088609 0.19610785
0.11104936 0.24429467 0.101889044 0.0631077 -0.015349612 0.025832754 0.13746808 0.039288513
-0.03561683 -0.09223613 -0.05150777 -0.065193504 -0.07724932 0.19302662 -0.028231138 -0.14067204
0.13511728 -0.004116448 -0.04556744 0.043271188 0.11495637 -0.07123505 -0.14833277 -0.010075936
-0.056550357 0.14092305 -0.077811524 -0.039608262 0.027768645 -0.011902018 0.11696299 0.11511563
-0.08712018 0.121638946 -0.16362046 0.05907153 0.17557335 0.06446808 -0.12530212 0.15641244
-0.10654723 -0.17549957 0.17411524 0.17465058 0.07751807 0.028972017 0.0862861 -0.087647684
0.122962356 0.071879126 -0.012975436 0.028759727 -0.00918744 -0.034374766 -0.18151414 0.09162024
-0.10475469 -0.12302552 -0.024327556 -0.07877805 0.016349467 0.014113383 0.02715303 0.01911118
-0.07731342 0.046984266 -0.13807169 -0.033441145 0.091162674 0.07207795 0.13203141 -0.03351683
-0.06403591 -0.04344103 0.046472806 0.043511763 0.04098187 -0.074803516 -0.07393658 0.07990506
00000000: 4908 21bd 0a2a 0ebd 11d6 21bd aa45 203c
00000010: dcd1 a6bd 47eb ffbd 2fb2 463e ef2b f3bd
00000020: e938 54bd e706 3abd 3df1 ef3c 96d2 1cbe
00000030: 8d26 01be 2fb8 23bd e1e1 89bc 9f68 14be
00000040: d0c3 28be 082d 0fbd f9dc ae3d 2faa ac3b
00000050: 46b4 c63d b5d8 903d 87d8 1b3d 8376 17bb
00000060: 937f dbbd 88ea 14bc 1661 903d 7e25 23bd
00000070: 9169 523d 7eb6 4a3d 3de5 2ebe 2ecd bd3d
00000080: 81f7 cebd 1cfa 95bd 6682 aa3d 1dfb e63d
00000090: 9c70 49be e3cf c83d c8fe f1bd afda 97bd
000000a0: 6948 08be d6b1 6d3d 1aa4 843d c5b7 9a3c
000000b0: 351b c6bd 2cf4 723d 7c5c bdbd 125a 04be
000000c0: 0bba fcbc 0810 cf3d 8bf7 2a3d a1fa a73d
000000d0: cff0 cd3d af24 a23d 90cf f73d 97af 183d
000000e0: abce 033e 27fc 0f3e 2d2a 32be 3937 1fbe
000000f0: 7d82 46bd 6d5c 9bbd be41 f63d ff8e 13bc
00000100: 06b4 313e 513c 82bd 7b67 a5bd 276f ba3d
00000110: a911 2bbd 2ca1 e1bd 7a55 b13c d1c8 28be
00000120: 50c3 b93b d222 09be b78b 8bbd 1418 4abc
00000130: dd08 cc3c 2e96 01be 6341 5e3c 0bc3 9ab9
00000140: f8e2 1bbe 7c72 1bbe caae 3fbe b94a 81bd
00000150: c522 b03d f735 f43c ed43 33be 247f c43d
00000160: 2d67 d63d ccb7 203e 5601 b33d e853 243d
00000170: c730 803d ddc2 6ebd 3fdb 473e d91f 233e
00000180: afd3 01be 6214 fabb 3377 3f3a 2d5b bf3d
00000190: 6d6e 2dbe 9b51 423d dd67 6ebd 2aca dabd
000001a0: eace a3bc 963b fd3d 8100 f23c 8e98 483c
000001b0: 6633 36be f962 3a3e 216d fd3c 4811 963d
000001c0: 4892 e93d f818 a63c 6eaa d4bd 32a6 123e
000001d0: 973a 723e 0721 70bd e895 253e c68a 1a3d
000001e0: 94d2 e03d aa78 1abe 68ec 11be 4bb3 cabd
000001f0: e2ab 86bc 0fa9 b8bd 2b04 a5bc 75fd a4bd
00000200: bb78 0f3e 2cbe f33c 9b00 c3bc 2b47 aabc
00000210: 1480 1abe cd8e 13be 5aee 873c 2a90 00be
00000220: 75d9 d9bd 2b1b 32be e28c e8bd da84 a4bd
00000230: 36fc 2cbb c5b2 1dbe c9e8 a9bc 9da4 bb3d
00000240: 9b46 a5bd 8fbe 99bc 6d17 253d 1ccc 063e
00000250: 8242 013e 1163 1ebc 17ab ea3d 4603 2d3e
00000260: 8bf3 c33d 18a5 17be 5dbb 82bd 608a ca39
00000270: f9c9 ad3c 861a cdbc 750d b6bd 4367 203e
00000280: 48ae 863d b132 1cbe 96f5 f23d a0c0 393d
00000290: 6f8e e6bc 3cfa a1bd b73c d6bd 2525 8abd
000002a0: 74a2 173e 7802 833c 8bd5 b53d b60e 55bd
000002b0: f6da 4b3e cbc0 bdbd 3c4b eebc 7fd0 483e
000002c0: d96d e33d 6228 7a3e 34ab d03d 9c3e 813d
000002d0: f07c 7bbc 369f d33c 6fc4 0c3e feec 203d
000002e0: f4e2 11bd 4ce6 bcbd d0f9 52bd 2c84 85bd
000002f0: e434 9ebd c5a8 453e fd44 e7bc 550c 10be
00000300: 2f5c 0a3e 45e3 86bb eda4 3abd 213d 313d
00000310: 3f6e eb3d afe3 91bd 8ce4 17be 8a15 25bc
00000320: 59a1 67bd 224e 103e a65b 9fbd 463c 22bd
00000330: 127b e33c af00 43bc 4b8a ef3d bec1 eb3d
00000340: 116c b2bd d71d f93d 1f8c 27be fdf4 713d
00000350: 80c9 333e d707 843d 334f 00be 952a 203e
00000360: 6f35 dabd 29b6 33be 444b 323e 9ad7 323e
00000370: cbc1 9e3d b956 ed3c c4b6 b03d a180 b3bd
00000380: b0d3 fb3d 5d35 933d ec96 54bc 8599 eb3c
00000390: eb86 16bc 8ecc 0cbd d8de 39be 64a3 bb3d
000003a0: a089 d6bd cef4 fbbd 954a c7bc 6356 a1bd
000003b0: 51ef 853c d23b 673c 0870 de3c 0d8f 9c3c
000003c0: 8056 9ebd 9372 403d aa62 0dbe 95f9 08bd
000003d0: 7fb3 ba3d 9b9d 933d 3e33 073e f248 09bd
000003e0: 4225 83bd 39ef 31bd 455a 3e3d 6439 323d
000003f0: 9bdc 273d 9632 99bd 106c 97bd 44a5 a33d

conv2.lin_dst.weight f4 [64, 192]
-0.039314542 -0.03470806 -0.03951079 0.009782234 -0.08145496 -0.124960475 0.19403909 -0.11873614
-0.051812086 -0.04541674 0.029289836 -0.15314707 -0.12612362 -0.039970573 -0.01683134 -0.14493035
-0.16480947 -0.034955055 0.08538241 0.005269311 0.09702353 0.070725836 0.038048293 -0.002311141
-0.10717692 -0.00908912 0.07049768 -0.039830677 0.051370207 0.049490444 -0.17079635 0.092676505
-0.101058014 -0.07323095 0.08325653 0.11278365 -0.19671863 0.09805276 -0.11816174 -0.074147575
-0.13308872 0.058030926 0.064766124 0.018886456 -0.09673158 0.05931489 -0.092461556 -0.12924984
-0.030850431 0.101104796 0.04173998 0.082021005 0.10055696 0.07917153 0.12100136 0.03727683
0.12871806 0.14061032 -0.17398901 -0.1554841 -0.048464287 -0.07585988 0.12024258 -0.009006261
0.1735383 -0.06359161 -0.08076378 0.09103232 -0.04176489 -0.11017069 0.021647204 -0.16482855
0.005669035 -0.13392189 -0.06813758 -0.012334842 0.02490657 -0.12654945 0.013565394 -0.00029518487
-0.152233 -0.15180391 -0.1871902 -0.0631308 0.08600382 0.029810889 -0.1750638 0.09594563
0.10468898 0.15695113 0.08740489 0.04011908 0.062593035 -0.058291305 0.1951723 0.15930118
-0.12678407 -0.0076318244 0.0007303834 0.09343562 -0.16936655 0.047441106 -0.05820452 -0.10683091
-0.019996125 0.12364881 0.029541256 0.012243403 -0.17793044 0.18201818 0.030935826 0.07327515
0.11404854 0.020275578 -0.103840694 0.14321211 0.23655163 -0.058625247 0.16170466 0.03773
0.109776646 -0.15085092 -0.14250338 -0.09897479 -0.016439382 -0.0901662 -0.020143589 -0.080561556
0.14010899 0.029753767 -0.023804 -0.020785889 -0.1508792 -0.14409943 0.016593147 -0.12554994
-0.1063718 -0.17393176 -0.11354996 -0.08033152 -0.0026395447 -0.15400226 -0.020740883 0.09162257
-0.080701075 -0.018767623 0.040305544 0.13163799 0.12623027 -0.009667174 0.11458414 0.1689578
0.095679365 -0.14809072 -0.06383393 0.0003863154 0.021214472 -0.025037061 -0.088892855 0.15664391
0.0657621 -0.15253712 0.11863248 0.045349717 -0.02814409 -0.079090565 -0.10460799 -0.06745366
0.14808065 0.015992388 0.08878621 -0.052015983 0.19907746 -0.09265288 -0.029088609 0.19610785
0.11104936 0.24429467 0.101889044 0.0631077 -0.015349612 0.025832754 0.13746808 0.039288513
-0.03561683 -0.09223613 -0.05150777 -0.065193504 -0.07724932 0.19302662 -0.028231138 -0.14067204
0.13511728 -0.004116448 -0.04556744 0.043271188 0.11495637 -0.07123505 -0.14833277 -0.010075936
-0.056550357 0.14092305 -0.077811524 -0.039608262 0.027768645 -0.011902018 0.11696299 0.11511563
-0.08712018 0.121638946 -0.16362046 0.05907153 0.17557335 0.06446808 -0.12530212 0.15641244
-0.10654723 -0.17549957 0.17411524 0.17465058 0.07751807 0.028972017 0.0862861 -0.087647684
0.122962356 0.071879126 -0.012975436 0.028759727 -0.00918744 -0.034374766 -0.18151414 0.09162024
-0.10475469 -0.12302552 -0.024327556 -0.07877805 0.016349467 0.014113383 0.02715303 0.01911118
-0.07731342 0.046984266 -0.13807169 -0.033441145 0.091162674 0.07207795 0.13203141 -0.03351683
-0.06403591 -0.04344103 0.046472806 0.043511763 0.04098187 -0.074803516 -0.07393658 0.07990506
00000000: 4908 21bd 0a2a 0ebd 11d6 21bd aa45 203c
00000010: dcd1 a6bd 47eb ffbd 2fb2 463e ef2b f3bd
00000020: e938 54bd e706 3abd 3df1 ef3c 96d2 1cbe
00000030: 8d26 01be 2fb8 23bd e1e1 89bc 9f68 14be
00000040: d0c3 28be 082d 0fbd f9dc ae3d 2faa ac3b
00000050: 46b4 c63d b5d8 903d 87d8 1b3d 8376 17bb
00000060: 937f dbbd 88ea 14bc 1661 903d 7e25 23bd
00000070: 9169 523d 7eb6 4a3d 3de5 2ebe 2ecd bd3d
00000080: 81f7 cebd 1cfa 95bd 6682 aa3d 1dfb e63d
00000090: 9c70 49be e3cf c83d c8fe f1bd afda 97bd
000000a0: 6948 08be d6b1 6d3d 1aa4 843d c5b7 9a3c
000000b0: 351b c6bd 2cf4 723d 7c5c bdbd 125a 04be
000000c0: 0bba fcbc 0810 cf3d 8bf7 2a3d a1fa a73d
000000d0: cff0 cd3d af24 a23d 90cf f73d 97af 183d
000000e0: abce 033e 27fc 0f3e 2d2a 32be 3937 1fbe
000000f0: 7d82 46bd 6d5c 9bbd be41 f63d ff8e 13bc
00000100: 06b4 313e 513c 82bd 7b67 a5bd 276f ba3d
00000110: a911 2bbd 2ca1 e1bd 7a55 b13c d1c8 28be
00000120: 50c3 b93b d222 09be b78b 8bbd 1418 4abc
00000130: dd08 cc3c 2e96 01be 6341 5e3c 0bc3 9ab9
00000140: f8e2 1bbe 7c72 1bbe caae 3fbe b94a 81bd
00000150: c522 b03d f735 f43c ed43 33be 247f c43d
00000160: 2d67 d63d ccb7 203e 5601 b33d e853 243d
00000170: c730 803d ddc2 6ebd 3fdb 473e d91f 233e
00000180: afd3 01be 6214 fabb 3377 3f3a 2d5b bf3d
00000190: 6d6e 2dbe 9b51 423d dd67 6ebd 2aca dabd
000001a0: eace a3bc 963b fd3d 8100 f23c 8e98 483c
000001b0: 6633 36be f962 3a3e 216d fd3c 4811 963d
000001c0: 4892 e93d f818 a63c 6eaa d4bd 32a6 123e
000001d0: 973a 723e 0721 70bd e895 253e c68a 1a3d
000001e0: 94d2 e03d aa78 1abe 68ec 11be 4bb3 cabd
000001f0: e2ab 86bc 0fa9 b8bd 2b04 a5bc 75fd a4bd
00000200: bb78 0f3e 2cbe f33c 9b00 c3bc 2b47 aabc
00000210: 1480 1abe cd8e 13be 5aee 873c 2a90 00be
00000220: 75d9 d9bd 2b1b 32be e28c e8bd da84 a4bd
00000230: 36fc 2cbb c5b2 1dbe c9e8 a9bc 9da4 bb3d
00000240: 9b46 a5bd 8fbe 99bc 6d17 253d 1ccc 063e
00000250: 8242 013e 1163 1ebc 17ab ea3d 4603 2d3e
00000260: 8bf3 c33d 18a5 17be 5dbb 82bd 608a ca39
00000270: f9c9 ad3c 861a cdbc 750d b6bd 4367 203e
00000280: 48ae 863d b132 1cbe 96f5 f23d a0c0 393d
00000290: 6f8e e6bc 3cfa a1bd b73c d6bd 2525 8abd
000002a0: 74a2 173e 7802 833c 8bd5 b53d b60e 55bd
000002b0: f6da 4b3e cbc0 bdbd 3c4b eebc 7fd0 483e
000002c0: d96d e33d 6228 7a3e 34ab d03d 9c3e 813d
000002d0: f07c 7bbc 369f d33c 6fc4 0c3e feec 203d
000002e0: f4e2 11bd 4ce6 bcbd d0f9 52bd 2c84 85bd
000002f0: e434 9ebd c5a8 453e fd44 e7bc 550c 10be
00000300: 2f5c 0a3e 45e3 86bb eda4 3abd 213d 313d
00000310: 3f6e eb3d afe3 91bd 8ce4 17be 8a15 25bc
00000320: 59a1 67bd 224e 103e a65b 9fbd 463c 22bd
00000330: 127b e33c af00 43bc 4b8a ef3d bec1 eb3d
00000340: 116c b2bd d71d f93d 1f8c 27be fdf4 713d
00000350: 80c9 333e d707 843d 334f 00be 952a 203e
00000360: 6f35 dabd 29b6 33be 444b 323e 9ad7 323e
00000370: cbc1 9e3d b956 ed3c c4b6 b03d a180 b3bd
00000380: b0d3 fb3d 5d35 933d ec96 54bc 8599 eb3c
00000390: eb86 16bc 8ecc 0cbd d8de 39be 64a3 bb3d
000003a0: a089 d6bd cef4 fbbd 954a c7bc 6356 a1bd
000003b0: 51ef 853c d23b 673c 0870 de3c 0d8f 9c3c
000003c0: 8056 9ebd 9372 403d aa62 0dbe 95f9 08bd
000003d0: 7fb3 ba3d 9b9d 933d 3e33 073e f248 09bd
000003e0: 4225 83bd 39ef 31bd 455a 3e3d 6439 323d
000003f0: 9bdc 273d 9632 99bd 106c 97bd 44a5 a33d

classifier.weight f4 [2, 128]
0.028969381 -0.04537308 0.0015783788 -0.057862226 0.012489737 0.043158766 -0.040721755 0.028219486
-0.0889025 -0.04368252 0.012227858 0.026715407 0.00041241362 -0.047231954 -0.06235456 0.08496599
-0.12151743 0.09280297 0.009683182 -0.0045894966 0.019778382 -0.0012535176 -0.03760746 0.05902957
0.06628287 0.077025436 0.04025631 -0.10387211 0.0965378 0.007606722 -0.096394666 -0.101333745
-0.07359532 0.005436557 -0.023257786 -0.027699854 -0.02261941 -0.06399621 -0.04081548 -0.06439883
-0.009484633 0.106548674 0.102878556 0.03880101 0.1091486 -0.014465611 0.11444979 -0.021751465
-0.06257159 0.035624463 -0.027744507 -0.022048837 -0.03348365 -0.12796925 -0.012799725 -0.12905203
0.022511382 0.000528605 -0.08162116 0.1178776 0.12945214 0.084406205 0.017357714 -0.13713372
0.13125221 -0.07137224 0.13395841 -0.10285153 -0.018930601 0.13161822 -0.0075861397 -0.0666154
-0.038406186 0.07409796 -0.14665292 -0.047195833 0.012500779 -0.05018171 -0.13783203 0.06661765
-0.049942072 0.11701083 0.039710537 -0.08357962 0.058224503 0.0027697252 -0.02092858 0.084673055
0.0576079 0.06801 -0.018193789 -0.04658588 0.028020406 -0.1050224 -0.11555464 0.025890877
0.018628163 0.19743508 0.0044083665 0.025471348 -0.069570564 -0.087616496 -0.042709645 -0.04835949
-0.00132114 0.10216727 0.11811005 0.08865691 0.056870762 -0.08376533 0.036830146 0.08875313
0.10706509 0.008987462 -0.09216741 -0.049026396 -0.08305565 -0.03952857 -0.005412671 -0.08081554
-0.029606033 0.12492033 -0.1324632 0.008188912 -0.019201897 0.043497477 -0.01909419 0.012470765
-0.029657673 -0.043445006 0.11323087 1.1387046e-05 -0.079777956 -0.019855887 0.06801019 0.097904325
-0.009307854 0.14217976 -0.029910913 0.04746115 -0.14584857 0.020439709 -0.03193165 0.006743817
0.039159667 0.087657556 -0.12504923 -0.017317396 -0.13547939 -0.06873426 0.08130878 0.076153435
-0.012101687 0.051366087 -0.08529671 -0.07899227 -0.0129630705 0.021238761 -0.014488315 -0.104069136
0.106020235 -0.11659663 0.0006556394 0.031402387 0.02789278 -0.010986665 0.07186704 0.023044838
0.16692002 -0.028527156 0.10172651 -0.04110939 0.105215564 -0.118194856 -0.02516001 -0.016581643
-0.0348319 -0.15586743 -0.018123697 -0.03205278 -0.021989835 0.038366932 -0.13677996 -0.10195359
0.035195388 0.01482564 -0.036110763 -0.033905007 -0.0032940968 -0.0669276 0.039886404 -0.02853722
-0.0017653583 0.041645914 -0.033988923 -0.1067677 -0.06483342 0.0737595 0.11398118 0.097178645
0.023915198 0.047879767 0.005167075 0.0462687 -0.032371774 -0.010644601 -0.09846225 0.060652398
-0.06368409 0.08109915 -0.14350604 0.110980116 -0.06617517 -0.11489386 -0.036078315 0.004520955
0.12035317 -0.025232842 -0.11395405 -0.1298031 0.043617472 0.027448263 0.043253504 -0.035876762
0.09863712 -0.06462081 -0.15772699 0.06951785 0.014066912 -0.012640905 0.018492108 0.16121854
0.041371614 -0.0050756005 -0.04733401 0.028770773 0.018322222 -0.08881856 0.03996339 0.0015653004
-0.012459396 -0.050585356 0.063777514 0.07391175 0.022207767 -0.09601765 -0.08559443 -0.11032704
0.041329302 -0.052945018 -0.014715059 -0.013767078 -0.027774258 -0.016338887 0.058337126 -0.02882768
00000000: 3251 ed3c 1fd9 39bd 9be1 ce3a f100 6dbd
00000010: c1a1 4c3c 3fc7 303d dbcb 26bd 8d2c e73c
00000020: 8412 b6bd 71ec 32bd 5b57 483c 45da da3c
00000030: 3839 d839 4b76 41bd 7f67 7fbd a602 ae3d
00000040: 21de f8bd 7c0f be3d 36a6 1e3c 7d63 96bb
00000050: 4606 a23c 124d a4ba 480a 1abd fec8 713d
00000060: 50bf 873d 83bf 9d3d cde3 243d e7ba d4bd
00000070: 9cb5 c53d cf41 f93b 916a c5bd 1188 cfbd
00000080: 25b9 96bd 2525 b23b 1d87 bebc ceea e2bc
00000090: 574c b9bc 7210 83bd 222e 27bd 89e3 83bd
000000a0: 6f65 1bbc 3136 da3d feb1 d23d cfed 1e3d
000000b0: 4d89 df3d 2c01 6dbc a764 ea3d 2130 b2bc
000000c0: 8925 80bd f5ea 113d 7348 e3bc c39f b4bc
000000d0: 2726 09bd 5f0a 03be f0b5 51bc 3726 04be
000000e0: ca69 b83c 1592 0a3a ff28 a7bd d069 f13d
000000f0: 1a8f 043e 29dd ac3d c431 8e3c c86c 0cbe
00000100: fb66 063e 9c2b 92bd 652c 093e d3a3 d2bd
00000110: 5914 9bbc edc6 063e 2795 f8bb a86d 88bd
00000120: ce4f 1dbd acc0 973d 2f2c 16be 6b50 41bd
00000130: 11d0 4c3c 568b 4dbd d723 0dbe d66e 883d
00000140: 0f90 4cbd 60a3 ef3d 84a7 223d cb2b abbd
00000150: d17c 6e3d 4784 353b 6a72 abbc 1169 ad3d
00000160: 43f6 6b3d d448 8b3d 240b 95bc d6d0 3ebd
00000170: 0d8b e53c fc15 d7bd e9a7 ecbd 1b19 d43c
00000180: 179a 983c 6c2c 4a3e 0f74 903b 4aa9 d03c
00000190: 037b 8ebd 4770 b3bd 4ff0 2ebd 9a14 46bd
000001a0: 1a2a adba 133d d13d afe3 f13d c191 b53d
000001b0: 51f1 683d 288d abbd 35db 163d 33c4 b53d
000001c0: f144 db3d 2640 133c 44c2 bcbd e7cf 48bd
000001d0: 1519 aabd b6e8 21bd c65c b1bb 9e82 a5bd
000001e0: 5a88 f2bc 3bd6 ff3d 6fa4 07be c92a 063c
000001f0: 4c4d 9dbc 692a 323d 6b6b 9cbc 2e52 4c3c
00000200: a6f4 f2bc 64f3 31bd 96e5 e73d fd0a 3f37
00000210: a062 a3bd d0a8 a2bc ed48 8b3d 1082 c83d
00000220: f87f 18bc 9297 113e bb07 f5bc 9f66 423d
00000230: 5459 15be 2d71 a73c c3ca 02bd 3dfb dc3b
00000240: e365 203d ce85 b33d e80c 00be 36dd 8dbc
00000250: 1cbb 0abe 8cc4 8cbd 3885 a63d 55f6 9b3d
00000260: 2746 46bc 3f65 523d 0bb0 aebd b3c6 a1bd
00000270: 0f63 54bc e9fc ad3c 6660 6dbc 3322 d5bd
00000280: 2321 d93d 37ca eebd 37df 2b3a ca9f 003d
00000290: 667f e43c 6a01 34bc 072f 933d 87c8 bc3c
000002a0: 15ed 2a3e c8b1 e9bc fd55 d03d 5262 28bd
000002b0: 427b d73d 2510 f2bd 5e1c cebc 3ad6 87bc
000002c0: e5ab 0ebd b69b 1fbe 2678 94bc c749 03bd
000002d0: 0724 b4bc a526 1d3d 0c10 0cbe 0bcd d0bd
000002e0: 0a29 103d 3ee7 723c e1e8 13bd fadf 0abd
000002f0: c6e1 57bb 5611 89bd ed5f 233d e3c6 e9bc
00000300: 9863 e7ba e894 2a3d f837 0bbd 06a9 dabd
00000310: 62c7 84bd 390f 973d f76e e93d 9905 c73d
00000320: cee9 c33c 931d 443d 9150 a93b 4084 3d3d
00000330: 4498 04bd b166 2ebc 93a6 c9bd a66e 783d
00000340: ce6c 82bd 5017 a63d 3ff3 12be 8b49 e33d
00000350: d986 87bd 794d ebbd dbc6 13bd 8524 943b
00000360: b97b f63d 1bb5 cebc be60 e9bd 1beb 04be
00000370: 3ca8 323d 2edb e03c 962a 313d 83f3 12bd
00000380: 4202 ca3d ea57 84bd 2f83 21be 605f 8e3d
00000390: e878 663c cc1b 4fbc c37c 973c 7916 253e
000003a0: 4875 293d 3951 a6bb 4fe1 41bd afb0 eb3c
000003b0: 7c18 963c 81e6 b5bd a7b0 233d c42a cd3a
000003c0: 7f22 4cbc 9732 4fbd c99d 823d 0b5f 973d
000003d0: 10ed b53c e7a4 c4bd 224c afbd 25f3 e1bd
000003e0: ea48 293d e0dc 58bd 6e17 71bc 4f8f 61bc
000003f0: d786 e3bc 21d9 85bc e9f2 6e3d 0728 ecbc

classifier.bias f4 [2]
-0.02669268 0.033883944
00000000: 9baa dabc e4c9 0a3d
