outputs/regression/weights/a3tgcn.pth (torch, 408679 bytes, 14 tensors)

recurrent._base_tgcn.conv_z.bias f4 [128]
0	0x3c2d2705	0.010568385
1	0xbec05ee1	-0.37572387
2	0xbf09c82d	-0.5382107
3	0x3df7e512	0.121042386
4	0x3e61c4bf	0.22047709
5	0xbed903bf	-0.4238567
6	0xbf117427	-0.5681786
7	0x3f7890a8	0.9709573
8	0xbdab2873	-0.083573245
9	0x3f4c7c0a	0.7987677
10	0xbf4d4efa	-0.80198634
11	0x3e5d05f5	0.21584304
12	0xbe02f07b	-0.12787049
13	0xbe46fbcf	-0.19431995
14	0x3e277a2a	0.16355196
15	0x3e30410f	0.17212318
16	0xbeed381f	-0.4633188
17	0x3e8a00cb	0.2695373
18	0xbed8292f	-0.4221892
19	0x3f816bc8	1.0111017
20	0xbd380bbb	-0.044933062
21	0x3f4171d9	0.7556434
22	0xbf2ee45b	-0.6831719
23	0xbf6eac8f	-0.93232054
24	0xbd2bd1a7	-0.041947987
25	0xbf6ce9c4	-0.925442
26	0xbeba643f	-0.36404607
27	0x3ec51a6a	0.38496715
28	0xbeb8336f	-0.3597674
29	0x3ef2169e	0.4728288
30	0x3e8ca3be	0.27468675
31	0x3f53c759	0.82726055
32	0x3f397305	0.7244113
33	0x3f5d1ddb	0.8637368
34	0xbdd31613	-0.10306945
35	0x3f039a54	0.5140736
36	0xbf5e5f17	-0.86863846
37	0xbe4dece0	-0.20109892
38	0xbe8075ae	-0.25089782
39	0x3f354b93	0.7081844
40	0xbf44b200	-0.76834106
41	0xbf6baf15	-0.9206403
42	0xbf4bb6a7	-0.7957558
43	0xbf86c597	-1.052905
44	0x3f5fd483	0.8743364
45	0x3ecb1e48	0.3967154
46	0xbde6690b	-0.11250504
47	0x3e9c9a0f	0.30586287
48	0xbf5cec9c	-0.8629854
49	0xbe5edf36	-0.21764836
50	0x3efb2041	0.49048045
51	0xbf6a6b78	-0.91570234
52	0xbf5d596e	-0.86464584
53	0xbe98b854	-0.2982813
54	0xbf375a48	-0.71622133
55	0xbc85af28	-0.016318873
56	0xbf13866e	-0.57627
57	0x3e50222c	0.20325536
58	0x3ede2077	0.43384144
59	0xbeb6c7af	-0.35699221
60	0x3f00b604	0.50277734
61	0xbec6ac58	-0.38803363
62	0xbf3f504e	-0.7473191
63	0xbdca5517	-0.09879511
64	0x3de2f493	0.11081805
65	0xbf4e343e	-0.80548465
66	0xbf358f95	-0.70922214
67	0xbe90f9c2	-0.2831555
68	0xbd2027af	-0.039100345
69	0xbe3c766d	-0.18404551
70	0xbf6d099f	-0.92592806
71	0xbd455686	-0.04817822
72	0x3ed95a91	0.4245191
73	0x3d4c5dc9	0.049894128
74	0xbeed49b2	-0.46345288
75	0x3f53274c	0.8248184
76	0xbee9f85d	-0.456973
77	0xbf4b9790	-0.7952814
78	0xbe37cb3f	-0.17948626
79	0xbc168d06	-0.009188896
80	0xbd3a4615	-0.04547699
81	0x3f7b2d65	0.9811614
82	0xbd34db8e	-0.044154696
83	0x3f19f26e	0.60135543
84	0x3dd4336e	0.10361372
85	0xbe3b9cd4	-0.18321544
86	0x3d5136c9	0.051077638
87	0xbda9f652	-0.08298935
88	0xbda748c1	-0.081681736
89	0x3bf44698	0.0074547045
90	0x3cc926bb	0.024554601
91	0x3f558863	0.83411235
92	0xbd664168	-0.05621472
93	0x3f7a0d8f	0.9767694
94	0xbed25c34	-0.4108597
95	0xbf812030	-1.0087948
96	0x3f2de861	0.6793271
97	0x3f362ade	0.7115916
98	0x3cef6916	0.029224914
99	0xbf7546fd	-0.95811445
100	0x3e14ffa9	0.14550652
101	0x3eba5d7e	0.36399454
102	0x3d373c8d	0.04473548
103	0x3f31ec57	0.6950125
104	0xbf46571c	-0.7747667
105	0x3ea50204	0.322281
106	0xbed9aa81	-0.42512897
107	0x3f7c5425	0.98565894
108	0x3f4d19de	0.80117595
109	0x3f5ac953	0.85463446
110	0xbf603fd9	-0.87597424
111	0xbf4d0175	-0.8008035
112	0xbf20212d	-0.6255062
113	0xbf012bc6	-0.5045742
114	0xbe180312	-0.14844921
115	0x3ce29d58	0.027662918
116	0x3d40ad7d	0.04704045
117	0xbe85a9f3	-0.26106223
118	0x3f38347d	0.7195509
119	0xbdb1fb59	-0.08690519
120	0x3ea68563	0.3252364
121	0x3f1a53dc	0.6028421
122	0x3d7c9afc	0.061671242
123	0xbe463037	-0.1935433
124	0x3f40494b	0.75111836
125	0xbe2396a5	-0.15975435
126	0xbf4c2416	-0.7974256
127	0x3f830402	1.0235598

recurrent._base_tgcn.conv_z.lin.weight f4 [128, 1]
0	0x3e75895e	0.23978183
1	0x3cc10c9c	0.023565583
2	0xbdc37947	-0.09544616
3	0xbd4a1f59	-0.0493463
4	0x3d9ce68b	0.0766116
5	0xbe07951f	-0.13240479
6	0xbe17b53e	-0.14815232
7	0xbd29e779	-0.041480515
8	0x3e528bc3	0.20561127
9	0xbd465510	-0.048420966
10	0x3d506e20	0.050886273
11	0x3de6a52b	0.11261972
12	0xbe23615a	-0.15955105
13	0xbe145073	-0.14483814
14	0xbccad1f2	-0.024758313
15	0x3dca1b89	0.09868533
16	0xbda39f1e	-0.079893336
17	0x3e017f9b	0.12646334
18	0xbdeb65be	-0.11494015
19	0x3ce67f72	0.028136943
20	0x3e5d62d4	0.21619731
21	0x3c2363a4	0.009972487
22	0x3d4eaacc	0.050455853
23	0xbb9a5175	-0.0047094175
24	0x3e6c4112	0.23071697
25	0x3da0a049	0.07843072
26	0xbd9be9cc	-0.076129526
27	0x3d458be2	0.048229106
28	0xbd4547dd	-0.048164237
29	0x3dd0eac8	0.10201031
30	0x3dfc1025	0.12307767
31	0x3c53ad66	0.012919759
32	0x3c2d095b	0.010561313
33	0xbda80454	-0.082039505
34	0xbe0f7635	-0.14009936
35	0x3da21282	0.07913686
36	0x3d74635a	0.05966506
37	0xbe1dc92a	-0.15408769
38	0xbe2ebf08	-0.1706506
39	0xbc5c3eb4	-0.013442684
40	0x39f41043	0.00046551423
41	0x3d005a18	0.03133592
42	0xbc8de50c	-0.017321132
43	0x3d100811	0.035163943
44	0x3c3095d5	0.01077791
45	0x3daddd34	0.08489457
46	0xbe246190	-0.16052842
47	0x3e0e81e2	0.13916734
48	0x3e105419	0.1409458
49	0xbe2b2b7e	-0.1671581
50	0x3d1ff289	0.03904966
51	0x3df2f83a	0.11863752
52	0x3d51b4c2	0.051197775
53	0xbe0c7daf	-0.1371982
54	0xbd102626	-0.03519263
55	0xbe3f0098	-0.1865257
56	0xbd23f3cc	-0.040027425
57	0x3e4208f4	0.18948728
58	0x3de7f9cd	0.113269426
59	0xbe30f307	-0.17280208
60	0x3e04a5f5	0.12953933
61	0xbe0d4ca0	-0.13798761
62	0xbd9867b9	-0.074416585
63	0x3e745f2d	0.23864432
64	0x3dfa0a19	0.12208957
65	0x3d2dc368	0.042422682
66	0x3dacfb33	0.0844635
67	0xbe18fa83	-0.14939313
68	0x3dd854e5	0.10563067
69	0xbe2bc1e2	-0.16773179
70	0x3d38faab	0.04516093
71	0xbe72de11	-0.23717524
72	0x3d9af92f	0.07567059
73	0xbe64a746	-0.22329435
74	0xbd99f70d	-0.07517824
75	0xbd13c832	-0.036079593
76	0xbd6229d0	-0.055215657
77	0x3d71affc	0.059005722
78	0xbe25a558	-0.16176355
79	0xbdf596f1	-0.119916804
80	0x3e4d173b	0.20028393
81	0xbcc2d3e7	-0.023782684
82	0xbe138437	-0.14405905
83	0x3bfeba4b	0.0077736727
84	0x3e1a6352	0.1507695
85	0xbe16c308	-0.14722836
86	0xbe706331	-0.23475339
87	0x3e4c31ae	0.19940826
88	0xbdf2d0b0	-0.1185621
89	0xbe537eab	-0.20653789
90	0x3e4fda9d	0.20298238
91	0xbd52e657	-0.0514892
92	0xbe19353e	-0.14961717
93	0xbd84c3b3	-0.06482639
94	0xbdf53af3	-0.11974134
95	0xbcf4c6cd	-0.029879952
96	0x3b9f4d9c	0.0048615467
97	0xbd2d2777	-0.042273965
98	0x3e32581e	0.17416427
99	0x3b6916ea	0.0035566636
100	0x3db196d7	0.086713485
101	0x3e17e0fd	0.1483192
102	0x3e1179db	0.1420664
103	0x3ba54ab5	0.005044306
104	0x3d2a45ce	0.041570477
105	0x3dc5dbe3	0.09661081
106	0xbd402580	-0.046910763
107	0xbd9f605f	-0.07782053
108	0x3d43deb6	0.047819816
109	0xbd5c79c7	-0.053827073
110	0x3dc8f02b	0.098114334
111	0x3ce706e6	0.028201532
112	0x3ca7badf	0.02047485
113	0xbe081d35	-0.13292392
114	0xbe026ec7	-0.1273757
115	0xbe5ffd8a	-0.21874061
116	0xbe45e588	-0.1932584
117	0xbe41b737	-0.18917547
118	0xbca912e5	-0.020638892
119	0xbe1b7d0d	-0.15184422
120	0x3e116ff6	0.14202866
121	0x3dbd2aa2	0.09236647
122	0x3e1e1360	0.15437078
123	0xbcba99d6	-0.022778433
124	0x3d9bc184	0.076052696
125	0xbe236714	-0.1595729
126	0xbbea6751	-0.0071534296
127	0xbd1cbb64	-0.038264647

recurrent._base_tgcn.linear_z.weight f4 [128, 256]
0	0xbca15a0b	-0.019696256
1	0xbce00949	-0.027348178
2	0xbd15cafa	-0.036570527
3	0x3d7e4ba1	0.062083844
4	0xbcaa7416	-0.020807307
5	0xbd670b75	-0.05640741
6	0xbcfda959	-0.03096454
7	0xbc08efec	-0.008357983
8	0x3d29ffd6	0.04150375
9	0x3d7d028c	0.061770007
10	0x3c30a751	0.010782079
11	0x3cff6c93	0.031179702
12	0xbd824538	-0.06360859
13	0x3ce3b2ff	0.027795313
14	0xbd8de474	-0.069283396
15	0x3d1e67a8	0.038673073
16	0xbd8f520a	-0.069980696
17	0xbcda2ed2	-0.026633654
18	0xbc63acfd	-0.013896224
19	0xbd25d987	-0.040490653
20	0xbd1eaa85	-0.03873684
21	0x3c0c9813	0.008581179
22	0xbd36ecc7	-0.044659402
23	0x3d421afe	0.047389023
24	0xbcb65fc8	-0.022262469
25	0x3966f2f6	0.0002202502
26	0xbd800ce2	-0.06252457
27	0xbd79ef4a	-0.06101922
28	0xbd3ed109	-0.04658607
29	0x3d0dc079	0.034607384
30	0xbc6e3ac1	-0.014540375
31	0x3d75ff7a	0.060058095
32	0x3bc4da4d	0.006007469
33	0xbd0e8792	-0.03479726
34	0x3d00c7f8	0.031440705
35	0xbd08b91d	-0.033379663
36	0xbd75bf64	-0.059996977
37	0x3ce5a85f	0.028034387
38	0xbc5a2f25	-0.013316904
39	0x3d90f595	0.07078091
40	0xbc2c3115	-0.010509749
41	0xbd933df8	-0.07189554
42	0xbd8d4015	-0.06896988
43	0xbd036097	-0.032074537
44	0x3d1bfa47	0.03808048
45	0xbcaf5f55	-0.021407763
46	0x3d20dfc4	0.0392759
47	0xbd0b1bbb	-0.033961993
48	0xbd855465	-0.065102376
49	0x3b5e8b4a	0.0033957534
50	0xbd1fd79a	-0.039023973
51	0xbc19d137	-0.00938826
52	0x3cfb4bec	0.03067585
53	0x3bfce115	0.0077172616
54	0x3cf5d94d	0.030010844
55	0xbd4cdc46	-0.050014757
56	0x3d453d9a	0.04815445
57	0xbd1b3c23	-0.037899148
58	0x3d203863	0.039116275
59	0xbd09b1f9	-0.033616994
60	0xbd0fae9c	-0.03507863
61	0xbd71fd5d	-0.059079517
62	0x3d03386b	0.032036226
63	0xbcb736a7	-0.022364927
64	0xbc27e0c8	-0.010246463
65	0x3d22e3e5	0.03976812
66	0xbd89628d	-0.0670825
67	0xbcc617de	-0.024181303
68	0xbc141206	-0.0090375
69	0x3c202165	0.009773587
70	0x3d3095ac	0.04311149
71	0xbd15dc25	-0.0365869
72	0xbbf80673	-0.007569128
73	0xbc4147af	-0.011796876
74	0xbd40efff	-0.047103878
75	0x3d6df3e3	0.058093917
76	0xbd0b186e	-0.033958845
77	0xbd8e6db3	-0.06954517
78	0x3cca765f	0.024714647
79	0x3cc0e1ea	0.023545224
80	0x3d610ee3	0.054945838
81	0xbcda0d47	-0.02661766
82	0x3a421b96	0.00074046233
83	0x3d109c67	0.035305407
84	0xbcfcfef1	-0.030883284
85	0xbcc33b23	-0.02383191
86	0xbd8effcd	-0.06982384
87	0x3c73c274	0.014877904
88	0xbc9e9853	-0.019359743
89	0xbc8cb60f	-0.017176656
90	0xbcebe771	-0.028796883
91	0xbd21c11a	-0.039490797
92	0xbd850bdb	-0.06496402
93	0xbd0e0d66	-0.034680746
94	0x3d19b92f	0.03753012
95	0xbd65799f	-0.05602419
96	0x3ab0c382	0.0013486
97	0x3d80ed76	0.06295292
98	0xbc4a99e2	-0.01236579
99	0xbbbf9146	-0.0058461754
100	0xbcfa1ed0	-0.03053227
101	0xbcdbd143	-0.026833182
102	0x3cca4f9a	0.02469616
103	0x3cf3f616	0.029780429
104	0xbc5d3789	-0.01350201
105	0xbcdbae63	-0.026816553
106	0x3ac1b233	0.0014777839
107	0x3cc5acba	0.024130214
108	0x3d619233	0.055071067
109	0x3d102e77	0.035200562
110	0xbcc45443	-0.02396596
111	0xbc5257e0	-0.012838334
112	0xbc5980cf	-0.013275339
113	0x3b3e58ff	0.0029044745
114	0xbc85f1eb	-0.016350707
115	0x3b7a66ae	0.0038208175
116	0x3d2c0f06	0.042006515
117	0xbc6553a4	-0.013996992
118	0xbcd5e560	-0.026110351
119	0xbac1b6d6	-0.0014779221
120	0xba8732a1	-0.0010314771
121	0xbbbf1e91	-0.005832501
122	0xbb37540f	-0.0027973687
123	0xba0916c6	-0.0005229529
124	0x3d0f440b	0.034977
125	0xbd7d1c81	-0.06179476
126	0x3cd43114	0.025902309
127	0xbd476637	-0.048681464
128	0x3c930a20	0.017949164
129	0xbd2ced40	-0.042218447
130	0xbcb93efc	-0.022613041
131	0x3d489856	0.048973404
132	0x3ca78f5c	0.020454101
133	0x3d594ae0	0.053049922
134	0x3ce22698	0.027606294
135	0x3b7bdf60	0.0038432702
136	0xbbb5f6b0	-0.005553089
137	0x3ceedd38	0.02915822
138	0xbce7fd7c	-0.028319113
139	0x3d29aef4	0.041426614
140	0xbd1eee80	-0.03880167
141	0x3d578074	0.052612737
142	0xbd2168d2	-0.039406605
143	0x3d1c1880	0.038109303
144	0xbd401154	-0.046891525
145	0x3a27e900	0.0006405264
146	0xbd71478c	-0.058906123
147	0xbd2229d2	-0.039590664
148	0xbd570e42	-0.05250383
149	0x3d27170e	0.04079347
150	0xbc24e178	-0.010063522
151	0x3b047920	0.0020213798
152	0xbcf75e30	-0.03019628
153	0xbcbaa6e0	-0.02278465
154	0xbc133748	-0.008985348
155	0xbce84394	-0.028352536
156	0xbd445026	-0.047927998
157	0xbb31fd20	-0.002715893
158	0x3c27fa50	0.01025255
159	0xbb95b580	-0.0045687556
160	0x3b72b500	0.0037034154
161	0x3d5f2066	0.054474257
162	0x3d1f00c0	0.038819075
163	0xbd256c46	-0.04038646
164	0x3cc092f4	0.023507573
165	0x3d653300	0.05595684
166	0x3d217b9e	0.03942453
167	0x3ce8ffb8	0.028442249
168	0xbcbfcee8	-0.02341409
169	0x3c56e108	0.013115175
170	0x3bcdde90	0.006282635
171	0x3d63c2f4	0.055605844
172	0xbb8ce3c0	-0.004299611
173	0xb9ce0700	-0.00039296597
174	0xbd4e2960	-0.050332427
175	0x3d6b2980	0.057412624
176	0xbce7cff8	-0.02829741
177	0xbd574670	-0.05255741
178	0xbd71b62e	-0.05901163
179	0x3d3ce510	0.04611689
180	0x3d318a00	0.043344498
181	0xbd295f3a	-0.04135058
182	0x3c927648	0.017878667
183	0x3c50d970	0.012747154
184	0x3d538334	0.051638797
185	0x3b87a040	0.0041389763
186	0x3d1f1ff0	0.038848817
187	0xbd16b09c	-0.03678952
188	0xbc52ced0	-0.012866691
189	0x3a94d040	0.0011353567
190	0xbcb3d950	-0.021954209
191	0xbd0d14e6	-0.03444376
192	0xbba39410	-0.0049920157
193	0x3c37deb8	0.011222534
194	0xbce86788	-0.02836968
195	0xbca4736c	-0.020074569
196	0xbc44ca68	-0.012011148
197	0x3d64bf1c	0.05584632
198	0x3d476a9e	0.048685662
199	0xbcc4e5fc	-0.024035446
200	0xbd6cfde8	-0.05785933
201	0x3d24580e	0.040123038
202	0x3cbb9f1c	0.022903018
203	0xbd7bc7da	-0.06146989
204	0xbbf51ec0	-0.0074804723
205	0x3d19e138	0.0375683
206	0xbd42fdcc	-0.04760532
207	0x3d6028a4	0.054726258
208	0xbcfd8998	-0.030949399
209	0x3d720740	0.059088945
210	0x3c81d14c	0.01584687
211	0x3d38a07e	0.045074932
212	0x3b52ca00	0.0032163858
213	0xbd798524	-0.06091799
214	0x3a9faa00	0.0012181401
215	0xbc371c58	-0.011176191
216	0x3d500de8	0.050794512
217	0x3b55b340	0.0032608062
218	0xbc7edd40	-0.01555568
219	0xbc27bf18	-0.010238431
220	0x3c9ff1e8	0.01952453
221	0x3c5d7d18	0.013518594
222	0xbd761002	-0.06007386
223	0x3cc96e08	0.0245886
224	0x3cd99918	0.026562259
225	0xbcfd44bc	-0.030916564
226	0xbd790b40	-0.060801744
227	0xbbb44410	-0.0055012777
228	0xbd7ace68	-0.061232
229	0xbd2a542a	-0.04158417
230	0x3d006a82	0.031351574
231	0x3d4d7b78	0.050166577
232	0xbd60eee2	-0.054915316
233	0x3b7d0440	0.003860727
234	0x3cdce1d4	0.026963152
235	0xb9aaaa00	-0.00032551587
236	0xbcd2f884	-0.025753267
237	0x3cda6018	0.02665715
238	0x3d3d01c2	0.046144255
239	0xbd54497a	-0.051827885
240	0x3b9f00e0	0.004852399
241	0xbca86534	-0.02055607
242	0x3d20981e	0.03920757
243	0xb7a73000	-1.9930303e-05
244	0xbc36cbe0	-0.011157006
245	0xbd29254e	-0.041295342
246	0xbd7e4afc	-0.06208323
247	0x3caf542c	0.021402441
248	0x3d15daa8	0.03658548
249	0xbd7e8102	-0.06213475
250	0x3cef236c	0.029191695
251	0xbc7fceb0	-0.015613243
252	0xbc385548	-0.011250801
253	0xbc0e8b88	-0.008700259
254	0x3c920898	0.017826363
255	0xbc0cd1a0	-0.0085949

recurrent._base_tgcn.linear_z.bias f4 [128]
0	0x3cd49cd2	0.025953684
1	0xbe33b64d	-0.17550011
2	0xbcaf4048	-0.021392956
3	0x3e92ca19	0.28669813
4	0x3d9668dc	0.07344219
5	0x3e105c6c	0.14097756
6	0x3e740af8	0.23832309
7	0xbe6742a8	-0.22584021
8	0x3e755c31	0.2396095
9	0xbbf3af70	-0.0074366853
10	0x3d693fca	0.0569456
11	0x3dc046b6	0.09388487
12	0xbe30630b	-0.17225282
13	0x3aac0bcf	0.0013126078
14	0x3e8bede2	0.27329928
15	0xbe2bfad4	-0.16794902
16	0x3ced04a0	0.02893287
17	0x3c912765	0.01771898
18	0x3e4355bd	0.19075675
19	0x3b825c40	0.003978282
20	0x3c72a620	0.014810115
21	0x3cb4f341	0.022088649
22	0x3d81cf44	0.06338361
23	0x3d0a1b12	0.033717223
24	0x3c9e9f76	0.019363146
25	0x3cba6cb7	0.022756917
26	0x3db6b0c4	0.08920434
27	0x3e8bc6ed	0.27300206
28	0x3c9079f8	0.017636284
29	0x3e6623af	0.2247455
30	0xbd1035f4	-0.035207704
31	0x3e6eb1cd	0.23310013
32	0xbe43d112	-0.19122723
33	0x3b6053e0	0.003422968
34	0x3e21cc95	0.15800698
35	0xbd0822ea	-0.03323642
36	0x3cfa8812	0.030582462
37	0x3b00df40	0.0019664317
38	0xbe2d74a7	-0.1693903
39	0x3ce501fa	0.027955044
40	0x3c23a006	0.009986883
41	0x3cc5d62a	0.024149973
42	0x3e626133	0.22107391
43	0x3e29bf31	0.1657684
44	0xbe25ef32	-0.16204527
45	0x3e34a7bc	0.1764211
46	0xb8bc5995	-8.9812245e-05
47	0xbe91c8ba	-0.28473455
48	0xbd08bcba	-0.03338311
49	0xbcba0e7c	-0.022711985
50	0x3d7c90f4	0.061661676
51	0xbe60dff6	-0.21960434
52	0x3e447d9a	0.19188538
53	0x3b43bfa4	0.0029868865
54	0x3e5efb87	0.21775638
55	0xbe8d6c98	-0.27621913
56	0xbb949c2a	-0.004535218
57	0x3d89f3e4	0.067359716
58	0x3d3b44f5	0.04572006
59	0xbd2e2d9d	-0.04252397
60	0x3d107781	0.035270218
61	0x3da1829c	0.0788624
62	0x3e76586e	0.24057171
63	0x3d63c3e8	0.055606753
64	0x3e9160fb	0.28394303
65	0x3d3d3088	0.04618886
66	0xbe73a8c8	-0.23794854
67	0x3e2f66af	0.17129014
68	0x3ca8a338	0.020585641
69	0x3e0b9f0f	0.13634895
70	0x3e516b68	0.20451128
71	0x3c012fc7	0.007884926
72	0x3cbe8e80	0.023261309
73	0x3e3e823d	0.1860437
74	0x3e62290b	0.22085969
75	0x3d018174	0.031617597
76	0xbcafccd8	-0.021459982
77	0x3d14cb28	0.036326557
78	0x3d7b4e8f	0.061354216
79	0xbd3ed833	-0.046592902
80	0x3cd5b2fc	0.026086323
81	0xbd4bee3d	-0.04978775
82	0xbe18d140	-0.14923573
83	0x3e214cda	0.15751973
84	0x3ca93d80	0.020659208
85	0x3e82f07a	0.25574094
86	0x3e63a19e	0.22229621
87	0xbc6fa1ec	-0.0146260075
88	0x3e0538f2	0.13010004
89	0xbd257e02	-0.040403374
90	0x3e6ee481	0.23329355
91	0x3cdf01f4	0.027222611
92	0x3e18005c	0.14843887
93	0xbc14a4d5	-0.009072502
94	0x3e73ff8d	0.23827954
95	0x3e69ff16	0.22851214
96	0x3c7ba750	0.015359715
97	0xbd0cfa2f	-0.03441828
98	0x3ea45e0d	0.32103005
99	0x3d4941d5	0.049135048
100	0x3e697d3e	0.22801682
101	0xbc9ff580	-0.019526243
102	0x3d12c80c	0.03583531
103	0xbd3f5a03	-0.0467167
104	0x3d9d9049	0.07693536
105	0xbc2a8034	-0.010406543
106	0x3e7ade02	0.24498752
107	0x3c6a1c4c	0.014288973
108	0x3d501e54	0.050810173
109	0xbe84e19b	-0.25953373
110	0xbce3efc8	-0.027824298
111	0x3c840b67	0.016118718
112	0x3d3ae48e	0.045628123
113	0xbd3b13f8	-0.04567334
114	0x3d1fc435	0.039005477
115	0xbe2ec7b9	-0.17068376
116	0xbe857549	-0.26066044
117	0x3d8e1559	0.069376655
118	0xbd3e17c0	-0.04640937
119	0x3c993028	0.01869972
120	0x3c2df28b	0.010616909
121	0x3d942953	0.072344445
122	0xba783580	-0.00094684213
123	0x3d5e8e30	0.05433482
124	0xbe745bd9	-0.23863162
125	0x3d395124	0.045243397
126	0x3b95f3e0	0.0045761913
127	0x3e54935b	0.20759337

recurrent._base_tgcn.conv_r.bias f4 [128]
0	0x00000000	0.0
1	0x00000000	0.0
2	0x00000000	0.0
3	0x00000000	0.0
4	0x00000000	0.0
5	0x00000000	0.0
6	0x00000000	0.0
7	0x00000000	0.0
8	0x00000000	0.0
9	0x00000000	0.0
10	0x00000000	0.0
11	0x00000000	0.0
12	0x00000000	0.0
13	0x00000000	0.0
14	0x00000000	0.0
15	0x00000000	0.0
16	0x00000000	0.0
17	0x00000000	0.0
18	0x00000000	0.0
19	0x00000000	0.0
20	0x00000000	0.0
21	0x00000000	0.0
22	0x00000000	0.0
23	0x00000000	0.0
24	0x00000000	0.0
25	0x00000000	0.0
26	0x00000000	0.0
27	0x00000000	0.0
28	0x00000000	0.0
29	0x00000000	0.0
30	0x00000000	0.0
31	0x00000000	0.0
32	0x00000000	0.0
33	0x00000000	0.0
34	0x00000000	0.0
35	0x00000000	0.0
36	0x00000000	0.0
37	0x00000000	0.0
38	0x00000000	0.0
39	0x00000000	0.0
40	0x00000000	0.0
41	0x00000000	0.0
42	0x00000000	0.0
43	0x00000000	0.0
44	0x00000000	0.0
45	0x00000000	0.0
46	0x00000000	0.0
47	0x00000000	0.0
48	0x00000000	0.0
49	0x00000000	0.0
50	0x00000000	0.0
51	0x00000000	0.0
52	0x00000000	0.0
53	0x00000000	0.0
54	0x00000000	0.0
55	0x00000000	0.0
56	0x00000000	0.0
57	0x00000000	0.0
58	0x00000000	0.0
59	0x00000000	0.0
60	0x00000000	0.0
61	0x00000000	0.0
62	0x00000000	0.0
63	0x00000000	0.0
64	0x00000000	0.0
65	0x00000000	0.0
66	0x00000000	0.0
67	0x00000000	0.0
68	0x00000000	0.0
69	0x00000000	0.0
70	0x00000000	0.0
71	0x00000000	0.0
72	0x00000000	0.0
73	0x00000000	0.0
74	0x00000000	0.0
75	0x00000000	0.0
76	0x00000000	0.0
77	0x00000000	0.0
78	0x00000000	0.0
79	0x00000000	0.0
80	0x00000000	0.0
81	0x00000000	0.0
82	0x00000000	0.0
83	0x00000000	0.0
84	0x00000000	0.0
85	0x00000000	0.0
86	0x00000000	0.0
87	0x00000000	0.0
88	0x00000000	0.0
89	0x00000000	0.0
90	0x00000000	0.0
91	0x00000000	0.0
92	0x00000000	0.0
93	0x00000000	0.0
94	0x00000000	0.0
95	0x00000000	0.0
96	0x00000000	0.0
97	0x00000000	0.0
98	0x00000000	0.0
99	0x00000000	0.0
100	0x00000000	0.0
101	0x00000000	0.0
102	0x00000000	0.0
103	0x00000000	0.0
104	0x00000000	0.0
105	0x00000000	0.0
106	0x00000000	0.0
107	0x00000000	0.0
108	0x00000000	0.0
109	0x00000000	0.0
110	0x00000000	0.0
111	0x00000000	0.0
112	0x00000000	0.0
113	0x00000000	0.0
114	0x00000000	0.0
115	0x00000000	0.0
116	0x00000000	0.0
117	0x00000000	0.0
118	0x00000000	0.0
119	0x00000000	0.0
120	0x00000000	0.0
121	0x00000000	0.0
122	0x00000000	0.0
123	0x00000000	0.0
124	0x00000000	0.0
125	0x00000000	0.0
126	0x00000000	0.0
127	0x00000000	0.0

recurrent._base_tgcn.conv_r.lin.weight f4 [128, 1]
0	0xbce7b2c4	-0.028283484
1	0x3d8a81bc	0.06763026
2	0x3e2089b5	0.15677531
3	0xbd8a2ead	-0.06747184
4	0x3d0c28fa	0.034218766
5	0x3dc1b85c	0.09458992
6	0x3decd55e	0.11564134
7	0xbd513829	-0.05107895
8	0xbb80d516	-0.003931652
9	0x3d8a8732	0.06764068
10	0xbe0e4ce9	-0.13896526
11	0xbdb9e2c4	-0.09076455
12	0xbe02e3a2	-0.12782148
13	0xbe0506ca	-0.12990871
14	0xbdbec779	-0.0931539
15	0x3e26084f	0.16214107
16	0xbdcaf0b3	-0.09909191
17	0xbdab8367	-0.083746724
18	0x3e18deed	0.1492879
19	0x3e595abe	0.21226022
20	0x3e0314d7	0.12800919
21	0x3e194b25	0.14970072
22	0x3e407c62	0.18797448
23	0x3e1b4396	0.151625
24	0xbe4e8a09	-0.20169844
25	0x3e32f4ec	0.17476243
26	0x3e2c0aa2	0.16800931
27	0x3e57845f	0.2104659
28	0x3e1f82e0	0.15577269
29	0xbe55a376	-0.20863137
30	0x3b854e7c	0.004068194
31	0x3e14432f	0.14478754
32	0xbe0a1c28	-0.13487303
33	0xbe0d3adc	-0.13791984
34	0xbe519bff	-0.20469664
35	0x3e525c70	0.20543075
36	0xbe172039	-0.14758386
37	0x3db2f177	0.08737462
38	0x3e57a2c7	0.21058188
39	0x3de2f7c3	0.11082413
40	0xbd4e1376	-0.05031153
41	0x3e1ba62c	0.15200108
42	0x3d228f2d	0.039687324
43	0x3ce05480	0.027384043
44	0xbe370db3	-0.1787632
45	0xbe27eb33	-0.16398315
46	0xbcfe8aea	-0.031072099
47	0x3c86989d	0.016430194
48	0x3da8e1b8	0.082461774
49	0x3dfdb037	0.12387126
50	0xbe018a90	-0.12650514
51	0xbe2fe2a9	-0.17176308
52	0xbce9abcd	-0.028524304
53	0x3ddc73ac	0.1076425
54	0x3d2cc435	0.042179305
55	0xbc8c5194	-0.017128743
56	0xbcd95bd0	-0.026533037
57	0xbe15e793	-0.1463912
58	0xbd2db4f1	-0.042408887
59	0xbe387aaf	-0.1801555
60	0xbca298a3	-0.019848173
61	0x3dc57a98	0.096425235
62	0xbe58bdf6	-0.21166214
63	0xbe16f8ca	-0.14743343
64	0x3e2ddf99	0.16979827
65	0x3e011e4a	0.1260921
66	0x3de9ebe5	0.114219464
67	0x3d18d275	0.037310082
68	0xbd3eb58f	-0.046559867
69	0x3e0ab294	0.13544685
70	0x3dd66f6e	0.10470472
71	0xbe405924	-0.18784004
72	0x3d82d5b9	0.063884206
73	0xbddfd454	-0.1092917
74	0xbe41a21a	-0.18909493
75	0xbd3e7e59	-0.046507213
76	0x3dab1ce8	0.08355123
77	0x3e54bb4c	0.20774573
78	0xbd606652	-0.05478508
79	0xbe21f523	-0.15816168
80	0xbe0fa96f	-0.14029478
81	0xbd817324	-0.063207895
82	0x3d3c3d25	0.04595675
83	0x3e48315e	0.19550082
84	0xbe4433f1	-0.19160439
85	0x3da9576b	0.08268627
86	0x3b916bc1	0.004437894
87	0xba06c70a	-0.00051413535
88	0xbde56f4d	-0.112028696
89	0x3d1b32b7	0.037890162
90	0xbe0ddc9e	-0.1385369
91	0xbba2a87d	-0.004963933
92	0x3de2c6fb	0.11073109
93	0x3e048eb1	0.12945057
94	0xbcf736bb	-0.030177465
95	0xbd962dd2	-0.07332958
96	0x3dd2337e	0.102637276
97	0x3e5be028	0.21472228
98	0x3e0c13d3	0.13679437
99	0xbd21989d	-0.039452184
100	0x3e287416	0.16450533
101	0x3c860604	0.01636029
102	0xbc9a2ead	-0.018821085
103	0x3c66d51e	0.014088897
104	0x3dd7396d	0.10509
105	0x3b84f0e3	0.0040570362
106	0x3d91c0e0	0.07116866
107	0xbc4c29af	-0.01246111
108	0xbcbaa28c	-0.022782587
109	0xbe3e9f42	-0.1861544
110	0x3e3d59da	0.18491307
111	0xbdb9858b	-0.090586744
112	0x3d921697	0.07133215
113	0x3cc6e07d	0.024276966
114	0xbdec39d5	-0.11534468
115	0xbde6abbc	-0.112632245
116	0xbcdfbdf7	-0.027312262
117	0x3e3a3f84	0.18188292
118	0xbe5700ea	-0.20996442
119	0x3c9692fb	0.018380633
120	0x3dcb727a	0.09933944
121	0xbe3d2b3f	-0.18473528
122	0xbdce3f7b	-0.10070702
123	0xbdd54ddf	-0.10415243
124	0x3e01c9e6	0.12674674
125	0x3d852574	0.06501284
126	0x3dc197eb	0.09452804
127	0x3de414ac	0.11136755

recurrent._base_tgcn.linear_r.weight f4 [128, 256]
0	0x3d7c8424	0.061649457
1	0xbae63700	-0.0017563999
2	0x3d0b7cee	0.03405469
3	0xbd6e85fe	-0.058233254
4	0xbbf2c6c0	-0.0074089468
5	0xbac0c900	-0.001470834
6	0x3d6700b6	0.056397162
7	0xbcaeb2ac	-0.021325432
8	0xbbb8b4e0	-0.0056367964
9	0x3b80bcf0	0.003928773
10	0x3d79fa3e	0.061029665
11	0x3d6e7676	0.058218442
12	0xbcd185f8	-0.025576577
13	0x3d27ed22	0.04099763
14	0xbcf94f70	-0.030433387
15	0xbd3b8074	-0.0457768
16	0xbd67771a	-0.05651007
17	0x3d685510	0.056721747
18	0x3d2ef33c	0.042712435
19	0xbd5b20b0	-0.05349797
20	0x3be93440	0.0071168244
21	0xbcab00b0	-0.020874351
22	0x3c056fb0	0.008144304
23	0xbd503e4c	-0.05084066
24	0x3bb75670	0.005595021
25	0x3d612402	0.05496598
26	0x3d7c8bc8	0.061656743
27	0xbd7ca70e	-0.061682753
28	0xbd4aeb8e	-0.04954105
29	0xbc07a558	-0.008279167
30	0xbd161f52	-0.036650963
31	0x3c761458	0.015019499
32	0xbc8420a0	-0.016128838
33	0x3d2050e2	0.039139636
34	0xbc9b62d0	-0.018968016
35	0x3d137d06	0.036007904
36	0x3c054990	0.008135214
37	0xbceb2fc8	-0.028709307
38	0x38947000	7.0780516e-05
39	0x3d3998c0	0.04531169
40	0x3cb68e48	0.022284642
41	0x3c696ed8	0.014247619
42	0xbcf78a14	-0.030217208
43	0xbac2eb00	-0.0014871061
44	0x3cfa32c0	0.030541778
45	0xbd302d22	-0.043011792
46	0x3d54fd60	0.05199945
47	0xbce91cc0	-0.028456092
48	0xbd59ffa4	-0.053222314
49	0xbce9d33c	-0.028543107
50	0x3d728fd4	0.059219196
51	0x3c4272a0	0.011868149
52	0x3d68f400	0.05687332
53	0x3d28b280	0.041185856
54	0x3d6516a6	0.055929802
55	0xbd423ce4	-0.04742135
56	0x3d36d426	0.044635914
57	0x3d5e51de	0.054277293
58	0xbd03eaee	-0.03220647
59	0x3d4b58ea	0.049645342
60	0x3d74ae92	0.059736796
61	0x3d215ba8	0.03939405
62	0x3d04ca98	0.03241977
63	0xbd0c5bae	-0.03426712
64	0xba394580	-0.0007067546
65	0x3d069fca	0.03286723
66	0xbd7fb234	-0.062425807
67	0xbd478b52	-0.04871685
68	0x3d07fa1a	0.0331975
69	0xbd1eae6e	-0.038740568
70	0xbd6459a2	-0.055749543
71	0x3cb6e2b4	0.022324897
72	0xbc44ec20	-0.012019187
73	0x3cec4860	0.028843105
74	0x3d03342e	0.032032184
75	0x3bcd1150	0.0062581673
76	0xbd132914	-0.035927847
77	0x3cef9b34	0.029248811
78	0xbd26ce12	-0.040723868
79	0xbc8f6454	-0.017503895
80	0xbbfbe010	-0.0076866224
81	0xbad91740	-0.0016562715
82	0x3d7b82f2	0.061404176
83	0xbcf1b734	-0.029506303
84	0xbab5f300	-0.0013881624
85	0xbc9c2c60	-0.019064128
86	0x3bcfe910	0.006344922
87	0xbd13b60e	-0.036062293
88	0xbce5fbec	-0.028074227
89	0xbd27c97c	-0.040963635
90	0x3d389be4	0.045070544
91	0x3bae1c30	0.005313419
92	0xbd07ed40	-0.033185244
93	0xbb623860	-0.0034518465
94	0xbca61dbc	-0.02027785
95	0xbcd50eb4	-0.026007988
96	0xbceb130c	-0.028695606
97	0xbcfe2760	-0.031024635
98	0xbd443cc8	-0.047909528
99	0x3ba63d50	0.005073227
100	0x3cc722a8	0.024308518
101	0xbd39c4ba	-0.04535363
102	0xbcfb72cc	-0.030694388
103	0x3cd38d64	0.025824256
104	0xbcc22e9c	-0.023703866
105	0xbd55fdf8	-0.052244157
106	0x3d3dc6f0	0.0463323
107	0xbd713a56	-0.058893524
108	0x3d0fe2e6	0.035128497
109	0xbd440b58	-0.04786238
110	0x3d7e7ace	0.062128834
111	0xbc0a3b70	-0.008437023
112	0x3d1ffde4	0.03906049
113	0xbb4a3780	-0.0030855834
114	0x3bf47590	0.0074603036
115	0xbd61cc98	-0.055126756
116	0x3cc3a6d0	0.023883253
117	0x3d1f4b64	0.038890257
118	0x3d76b074	0.060226873
119	0x3cf1f17c	0.029534094
120	0x3ceaa93c	0.02864515
121	0x3c8bf19c	0.017082982
122	0x3cbf51a0	0.023354352
123	0xbc6184a8	-0.013764538
124	0x3c1a83e8	0.009430863
125	0xbd453036	-0.04814168
126	0xbccc7060	-0.024955928
127	0x3cd0ddd4	0.0254964
128	0x3cad5c14	0.02116207
129	0x3cb4f9a4	0.022091694
130	0x3d79697e	0.06089162
131	0xbd7783b8	-0.06042835
132	0x3ba7b7a0	0.0051183254
133	0x3d13b2c2	0.03605915
134	0xbd79dd8e	-0.061002307
135	0x3a479a80	0.000761427
136	0xbd6c9206	-0.057756446
137	0x3d5d72cc	0.054064557
138	0xbd5dae98	-0.054121584
139	0xbd5897e8	-0.052879244
140	0x3d74f1dc	0.059800968
141	0xbce2d5cc	-0.027689837
142	0x3aa654c0	0.0012690052
143	0x3c8891d4	0.016671099
144	0x3d5f7760	0.054557204
145	0x3d0f1e60	0.034941077
146	0x3cf71730	0.030162424
147	0xbcfdee78	-0.0309975
148	0x3b99e230	0.004696153
149	0x3ca2e7b4	0.019885875
150	0xbd686456	-0.056736313
151	0xbcb4d8b4	-0.022075988
152	0x3d6b6e5c	0.057478294
153	0xbba84360	-0.005134985
154	0x3d2148be	0.039376013
155	0xbbe14740	-0.0068749487
156	0xbc796668	-0.015222169
157	0xbd01dc94	-0.0317045
158	0xbd76941c	-0.06019984
159	0xbd7c2762	-0.061560996
160	0x3d31944c	0.043354318
161	0x3d179da8	0.037015587
162	0x3c491368	0.012272693
163	0x3d290102	0.041260727
164	0x3d40591e	0.04695999
165	0xbd4f0812	-0.050544806
166	0xbca09888	-0.019603983
167	0xbc9e0014	-0.019287147
168	0x3d1fffb6	0.039062224
169	0xbd0e7696	-0.03478106
170	0x3d001d32	0.031277843
171	0xbd123a7e	-0.035700314
172	0x3d3b2c46	0.04569652
173	0xbd05ce2e	-0.03266733
174	0xbcabb810	-0.020961791
175	0xbd6ce67c	-0.057836995
176	0xbcf7159c	-0.030161671
177	0xbc0d2560	-0.008614868
178	0x3c229370	0.009922847
179	0xbc614498	-0.013749264
180	0xbb034900	-0.0020032525
181	0x3cc50024	0.024047919
182	0x3c0462e8	0.008080222
183	0xbd2a9f74	-0.041655973
184	0x3d1d15e2	0.038350947
185	0xbcd38778	-0.025821432
186	0x3d39fdf0	0.04540819
187	0x3ceafcd8	0.028685018
188	0xbca5d484	-0.020242937
189	0xbc983bec	-0.01858326
190	0xbd09a8dc	-0.033608302
191	0x3b6f1ae0	0.0036484525
192	0x3d78a0fc	0.0607004
193	0xbd239312	-0.03993518
194	0x3d604d28	0.054761082
195	0x3c9140a0	0.01773101
196	0x3c914afc	0.01773595
197	0xbd31d20a	-0.0434132
198	0x3ca5d71c	0.020244174
199	0xbd4c41e2	-0.04986752
200	0x3c48f398	0.0122651085
201	0xbd23644e	-0.03989058
202	0x3d0172b6	0.031603537
203	0xbb8b31e0	-0.004247889
204	0xbd00c0f8	-0.03143403
205	0x3c91ab84	0.01778198
206	0x3ce781a0	0.028260052
207	0x3d5538a8	0.052055985
208	0x3b35ecc0	0.0027759522
209	0xbcb85dac	-0.022505604
210	0x3cbbaea8	0.022910431
211	0x3c892048	0.016739026
212	0xbcff0e1c	-0.031134658
213	0x3d44c698	0.048040956
214	0x3d693332	0.05693359
215	0xbd2df29c	-0.0424677
216	0xbd673aae	-0.056452446
217	0xbd20a530	-0.039220035
218	0x3d52b754	0.051444367
219	0x3d6e12b8	0.05812332
220	0xbd18803c	-0.03723167
221	0x3d3137b6	0.04326602
222	0xbd43f5c6	-0.04784181
223	0xbd337934	-0.04381676
224	0x3d711612	0.05885894
225	0x3c039d90	0.008033171
226	0x3c8b2e3c	0.01698982
227	0x3cab0d34	0.02088032
228	0xbc5f0538	-0.013612084
229	0xbc7df7b0	-0.015500948
230	0x3d7ebcbc	0.06219171
231	0x3ccd5690	0.02506569
232	0xbd7aa1be	-0.061189406
233	0x3d5f16d0	0.054465115
234	0x3cd3eccc	0.02586975
235	0xbd5b9754	-0.053611115
236	0x3d7083fa	0.058719613
237	0x3d0b91b8	0.034074515
238	0x3c0c37b8	0.008558206
239	0xbd3df55a	-0.046376564
240	0x3d53b0c6	0.051682256
241	0xbd100cf8	-0.035168618
242	0x3cb9338c	0.022607587
243	0x3cac51fc	0.021035187
244	0x3d50fa32	0.051019855
245	0xbc9cbeb4	-0.019133903
246	0x3d6591a8	0.05604711
247	0xbd51bcd8	-0.051205486
248	0xbc02c438	-0.0079813525
249	0x3d2ca2ac	0.042147323
250	0x3c9529a0	0.018208325
251	0xbbb1ccb0	-0.005426012
252	0xbd21656c	-0.039403364
253	0x3bdbbfd0	0.0067062154
254	0xbd32fae2	-0.04369629
255	0xbd2bda46	-0.04195621

recurrent._base_tgcn.linear_r.bias f4 [128]
0	0xbd260246	-0.040529512
1	0xbd40ad8a	-0.0470405
2	0x3ccb98ec	0.024853192
3	0xbd6e8dcc	-0.058240697
4	0xbc11d1d0	-0.008900121
5	0x3d48e96a	0.049050726
6	0xbb9b95b0	-0.0047480687
7	0xbd372a20	-0.044717908
8	0xbc9b7ca4	-0.018980332
9	0xbcb24bd8	-0.02176468
10	0x3b4a3dc0	0.003085956
11	0xbcdf5918	-0.027264163
12	0x3b871ba0	0.004123166
13	0x3d11e922	0.035622723
14	0xbd5b97a6	-0.05361142
15	0x3cf1c568	0.029513076
16	0x3ceffc14	0.029295005
17	0xbba34350	-0.0049823895
18	0x3c5949e8	0.0132622495
19	0x3bfe3cd0	0.0077587143
20	0x3a834e40	0.0010017827
21	0xbd48c176	-0.049012624
22	0x3d381822	0.04494489
23	0xbcbc245c	-0.022966556
24	0xbcfa77ec	-0.030574761
25	0xbc8e8c88	-0.017400995
26	0x3cffa028	0.031204298
27	0xbcc69f68	-0.024245933
28	0x3d206870	0.0391621
29	0xbcebd7c4	-0.028789409
30	0x3c58eee0	0.013240546
31	0xbd6341ea	-0.055482782
32	0x3cf50000	0.029907227
33	0x3d1c4c02	0.038158424
34	0xbc777648	-0.015103884
35	0x3bce12c0	0.0062888563
36	0xbd6fec68	-0.058575064
37	0xbd1aea58	-0.037821144
38	0x3b4b6b60	0.0031039342
39	0x3d47d906	0.048790954
40	0x3c746960	0.0149177015
41	0x3c21e4e8	0.009881236
42	0x3cbb2134	0.02284298
43	0xbd59c86e	-0.05316966
44	0xbc919404	-0.017770775
45	0xbc84840c	-0.016176246
46	0xbd3b8498	-0.045780748
47	0xbcab2ff8	-0.020896897
48	0xbd7cc4d0	-0.061711133
49	0x3cb7e954	0.022450127
50	0x3cf849d4	0.030308641
51	0xbc27e888	-0.010248311
52	0x3ac34100	0.0014896691
53	0xbd74851c	-0.059697255
54	0x3d3f8232	0.046755023
55	0x3d73e594	0.059545115
56	0x3c90f2f0	0.017693967
57	0xbd3f5cee	-0.046719484
58	0x3bb57ee0	0.0055388063
59	0x3d7795a4	0.060445443
60	0x3d53b088	0.051682025
61	0x3a15db00	0.00057165325
62	0x3d4deea6	0.05027642
63	0x3c9dec34	0.01927767
64	0x3cc91b94	0.024549283
65	0x3d3f7b24	0.046748295
66	0x3d3a3bdc	0.045467243
67	0xbd394e9e	-0.04524099
68	0xbd4e9ba4	-0.0504414
69	0x3d3daf7c	0.046309933
70	0x3cae22a8	0.02125676
71	0xbceffa00	-0.029294014
72	0xbbd597a0	-0.0065183192
73	0x3c72f4f8	0.014828913
74	0x3d6705e8	0.056402117
75	0x3d794d4a	0.060864724
76	0xbd516446	-0.05112102
77	0xbd23f08e	-0.040024333
78	0x3d63d1c0	0.055619955
79	0x3d04119c	0.032243356
80	0x3d5cf956	0.053948723
81	0x3ccd4478	0.025057063
82	0x3d71a23e	0.058992617
83	0xbcfac6b0	-0.03061232
84	0xbc029f98	-0.00797262
85	0x3cb9d35c	0.022683792
86	0x3d6eb308	0.058276206
87	0xbce2c2d4	-0.027680792
88	0xbd299e70	-0.041410863
89	0xbd07f5c4	-0.033193365
90	0xbd364d1a	-0.044507124
91	0xbceaf948	-0.02868332
92	0x3d66af1e	0.05631935
93	0x3c0dbc30	0.008650824
94	0xbb4bd860	-0.0031104311
95	0x3c6baab8	0.014383964
96	0xbd653b04	-0.055964485
97	0x3d6d70ee	0.057969026
98	0x3c247978	0.010038726
99	0x3cddfc3c	0.027097814
100	0x3d004ec8	0.03132513
101	0xbcce6e4c	-0.025199078
102	0xbc7d2fc0	-0.015453279
103	0xbd348eee	-0.04408162
104	0x3d22ebf0	0.03977579
105	0x3bf4a860	0.007466361
106	0xbd1e293e	-0.03861355
107	0xbb90c060	-0.004417464
108	0xbcc59054	-0.024116673
109	0x3c4fc640	0.012681544
110	0xbc384f60	-0.011249393
111	0x3c2e6478	0.010644071
112	0xbd04c5a0	-0.032415032
113	0xbd582e14	-0.05277832
114	0xbca43a3c	-0.0200473
115	0x3d0b7060	0.034042716
116	0x3bc15920	0.005900517
117	0x3d6a5caa	0.057217278
118	0x3d7542b8	0.05987808
119	0xbce13268	-0.027489856
120	0xbd18548a	-0.037189998
121	0x3d0a1602	0.033712395
122	0x3d62486a	0.05524484
123	0xbd5373e2	-0.051624186
124	0xbc95d660	-0.018290699
125	0x3d277e70	0.040892065
126	0x3d7b8c4a	0.061413087
127	0x3d3ff3c6	0.04686334

recurrent._base_tgcn.conv_h.bias f4 [128]
0	0x3e41e38a	0.18934456
1	0xbe4d877b	-0.20071213
2	0x3e59082a	0.2119452
3	0xbe0cb182	-0.13739589
4	0xbee750be	-0.4517879
5	0x3e7db331	0.24775387
6	0xbea56602	-0.32304388
7	0xbe990bda	-0.29891855
8	0x3e44d816	0.19223055
9	0xbe893b1f	-0.26802918
10	0x3e949812	0.2902227
11	0xbe3ff1aa	-0.18744531
12	0xbe424c8c	-0.18974513
13	0xbeb06c78	-0.34457755
14	0x3ea0c201	0.31398013
15	0x3e432c0a	0.19059768
16	0x3e4f03e4	0.20216328
17	0x3e4f333a	0.20234385
18	0xbe59b016	-0.21258578
19	0x3e5d6053	0.21618776
20	0x3e6b559e	0.22981879
21	0xbe96b8cd	-0.29437867
22	0xbe8626df	-0.2620153
23	0x3e503d54	0.20335895
24	0xbe958af0	-0.29207563
25	0xbe7c2a5c	-0.24625534
26	0xbe2cffa1	-0.1689439
27	0x3e387c08	0.18016064
28	0xbe5ed4ed	-0.21760912
29	0xbe3ac145	-0.18237789
30	0x3e827a30	0.25483847
31	0xbe6eef3e	-0.23333451
32	0x3ea36634	0.31913912
33	0x3e92cb46	0.2867071
34	0x3ebaa004	0.36450207
35	0x3ea952d3	0.33071002
36	0x3e6d1e19	0.23156013
37	0xbec6adc9	-0.38804463
38	0xbe396ac3	-0.18107133
39	0x3e6c5d52	0.23082474
40	0xbe8c93c7	-0.27456495
41	0xbe62d699	-0.22152175
42	0xbe541095	-0.2070945
43	0xbe6ff74e	-0.23434183
44	0xbe6c4535	-0.23073275
45	0xbe4f6020	-0.20251513
46	0x3e3f5ca3	0.18687682
47	0x3f1face5	0.6237319
48	0xbe319cf3	-0.17345028
49	0x3ed2984a	0.41131812
50	0x3ea7296f	0.326488
51	0x3e4a05b3	0.19728737
52	0x3e69c920	0.2283063
53	0x3e9b3500	0.30313873
54	0x3e783152	0.24237564
55	0x3eb490bb	0.3526667
56	0x3e99b8ad	0.3002371
57	0xbea7122f	-0.3263106
58	0x3e589591	0.21150805
59	0x3e887e9f	0.26659104
60	0xbe281886	-0.16415605
61	0x3e6f61c6	0.23377141
62	0x3e6a7269	0.22895207
63	0xbebb0e3b	-0.36534294
64	0xbe4fa8a0	-0.20279169
65	0xbed5f300	-0.41786957
66	0xbe2884cf	-0.16456912
67	0xbe792751	-0.24331404
68	0x3f66fdfa	0.9023129
69	0xbe871b67	-0.26388094
70	0xbe60a2d2	-0.21937111
71	0x3e4050cc	0.18780822
72	0xbe78912f	-0.24274133
73	0xbe89fce0	-0.2695074
74	0x3e3b56ca	0.18294826
75	0x3e815d79	0.25266626
76	0xbed8f1da	-0.42372018
77	0x3e42f2ed	0.19037981
78	0x3e3cb38f	0.18427871
79	0x3e791f4a	0.24328342
80	0x3ee7f00c	0.4530033
81	0xbe2e28d7	-0.17007767
82	0xbeace948	-0.3377173
83	0xbeda9394	-0.42690718
84	0xbe4e3d7d	-0.20140643
85	0xbe438b7b	-0.19096176
86	0xbe85a480	-0.26102066
87	0xbe97aac2	-0.29622465
88	0x3e6f2cba	0.23356906
89	0xbea76e19	-0.32701185
90	0x3f116ea8	0.56809473
91	0x3e84f2fc	0.25966632
92	0xbe6c4050	-0.23071408
93	0x3e906807	0.28204367
94	0x3e34f614	0.17671996
95	0xbe820a9b	-0.25398716
96	0xbe82f0fd	-0.25574484
97	0x3e6eb9bd	0.23313041
98	0xbe613b34	-0.2199524
99	0xbe97d2d2	-0.2965303
100	0x3e4c0253	0.19922762
101	0xbe99d9ea	-0.30049068
102	0xbea06182	-0.31324393
103	0x3e96810a	0.29395324
104	0xbe8ea714	-0.27861845
105	0x3e6f837f	0.23390006
106	0x3e5987a4	0.21243149
107	0xbe58e09d	-0.21179433
108	0x3e504a5e	0.20340869
109	0x3e61e745	0.22060879
110	0xbeb6631f	-0.35622498
111	0x3e5b4bef	0.21415685
112	0x3e7a3285	0.24433334
113	0xbe25ae4f	-0.16179775
114	0xbe5f3d69	-0.2180077
115	0xbe802662	-0.25029284
116	0xbe7b9daa	-0.24571863
117	0xbe7d7b52	-0.24754074
118	0x3e646372	0.2230356
119	0x3e6aa1b8	0.22913253
120	0x3e332c78	0.17497432
121	0x3e78a083	0.2427998
122	0xbe6ff7a0	-0.23434305
123	0xbe2c2ca0	-0.16813898
124	0xbe8c4130	-0.27393484
125	0xbeaee87d	-0.3416175
126	0x3e6105fb	0.21974938
127	0xbe2f99ca	-0.1714851

recurrent._base_tgcn.conv_h.lin.weight f4 [128, 1]
0	0x3e631b9d	0.22178502
1	0xbe3d2b86	-0.18473634
2	0x3e1d2c97	0.15349041
3	0xbe3f66f7	-0.18691622
4	0x3d34505c	0.04402195
5	0x3e2ba61d	0.16762586
6	0xbd3d470c	-0.046210334
7	0xbd59731c	-0.053088292
8	0x3e6ffadd	0.2343554
9	0xbddae677	-0.10688489
10	0x3d9f4591	0.077769406
11	0xbe83a4ee	-0.2571177
12	0xbe432ad3	-0.19059305
13	0x3aea4762	0.0017874057
14	0x3cef132a	0.029183943
15	0x3e495e97	0.1966499
16	0x3e106cd2	0.14104012
17	0x3e3d0a9b	0.18461077
18	0xbe87a703	-0.26494607
19	0x3e0851e5	0.1331249
20	0x3dba1ef9	0.09087939
21	0xbd6b75c8	-0.05748537
22	0xbdcdf3e9	-0.10056288
23	0x3e0b5a2c	0.13608617
24	0xbda343a0	-0.07971883
25	0xbe19996c	-0.14999932
26	0xbe8d0085	-0.2753946
27	0x3e4ebbee	0.20188877
28	0xbe0259b8	-0.12729537
29	0xbe6d2c10	-0.2316134
30	0x3de13094	0.10995594
31	0xbe3a294f	-0.1817982
32	0x3ce07c18	0.027402923
33	0x3da7f586	0.08201127
34	0xbbc1bd3a	-0.00591245
35	0x3d01aabf	0.031656977
36	0x3e6ebbe9	0.2331387
37	0x3d293bb5	0.041316707
38	0xbe87c1e3	-0.2651511
39	0x3dfd6b62	0.12373997
40	0xbdc9bbfd	-0.09850309
41	0xbe4f78e7	-0.20260964
42	0xbe443458	-0.19160593
43	0xbdfdd61a	-0.12394352
44	0xbe083e45	-0.13305004
45	0xbe43c4a0	-0.19117975
46	0x3e38786e	0.1801469
47	0xbdad975f	-0.08476137
48	0xbe792e08	-0.24333966
49	0xbd3fad72	-0.04679627
50	0x3d218a53	0.039438557
51	0x3e59f09a	0.21283188
52	0x3e43337d	0.1906261
53	0x3d6431eb	0.055711668
54	0x3de4c421	0.11170221
55	0x3d29e51d	0.041478265
56	0x3d879af8	0.06621355
57	0xbce5caa5	-0.02805073
58	0x3e35c35c	0.17750305
59	0x3dd433e0	0.10361457
60	0xbe7453d1	-0.23860098
61	0x3e401849	0.18759264
62	0x3e1d966c	0.15389413
63	0x3c1a33ed	0.009411794
64	0xbe1cd59a	-0.15315858
65	0x3ce2b5ed	0.02767464
66	0xbe8f686d	-0.28009358
67	0xbe4df6e5	-0.20113714
68	0xbdc2ae96	-0.09505956
69	0xbdc48cdc	-0.09597179
70	0xbe149dda	-0.1451334
71	0x3e3ef1b1	0.18646885
72	0xbdffe63d	-0.12495086
73	0xbdc50dfd	-0.09621809
74	0x3e493fd1	0.1965325
75	0x3dbe3151	0.0928675
76	0x3d5080ce	0.050904088
77	0x3e1b7eca	0.15185085
78	0x3e919d46	0.28440303
79	0x3daf55ef	0.085613124
80	0xbd88b40a	-0.06674965
81	0xbe4236df	-0.18966244
82	0xbc681cc0	-0.014167011
83	0x3d99e392	0.07514109
84	0xbe38b782	-0.18038753
85	0xbe604903	-0.21902852
86	0xbde70f8b	-0.112822615
87	0xbd64f2ed	-0.055895735
88	0x3ddc1fd2	0.10748257
89	0xbd301f2c	-0.042998478
90	0xbd049f41	-0.03237844
91	0x3dd1fa66	0.10252838
92	0xbdf8ff2c	-0.12158045
93	0x3dc0e564	0.09418753
94	0x3e793ad1	0.24338843
95	0xbdeab583	-0.11460402
96	0xbe200f51	-0.15630843
97	0x3e1d9e97	0.15392528
98	0xbe25b30a	-0.16181579
99	0xbd859943	-0.06523373
100	0x3e21ddd7	0.15807281
101	0xbd42fac3	-0.047602426
102	0xbd64397b	-0.05571888
103	0x3d9f9cac	0.07793555
104	0xbdd9a54d	-0.10627232
105	0x3de72f15	0.11288277
106	0x3e6e62db	0.23279898
107	0xbe4e938d	-0.20173474
108	0x3e46533f	0.19367693
109	0x3dec68b2	0.115434065
110	0xbc778fcb	-0.0151099665
111	0x3e2bfd96	0.16795954
112	0x3e7d553c	0.24739546
113	0xbe8fbf4d	-0.28075638
114	0xbe0e6c43	-0.13908486
115	0xbe132ace	-0.14371797
116	0xbdc500ac	-0.09619269
117	0xbe07d3c6	-0.13264379
118	0x3e36c51a	0.17848626
119	0x3e13a1dd	0.14417215
120	0x3e7d8429	0.24757446
121	0x3e5267f7	0.20547472
122	0xbe3fc435	-0.18727191
123	0xbe5dca28	-0.21659148
124	0xbda88060	-0.082276106
125	0xbd09803c	-0.03356956
126	0x3dd99142	0.10623409
127	0xbe80145e	-0.2501554

recurrent._base_tgcn.linear_h.weight f4 [128, 256]
0	0x3d0f3571	0.034963075
1	0xbcc7834c	-0.0243546
2	0x3d02b6c8	0.031912595
3	0xbd191260	-0.03737104
4	0x3cd642bb	0.026154866
5	0xbc873187	-0.016503109
6	0x37c69d68	2.3676737e-05
7	0xbd13725c	-0.035997733
8	0x3c4338ea	0.011915425
9	0x3cc9f598	0.024653241
10	0xbd8815aa	-0.06644757
11	0x3d3f932b	0.04677121
12	0x39c08687	0.00036721324
13	0xbd47edca	-0.048810758
14	0x3d2dfd03	0.04247762
15	0x3ccb27e2	0.024799291
16	0x3caf0f01	0.02136946
17	0x3cb96cc5	0.022634873
18	0x3d57a0c1	0.05264354
19	0x3c116fd4	0.00887676
20	0xbc714e25	-0.014728104
21	0xbabf90fa	-0.001461535
22	0xbcd4859b	-0.025942614
23	0x3d08a5b1	0.03336114
24	0x3c58b1ea	0.013226012
25	0x3d636a79	0.055521462
26	0x3cad9291	0.021188052
27	0x3d338645	0.04382922
28	0xb97bfa5b	-0.0002403049
29	0xbbdc29db	-0.0067188567
30	0xbd54203a	-0.051788546
31	0x3c25ca1d	0.010118988
32	0xbc09b72b	-0.008405487
33	0xbd373093	-0.04472406
34	0xbd307601	-0.043081287
35	0xbc41704c	-0.011806559
36	0x3d0dacc7	0.0345886
37	0xbc826000	-0.015914917
38	0xbd0c15d1	-0.034200493
39	0xbd37278c	-0.04471545
40	0xbd16d363	-0.036822688
41	0xbd32565e	-0.043539397
42	0xbcd383c2	-0.025819663
43	0xbc00f820	-0.007871658
44	0x3c684ddb	0.014178718
45	0x3d84db67	0.0648716
46	0x3d38b776	0.045096837
47	0x3d9673b5	0.07346288
48	0xbcb4765c	-0.022029094
49	0x3ce9cabd	0.028539056
50	0xbc09e74d	-0.008416963
51	0xbaeae3ea	-0.0017920707
52	0xbd831b74	-0.06401721
53	0xbd1b5f2d	-0.037932564
54	0xbcc78208	-0.024353996
55	0xbd963b02	-0.073354736
56	0xbd52cdad	-0.05146568
57	0x3d7a5c2a	0.06112305
58	0x3cc6fa4c	0.024289273
59	0x3d332b81	0.04374266
60	0x3ca645e9	0.020297008
61	0xbc8fe297	-0.017564101
62	0x3b6d9897	0.003625428
63	0x3d377450	0.04478866
64	0x3d5393ee	0.05165475
65	0xbcef8cc8	-0.029241934
66	0x3ceb160b	0.028697034
67	0x3d8eb0a6	0.06967287
68	0x3d5c195d	0.053735126
69	0x3a610b7c	0.000858478
70	0x3d41f0b4	0.047348693
71	0xbd7859a3	-0.06063236
72	0xbc92b4b8	-0.017908439
73	0x3d4e9883	0.050438415
74	0xbd08e476	-0.033421002
75	0xbcc527df	-0.024066864
76	0xbbf8cbb9	-0.007592645
77	0xbd3b57ab	-0.045737904
78	0x3ce0484d	0.027378226
79	0xba58d68a	-0.0008271715
80	0xbd729dc3	-0.059232485
81	0xbc89cc8a	-0.016821165
82	0x3cc6f785	0.024287948
83	0x3c9ecde5	0.019385288
84	0x3d82a620	0.06379342
85	0x3c1f817e	0.009735463
86	0x3d58f668	0.052969366
87	0x3c33b450	0.010968283
88	0x3d34997c	0.044091687
89	0xbd219a89	-0.039454017
90	0xbd1a1347	-0.03761604
91	0xbd292daf	-0.041303333
92	0x3d84ae8f	0.06478607
93	0xbd5cf4bc	-0.053944334
94	0x3d3d2a82	0.046183117
95	0xbc4539e2	-0.012037726
96	0x3d2a2d45	0.04154708
97	0xbd7f5dad	-0.062345196
98	0x3c6c99bf	0.014440953
99	0x3cdf294a	0.027241368
100	0xbd4e2462	-0.050327666
101	0x3d532d6b	0.051556986
102	0x3c964e7b	0.01834797
103	0xbd324470	-0.0435223
104	0x3bf1ccc8	0.007379148
105	0x3cbbcdb7	0.02292524
106	0x3ae47e8b	0.0017432732
107	0xbc4499a5	-0.011999522
108	0x3b9e09eb	0.0048229597
109	0x3cec1f73	0.02882359
110	0x3d80c4b2	0.06287517
111	0xbc4ae5af	-0.012383862
112	0xbca37478	-0.019952998
113	0xbbaa6715	-0.0052002766
114	0xbcd56e44	-0.026053555
115	0xbd334437	-0.043766227
116	0x3bd52935	0.0065051564
117	0x3d59cf16	0.05317601
118	0xbbd888f6	-0.006608124
119	0xbc95da8b	-0.018292686
120	0xbd595009	-0.053054843
121	0xbc9c1dc4	-0.019057162
122	0xbc2e8b7a	-0.010653371
123	0x3cf78e2c	0.03021916
124	0xbd4194d2	-0.047261067
125	0x3d8fed9b	0.070277415
126	0xbbd10f31	-0.006379985
127	0x3bb7cee7	0.0056093815
128	0xbd77e996	-0.0605255
129	0xbc85a260	-0.016312778
130	0x3d0d9932	0.034569927
131	0x3cfada2c	0.03062161
132	0xbd043bd4	-0.03228362
133	0x3bf41480	0.007448733
134	0x3cc13d88	0.02358891
135	0xbd3d8190	-0.04626614
136	0x3935dc00	0.00017343462
137	0xbd54d096	-0.051956736
138	0xbd482778	-0.048865765
139	0xbd185ca2	-0.037197717
140	0xbcd4c66c	-0.025973521
141	0xbd583080	-0.05278063
142	0xbc8d0798	-0.017215535
143	0x3d454a12	0.048166342
144	0xbc94bfe8	-0.018157914
145	0x3c0bd578	0.008534782
146	0x3c146d88	0.009059317
147	0xbc9a8fa4	-0.018867321
148	0x3b7a8720	0.0038227513
149	0xbd30d0a0	-0.04316771
150	0xbd07dac6	-0.033167623
151	0x3ce6f7a4	0.028194256
152	0xbd45aee6	-0.0482625
153	0xbc2a31c0	-0.010387838
154	0xbd73c48a	-0.059513606
155	0xbd76e0b0	-0.060272872
156	0xbd4e02b2	-0.05029554
157	0xbd346002	-0.044036873
158	0xbc089bc0	-0.008337915
159	0x3ccd749c	0.025080018
160	0x3d7a01b4	0.06103678
161	0x3d648b34	0.055796817
162	0x3d764662	0.060125716
163	0xbc59abc8	-0.013285585
164	0xbd60b3e4	-0.054859057
165	0x3ce906e0	0.028445661
166	0x3d6d800a	0.057983436
167	0xbcf2352c	-0.02956637
168	0xbcf0e9ec	-0.029408418
169	0x3d547942	0.051873453
170	0x3d03642e	0.03207796
171	0x3d2097e8	0.03920737
172	0xbcb2b7d4	-0.021816172
173	0x3a1ae580	0.0005908832
174	0xbbc04680	-0.0058677793
175	0xbb023580	-0.0019868314
176	0xbc717958	-0.014738403
177	0x3d2898b4	0.041161254
178	0x3d072734	0.03299637
179	0x3d7fb792	0.062430926
180	0xbd008d90	-0.031385005
181	0x3cec40bc	0.028839462
182	0x3bfe3c00	0.0077586174
183	0xbca555e4	-0.020182557
184	0x3d297ce8	0.041378886
185	0xbc53da10	-0.012930408
186	0x3be98ba0	0.0071272403
187	0xbcf63068	-0.030052379
188	0x3ce8f260	0.028435886
189	0x3d228216	0.03967484
190	0xbcd4fff4	-0.026000954
191	0x3d076216	0.033052526
192	0x3d699dfa	0.057035424
193	0x3b09c820	0.0021023825
194	0x3bf77700	0.0075520277
195	0xbd6eea68	-0.058329016
196	0xbd22d0be	-0.039749853
197	0x3d571faa	0.05252043
198	0xbd450b44	-0.048106447
199	0x3d093204	0.033494964
200	0x3c356658	0.011071764
201	0xbca03b08	-0.019559398
202	0xbbb1e5c0	-0.0054289997
203	0x3cba8ff0	0.022773713
204	0x3ccede7c	0.025252573
205	0xbd0869a2	-0.033303864
206	0xbc263420	-0.0101442635
207	0x3d3e3e92	0.04644639
208	0x3bcdeb40	0.0062841475
209	0xbd6fea8a	-0.058573283
210	0xbc7b78a0	-0.015348583
211	0xbc975390	-0.018472463
212	0x3d345fc2	0.044036634
213	0xbc505040	-0.012714446
214	0xbd25ef96	-0.04051169
215	0xbcf94fac	-0.030433498
216	0x3c943b34	0.018094636
217	0x3d438ff8	0.04774472
218	0xbbead4b0	-0.0071664676
219	0xbcae243c	-0.021257512
220	0xbd37c7e0	-0.04486835
221	0x3cece8e0	0.028919637
222	0xbd6f40f4	-0.058411554
223	0xbc889080	-0.016670465
224	0x3d4ffbae	0.05077713
225	0xbd0800e6	-0.03320398
226	0xbd7dbc82	-0.061947353
227	0xbc8c950c	-0.017160915
228	0x3bcb03e0	0.0061955303
229	0xbc4ff258	-0.012692057
230	0xbd175cde	-0.0369538
231	0xbd029238	-0.031877726
232	0xbd4ed1ce	-0.050493054
233	0xbd1fe93e	-0.039040796
234	0x3d0e7dbe	0.034787886
235	0x3c7ce1b8	0.015434675
236	0xbcff2a24	-0.031148024
237	0x3a854e80	0.001017049
238	0x3c971cd8	0.018446371
239	0xbd39ee6c	-0.045393392
240	0xbd67b41e	-0.056568258
241	0xbc92d860	-0.017925441
242	0x3d73a4e2	0.059483416
243	0x3d3dd724	0.046347752
244	0xbd19ac9a	-0.03751812
245	0x3d1bfa72	0.03808064
246	0xbd2a6a02	-0.041605003
247	0xbc3c11d0	-0.011478856
248	0x3c1692b0	0.009190246
249	0x3c32a1d0	0.010902837
250	0xbcae0c1c	-0.021246009
251	0xbb9f3890	-0.0048590377
252	0x3d131d14	0.035916403
253	0x3ccdad3c	0.025107019
254	0xbd67b7e0	-0.05657184
255	0xbb9a9690	-0.0047176555

recurrent._base_tgcn.linear_h.bias f4 [128]
0	0xbc75fddc	-0.015014138
1	0x3e930b48	0.28719544
2	0xbb8fa5c0	-0.0043837726
3	0x3e7b4c98	0.24540937
4	0x3cf0f53a	0.029413808
5	0x3d93a1f1	0.07208622
6	0x3e207d9f	0.1567292
7	0x3e732872	0.23745897
8	0x3e4078ca	0.18796077
9	0xbcb02eb4	-0.021506645
10	0xbd5ff00e	-0.054672293
11	0x3e5d24c7	0.2159606
12	0x3e33d332	0.17561033
13	0xbc09aa13	-0.008402365
14	0x3dea1fa7	0.114318185
15	0x3dfd97b1	0.123824485
16	0xbbafe562	-0.0053679207
17	0xbb9d78bc	-0.0048056524
18	0x3d94d31d	0.07266829
19	0xbc98d7e0	-0.018657625
20	0x3cfdcabe	0.030980464
21	0x3c9fabbc	0.019491069
22	0x3c7ad7ed	0.01531027
23	0xbd652f58	-0.055953354
24	0xbca2dbb3	-0.019880151
25	0xbd2b0ebd	-0.041762102
26	0x3e3f55ae	0.18685028
27	0x3e4b3e63	0.19848017
28	0xbd60b4b4	-0.054859832
29	0x3e003927	0.12521802
30	0xbd67f6f8	-0.056632012
31	0x3e340ca2	0.17582944
32	0x3e8c5788	0.2741053
33	0xbcf66c64	-0.030080982
34	0x3df7c7c9	0.12098653
35	0xbd0e1b42	-0.034693964
36	0xbcb8d322	-0.022561613
37	0xbd6e2052	-0.05813629
38	0x3e351c71	0.17686631
39	0x3b520719	0.0032047688
40	0x3dfcf2bf	0.12350988
41	0xbb0921d0	-0.0020924695
42	0x3e1656cd	0.1468155
43	0x3d9c57f8	0.07633966
44	0xbd179bdd	-0.037013877
45	0xbebc36b4	-0.36760485
46	0xbbe6f477	-0.0070481854
47	0x3e682d61	0.2267356
48	0xbc77dea1	-0.015128762
49	0xbd4b9890	-0.04970604
50	0xbca58de8	-0.020209268
51	0x3e8e8304	0.27834332
52	0x3df15761	0.11784244
53	0x3aefa42a	0.0018283178
54	0x3e0f384f	0.13986324
55	0x3e62fc30	0.22166514
56	0x3ae9a1f7	0.0017824759
57	0xbd17f40e	-0.037097983
58	0x3c26d1e6	0.01018188
59	0xbd3059e7	-0.043054488
60	0x3dfeae37	0.124355726
61	0xbebde555	-0.3708903
62	0x3e12917f	0.14313315
63	0xbd70c26a	-0.058779158
64	0x3e2023fc	0.15638727
65	0xbab74f80	-0.0013985485
66	0x3e89fb3a	0.26949483
67	0x3de58274	0.112065226
68	0xbd6e5346	-0.058184884
69	0x3ddf3295	0.1089832
70	0x3e1eb632	0.1549919
71	0xbd27bdf4	-0.040952638
72	0x3ca07212	0.019585643
73	0x3e25671b	0.16152613
74	0x3d801dad	0.0625566
75	0x3d1e6b8e	0.03867679
76	0xbc0c4cc8	-0.008563228
77	0x3de0a36f	0.109686725
78	0x3dce4648	0.10071999
79	0x3c3e0ebb	0.011600192
80	0xbd448758	-0.047980636
81	0xbbf6f901	-0.007537008
82	0x3dcdfba1	0.1005776
83	0xbef94226	-0.4868328
84	0xbcdea524	-0.027178355
85	0x3e75c9c1	0.24002744
86	0x3df8b93e	0.12144707
87	0xbd474390	-0.048648417
88	0x3dbedddb	0.09319659
89	0xbd5ef02b	-0.05442826
90	0x3e1dab6c	0.15397424
91	0xbd23c482	-0.039982326
92	0x3e2a6eb7	0.16643797
93	0xbd04d251	-0.032427136
94	0x3e335f04	0.17516714
95	0x3e0695c0	0.13143063
96	0xbd2b2d1e	-0.041791074
97	0xbd32d30f	-0.043658312
98	0x3e5c2a79	0.21500577
99	0x3e54f5c8	0.20796883
100	0x3e2ce77e	0.16885182
101	0xbd5e2780	-0.05423689
102	0x3cefc638	0.029269323
103	0xbc404d3d	-0.011737165
104	0x3ba8b19c	0.005148126
105	0xbc5d015e	-0.0134890955
106	0x3e284e5f	0.16436146
107	0xbccf589e	-0.02531081
108	0x3ca7548a	0.020426054
109	0x3e66c547	0.22536193
110	0xbd53c076	-0.051697217
111	0xbd09b64d	-0.03362112
112	0xbc15b6a0	-0.0091377795
113	0xbd5da09b	-0.054108243
114	0x3d520038	0.05126974
115	0x3e4e9d5c	0.20177215
116	0x3e8bd84c	0.2731346
117	0x3cee0678	0.029055819
118	0xbb322753	-0.0027184084
119	0xbce7a7e4	-0.028278299
120	0xbcf44d41	-0.029821994
121	0xbb2400f2	-0.0025024978
122	0xbcca5cd8	-0.024702474
123	0x3d407400	0.046985626
124	0x3e3f5ec3	0.18688492
125	0xbcd37390	-0.02581194
126	0xbcbfe780	-0.023425817
127	0x3e443dc9	0.19164194
