outputs/classification/edges/weights/cheb_2.pth (torch, 21519 bytes, 6 tensors)

conv1.bias f4 [64]
0.0885048 0.0 -0.02227795 0.0 -0.014372111 0.009465295 -0.008330651 -0.013899806
-0.045207065 0.11503505 -0.013049273 0.0098260585 -0.04879409 -0.0059869685 -0.013928184 0.006105658
0.10641728 -0.012759568 -0.014071541 -0.004294844 -0.010394039 0.005247204 -0.03445961 0.1117667
0.024694255 0.13694449 0.12813914 0.10222948 -0.0149255395 -0.016488798 0.060798258 -0.013983769
-0.022863278 0.1269966 0.057975747 0.050060917 -0.0160387 -0.0035799784 -0.015019357 -0.016584452
0.05791289 0.0 -0.0039138217 0.013485255 0.09976552 0.007422068 0.011175809 -0.05358316
0.0 0.01334895 -0.005987551 0.011622246 -0.05895727 0.013284933 0.010666862 -0.004751549
0.012457727 0.0 0.052713 0.0019013825 -0.014895721 0.0 0.08434319 -0.047175992
00000000: 0142 b53d 0000 0000 3f80 b6bc 0000 0000
00000010: 0179 6bbc 5314 1b3c 487d 08bc 03bc 63bc
00000020: 0b2b 39bd 7f97 eb3d 9ecc 55bc 7afd 203c
00000030: 50dc 47bd 552e c4bb 0a33 64bc f911 c83b
00000040: 4ef1 d93d 820d 51bc 528c 66bc c3bb 8cbb
00000050: c24b 2abc bdf0 ab3b 8525 0dbd f1e5 e43d
00000060: 9b4b ca3c 2d3b 0c3e e836 033e b15d d13d
00000070: 408a 74bc 8413 87bc 9807 793d 2e1c 65bc
00000080: c54b bbbc 660b 023e fa77 6d3d ad0c 4d3d
00000090: 9763 83bc 129e 6abb c013 76bc 1edc 87bc
000000a0: 1136 6d3d 0000 0000 843f 80bb 42f1 5c3c
000000b0: dd51 cc3d d234 f33b be1a 373c 047a 5bbd
000000c0: 0000 0000 8eb5 5a3c 3833 c4bb 3c6b 3e3c
000000d0: 2e7d 71bd 0ca9 593c 10c4 2e3c e2b2 9bbb
000000e0: 7f1b 4c3c 0000 0000 96e9 573d cf37 f93a
000000f0: 2f0d 74bc 0000 0000 1fbc ac3d 9d3b 41bd

conv1.lins.0.weight f4 [64, 6]
-0.28873616 0.08902202 -0.04601676 -0.23150286 -0.030498132 0.18849409 -0.06861005 -0.1757786
-0.060551956 0.025459165 -0.16624314 -0.0937001 0.11765868 0.014224787 0.24592726 0.18518443
-0.10830498 -0.3076377 -0.21631941 -0.07984818 -0.123375475 -0.0747515 0.020735607 -0.0729823
0.16593355 -0.27415055 -0.210371 -0.20777479 0.10918721 -0.06594022 0.10329225 0.27963305
0.25419462 0.18742962 -0.2196941 -0.13125768 -0.021157254 0.008072844 0.07944957 0.014758024
-0.231102 -0.11755222 0.25126705 -0.037307218 -0.0067233373 0.25986356 -0.024662782 -0.19148529
-0.036411982 0.2041446 0.023211103 0.10596767 0.014543074 -0.035542145 -0.33693382 0.062774956
0.20959266 0.0919875 -0.10230519 -0.061680496 0.23791721 -0.15973385 -0.11177751 -0.23245396
0.08845333 -0.22300158 0.12083925 -0.08220061 -0.22905314 -0.07522661 -0.08047096 -0.22825833
-0.1082542 -0.043854825 -0.01720942 0.2739525 0.13254306 -0.061159376 -0.020141182 0.021002132
-0.28193805 -0.04484302 -0.27179736 0.28162727 0.22249715 -0.18590519 0.10499094 -0.28505987
-0.13805647 -0.09194017 0.022776268 -0.29355767 -0.16599785 0.004998514 -0.09934087 -0.048105747
-0.036843915 0.068725094 -0.0192619 -0.20403595 0.0040017026 0.2489079 0.102943555 -0.26596385
0.15460376 0.21815361 -0.061342545 0.12790845 0.10862404 -0.186839 -0.18539347 0.18417484
-0.04354022 0.119854815 0.1693544 0.111411005 0.17144702 -0.27206686 0.24363612 -0.0035751841
0.121584594 0.03596978 0.17821692 -0.06532447 -0.2174443 -0.08608204 0.036540728 -0.15302825
-0.27371046 0.2492349 0.14354478 -0.10028078 -0.23358457 0.2147882 -0.31683624 -0.026596658
-0.030375177 -0.22920565 -0.094816454 0.18177411 0.10979553 -0.31157437 -0.13060357 0.2342329
0.0026164684 0.13461931 -0.08671876 -0.03219037 -0.09629417 0.032953165 -0.12550323 0.07649303
-0.20252463 0.067250244 0.30528608 -0.084449515 -0.030892907 -0.25781894 0.3457797 0.26690117
0.032711387 -0.13874789 -0.20043348 0.19093625 -0.21231335 0.017723463 -0.09929663 0.27960998
0.116220914 -0.14477745 -0.00828094 -0.05716803 0.157921 0.14745939 -0.2348387 0.20655054
-0.0052459715 -0.29265848 0.23904563 -0.14299265 -0.1696691 -0.025355954 -0.08457222 0.22828771
-0.19100776 -0.16562168 -0.25878873 -0.14214155 0.02558781 0.17325434 0.09713001 -0.15960689
-0.22748455 0.15612505 -0.15359417 0.18865664 0.059053257 0.11643377 -0.04549775 -0.11134677
0.35712454 -0.22292581 -0.07690798 0.39304808 -0.015532584 -0.19438592 0.2046392 0.1915669
-0.26017022 0.17783651 -0.10992908 -0.09231891 0.060111277 0.23579119 0.2584811 -0.012101001
-0.09400249 -0.16855384 -0.020542659 -0.07621137 0.005778007 -0.00013295 0.2122253 0.19067647
0.15368699 0.100166835 -0.24354124 0.20780729 0.2714372 -0.046075854 0.23354222 0.23687725
-0.2132615 0.109428115 0.097735405 -0.16450182 -0.116973534 0.12663433 0.035961892 -0.10932612
-0.044665486 -0.36730805 0.34203035 0.0790588 0.2370925 -0.17956428 -0.2926181 -0.10966189
0.18904118 -0.012766368 -0.16620238 -0.11659873 -0.15048492 -0.0072595533 -0.17696579 0.2247064
00000000: 3ad5 93be 2d51 b63d 127c 3cbd 160f 6dbe
00000010: 38d7 f9bc 9804 413e 6d83 8cbd 4eff 33be
00000020: 5405 78bd bd8f d03c a43b 2abe d7e5 bfbd
00000030: 09f7 f03d 150f 693c 5bd4 7b3e fda0 3d3e
00000040: 00cf ddbd b082 9dbe d682 5dbe 7187 a3bd
00000050: 48ac fcbd 5017 99bd b8dd a93c be77 95bd
00000060: 7cea 293e 765d 8cbe 7f6b 57be eac2 54be
00000070: 8b9d df3d ab0b 87bd e38a d33d 102c 8f3e
00000080: cc25 823e 8ded 3f3e 7df7 60be 6a68 06be
00000090: fa51 adbc f643 043c 75b6 a23d a4cb 713c
000000a0: 01a6 6cbe 38bf f0bd 13a6 803e 74cf 18bd
000000b0: 714f dcbb d60c 853e 9a09 cabc b814 44be
000000c0: bb24 15bd 480b 513e 3625 be3c 9405 d93d
000000d0: 1346 6e3c a494 11bd 9782 acbe 2890 803d
000000e0: 759f 563e f163 bc3d 6285 d1bd b0a4 7cbd
000000f0: 92a0 733e 4591 23be 9beb e4bd 6908 6ebe
00000100: 0527 b53d 875a 64be 927a f73d cb58 a8bd
00000110: e88c 6abe 6910 9abd f5cd a4bd 8dbc 69be
00000120: 61b4 ddbd 1ea1 33bd c5fa 8cbc 8143 8c3e
00000130: 5eb9 073e 4182 7abd 1fff a4bc aa0c ac3c
00000140: 2f5a 90be 51ad 37bd 0629 8bbe 7331 903e
00000150: 4bd6 633e ee5d 3ebe 7d05 d73d 5ef3 91be
00000160: ad5e 0dbe 214b bcbd 4c95 ba3c 314d 96be
00000170: 57fb 29be 93ca a33b 3a73 cbbd 880a 45bd
00000180: a5e9 16bd bebf 8c3d 22cb 9dbc cdee 50be
00000190: b720 833b b6e1 7e3e 12d4 d23d 6a2c 88be
000001a0: 7350 1e3e a963 5f3e 5242 7bbd 6ffa 023e
000001b0: 4876 de3d b952 3fbe c9d7 3dbe 5498 3c3e
000001c0: 3b57 32bd 7176 f53d 3d6b 2d3e 742b e43d
000001d0: cf8f 2f3e 594c 8bbe bf7b 793e a34d 6abb
000001e0: 5801 f93d 0c55 133d 7f7e 363e d6c8 85bd
000001f0: b8a9 5ebe c84b b0bd bbab 153d 70b3 1cbe
00000200: c723 8cbe 6f37 7f3e 67fd 123e 0260 cdbd
00000210: cb30 6fbe 70f1 5b3e 5c38 a2be 3ce1 d9bc
00000220: 5dd5 f8bc e3b4 6abe 212f c2bd fe22 3a3e
00000230: 7bdc e03d ad86 9fbe f1bc 05be c0da 6f3e
00000240: 0e79 2b3b a5d9 093e 9b99 b1bd 0dda 03bd
00000250: e135 c5bd e6f9 063d eb83 00be 61a8 9c3d
00000260: 9e62 4fbe 7fba 893d 754e 9c3e def3 acbd
00000270: 1f13 fdbc d800 84be 090a b13e 45a7 883e
00000280: 60fc 053d ed13 0ebe 6f3e 4dbe cb84 433e
00000290: ac68 59be cc30 913c 085c cbbd 0a29 8f3e
000002a0: 3b05 ee3d 8a40 14be c8ac 07bc 0629 6abd
000002b0: 0bb6 213e 98ff 163e 8e79 70be fc81 533e
000002c0: 66e6 abbb 55d7 95be 61c8 743e aa6c 12be
000002d0: bdbd 2dbe 4ab7 cfbc 3334 adbd 41c4 693e
000002e0: 8a97 43be bb98 29be f57f 84be 8e8d 11be
000002f0: 879d d13c 9669 313e 19ec c63d fd6f 23be
00000300: b6f1 68be 3fdf 1f3e ca47 1dbe 352f 413e
00000310: d4e1 713d d474 ee3d d95b 3abd c609 e4bd
00000320: 07d9 b63e aa46 64be ee81 9dbd 993d c93e
00000330: 617c 7ebc 1a0d 47be f08c 513e 1d2a 443e
00000340: 0835 85be c61a 363e 7f22 e1bd b211 bdbd
00000350: 3e37 763d 3f73 713e a257 843e 4743 46bc
00000360: 6184 c0bd 6199 2cbe 1449 a8bc b514 9cbd
00000370: 7055 bd3b 7e68 0bb9 9751 593e b140 433e
00000380: 1f60 1d3e 4524 cd3d e062 79be 6fcb 543e
00000390: d1f9 8a3e 09ba 3cbd b125 6f3e f38f 723e
000003a0: 3961 5abe d91b e03d 8029 c83d 2a73 28be
000003b0: d28f efbd 6eac 013e c74c 133d 5fe6 dfbd
000003c0: 28f3 36bd cd0f bcbe 9a1e af3e 95e9 a13d
000003d0: 60c8 723e b3df 37be 0ad2 95be 6a96 e0bd
000003e0: 0394 413e 072a 51bc f530 2abe 51cb eebd
000003f0: b818 1abe 8ce1 edbb 8536 35be 6f19 663e

conv2.bias f4 [64]
-0.014966972 0.01148725 -0.006894746 -0.015389921 -0.018143525 -0.015968576 -0.014430037 0.015492086
-0.013684657 -0.015408296 -0.014096571 -0.01578345 -0.012925707 -0.014151688 0.015175573 0.015591639
-0.013226278 0.011336449 -0.006475473 0.0149687445 -0.015247126 -0.0057002273 0.015552501 0.012818044
-0.014511438 0.013775675 0.0001506644 -0.015528126 -0.014209961 0.013308716 -0.012998428 0.016170682
0.0125717325 0.015007117 0.011240103 -0.014644301 -0.007950451 -0.015367755 0.013089691 -0.014647973
0.01628829 0.013771522 -0.017134368 -0.017789194 -0.015820194 -0.01574011 0.023598978 -0.01354591
0.013401164 -0.006583479 -0.014755736 0.013977593 -0.014979141 -0.01488911 -0.014864686 -0.015654523
-0.015283521 -0.01546441 0.013499647 -0.015719613 0.005886083 -0.015790753 0.016357236 -0.00030308968
00000000: 0838 75bc 0535 3c3c 52ed e1bb 0226 7cbc
00000010: bba1 94bc 88d0 82bc f66b 6cbc 85d2 7d3c
00000020: 9d35 60bc 1473 7cbc 4ef5 66bc 4b4c 81bc
00000030: 58c6 53bc 7bdc 67bc f7a2 783c 1374 7f3c
00000040: 08b3 58bc 83bc 393c 3430 d4bb 773f 753c
00000050: 15cf 79bc f9c8 babb ebcf 7e3c c602 523c
00000060: 62c1 6dbc 5eb3 613c abfb 1d39 ae69 7ebc
00000070: e5d0 68bc cd0c 5a3c 5cf7 54bc 6178 843c
00000080: abf9 4d3c 69e0 753c 6928 383c a6ee 6fbc
00000090: 9c42 02bc 09c9 7bbc 2576 563c 0dfe 6fbc
000000a0: 056f 853c f3a1 613c 605d 8cbc a5ba 91bc
000000b0: 5a99 81bc 67f1 80bc a552 c13c aaef 5dbc
000000c0: 8e90 5b3c 39ba d7bb 0bc2 71bc 4602 653c
000000d0: 126b 75bc 74f1 73bc 038b 73bc ea3d 80bc
000000e0: bc67 7abc 705e 7dbc a02d 5d3c 6bc6 80bc
000000f0: 0be0 c03b 9c5b 81bc 9cff 853c 02e8 9eb9

conv2.lins.0.weight f4 [64, 64]
0.08884561 -0.07902975 -0.11237907 -0.02708425 0.18248531 -0.08542241 -0.06926042 -0.15740883
-0.13764742 -0.29245144 0.039661728 -0.21412268 0.16380209 0.04355207 -0.02910261 -0.07482385
0.031493492 0.18377979 -0.07075495 -0.051218495 0.12875447 0.0980709 0.19261508 -0.109392
-0.111767344 -0.3217598 -0.26937485 0.070103265 -0.01730683 0.04087889 -0.24751396 0.053011723
0.19033785 0.06946416 -0.054645296 -0.12715077 0.11772023 0.16181614 -0.17369467 0.09283217
-0.037258342 -0.21457109 -0.18262544 -0.17623356 -0.10318325 0.0016633647 -0.057854425 -0.17682467
-0.011146223 -0.0031505183 -0.18091452 0.029931556 0.15813825 0.1385275 -0.14662042 -0.20453486
-0.21132332 -0.21017529 -0.15854032 0.06739091 0.0061993483 -0.045859214 0.035797797 0.022457903
-0.069792785 -0.06059813 0.12179415 -0.0511063 -0.0009286723 0.031054216 0.021520147 -0.19505802
0.20371021 0.07080501 -0.03169081 -0.057208788 -0.049753986 -0.19309673 -0.116051674 0.19644192
-0.101364896 -0.036817543 0.19068177 0.18040466 0.04687447 -0.19147952 -0.0068890434 -0.027265634
-0.11367372 -0.022524012 0.17140292 -0.043691266 -0.16368394 -0.13596576 0.0017120768 0.040064175
0.10614092 0.04548226 0.12656458 0.13180444 -0.0062254174 0.07701074 0.00094715727 -0.14508307
0.3177319 0.18507546 0.20932175 -0.0069464375 -0.10122308 -0.07751379 -0.07642274 -0.12163996
-0.19793779 -0.033325147 -0.025326215 -0.046418276 -0.06431379 0.09643066 -0.0706185 -0.18013497
-0.093106255 0.15793972 0.058179036 0.012646456 -0.029536592 0.033177916 0.23915537 0.07964831
0.022373153 0.048880406 0.040078185 -0.20956807 0.11918792 -0.11909643 0.22573495 -0.18345818
-0.15677008 0.06504184 0.06266694 -0.001158724 0.1524201 0.10034213 -0.1039627 0.0882992
0.084043495 0.052116618 0.20226684 0.1847752 -0.16451277 0.0621162 0.2307236 -0.013367735
-0.060567923 0.14656126 0.15624301 -0.07135534 0.081469074 -0.044276964 0.1996072 0.054785836
0.02659685 0.044880684 0.0023886415 0.13685182 -0.05459003 -0.16070007 0.07509629 -0.21661343
0.18781208 0.058381293 0.11491097 -0.108522095 -0.11606545 -0.06161244 -0.010719624 0.2164583
0.088841334 0.10707543 0.11132696 0.04792442 -0.19158335 -0.1940091 0.20011026 0.0041305698
-0.16473934 -0.06309407 -0.009634822 -0.08333534 -0.12571982 -0.025218941 -0.014589674 0.2156892
-0.18278189 -0.21599852 0.013292455 -0.108571015 0.16021729 -0.042345878 0.11203872 0.14436123
0.083091944 -0.0014020365 -0.10650461 0.1311022 -0.0485612 0.18016708 -0.14880262 0.18772916
-0.24817534 0.016963886 0.19777997 0.16579351 0.024838116 0.14914374 -0.14350767 -0.27883744
-0.052202214 -0.3061436 -0.06530589 -0.016609455 -0.039254107 0.16653419 -0.0752192 -0.23559053
-0.09442774 0.061688587 -0.1986097 -0.025817832 0.025397351 -0.13634394 -0.04315707 -0.15027568
0.17654036 0.091087796 -0.07449946 -0.081145294 -0.2274819 0.04081112 -0.10558289 0.16683182
-0.0414608 0.20951308 -0.04241763 0.039855283 0.16056576 0.18817566 0.12579113 0.0031558038
-0.15473083 -0.1065572 -0.27058417 -0.002634866 0.069039956 -0.031034999 -0.07963145 0.15696199
00000000: b0f4 b53d 59da a1bd ff26 e6bd cadf ddbc
00000010: 6edd 3a3e f2f1 aebd 68d8 8dbd c82f 21be
00000020: 72f3 0cbe 32bc 95be 5674 223d fa42 5bbe
00000030: bcbb 273e a863 323d 9968 eebc 3f3d 99bd
00000040: 52ff 003d c530 3c3e f9e7 90bd 7cca 51bd
00000050: 36d8 033e 65d9 c83d e33c 453e ea08 e0bd
00000060: 47e6 e4bd b3bd a4be 80eb 89be 4d92 8f3d
00000070: 0ec7 8dbc 9f70 273d 4d74 7dbe d222 593d
00000080: ede7 423e 3a43 8e3d bfd3 5fbd d033 02be
00000090: 4e17 f13d 21b3 253e 04dd 31be cb1e be3d
000000a0: 349c 18bd 86b8 5bbe 2a02 3bbe 9276 34be
000000b0: bd51 d3bd 4205 da3a c3f8 6cbd 8711 35be
000000c0: a69e 36bc ed78 4ebb a841 39be 0633 f53c
000000d0: feee 213e 27da 0d3e aa23 16be 9671 51be
000000e0: 2465 58be 3138 57be 6558 22be 3f04 8a3d
000000f0: e723 cb3b dfd6 3bbd b6a0 123d a3f9 b73c
00000100: 85ef 8ebd bf35 78bd 366f f93d d754 51bd
00000110: 2572 73ba 6965 fe3c 054b b03c 4abd 47be
00000120: 6999 503e 3802 913d 39ce 01bd c353 6abd
00000130: d6ca 4bbd 26bb 45be 80ac edbd 1228 493e
00000140: 6698 cfbd fecd 16bd 1542 433e 00bc 383e
00000150: 72ff 3f3d 3513 44be 7cbd e1bb 2e5c dfbc
00000160: c4cd e8bd 4784 b8bc 3f84 2f3e 9df5 32bd
00000170: c39c 27be 9c3a 0bbe c467 e03a 551a 243d
00000180: 6960 d93d 9b4b 3a3d 259a 013e bef7 063e
00000190: 96fe cbbb cfb7 9d3d a64a 783a a890 14be
000001a0: c1ad a23e 6c84 3d3e 7158 563e f19e e3bb
000001b0: 0c4e cfbd 8dbf 9ebd 8783 9cbd 5f1e f9bd
000001c0: 34b0 4abe f37f 08bd ec78 cfbc 1721 3ebd
000001d0: f3b6 83bd 707d c53d 6fa0 90bd 4d75 38be
000001e0: 7eae bebd f3ba 213e 244d 6e3d 1533 4f3c
000001f0: b9f6 f1bc 91e5 073d 25e5 743e a71e a33d
00000200: e747 b73c d236 483d 0629 243d 0399 56be
00000210: cc18 f43d d4e8 f3bd 1027 673e 76dc 3bbe
00000220: 5688 20be a834 853d 8657 803d 53e0 97ba
00000230: 0414 1c3e 2d80 cd3d 65ea d4bd 36d6 b43d
00000240: ff1e ac3d 3c78 553d 0a1f 4f3e b635 3d3e
00000250: 0976 28be 8e6d 7e3d cf42 6c3e 5804 5bbc
00000260: 1216 78bd 2814 163e 2bfe 1f3e c022 92bd
00000270: 42d9 a63d c35b 35bd d465 4c3e 1d67 603d
00000280: a3e1 d93c cfd4 373d c18a 1c3b e222 0c3e
00000290: cc99 5fbd 8f8e 24be 15cc 993d e9cf 5dbe
000002a0: cf51 403e 3921 6f3d 7156 eb3d d540 debd
000002b0: b9b3 edbd 535d 7cbd 5da1 2fbc 3fa7 5d3e
000002c0: 72f2 b53d 5d4a db3d 64ff e33d 664c 443d
000002d0: 6d2e 44be 52aa 46be b4e9 4c3e bb59 873b
000002e0: 6eb1 28be 7737 81bd 5fdb 1dbc b8ab aabd
000002f0: b2bc 00be f497 cebc 8709 6fbc a1dd 5c3e
00000300: 2d2b 3bbe b72e 5dbe 99c8 593c 7b5a debd
00000310: 0010 243e df72 2dbd 8e74 e53d 6ed3 133e
00000320: 1c2c aa3d 8ac4 b7ba 171f dabd a83f 063e
00000330: 1ce8 46bd b87d 383e b75f 18be 133c 403e
00000340: ad21 7ebe d9f7 8a3c d586 4a3e c6c5 293e
00000350: 4e79 cb3c 23b9 183e adf3 12be c8c3 8ebe
00000360: fdd1 55bd dbbe 9cbe 18bf 85bd 8d10 88bc
00000370: eac8 20bd f087 2a3e 860c 9abd a53e 71be
00000380: 5563 c1bd 2cad 7c3d 5760 4bbe eb7f d3bc
00000390: 1b0e d03c bf9d 0bbe 78c5 30bd dee1 19be
000003a0: ffc6 343e 3d8c ba3d 2c93 98bd 812f a6bd
000003b0: 04f1 68be 9029 273d d83b d8bd f6d5 2a3e
000003c0: cdd2 29bd 998a 563e 1cbe 2dbd 4b3f 233d
000003d0: 5a6b 243e 1fb1 403e 64cf 003e 9ad1 4e3b
000003e0: c271 1ebe a93a dabd 028a 8abe b7ad 2cbb
000003f0: d264 8d3d 1c3d febc d015 a3bd a5ba 203e

classifier.weight f4 [2, 128]
-0.053212382 0.070900336 0.038553864 -0.06594503 -0.021170923 0.03307658 0.05119792 0.045600336
0.008933179 -0.036576364 -0.062060736 0.01744339 -0.024014141 0.056802753 0.06933324 0.045267597
0.07155356 0.07881639 -0.0005818333 0.04059125 -0.08371464 0.012149958 0.045797974 -0.0153695345
-0.008284102 0.05790088 0.018138936 -0.0027827334 -0.08595703 -0.010286964 -0.02978261 0.042726185
0.021484673 0.09288191 -0.050843816 -0.006535149 -0.06399655 0.01231266 0.060628932 -0.0428669
0.036810223 0.022038005 -0.05210475 0.020055769 0.037446707 -0.05932894 0.018407231 -0.079108074
0.04107775 0.035616346 -0.09166414 -0.03527547 -0.09185632 -0.081638284 -0.048405193 -0.05378792
-0.051923636 -0.072456524 0.012097745 0.043224424 -0.09082783 -0.02667093 -0.039932027 -0.009244085
-0.06510153 -0.065319404 0.009104062 -0.03286622 -0.07807439 -0.044024143 -0.05062074 0.035573225
0.04853438 0.030326929 -0.05134075 -0.04813786 0.050991938 -0.009836168 0.06673909 -0.005613678
-0.056526784 0.010356671 0.07029598 0.07005619 0.077010915 -0.07731217 0.06840353 0.035702698
0.088361405 0.05475506 0.020055536 -0.007659398 -0.035218954 0.030945847 -0.07257354 -0.017151842
0.012639727 0.057374418 0.010959903 -0.06704827 0.021983653 0.005868708 0.0686706 -0.087449595
0.04901612 -0.0060365903 -0.083149135 -0.016170625 -0.059990067 0.019569816 0.018578202 -0.08975547
0.029844811 0.0040173796 -0.033375528 0.029887242 -0.051701717 0.008165728 -0.08572062 0.056979787
-0.09284241 0.05875312 0.010126605 -0.06837745 0.035745308 0.011865963 -0.02365486 -0.026264064
0.07021856 -0.052045114 0.014718001 -0.029151607 0.050741013 0.054953087 0.08816505 0.06489293
0.050224673 0.076472424 0.022046821 0.056050174 -0.031024182 0.0786492 -0.004907742 0.083227016
0.077998385 -0.0163851 0.06750233 -0.055694744 0.023884615 -0.013939028 -0.039802987 -0.027533991
0.053770635 0.04307102 -0.02278455 0.04363516 -0.050061822 0.041085046 -0.011955768 -0.0788233
-0.002900689 0.08022277 -0.036666848 -0.05361616 -0.06629017 -0.011538901 0.039504193 0.02669173
0.065681726 -0.03687725 -0.03775296 0.07815335 -0.031743545 -0.07689174 -0.017207762 -0.07375508
0.039664418 0.025417354 -0.014267323 -0.0774081 -0.017362013 0.037468147 0.06417028 0.045670222
-0.0712387 0.075997174 0.08342363 0.04642038 0.03313474 0.032818243 -0.03666621 -0.06711021
0.048688665 0.06114119 0.045218214 0.0062563946 -0.015876675 -0.061620113 -0.018963674 -0.07649744
0.059131317 -0.03366322 0.060909502 0.05546783 0.08855812 -0.00997419 -0.053516116 -0.06937812
-0.025465433 0.080349185 0.009452456 -0.019962521 0.07208249 -0.059392564 -0.003402209 0.011552735
0.069129415 -0.015439272 0.047923226 0.054644085 0.045635372 -0.05592828 -0.058694605 0.07131871
0.004645672 -0.064335644 0.025432492 0.0792034 0.06600232 0.082403004 0.035146564 -0.03567966
-0.0017632605 -0.03819335 -0.07520713 -0.06482968 0.05538684 0.074586555 0.016719963 -0.05897626
-0.01907387 0.01742775 -0.052029733 0.06584263 -0.027362838 0.085668705 0.014632391 0.07390382
0.03487772 0.052568987 -0.061252918 0.07027985 -0.063911356 -0.026484462 -0.08484515 0.055015508
00000000: 3af5 59bd 3234 913d a8ea 1d3d 300e 87bd
00000010: a56e adbc 4f7b 073d e9b4 513d 6bc7 3a3d
00000020: 785c 123c 19d1 15bd 6633 7ebd 71e5 8e3c
00000030: 4eb9 c4bc 01aa 683d 96fe 8d3d 846a 393d
00000040: ac8a 923d 7d6a a13d 2c86 18ba 0343 263d
00000050: 9572 abbd 9e10 473c a896 3b3d 80d0 7bbc
00000060: 0bba 07bc 7929 6d3d 1b98 943c 855e 36bb
00000070: 3d0a b0bd a78a 28bc a9fa f3bc a701 2f3d
00000080: a000 b03c df38 be3d 9b41 50bd ce24 d6bb
00000090: a010 83bd 0abb 493c 0b56 783d 3495 2fbd
000000a0: 51c6 163d 0c89 b43c ca6b 55bd ff4b a43c
000000b0: b861 193d e702 73bd c3ca 963c 6a03 a2bd
000000c0: 2541 283d 72e2 113d 69ba bbbd 037d 10bd
000000d0: 2b1f bcbd f931 a7bd 8644 46bd b950 5cbd
000000e0: e1ad 54bd 1664 94bd 9f35 463c 180c 313d
000000f0: f103 babd ff7c dabc c48f 23bd 8174 17bc
00000100: f353 85bd 2ec6 85bd 3429 153c bb9e 06bd
00000110: 77e5 9fbd a952 34bd b157 4fbd 3bb5 113d
00000120: fccb 463d 2e70 f83c ae4a 52bd 342c 45bd
00000130: ecdc 503d e127 21bc 81ae 883d f2f2 b7bb
00000140: a188 67bd 07af 293c 57f7 8f3d 9f79 8f3d
00000150: e6b7 9d3d d855 9ebd 2617 8c3d fe3c 123d
00000160: d3f6 b43d d746 603d 824b a43c b0fb fabb
00000170: c041 10bd 2582 fd3c 70a1 94bd 0582 8cbc
00000180: dc16 4f3c 7001 6b3d 2a91 333c 9a50 89bd
00000190: 1017 b43c 4a4e c03b 2ca3 8c3d c618 b3bd
000001a0: 21c5 483d 97ce c5bb 184a aabd 4278 84bc
000001b0: 25b8 75bd e150 a03c 5031 983c b7d1 b7bd
000001c0: 1b7d f43c 39a4 833b c7b4 08bd 17d6 f43c
000001d0: 2ec5 53bd 8cc9 053c 4b8e afbd a363 693d
000001e0: 2924 bebd 1da7 703d 0fea 253c 7a09 8cbd
000001f0: ac69 123d 7569 423c d6c7 c1bc bc27 d7bc
00000200: c0ce 8f3d 422d 55bd c523 713c 5acf eebc
00000210: cfd5 4f3d 7d16 613d e18f b43d 96e6 843d
00000220: 63b8 4d3d 939d 9c3d 899b b43c de94 653d
00000230: 6d26 febc d512 a13d 20d1 a0bb ed72 aa3d
00000240: 9ebd 9f3d 0c3a 86bc a93e 8a3d 2c20 64bd
00000250: aba9 c33c 8560 64bc 7508 23bd f78e e1bc
00000260: 993e 5c3d 3d6b 303d aaa6 babc c8ba 323d
00000270: a00d 4dbd cb48 283d 20e2 43bc 1c6e a1bd
00000280: 7c19 3ebb d64b a43d fa2f 16bd 9e9c 5bbd
00000290: 24c3 87bd a90d 3dbc 26cf 213d 9da8 da3c
000002a0: 2484 863d 990c 17bd d9a2 1abd dd0e a03d
000002b0: 8505 02bd 6b79 9dbd 4bf7 8cbc e70c 97bd
000002c0: 2877 223d 0e38 d03c 7dc1 69bc 2388 9ebd
000002d0: c83a 8ebc 3378 193d b56b 833d b310 3b3d
000002e0: 98e5 91bd 68a4 9b3d 02da aa3d 4c23 3e3d
000002f0: 4bb8 073d 6c6c 063d 4f2f 16bd 1471 89bd
00000300: c46d 473d 2f6f 7a3d bc36 393d 7102 cd3b
00000310: cd0f 82bc 5f65 7cbd b559 9bbc b1aa 9cbd
00000320: ae33 723d 72e2 09bd 3e7c 793d 3c32 633d
00000330: f65d b53d c96a 23bc b733 5bbd 1e16 8ebd
00000340: e29c d0bc 1d8e a43d 79de 1a3c 7188 a3bc
00000350: fc9f 933d 9e45 73bd 98f7 5ebb af47 3d3c
00000360: b993 8d3d 00f5 7cbc 254b 443d 7ad2 5f3d
00000370: 28ec 3a3d 0d15 65bd c169 70bd 8b0f 923d
00000380: b93a 983b 68c2 83bd cd57 d03c 6435 a23d
00000390: 392c 873d e8c2 a83d d8f5 0f3d d624 12bd
000003a0: 341d e7ba a170 1cbd 3206 9abd 6cc5 84bd
000003b0: 50dd 623d d6c0 983d 4ef8 883c 1791 71bd
000003c0: ce40 9cbc a4c4 8e3c 211d 55bd 80d8 863d
000003d0: 0828 e0bc 1373 af3d b2bc 6f3c e35a 973d
000003e0: f1db 0e3d 9452 573d 57e4 7abd e2ee 8f3d
000003f0: f5e3 82bd f1f5 d8bc 4bc3 adbd f157 613d

classifier.bias f4 [2]
0.092827305 -0.06735308
00000000: 3e1c be3d 69f0 89bd
