outputs/classification/edges/weights/cheb_8.pth (torch, 21519 bytes, 6 tensors)

conv1.bias f4 [64]
0	0x3d6062a9	0.05478159
1	0xbde084f1	-0.109628566
2	0xbc816cd6	-0.015798967
3	0x3b63e49c	0.0034773713
4	0x3e05a17d	0.13049884
5	0x3b9e735e	0.00483553
6	0x3b393dc6	0.002826558
7	0xbcb548c5	-0.022129426
8	0x3da529f0	0.080646396
9	0x00000000	0.0
10	0xbb82d8c0	-0.003993124
11	0xbaccf73e	-0.0015637649
12	0x3bf075ad	0.007338247
13	0xbc70f572	-0.014706956
14	0x3d187127	0.037217285
15	0xbbc6879a	-0.0060586454
16	0xbbd940a5	-0.0066300207
17	0x3d73f8a7	0.059563305
18	0x00000000	0.0
19	0x3d87f3cd	0.06638298
20	0x3aaba296	0.0013094719
21	0x3da73c55	0.08165804
22	0xbd9ef656	-0.077618286
23	0x00000000	0.0
24	0x3be49135	0.006975318
25	0xbc4cde08	-0.012504108
26	0xbcc8f30f	-0.024529962
27	0x3e06ef30	0.1317718
28	0xbc079d8a	-0.008277306
29	0xbc5b72f7	-0.013394109
30	0xbd000d21	-0.03126252
31	0xbd4fc004	-0.05072023
32	0x00000000	0.0
33	0x3e0d68d2	0.13809517
34	0x00000000	0.0
35	0xbc77311b	-0.015087391
36	0xbc50723e	-0.01272255
37	0x3d9949ed	0.07484803
38	0xbc8e0eb2	-0.017340992
39	0x00000000	0.0
40	0x00000000	0.0
41	0xbb351f43	-0.0027637042
42	0x00000000	0.0
43	0x3d66f121	0.056382302
44	0xbbd541b2	-0.0065080756
45	0x3bf9f1e6	0.0076277135
46	0xbc2cd0f2	-0.010547863
47	0x3d3802e7	0.044924643
48	0xbbef8225	-0.0073092156
49	0xbd2a1a08	-0.04152873
50	0xbb1c3d34	-0.002384019
51	0x3d286038	0.041107386
52	0xbca802f4	-0.02050922
53	0x3b7b9efa	0.0038394318
54	0x3bc11f09	0.0058935923
55	0x3be6ef07	0.0070475372
56	0x00000000	0.0
57	0x3debd238	0.115147054
58	0x3c8f0137	0.017456634
59	0x00000000	0.0
60	0xbbb492c3	-0.0055106594
61	0x3bbeb328	0.005819697
62	0x3da9f7b8	0.08299202
63	0x00000000	0.0

conv1.lins.0.weight f4 [64, 6]
0	0xba4e9c93	-0.0007881608
1	0xbd80eaf5	-0.062948145
2	0x3ca83222	0.020531718
3	0xbddc295e	-0.10750078
4	0x3e17588e	0.14779875
5	0x3cb30b08	0.021855846
6	0xbe54cf16	-0.20782122
7	0xbde7623a	-0.11298032
8	0x3e47779a	0.19479218
9	0x3d2f3eb3	0.042784404
10	0x3e985408	0.2975161
11	0x3e92bf94	0.28661788
12	0x3d2fe802	0.04294587
13	0x3d8fcc7b	0.070214234
14	0x3d86c50b	0.06580552
15	0x3ddf2e66	0.10897522
16	0x3e1d0f13	0.15337782
17	0x3d63aaf0	0.05558294
18	0x3d053031	0.032516662
19	0x3dc6f700	0.0971508
20	0xbd706d56	-0.05869802
21	0xbe083ed1	-0.13305213
22	0x3dca22fb	0.09869953
23	0x3e1f6297	0.15564953
24	0xbdae486a	-0.08509906
25	0x3e13879a	0.14407197
26	0x3cb94a2a	0.022618372
27	0xbe4b0a68	-0.19828188
28	0xbb630126	-0.0034638136
29	0x3e38d893	0.18051367
30	0x3e058f88	0.13043034
31	0x3d60e3ce	0.05490475
32	0x3db9ad04	0.09066203
33	0x3d84d034	0.06485024
34	0x3d451718	0.048117727
35	0xbe25e5d4	-0.16200954
36	0x3e50eafb	0.20402138
37	0xbe8e7c06	-0.27828997
38	0xbdd428de	-0.10359357
39	0x3a2da13d	0.00066234526
40	0xbdfa064d	-0.12208233
41	0x3d8caf17	0.06869333
42	0xbe39bfa7	-0.18139516
43	0x3df7a7fb	0.120925866
44	0x3dda334d	0.10654316
45	0x3e8665b3	0.26249465
46	0x3e72bdf9	0.23705281
47	0xbd955e75	-0.07293407
48	0xbe5ba7de	-0.21450755
49	0x3db5a755	0.08869807
50	0xbdb4fbbf	-0.08837079
51	0x3e6f3b21	0.233624
52	0x3d49d5ed	0.04927628
53	0x3e0e85fb	0.13918297
54	0xbe01c4c3	-0.12672715
55	0xbe59b5b0	-0.21260715
56	0x3d986164	0.07440451
57	0xbdea58fd	-0.114427544
58	0xbe28add3	-0.16472559
59	0x3d9f44ac	0.0777677
60	0x3da22f8a	0.079192236
61	0xbe27b6b5	-0.16378291
62	0xbcdfde08	-0.027327552
63	0x3e7692a5	0.24079378
64	0x3d6fcaf6	0.058543168
65	0x3e16959c	0.14705509
66	0x3e7aa347	0.24476348
67	0x3e5f15be	0.21785638
68	0xbc97a1ca	-0.018509764
69	0xbd9d2656	-0.076733276
70	0x3e3f2f39	0.18670358
71	0x3d57f590	0.05272442
72	0x3e947b12	0.29000145
73	0x3e8e285a	0.2776516
74	0x3d8991e3	0.06717279
75	0xbc90ba89	-0.017667072
76	0xbc0de2e3	-0.008660051
77	0xbb22d721	-0.0024847465
78	0xbe90969b	-0.28239903
79	0xbe98f6f7	-0.2987592
80	0x3e320790	0.17385697
81	0x3e663693	0.22481756
82	0x3e187bff	0.14891051
83	0xbe11f1d3	-0.14252405
84	0xbd1dbb0c	-0.03850846
85	0xbe83eb8a	-0.2576564
86	0x3deb1155	0.11477915
87	0x3e7f3cfd	0.24925609
88	0x3d448b41	0.047984365
89	0x3d2385a6	0.03992238
90	0x3dafc317	0.08582132
91	0x3e8307a8	0.2559178
92	0xbe3ff232	-0.18744734
93	0xbe9a4758	-0.30132556
94	0xbd83313c	-0.06405875
95	0x3d3dee35	0.04636975
96	0x3e73f35b	0.23823301
97	0x3d9cfeb6	0.0766577
98	0xbdf33106	-0.11874585
99	0x3e7a0bbf	0.24418543
100	0xbe05e728	-0.1307646
101	0x3e88f0b3	0.2674614
102	0x3b43f72c	0.0029901965
103	0x3d9c7357	0.07639187
104	0xbe425796	-0.18978724
105	0xbdffedf2	-0.12496556
106	0x3dba16cb	0.09086379
107	0x3d05c6b4	0.0326602
108	0xbd39f062	-0.045395263
109	0xbe7e2391	-0.24818255
110	0xbe846b4d	-0.25863114
111	0xbe8e772e	-0.27825302
112	0x3c92f0ff	0.017937182
113	0xbe0d1ee6	-0.13781318
114	0x3d8acb74	0.06777087
115	0xbe4834d2	-0.195514
116	0xbe3766e7	-0.17910348
117	0xbe154197	-0.14575802
118	0x3da6e396	0.08148877
119	0xbe593a15	-0.21213563
120	0x3e3b3271	0.1828096
121	0xbe5092cd	-0.203685
122	0x3d82bca0	0.063836336
123	0x3e1078cf	0.14108585
124	0x3de7fdf9	0.11327738
125	0xbe191e55	-0.14952977
126	0xbddd53e3	-0.10807016
127	0x3e778bdf	0.2417445
128	0xbdaf2b69	-0.08553202
129	0xbe73f019	-0.23822059
130	0x3e8372dd	0.2567357
131	0x3e219890	0.15780854
132	0xbdffb406	-0.124855086
133	0x3e87a30a	0.26491576
134	0xbddb917b	-0.107211076
135	0x3e06b57e	0.13155171
136	0x3e463320	0.1935544
137	0xbd991e71	-0.07476509
138	0xbe6840b7	-0.22680937
139	0xbe7f3fb1	-0.2492664
140	0xbd4602d3	-0.048342537
141	0xbc096fa3	-0.008388433
142	0xbe5f73fb	-0.21821587
143	0xbddcbd8a	-0.10778339
144	0x3e61aa38	0.2203759
145	0xbe0a0190	-0.13477159
146	0xbe605425	-0.21907099
147	0x3e70bca7	0.23509465
148	0xbd7081eb	-0.05871765
149	0x3e009cd2	0.12559822
150	0x3c50aa3b	0.012735899
151	0xbe804139	-0.2504976
152	0x3e17f792	0.14840534
153	0xbdf5b0f6	-0.11996643
154	0xbe951d2b	-0.29123816
155	0xbe68aa63	-0.22721247
156	0xbea56ec2	-0.32311064
157	0xbe04e147	-0.12976561
158	0x3e4068c5	0.18789966
159	0xbcaab708	-0.02083923
160	0x3d66081f	0.05616009
161	0x3d5eed8a	0.054425754
162	0xbdbae23a	-0.091251805
163	0xbdf2a03b	-0.11846968
164	0x3ec3b8e8	0.3822701
165	0x3e4bff99	0.19921722
166	0xbe11cbdf	-0.14237927
167	0xbdaf632c	-0.085638374
168	0x3e139d1e	0.14415404
169	0x3e89f7e9	0.26946953
170	0x3e7d5425	0.2473913
171	0xbe33fc43	-0.17576699
172	0xbcaa466e	-0.020785537
173	0xbe15d7ea	-0.14633146
174	0x3e1fc76d	0.15603419
175	0x3cd39441	0.025827529
176	0xbe8de9d8	-0.2771747
177	0xbea4177c	-0.32049167
178	0xbe0500c4	-0.12988573
179	0xbe1ee822	-0.15518239
180	0xbe038d9a	-0.12846985
181	0x3e11867a	0.14211455
182	0xbe8fc599	-0.28080443
183	0xbe28aa4d	-0.16471215
184	0xbda6dfd0	-0.081481576
185	0x3da816a6	0.08207445
186	0xbde8c778	-0.11366171
187	0x3d456b97	0.04819831
188	0xbe4c2e14	-0.19939452
189	0x3e518eed	0.20464678
190	0x3e034aeb	0.12821548
191	0x3e403c10	0.18772912
192	0xbe72b7b3	-0.23702888
193	0x3d2d0a8f	0.042246398
194	0xbd8f50ca	-0.06997831
195	0xbd899482	-0.06717779
196	0x3d8653be	0.06558941
197	0xbe862393	-0.26199016
198	0xbe4372ed	-0.1908681
199	0x3eaa6cbc	0.33286083
200	0xbd083596	-0.03325423
201	0xbdf97515	-0.12180535
202	0x3cd3bc9c	0.025846772
203	0xbe2a32e6	-0.16620979
204	0xbd76f91d	-0.060296167
205	0xbe87788f	-0.26459166
206	0xbe731de3	-0.2374187
207	0xbe2ea354	-0.17054492
208	0xbe55512b	-0.20831744
209	0xbe8b7d1d	-0.2724389
210	0xbe87a3fa	-0.26492292
211	0x3e023527	0.12715589
212	0x3e293e02	0.1652756
213	0xbea51805	-0.32244888
214	0x3e885c18	0.26632762
215	0xbe8097e5	-0.25115886
216	0x3e2b5c37	0.16734396
217	0xbcfb8e03	-0.030707365
218	0xbdc06f6c	-0.09396252
219	0xbbd63dd1	-0.006538131
220	0xbcaef2f5	-0.021356085
221	0x3e542996	0.20718989
222	0xbe7ce254	-0.24695712
223	0x3dbbf6c0	0.09177923
224	0xbde41bcc	-0.11138114
225	0xbe807507	-0.25089285
226	0x3cb3a8c9	0.021931069
227	0x3e0e05e4	0.13869435
228	0xbe12f8c7	-0.14352714
229	0x3e402c9e	0.1876702
230	0xbe729cfe	-0.236927
231	0xbe4a0302	-0.1972771
232	0xbe63fcf2	-0.2226446
233	0xbe8bc3ae	-0.2729773
234	0xbd2212ee	-0.039568834
235	0x3c45f21a	0.012081647
236	0x3e59275b	0.21206419
237	0xbdf2b815	-0.11851517
238	0xbd2f393c	-0.042779192
239	0xbe684457	-0.2268232
240	0xbe84888a	-0.2588542
241	0xbe63b37e	-0.2223644
242	0xbe387bce	-0.18015978
243	0xbe610b13	-0.2197688
244	0xbe592e3f	-0.21209048
245	0xbe83ad21	-0.25718024
246	0x3dd3f761	0.10349918
247	0xbc44209d	-0.011970666
248	0xbe54fb64	-0.20799023
249	0xbdfcd26d	-0.12344823
250	0xbd0a25d9	-0.0337275
251	0x3e1a6fdc	0.15081733
252	0xbe69edc8	-0.22844613
253	0xbe0016b8	-0.12508667
254	0xbe73118d	-0.23737164
255	0xbdd7d1c0	-0.105380535

conv2.bias f4 [64]
0	0x3b6db02c	0.0036268337
1	0x3bf61044	0.007509263
2	0xbbf7ed06	-0.007566097
3	0x3c0766c5	0.008264248
4	0x3c05b4e9	0.008160808
5	0x3c042a72	0.00806676
6	0xbc076a21	-0.008265049
7	0xbbf84520	-0.0075765997
8	0x3bf8479f	0.0075768973
9	0xbbdb36a1	-0.006689862
10	0xbbfe658b	-0.0077635697
11	0x3c06257f	0.008187651
12	0x3c0578ef	0.008146509
13	0xbc0e4027	-0.008682287
14	0xbc0062a5	-0.007836019
15	0x3c025f50	0.007957295
16	0x3b8ae4dd	0.0042387084
17	0x3bc2c3b4	0.00594374
18	0xbc05791e	-0.008146552
19	0x3c01da5f	0.007925599
20	0x3bfef58a	0.0077807354
21	0xbc08e520	-0.008355409
22	0xbbe4970b	-0.0069760135
23	0x3bfc7cd9	0.0077053127
24	0xbbfd94f7	-0.0077387053
25	0xbc11be8e	-0.008895529
26	0xbc04765a	-0.008084858
27	0xbbec50fd	-0.007211803
28	0xbc11cc60	-0.008898824
29	0x3c055a72	0.00813924
30	0x3c0a8efd	0.008456943
31	0xbbebd748	-0.0071972944
32	0xba958143	-0.0011406321
33	0xbbfedbbe	-0.00777766
34	0xbc10fcd8	-0.008849345
35	0xbbf0c86f	-0.0073481123
36	0x3c07c91d	0.008287695
37	0xbc05230e	-0.0081260335
38	0xbbfb9071	-0.007677131
39	0xbc36823b	-0.011139448
40	0xbc0ec687	-0.008714325
41	0x3c0fae95	0.008769651
42	0xbc14682c	-0.00905804
43	0x3bfc3d15	0.0076977112
44	0xbc0ecc2c	-0.008715671
45	0x3bdba662	0.006703184
46	0x3c166984	0.00918043
47	0xbbfec82b	-0.0077753267
48	0xbb8f37e3	-0.004370676
49	0x3cc7f1c8	0.024407282
50	0xbbfdbbd1	-0.0077433367
51	0xbc02dedc	-0.007987704
52	0xbc39d824	-0.011343036
53	0xbc02d4d9	-0.007985317
54	0x3be860c6	0.0070916144
55	0x3bf9b3cc	0.0076203104
56	0xbc07e11d	-0.008293417
57	0xbb70bd1b	-0.003673381
58	0x3bef6193	0.007305333
59	0x3be9b68f	0.0071323584
60	0xbbf4e725	-0.0074738436
61	0x3b63f698	0.0034784433
62	0x3bfccdae	0.0077149486
63	0x3becf9cd	0.007231927

conv2.lins.0.weight f4 [64, 64]
0	0xbda2e08c	-0.07952985
1	0x3d3f10bd	0.046646822
2	0xbcca4f2e	-0.024695959
3	0x3e2f9bad	0.1714923
4	0x3ddafaef	0.10692393
5	0xbda6ee0d	-0.08150873
6	0xbdff281f	-0.12458824
7	0xbd43ca5f	-0.047800418
8	0xbe0e980c	-0.13925189
9	0x3e25798a	0.16159645
10	0x3d4bd470	0.049763143
11	0xb903b2d2	-0.0001255975
12	0xbb84a14c	-0.0040475484
13	0x3e1d9619	0.15389289
14	0xbd8870b4	-0.066621214
15	0xbddb0be9	-0.10695631
16	0xbe16f133	-0.14740448
17	0x3d54176e	0.051780157
18	0xbe3f5d3e	-0.18687913
19	0xbd001ae2	-0.031275637
20	0xbd962270	-0.07330787
21	0xbe238862	-0.15969995
22	0x3e024b36	0.12724003
23	0xbe07a6af	-0.13247178
24	0x3d8a10e8	0.06741506
25	0xbddd8531	-0.1081642
26	0x3c50caa3	0.012743625
27	0xbe585d75	-0.21129401
28	0xbd0346cb	-0.032049935
29	0x3ccc7dc7	0.024962319
30	0xbdd93239	-0.10605282
31	0xbd98c1ce	-0.0745884
32	0xbe099e32	-0.13439253
33	0xbd49c091	-0.04925591
34	0xbd88b3df	-0.06674933
35	0xbcb65766	-0.022258472
36	0x3dc83ea5	0.097775735
37	0xbe006413	-0.12538175
38	0x3b83a48f	0.0040174196
39	0x3de56443	0.11200764
40	0x3dfec4cb	0.12439879
41	0xbe4a45f7	-0.19753252
42	0xbd699660	-0.057028174
43	0x3d69959e	0.05702745
44	0x3e59f130	0.21283412
45	0xbe2af7d4	-0.16696101
46	0x3e05ac80	0.13054085
47	0xbd898885	-0.06715492
48	0xbe0372e2	-0.12836793
49	0xbe03c780	-0.12869072
50	0x3e43b516	0.19112048
51	0x3d52bea9	0.05145136
52	0xbe256eb0	-0.16155505
53	0xbe1ca8ea	-0.1529881
54	0x3d21eba4	0.039531365
55	0x3e29bb6a	0.16575399
56	0x3e2c400a	0.16821304
57	0x3c43618a	0.011925111
58	0xbe412c7e	-0.18864629
59	0x3c6e6b85	0.014552002
60	0x3e1da33e	0.15394303
61	0xbdfab194	-0.122409016
62	0x3de1ce07	0.11025625
63	0xbe4d68e6	-0.20059547
64	0xbe681ad4	-0.22666484
65	0x3ddf34a9	0.10898716
66	0x3be185c9	0.0068824035
67	0xbd2e3d82	-0.042539127
68	0xbcc58783	-0.024112469
69	0x3cc09ee0	0.023513258
70	0xbdcbf6c6	-0.09959178
71	0x3dd55672	0.10416879
72	0xbe53d9f8	-0.20688617
73	0xba3ec6a3	-0.0007277524
74	0xbe2345de	-0.15944621
75	0xbe21a02e	-0.1578376
76	0x3dabfa1a	0.083973125
77	0x3e733f99	0.2375473
78	0x3e86e7de	0.26348776
79	0x3e4c75ec	0.19966859
80	0xbd8b85cb	-0.06812628
81	0x3e1d487d	0.15359683
82	0xbe1f83d5	-0.15577634
83	0x3d8b4085	0.067994155
84	0x3def4a09	0.11684043
85	0x3e23ec8d	0.16008206
86	0xbe02296a	-0.1271111
87	0xbddffd81	-0.10937024
88	0xbc599d6f	-0.013282164
89	0xbe22c6fe	-0.15896222
90	0xbd042c42	-0.03226877
91	0x3de243d9	0.11048097
92	0xbc5fd140	-0.013660729
93	0xbdc018e3	-0.09379747
94	0xbdce4f6d	-0.10073743
95	0xbe3aea16	-0.18253359
96	0x3e1126f2	0.14175013
97	0x3e8dac4f	0.27670524
98	0xbe2a1f9d	-0.16613622
99	0xbbd21216	-0.0064108474
100	0x3de7cbd1	0.11318172
101	0x3d146126	0.03622546
102	0xbd8367f8	-0.06416315
103	0x3ccde040	0.025131345
104	0xbe261925	-0.1622053
105	0x394b3a68	0.00019381347
106	0x3d357023	0.044296395
107	0xbd95d449	-0.07315881
108	0x3b64e3e8	0.0034925882
109	0xbe22fd10	-0.15916848
110	0x3e372046	0.17883405
111	0xbcc5acf6	-0.024130326
112	0x3da79d6c	0.08184323
113	0xbe291820	-0.16513109
114	0x3e04c894	0.1296714
115	0x3ddfd0dc	0.10928509
116	0xbe0505d0	-0.12990499
117	0xbe23a988	-0.1598264
118	0xbd84b4a6	-0.064797685
119	0x3de3bf83	0.11120512
120	0x3dc85e63	0.09783628
121	0xbddd6e2b	-0.108120285
122	0xbc94f043	-0.018180972
123	0x3d2b67bf	0.041846987
124	0x3df25d60	0.11834216
125	0xbe4a9cd1	-0.19786383
126	0x3de724ad	0.11286292
127	0xbe358dbc	-0.17729849
128	0x3cb838c7	0.022488011
129	0xbddd24ea	-0.107980564
130	0x3d59002c	0.05297868
131	0x3e3d5f85	0.18493469
132	0xbd2543c2	-0.040347822
133	0xbe42db8c	-0.19029063
134	0xbe184436	-0.1486977
135	0x3c0afc59	0.008483016
136	0x3d22af1a	0.03971777
137	0x3e1b90d5	0.15191968
138	0xbe345b77	-0.17613016
139	0x3e27371a	0.16329613
140	0x3dc42203	0.095768
141	0xbe725b0b	-0.23667543
142	0x3d9fef3f	0.078093044
143	0x3de5a241	0.11212588
144	0x3e0101c3	0.12598328
145	0xbe268a36	-0.16263661
146	0xbe0dd6c4	-0.13851458
147	0xbe171224	-0.14753014
148	0xbe276838	-0.1634835
149	0x3d0e386b	0.034721773
150	0x3e5c8e50	0.21538663
151	0x3bf74b52	0.0075468207
152	0xbe0ac286	-0.13550767
153	0x3e335f97	0.17516933
154	0x3c185d95	0.009299655
155	0x3e198edc	0.14995903
156	0x3d87e4c2	0.06635429
157	0xbdc45e73	-0.09588327
158	0xbe27c15f	-0.16382359
159	0xbdad30ba	-0.084565595
160	0xbe2fca53	-0.17167024
161	0xbd5da47c	-0.054111943
162	0xbded4814	-0.115860134
163	0x3d27b92d	0.04094808
164	0x3d93ef73	0.07223406
165	0xbe3d1a9d	-0.18467183
166	0x3d7cf4cf	0.061756905
167	0xbdc60310	-0.09668553
168	0x3cc74d21	0.02432877
169	0xbddf013c	-0.10888907
170	0x3dc03c31	0.093864806
171	0xbd4d81a2	-0.050172456
172	0x3e1d7906	0.15378198
173	0xbda2b59a	-0.07944794
174	0x3d469ebd	0.04849123
175	0xbd977ceb	-0.07396873
176	0xbe3287f2	-0.17434672
177	0xbe1e3737	-0.1545075
178	0xbdfb9ff9	-0.12286372
179	0xbe2b576a	-0.16732565
180	0x3daac92d	0.083391525
181	0x3da931bd	0.0826144
182	0x3e0e2dd2	0.13884667
183	0x3da9c70a	0.08289917
184	0x3e40da98	0.18833387
185	0xbdccbe07	-0.09997182
186	0xbdc59df1	-0.096492656
187	0xbe097c36	-0.13426289
188	0x3d00f601	0.031484608
189	0x3de118cf	0.1099106
190	0x3c363782	0.0111216325
191	0xbd8de7a4	-0.069289476
192	0xbe5fe043	-0.21862893
193	0x3df446f7	0.11927598
194	0xbd26b392	-0.040698595
195	0xbc847c0b	-0.01617243
196	0x3e6fe7e1	0.23428299
197	0x3ddfdeff	0.10931205
198	0xbe1e6b8a	-0.1547071
199	0x3dadd3d0	0.08487666
200	0x3d6fb981	0.05852652
201	0x3e24cef9	0.16094579
202	0x3d61c283	0.05511714
203	0x3cdb62e8	0.02678056
204	0x3bb5082d	0.0055246563
205	0x3da30bfa	0.07961269
206	0x3d9eb998	0.07750243
207	0xbe5a4d58	-0.21318567
208	0xbdb45d11	-0.088068135
209	0xbe3b6d84	-0.18303496
210	0x3dfb7131	0.12277449
211	0x3d1981a3	0.037477147
212	0xbe0d9a3e	-0.1382837
213	0x3e63ebc1	0.22257902
214	0xbc998b32	-0.018743131
215	0x3d9988d5	0.07496802
216	0x3d77193e	0.060326807
217	0xbcd171f6	-0.025567036
218	0x3db8e960	0.09028888
219	0xbd862de2	-0.0655172
220	0xbe54d751	-0.20785262
221	0x3dbedfb8	0.09320015
222	0x3e33b384	0.17548949
223	0x3e0a08b6	0.13479885
224	0x3db748ac	0.08949408
225	0x3e1fcb76	0.15604958
226	0xbdb44037	-0.088013105
227	0x3db28c2f	0.08718144
228	0x3db6fe20	0.08935189
229	0x3e26abf5	0.16276534
230	0xbe048fa9	-0.12945427
231	0xbe543e40	-0.20726871
232	0xbd9bbf29	-0.0760482
233	0xbd910942	-0.07081844
234	0xbb954b6f	-0.0045561115
235	0xbe18a6ef	-0.1490743
236	0xbd6d7047	-0.057968404
237	0x3db43924	0.08799961
238	0x3e46d548	0.19417298
239	0x3e4b64a9	0.19862618
240	0x3dfdf906	0.12401013
241	0xbe48c3d9	-0.1960596
242	0x3d5577f2	0.052116342
243	0x3ded8864	0.1159828
244	0x3e02e658	0.12783182
245	0x3e5849f1	0.21121956
246	0x3d1db28d	0.038500357
247	0xbb6f23a1	-0.0036489742
248	0xbe2a15bf	-0.16609858
249	0x3d868e1f	0.06570076
250	0xbe041ca3	-0.12901549
251	0x3cab632c	0.020921312
252	0x3db194cd	0.086709596
253	0xbcec8515	-0.028872052
254	0x3d67d802	0.056602485
255	0xbe335128	-0.17511427

classifier.weight f4 [2, 128]
0	0xbd7d6f20	-0.061873555
1	0x3da96120	0.08270478
2	0x3d3a20b0	0.04544133
3	0x3c8edabe	0.017438289
4	0xbd514570	-0.05109161
5	0x3d149a39	0.03627989
6	0xbd1f3068	-0.038864523
7	0x3c1f70e9	0.00973151
8	0x3da120d0	0.078675866
9	0xbcb39a0d	-0.021924043
10	0x3d14f243	0.03636385
11	0x3bcb773f	0.0062092836
12	0xbcf90ec8	-0.030402556
13	0x3bb76956	0.005597274
14	0x3b68e707	0.0035538094
15	0x3d94544c	0.07242641
16	0xbc824d9e	-0.015906151
17	0x3d808d04	0.062768966
18	0x3d316571	0.043309633
19	0xbb7ca0cf	-0.0038547998
20	0x3d91f2cc	0.07126388
21	0x3cd6f72f	0.026240913
22	0xbcdd7e49	-0.027037757
23	0x3d5ef8fd	0.054436672
24	0xbd880786	-0.0664206
25	0x3c85a8e0	0.016315877
26	0xbdaf9b61	-0.08574558
27	0x3d92bd61	0.071650274
28	0x3cdd313b	0.027001014
29	0xbd48ad72	-0.048993535
30	0x3d50a2dc	0.050936565
31	0xbd03e494	-0.03220041
32	0xbd12a6fa	-0.035803773
33	0xbda543e0	-0.08069587
34	0xbd5f7204	-0.054552093
35	0x3ccf4b53	0.025304472
36	0xbd91fc0e	-0.07128154
37	0xbc976803	-0.018482214
38	0xbc0eab75	-0.008707871
39	0x3d395321	0.045245294
40	0xbc98a050	-0.01863113
41	0x3da99b75	0.08281604
42	0xbd699415	-0.057025988
43	0x3cf4fbbd	0.029905194
44	0x3c95a653	0.018267786
45	0x3d976db3	0.0739397
46	0xbd814f60	-0.06313968
47	0xbd81cfbc	-0.0633845
48	0x3bf831ea	0.0075743096
49	0xbcb9b8be	-0.0226711
50	0xbd8a8302	-0.06763269
51	0xbb8f4cb0	-0.0043731555
52	0xbd12f643	-0.035879385
53	0xbd96da67	-0.07365876
54	0xbd0429d2	-0.032266445
55	0x3d7e3916	0.06206616
56	0x3cff25ec	0.031146012
57	0xbdb950fc	-0.0904865
58	0xbd5288e4	-0.05140008
59	0x3d4ac9d9	0.049508903
60	0xbce2f82c	-0.027706228
61	0xbcd90b4d	-0.026494646
62	0x3da902ed	0.08252511
63	0x3c92458b	0.017855426
64	0x3cb65723	0.022258347
65	0x3954ba41	0.0002028728
66	0xbc1e8d26	-0.009677207
67	0x3da751f6	0.0816993
68	0x3d9a8e34	0.07546654
69	0x3d8cdbb5	0.06877843
70	0xbd9c06f6	-0.07618515
71	0xbd37a0a0	-0.04483092
72	0x3d6705df	0.056402083
73	0xbd6aa58b	-0.05728678
74	0xbd3f9391	-0.04677159
75	0x3d3bc718	0.045844167
76	0x3d93a50f	0.07209217
77	0x3d6f869a	0.058477975
78	0xbd8485f8	-0.06470865
79	0x3d418fb7	0.047256198
80	0x3d85b5c2	0.06528808
81	0xbda05e2e	-0.07830463
82	0xbd900c55	-0.07033602
83	0x3d40ccb7	0.04707023
84	0x3d2167e8	0.039405733
85	0xbd808433	-0.06275215
86	0xbd1c0369	-0.03808919
87	0x3d0c7f49	0.034301076
88	0x3d46c943	0.048531782
89	0xbda57a81	-0.080800064
90	0x3d05f6af	0.03270596
91	0xbd7111b3	-0.05885477
92	0xbd176ce6	-0.036969088
93	0x3d5c0a0e	0.053720526
94	0x3d5c553f	0.053792235
95	0xbd67a46a	-0.05655328
96	0xbc16b612	-0.009198682
97	0x3cd8af3d	0.026450748
98	0xbdac5980	-0.08415508
99	0xbd99ca82	-0.075093284
100	0x3c9f7703	0.019465929
101	0xbd980f65	-0.07424811
102	0xbcd9de13	-0.026595151
103	0x3ccf2a7d	0.025288815
104	0xbce4a653	-0.02791134
105	0x3db3826f	0.087651126
106	0x3da50d7f	0.08059215
107	0x3d9a81b9	0.07544274
108	0xbc78ad0e	-0.015177978
109	0xbc671c02	-0.014105799
110	0x3d662349	0.056185994
111	0x3c3cd4be	0.011525331
112	0xbc655d81	-0.013999344
113	0x3da780b9	0.08178849
114	0xbd9ff622	-0.07810618
115	0xbdad168f	-0.08451568
116	0x3ca2ffe5	0.01989741
117	0xbd389f38	-0.045073718
118	0x3d17301f	0.036911126
119	0xbbe58708	-0.0070046224
120	0xbc9427b9	-0.018085347
121	0x3d60d5cc	0.054891393
122	0xbb849361	-0.0040458892
123	0xbc99f9ef	-0.018795935
124	0x3d93c22e	0.07214771
125	0x3bb8fa82	0.0056450972
126	0x3da3018a	0.07959278
127	0x3d4660ff	0.048432346
128	0x3d403cc4	0.04693295
129	0xb94b6d3a	-0.00019400279
130	0x3d796b98	0.060893625
131	0x3d3df3dc	0.04637514
132	0xbdb7ed8b	-0.089808546
133	0x3cd97e1e	0.026549395
134	0x3db0f41b	0.086403094
135	0xbd6fb5c5	-0.05852296
136	0xbcd78b89	-0.026311653
137	0xbd001b4c	-0.031276032
138	0x3d8cdd35	0.068781294
139	0xbdabd42f	-0.0839008
140	0xbd8cc987	-0.06874376
141	0x3d92691d	0.07148955
142	0x3915c6b0	0.00014283764
143	0xbd91c69f	-0.07117962
144	0x3b9cb015	0.004781733
145	0x3c9dd403	0.019266134
146	0xbd7bed50	-0.061505616
147	0xbcad23ea	-0.02113529
148	0xbd9750c3	-0.07388451
149	0x3d338659	0.043829296
150	0xbd8101aa	-0.062991455
151	0x3cc6ddf9	0.024275767
152	0x3d8e770a	0.06956299
153	0xbc403cce	-0.011733247
154	0x3d863395	0.06552807
155	0x3d949d6e	0.0725659
156	0xbceac7ba	-0.02865969
157	0xbd8c6f03	-0.06857111
158	0xbd258bc7	-0.040416505
159	0xbc19ea00	-0.009394169
160	0x3cb6c66a	0.022311408
161	0xbbb016f2	-0.005373829
162	0xbcbebd83	-0.023283726
163	0x3c847e90	0.016173631
164	0xbdae1f0f	-0.08502018
165	0xbc6a4040	-0.014297545
166	0x3d0eba8b	0.03484587
167	0x3d270400	0.0407753
168	0x3d99b844	0.07505849
169	0x3bab6aa9	0.0052312207
170	0x3d9c0bbb	0.07619425
171	0xbd9f14ca	-0.07767637
172	0xbba64381	-0.005073965
173	0xbd6c76ff	-0.05773067
174	0x3cae5aae	0.021283474
175	0x3d075dc7	0.033048417
176	0xbd4d3c03	-0.05010606
177	0xbc985e7a	-0.018599737
178	0x3cca2059	0.024673628
179	0x3ce25fa0	0.027633488
180	0x3d88d7b4	0.06681767
181	0xbcf5d813	-0.030010259
182	0x3c6e59ec	0.014547806
183	0x3d114ec3	0.035475504
184	0x3d8022a9	0.06256611
185	0x3ae5eae6	0.0017541319
186	0xbd3144a8	-0.043278366
187	0xbda3d779	-0.080000825
188	0x3d85a3c8	0.065253794
189	0xbd4424b1	-0.047886554
190	0xbd2e1b41	-0.04250646
191	0xbbe1ae87	-0.0068872604
192	0xbd9836b6	-0.0743231
193	0x3c12ed20	0.008967668
194	0x3d0a55bf	0.03377318
195	0xbda427f1	-0.08015431
196	0x3d294468	0.041325003
197	0xbc1dfd06	-0.009642845
198	0xbd94a086	-0.0725718
199	0x3da51207	0.08060079
200	0xb66991f0	-3.4804652e-06
201	0x3c98ab7f	0.018636463
202	0x3d3a6f20	0.045516133
203	0x3dabe4b8	0.08393234
204	0xbd861d60	-0.065485716
205	0x3d2d2095	0.0422674
206	0x3dbdcbb2	0.092673674
207	0xbca9d06a	-0.020729262
208	0x3d0fb26b	0.035082262
209	0xbd93a651	-0.07209457
210	0x3dae0e54	0.084988266
211	0xbd8dbfdd	-0.06921361
212	0xbc9967fd	-0.018726343
213	0xbd4d67e3	-0.050147902
214	0x3d6f2353	0.058383297
215	0xbd8b1fd1	-0.06793178
216	0xbd032254	-0.03201516
217	0x3ce0e09c	0.027450852
218	0xbcf8fd0e	-0.030394103
219	0xbd304e5d	-0.043043483
220	0x3d1779cd	0.036981393
221	0xbd9ac139	-0.075563855
222	0xbac4df5b	-0.0015020178
223	0x3d627738	0.055289477
224	0xbcd37f15	-0.025817433
225	0x3d235994	0.03988035
226	0xbd0c07f5	-0.034187276
227	0x3c91527b	0.017739525
228	0x3bfdc489	0.007744376
229	0xbc98eb68	-0.018666938
230	0x3b739ee4	0.0037173564
231	0x3db6d9d7	0.089282684
232	0x3d219e16	0.039457403
233	0xbce06ed1	-0.027396591
234	0xbd5963f2	-0.05307383
235	0x3d9021a8	0.070376694
236	0x3d4694f1	0.048481885
237	0x3db652c8	0.08902508
238	0xbd899b5b	-0.06719085
239	0x3d81753a	0.06321187
240	0x3d510d3b	0.05103801
241	0x3d3a0a0d	0.04541974
242	0x3cc4c159	0.024017977
243	0x3c77ba4d	0.015120101
244	0xbd9ac84e	-0.07557736
245	0xbba6376a	-0.005072524
246	0xbd5b8a8d	-0.05359893
247	0xbda849a3	-0.0821717
248	0x3d50945a	0.05092273
249	0x398abbdc	0.00026461377
250	0xbda9f32a	-0.08298333
251	0x3daa91a4	0.0832856
252	0x3d96379c	0.073348254
253	0x3d0ef1e0	0.03489864
254	0x3d80eded	0.06295381
255	0x3d44165d	0.04787289

classifier.bias f4 [2]
0	0x3d11feed	0.035643507
1	0xbdc123fd	-0.09430692
