outputs/classification/edges/weights/gat_1.pth (torch, 23599 bytes, 12 tensors)

conv1.att_src f4 [1, 1, 64]
0.2389534 -0.2058538 -0.2907143 -0.25402212 -0.13172288 0.23062424 0.1328648 -0.1079254
-0.17690665 -0.18060781 -0.13675064 0.27440405 0.2088296 0.04282074 0.13017878 -0.039211895
0.08650378 0.14763732 -0.27182457 0.13796043 -0.012350106 0.19361386 0.28795746 -0.23173034
0.2994777 0.10449261 0.28989118 0.24696864 -0.018355668 0.13545427 0.25356522 -0.053539354
0.23713866 -0.17398144 -0.17961329 -0.16942552 0.24191484 0.30790588 -0.036969088 -0.22280966
-0.04751674 -0.10200488 0.016808469 -0.20060752 -0.15025999 0.04211385 0.080865644 0.11157035
-0.13128078 -0.20713753 0.29265133 0.019211037 -0.07142106 0.25994846 -0.04712957 -0.07442382
-0.24266306 -0.20370767 0.056056466 -0.15241691 0.14455375 0.06190597 -0.04536739 -0.14830607
00000000: 33b0 743e 57cb 52be 81d8 94be 300f 82be
00000010: 5de2 06be c328 6c3e b60d 083e fe07 ddbd
00000020: 0427 35be 41f1 38be 5c08 0cbe b07e 8c3e
00000030: 6dd7 553e cd64 2f3d 964d 053e a79c 20bd
00000040: e528 b13d 3d2e 173e 972c 8bbe 8045 0d3e
00000050: 1958 4abc b642 463e 296f 933e b84a 6dbe
00000060: 2455 993e 3900 d63d 9e6c 943e 59e5 7c3e
00000070: a05e 96bc 86b4 0a3e 4dd3 813e 154c 5bbd
00000080: 7ad4 723e 3128 32be 8cec 37be e27d 2dbe
00000090: 86b8 773e d7a5 9d3e e66c 17bd 3728 64be
000000a0: eaa0 42bd efe7 d0bd eab1 893c 0f6c 4dbe
000000b0: c1dd 19be 937f 2c3d e39c a53d ff7e e43d
000000c0: 786e 06be dc1b 54be 65d6 953e 7760 9d3c
000000d0: 3445 92bd f717 853e f00a 41bd 846b 98bd
000000e0: aa7c 78be be98 50be 779b 653d 2e13 1cbe
000000f0: e605 143e 1d91 7d3d 28d3 39bd 8cdd 17be

conv1.att_dst f4 [1, 1, 64]
0.009387691 -0.095664866 -0.015144975 -0.2621362 -0.16422246 -0.11638777 -0.13312405 0.07189486
0.12106946 0.22875369 -0.028620055 -0.0014492753 -0.16249652 0.06439322 0.29572976 0.23339812
0.08732372 0.18982604 0.20634125 -0.1705041 -0.23545381 -0.18014371 0.08591894 -0.0347903
-0.13242555 -0.30486476 -0.21797644 -0.24468125 -0.019089183 -0.18804844 -0.26497635 0.19638203
0.2543529 -0.26139218 -0.19381581 -0.048956946 0.0149860745 -0.1365049 0.21192402 0.160754
0.048540577 0.082255706 0.07936368 0.0760814 0.07506007 -0.25608116 0.028232962 -0.21904007
-0.27131858 -0.15178818 -0.02564035 0.29485658 -0.16065095 -0.28113398 -0.1527639 0.19911306
0.1181772 -0.2486399 -0.25507003 0.11443397 0.19276306 0.24155498 -0.30907848 0.027493855
00000000: d4ce 193c f1eb c3bd a122 78bc b736 86be
00000010: ef29 28be b65c eebd ac51 08be 9d3d 933d
00000020: 44f3 f73d 683e 6a3e 9b74 eabc 9cf5 bdba
00000030: 7d65 26be 98e0 833d e469 973e ebff 6e3e
00000040: c7d6 b23d c261 423e 1f4b 533e a098 2ebe
00000050: ce1a 71be 9877 38be 45f6 af3d 4680 0ebd
00000060: 909a 07be 3c17 9cbe 3735 5fbe b98d 7abe
00000070: eb60 9cbc c58f 40be fbaa 87be 5f18 493e
00000080: 8b3a 823e 32d5 85be a777 46be 1487 48bd
00000090: 2788 753c f1c7 0bbe 9c02 593e b29c 243e
000000a0: 7cd2 463d ae75 a83d 6d89 a23d 91d0 9b3d
000000b0: 18b9 993d 121d 83be d048 e73c 0a4c 60be
000000c0: 45ea 8abe 5c6e 1bbe b60b d2bc 71f7 963e
000000d0: af81 24be cbf0 8fbe 246e 1cbe 4be4 4b3e
000000e0: e306 f23d 759b 7ebe 8a98 82be 5b5c ea3d
000000f0: ae63 453e 305a 773e 893f 9ebe cb3a e13c

conv1.bias f4 [64]
-0.036030054 0.0098756235 -0.038185537 0.017961903 -0.050289717 0.0060047247 0.1149622 0.00063577166
0.0 -0.02661444 0.013872992 0.1207142 -0.043274175 0.09677251 -0.0062753586 0.0
0.1362138 0.0 0.08388209 0.026584106 0.076512344 -0.020346364 0.0 -0.031299382
-0.055552226 0.0 0.026010826 0.0 0.008673925 0.08115907 0.001555505 -0.043205466
0.0 0.0 0.0 0.028837377 -0.051830694 0.09766742 0.0768853 0.009026082
0.0 0.06234028 0.026454683 0.0 0.013240488 0.117011696 0.10487297 -0.0026432325
0.07801396 -0.041771132 -0.013662519 -0.02962239 -0.01907518 -0.020592777 0.051196944 -0.019291151
0.06054031 0.109878875 0.01448181 0.0 -0.016204247 -0.00013074995 0.043444563 -0.03971647
00000000: 4094 13bd 5ecd 213c 7068 1cbd d724 933c
00000010: 97fc 4dbd 48c3 c43b 4d71 eb3d eaa9 263a
00000020: 0000 0000 8706 dabc 8c4b 633c 0239 f73d
00000030: 4340 31bd aa30 c63d 86a1 cdbb 0000 0000
00000040: a17b 0b3e 0000 0000 60ca ab3d e9c6 d93c
00000050: 81b2 9c3d 6bad a6bc 0000 0000 c833 00bd
00000060: bb8a 63bd 0000 0000 a814 d53c 0000 0000
00000070: 141d 0e3c ba36 a63d 16e2 cb3a 37f8 30bd
00000080: 0000 0000 0000 0000 0000 0000 5d3c ec3c
00000090: 6c4c 54bd db05 c83d 0a76 9d3d 22e2 133c
000000a0: 0000 0000 8558 7f3d 7eb7 d83c 0000 0000
000000b0: a2ee 583c d4a3 ef3d a4c7 d63d 153a 2dbb
000000c0: c8c5 9f3d 3518 2bbd c2d8 5fbc a8aa f2bc
000000d0: 8d43 9cbc 2fb2 a8bc e3b3 513d 7a08 9ebc
000000e0: 1ef9 773d 2d08 e13d 1d45 6d3c 0000 0000
000000f0: c5be 84bc ec19 09b9 edf2 313d bdad 22bd

conv1.lin_src.weight f4 [64, 6]
0.24235857 0.12598448 0.26498634 0.045699462 0.21488766 0.13466743 0.010917914 0.13038564
0.14624473 -0.04364178 0.16956228 0.064712055 -0.08375766 -0.07031257 -0.1749445 0.21086541
0.27640224 0.12656271 0.16131918 -0.0635548 0.277062 -0.22568414 -0.11752527 0.27629146
-0.14422828 0.06684147 0.14852865 -0.06118375 0.19652443 -0.030280452 -0.15166226 0.114009075
-0.12804535 0.054877292 -0.071025744 -0.13539971 -0.068255424 0.051961955 -0.18302152 -0.25125134
0.08939851 0.17813903 -0.0877289 0.14824091 0.030105852 0.13824606 -0.1597765 -0.28140527
-0.2547339 0.032248177 -0.16432358 -0.18982948 0.029244984 -0.114050835 0.04005481 0.015602605
-0.15434669 -0.048988596 -0.17328666 0.013812535 -0.03775797 0.09859015 -0.23226134 0.003764352
0.2818815 0.11693587 -0.28217268 -0.065162666 0.18591218 -0.2793797 0.0993188 -0.20660569
0.24919564 -0.20184885 -0.049358614 -0.17457077 0.08186341 -0.27987173 -0.022816142 0.088310674
0.012110761 -0.24370001 -0.13149591 0.20569138 0.15663108 -0.090549424 -0.0077777896 -0.29726657
-0.0049382737 -0.24030922 -0.21309455 -0.27357775 -0.08293025 -0.09824512 0.24728632 -0.17601448
-0.015674857 0.0903677 -0.1676546 -0.25579292 -0.09621749 -0.17454273 -0.021148434 -0.24287394
0.052761085 0.007288051 0.022802066 -0.18641943 -0.15085103 0.23714076 0.2636383 -0.12921073
0.22920138 0.01712493 0.060253564 0.2647579 -0.2191522 0.032316275 0.2742348 0.063298136
-0.003523892 -0.14414951 0.15603308 -0.27948353 -0.028520858 0.2679944 0.26712433 0.23484084
-0.03291683 -0.035621297 -0.1513917 -0.24782607 -0.23092404 -0.18057917 -0.07877772 0.11955779
0.2145794 -0.18455371 0.19566835 -0.2546914 -0.23941082 -0.0075005395 -0.06723711 -0.0326269
0.0629311 -0.19976765 0.2395823 0.03764803 0.26984522 -0.06940535 -0.18702939 -0.21880513
0.021118829 0.077596955 0.20664345 -0.2541088 0.102062315 0.2644322 0.28104854 0.23030445
0.030988568 0.17573331 -0.28209066 -0.2357276 -0.075934894 -0.13116269 0.049199168 -0.24428257
-0.19261399 -0.0461526 0.021535942 -0.11629545 0.16290171 -0.0861201 -0.047646236 -0.27255237
-0.15362097 0.16610005 0.042446822 0.20185979 -0.27463424 0.14838125 0.15681835 0.16607665
0.04923617 0.22150995 0.13380751 -0.09657324 -0.17143436 0.10179003 0.03551291 0.1296126
-0.25556144 -0.15505652 -0.1099055 0.025485858 0.06307246 -0.12138684 -0.10734146 0.07018194
0.037591815 -0.1688291 0.03752604 -0.24328762 -0.14282504 -0.028021365 -0.18845539 -0.14182219
0.11073211 -0.23693171 0.21793969 -0.0010283998 -0.24686925 0.054267995 -0.18665625 0.012393806
-0.23546897 -0.2199823 0.19743326 -0.23026842 -0.1674562 0.19809207 -0.20781268 0.08441067
-0.017087964 -0.2574124 0.23370622 -0.17756099 -0.023345433 -0.01407204 0.017229743 0.09705896
0.08137919 0.024824869 0.030315487 0.25852144 -0.18906194 -0.19227058 0.15803982 -0.17200603
-0.19055562 -0.20341194 0.21287626 -0.1890477 -0.1692444 -0.26022 -0.085827515 0.2617078
-0.12714641 -0.019621208 0.24535796 0.08351286 0.14657705 0.0038595763 -0.11377644 0.1684941
00000000: d82c 783e 1302 013e 4aac 873e 5c2f 3b3d
00000010: 830b 5c3e 42e6 093e 0de1 323c d083 053e
00000020: 2ec1 153e b9c1 32bd bca1 2d3e c187 843d
00000030: 2389 abbd 0900 90bd a724 33be 1aed 573e
00000040: 9884 8d3e a899 013e db30 253e 0529 82bd
00000050: 12db 8d3e be19 67be 17b1 f0bd 1376 8d3e
00000060: 94b0 13be 2ee4 883d e517 183e d09b 7abd
00000070: b33d 493e b60e f8bc 5a4d 1bbe 977d e93d
00000080: 521e 03be 03c7 603d f275 91bd 39a6 0abe
00000090: 80c9 8bbd 0fd6 543d fe69 3bbe 04a4 80be
000000a0: 9116 b73d 146a 363e 36ab b3bd 77cc 173e
000000b0: 8ca0 f63c 6090 0d3e 739c 23be 5a14 90be
000000c0: 7b6c 82be aa16 043d 7144 28be a962 42be
000000d0: 2d93 ef3c 7c93 e9bd 8310 243d 12a2 7f3c
000000e0: 0f0d 1ebe 44a8 48bd 0f72 31be f94d 623c
000000f0: 1aa8 1abd a2e9 c93d ebd5 6dbe 59b3 763b
00000100: c652 903e 137c ef3d f078 90be 0174 85bd
00000110: c35f 3e3e db0a 8fbe a867 cb3d 7190 53be
00000120: 242d 7f3e 77b1 4ebe 422c 4abd aec2 32be
00000130: 01a8 a73d 594b 8fbe ebe8 babc 3adc b43d
00000140: 376c 463c 7f8c 79be dda6 06be c3a0 523e
00000150: e663 203e fa71 b9bd d4dc febb 5333 98be
00000160: 3ed1 a1bb 9f13 76be 7535 5abe 6212 8cbe
00000170: 56d7 a9bd bd34 c9bd a038 7d3e 243d 34be
00000180: 8f68 80bc b312 b93d a6ad 2bbe 4af7 82be
00000190: ad0d c5bd 54bb 32be 7b3f adbc f2b3 78be
000001a0: 021c 583d 9ad0 ee3b 66cb ba3c bce4 3ebe
000001b0: b178 1abe 07d5 723e 99fb 863e d14f 04be
000001c0: c4b3 6a3e 9549 8c3c 71cc 763d 598e 873e
000001d0: 6f69 60be 125e 043d 8168 8c3e 74a2 813d
000001e0: 19f1 66bb ee9b 13be 23c7 1f3e 7718 8fbe
000001f0: 93a4 e9bc 9036 893e 85c4 883e 1e7a 703e
00000200: ccd3 06bd a3e7 11bd 6d06 1bbe 1ec6 7dbe
00000210: 5a77 6cbe bfe9 38be 3756 a1bd b7da f43d
00000220: b4ba 5b3e a6fb 3cbe 495d 483e e966 82be
00000230: 1c28 75be 16c7 f5bb 9cb3 89bd c9a3 05bd
00000240: 05e2 803d e48f 4cbe 1055 753e d234 1a3d
00000250: 2729 8a3e 6424 8ebd a284 3fbe 740e 60be
00000260: 6501 ad3c 27eb 9e3d 579a 533e 8c1a 82be
00000270: 0c06 d13d a863 873e 98e5 8f3e eed4 6b3e
00000280: bddb fd3c 6ff3 333e 306e 90be 9362 71be
00000290: c183 9bbd 834f 06be 1185 493d 3625 7abe
000002a0: 9a3c 45be 820a 3dbd 256c b03c 4f2c eebd
000002b0: b5cf 263e bc5f b0bd b328 43bd fc8b 8bbe
000002c0: d14e 1dbe 2216 2a3e b8dc 2d3d 55b4 4e3e
000002d0: dc9c 8cbe 41f1 173e fd94 203e ff0f 2a3e
000002e0: deab 493d 81d3 623e d604 093e 31c8 c5bd
000002f0: 7d8c 2fbe 4b77 d03d fc75 113d 2ab9 043e
00000300: f3d8 82be 23c7 1ebe 2316 e1bd b8c7 d03c
00000310: 222c 813d aa99 f8bd d7d5 dbbd 8dbb 8f3d
00000320: e0f9 193d 89e1 2cbe e8b4 193d 6420 79be
00000330: ba40 12be 108d e5bc 73fa 40be d639 11be
00000340: 84c7 e23d 3a9e 72be 952b 5f3e 5fcb 86ba
00000350: 4bcb 7cbe 1e48 5e3d d122 3fbe 640f 4b3c
00000360: c71e 71be 0a43 61be f22b 4a3e 7ccb 6bbe
00000370: a379 2bbe a6d8 4a3e d9cc 54be 80df ac3d
00000380: 0ffc 8bbc 8fcb 83be af50 6f3e 8cd2 35be
00000390: ec3e bfbc 6a8e 66bc 6425 8d3c d9c6 c63d
000003a0: 22aa a63d 865d cb3c 2f58 f83c ec5c 843e
000003b0: 7499 41be 94e2 44be 31d5 213e 5922 30be
000003c0: 0321 43be 384b 50be 3cfc 593e b895 41be
000003d0: 674e 2dbe 8e3b 85be 56c6 afbd 91fe 853e
000003e0: ab32 02be a8bc a0bc 1e3f 7b3e ca08 ab3d
000003f0: 4b18 163e f2f0 7c3b 9f03 e9bd b889 2c3e

conv1.lin_dst.weight f4 [64, 6]
0.24235857 0.12598448 0.26498634 0.045699462 0.21488766 0.13466743 0.010917914 0.13038564
0.14624473 -0.04364178 0.16956228 0.064712055 -0.08375766 -0.07031257 -0.1749445 0.21086541
0.27640224 0.12656271 0.16131918 -0.0635548 0.277062 -0.22568414 -0.11752527 0.27629146
-0.14422828 0.06684147 0.14852865 -0.06118375 0.19652443 -0.030280452 -0.15166226 0.114009075
-0.12804535 0.054877292 -0.071025744 -0.13539971 -0.068255424 0.051961955 -0.18302152 -0.25125134
0.08939851 0.17813903 -0.0877289 0.14824091 0.030105852 0.13824606 -0.1597765 -0.28140527
-0.2547339 0.032248177 -0.16432358 -0.18982948 0.029244984 -0.114050835 0.04005481 0.015602605
-0.15434669 -0.048988596 -0.17328666 0.013812535 -0.03775797 0.09859015 -0.23226134 0.003764352
0.2818815 0.11693587 -0.28217268 -0.065162666 0.18591218 -0.2793797 0.0993188 -0.20660569
0.24919564 -0.20184885 -0.049358614 -0.17457077 0.08186341 -0.27987173 -0.022816142 0.088310674
0.012110761 -0.24370001 -0.13149591 0.20569138 0.15663108 -0.090549424 -0.0077777896 -0.29726657
-0.0049382737 -0.24030922 -0.21309455 -0.27357775 -0.08293025 -0.09824512 0.24728632 -0.17601448
-0.015674857 0.0903677 -0.1676546 -0.25579292 -0.09621749 -0.17454273 -0.021148434 -0.24287394
0.052761085 0.007288051 0.022802066 -0.18641943 -0.15085103 0.23714076 0.2636383 -0.12921073
0.22920138 0.01712493 0.060253564 0.2647579 -0.2191522 0.032316275 0.2742348 0.063298136
-0.003523892 -0.14414951 0.15603308 -0.27948353 -0.028520858 0.2679944 0.26712433 0.23484084
-0.03291683 -0.035621297 -0.1513917 -0.24782607 -0.23092404 -0.18057917 -0.07877772 0.11955779
0.2145794 -0.18455371 0.19566835 -0.2546914 -0.23941082 -0.0075005395 -0.06723711 -0.0326269
0.0629311 -0.19976765 0.2395823 0.03764803 0.26984522 -0.06940535 -0.18702939 -0.21880513
0.021118829 0.077596955 0.20664345 -0.2541088 0.102062315 0.2644322 0.28104854 0.23030445
0.030988568 0.17573331 -0.28209066 -0.2357276 -0.075934894 -0.13116269 0.049199168 -0.24428257
-0.19261399 -0.0461526 0.021535942 -0.11629545 0.16290171 -0.0861201 -0.047646236 -0.27255237
-0.15362097 0.16610005 0.042446822 0.20185979 -0.27463424 0.14838125 0.15681835 0.16607665
0.04923617 0.22150995 0.13380751 -0.09657324 -0.17143436 0.10179003 0.03551291 0.1296126
-0.25556144 -0.15505652 -0.1099055 0.025485858 0.06307246 -0.12138684 -0.10734146 0.07018194
0.037591815 -0.1688291 0.03752604 -0.24328762 -0.14282504 -0.028021365 -0.18845539 -0.14182219
0.11073211 -0.23693171 0.21793969 -0.0010283998 -0.24686925 0.054267995 -0.18665625 0.012393806
-0.23546897 -0.2199823 0.19743326 -0.23026842 -0.1674562 0.19809207 -0.20781268 0.08441067
-0.017087964 -0.2574124 0.23370622 -0.17756099 -0.023345433 -0.01407204 0.017229743 0.09705896
0.08137919 0.024824869 0.030315487 0.25852144 -0.18906194 -0.19227058 0.15803982 -0.17200603
-0.19055562 -0.20341194 0.21287626 -0.1890477 -0.1692444 -0.26022 -0.085827515 0.2617078
-0.12714641 -0.019621208 0.24535796 0.08351286 0.14657705 0.0038595763 -0.11377644 0.1684941
00000000: d82c 783e 1302 013e 4aac 873e 5c2f 3b3d
00000010: 830b 5c3e 42e6 093e 0de1 323c d083 053e
00000020: 2ec1 153e b9c1 32bd bca1 2d3e c187 843d
00000030: 2389 abbd 0900 90bd a724 33be 1aed 573e
00000040: 9884 8d3e a899 013e db30 253e 0529 82bd
00000050: 12db 8d3e be19 67be 17b1 f0bd 1376 8d3e
00000060: 94b0 13be 2ee4 883d e517 183e d09b 7abd
00000070: b33d 493e b60e f8bc 5a4d 1bbe 977d e93d
00000080: 521e 03be 03c7 603d f275 91bd 39a6 0abe
00000090: 80c9 8bbd 0fd6 543d fe69 3bbe 04a4 80be
000000a0: 9116 b73d 146a 363e 36ab b3bd 77cc 173e
000000b0: 8ca0 f63c 6090 0d3e 739c 23be 5a14 90be
000000c0: 7b6c 82be aa16 043d 7144 28be a962 42be
000000d0: 2d93 ef3c 7c93 e9bd 8310 243d 12a2 7f3c
000000e0: 0f0d 1ebe 44a8 48bd 0f72 31be f94d 623c
000000f0: 1aa8 1abd a2e9 c93d ebd5 6dbe 59b3 763b
00000100: c652 903e 137c ef3d f078 90be 0174 85bd
00000110: c35f 3e3e db0a 8fbe a867 cb3d 7190 53be
00000120: 242d 7f3e 77b1 4ebe 422c 4abd aec2 32be
00000130: 01a8 a73d 594b 8fbe ebe8 babc 3adc b43d
00000140: 376c 463c 7f8c 79be dda6 06be c3a0 523e
00000150: e663 203e fa71 b9bd d4dc febb 5333 98be
00000160: 3ed1 a1bb 9f13 76be 7535 5abe 6212 8cbe
00000170: 56d7 a9bd bd34 c9bd a038 7d3e 243d 34be
00000180: 8f68 80bc b312 b93d a6ad 2bbe 4af7 82be
00000190: ad0d c5bd 54bb 32be 7b3f adbc f2b3 78be
000001a0: 021c 583d 9ad0 ee3b 66cb ba3c bce4 3ebe
000001b0: b178 1abe 07d5 723e 99fb 863e d14f 04be
000001c0: c4b3 6a3e 9549 8c3c 71cc 763d 598e 873e
000001d0: 6f69 60be 125e 043d 8168 8c3e 74a2 813d
000001e0: 19f1 66bb ee9b 13be 23c7 1f3e 7718 8fbe
000001f0: 93a4 e9bc 9036 893e 85c4 883e 1e7a 703e
00000200: ccd3 06bd a3e7 11bd 6d06 1bbe 1ec6 7dbe
00000210: 5a77 6cbe bfe9 38be 3756 a1bd b7da f43d
00000220: b4ba 5b3e a6fb 3cbe 495d 483e e966 82be
00000230: 1c28 75be 16c7 f5bb 9cb3 89bd c9a3 05bd
00000240: 05e2 803d e48f 4cbe 1055 753e d234 1a3d
00000250: 2729 8a3e 6424 8ebd a284 3fbe 740e 60be
00000260: 6501 ad3c 27eb 9e3d 579a 533e 8c1a 82be
00000270: 0c06 d13d a863 873e 98e5 8f3e eed4 6b3e
00000280: bddb fd3c 6ff3 333e 306e 90be 9362 71be
00000290: c183 9bbd 834f 06be 1185 493d 3625 7abe
000002a0: 9a3c 45be 820a 3dbd 256c b03c 4f2c eebd
000002b0: b5cf 263e bc5f b0bd b328 43bd fc8b 8bbe
000002c0: d14e 1dbe 2216 2a3e b8dc 2d3d 55b4 4e3e
000002d0: dc9c 8cbe 41f1 173e fd94 203e ff0f 2a3e
000002e0: deab 493d 81d3 623e d604 093e 31c8 c5bd
000002f0: 7d8c 2fbe 4b77 d03d fc75 113d 2ab9 043e
00000300: f3d8 82be 23c7 1ebe 2316 e1bd b8c7 d03c
00000310: 222c 813d aa99 f8bd d7d5 dbbd 8dbb 8f3d
00000320: e0f9 193d 89e1 2cbe e8b4 193d 6420 79be
00000330: ba40 12be 108d e5bc 73fa 40be d639 11be
00000340: 84c7 e23d 3a9e 72be 952b 5f3e 5fcb 86ba
00000350: 4bcb 7cbe 1e48 5e3d d122 3fbe 640f 4b3c
00000360: c71e 71be 0a43 61be f22b 4a3e 7ccb 6bbe
00000370: a379 2bbe a6d8 4a3e d9cc 54be 80df ac3d
00000380: 0ffc 8bbc 8fcb 83be af50 6f3e 8cd2 35be
00000390: ec3e bfbc 6a8e 66bc 6425 8d3c d9c6 c63d
000003a0: 22aa a63d 865d cb3c 2f58 f83c ec5c 843e
000003b0: 7499 41be 94e2 44be 31d5 213e 5922 30be
000003c0: 0321 43be 384b 50be 3cfc 593e b895 41be
000003d0: 674e 2dbe 8e3b 85be 56c6 afbd 91fe 853e
000003e0: ab32 02be a8bc a0bc 1e3f 7b3e ca08 ab3d
000003f0: 4b18 163e f2f0 7c3b 9f03 e9bd b889 2c3e

conv2.att_src f4 [1, 1, 64]
-0.21609287 -0.0063142944 -0.065100454 -0.21516961 -0.1885591 -0.3005892 0.3061806 -0.07746469
0.07990975 0.27408597 -0.32170257 0.19300465 0.16674244 -0.21825336 -0.27612242 -0.23830141
-0.20830826 -0.16818696 -0.21564257 0.17848544 0.016473282 0.2675587 0.043742616 0.017261716
-0.12491786 0.07731773 0.03000365 -0.17549959 0.01447983 0.16906393 0.2742773 -0.116893984
-0.032109622 0.29671 -0.122567944 0.20134804 -0.12805265 0.21227933 -0.26316676 -0.022755858
-0.1953684 -0.2550501 0.032375786 0.13087915 0.16852903 0.015714128 0.008216274 -0.29408333
0.11960955 -0.17489998 -0.23535718 0.1667768 0.21930164 0.13152216 -0.088090904 -0.19202891
-0.16343297 0.16380237 -0.13674617 -0.22722927 -0.3030437 0.007732826 -0.23902398 -0.118915826
00000000: 7347 5dbe 24e8 cebb 6353 85bd 6c55 5cbe
00000010: a315 41be d4e6 99be b4c3 9c3e cfa5 9ebd
00000020: b9a7 a33d ff54 8c3e 33b6 a4be 03a3 453e
00000030: 88be 2a3e cf7d 5fbe eb5f 8dbe 4905 74be
00000040: c34e 55be 3439 2cbe 68d1 5cbe e3c4 363e
00000050: faf2 863c 74fd 883e 752b 333d 7168 8d3c
00000060: efd4 ffbd c258 9e3d 37ca f53c 2ab6 33be
00000070: cf3c 6d3c 181f 2d3e 136e 8c3e 1d66 efbd
00000080: 6185 03bd 60ea 973e e704 fbbd 2e2e 4e3e
00000090: 3c20 03be c15f 593e cbbd 86be 7e6a babc
000000a0: a70e 48be ed95 82be 799c 043d 2f05 063e
000000b0: e092 2c3e eaba 803c 8d9d 063c 1792 96be
000000c0: daf5 f43d fb18 33be 7901 71be 8ac7 2a3e
000000d0: 9c90 603e bfad 063e 0169 b4bd 3aa3 44be
000000e0: f95a 27be cfbb 273e 3007 0cbe caae 68be
000000f0: 8b28 9bbe a563 fd3b b4c2 74be 248a f3bd

conv2.att_dst f4 [1, 1, 64]
-0.17218465 0.070103824 0.30524743 -0.032983933 -0.0460943 0.27570114 -0.12311433 -0.16722079
0.05305205 -0.06825766 -0.19312066 0.10066057 0.17667818 -0.062656045 0.047475982 -0.12698089
-0.15867083 0.053465378 0.035761517 -0.073163636 0.10450059 0.14714578 -0.08771622 -0.19129924
0.1997268 -0.27242404 -0.26913047 -0.08341701 0.2690443 0.2147962 -0.049907032 -0.07333627
-0.058682542 0.24305904 0.075225174 0.20536958 0.12244686 -0.2591719 -0.06573269 0.23778816
-0.16445802 -0.023853509 -0.17680573 0.25357404 -0.029020758 -0.17807837 -0.088440895 -0.051918186
0.07716651 -0.02524414 0.09765647 -0.25019962 0.1613818 -0.1427342 0.15847959 0.28453013
0.2188638 -0.038414538 0.14095704 -0.22898626 -0.12659016 -0.2977803 0.124343 -0.15987486
00000000: 2c51 30be 9892 8f3d 6449 9c3e 291a 07bd
00000010: 60cd 3cbd b328 8d3e 5e23 fcbd ed3b 2bbe
00000020: 1b4d 593d acca 8bbd 6cc1 45be 2127 ce3d
00000030: 20eb 343e d051 80bd 2d76 423d 4707 02be
00000040: 9b7a 22be 83fe 5a3d ab7a 123d d1d6 95bd
00000050: 6804 d63d 62ad 163e 90a4 b3bd f3e3 43be
00000060: 2f85 4c3e 2a7b 8bbe 78cb 89be 8ad6 aabd
00000070: 2dc0 893e 89f3 5b3e 516b 4cbd 5431 96bd
00000080: 1b5d 70bd 78e4 783e a80f 9a3d 674c 523e
00000090: 6bc5 fa3d 2eb2 84be dc9e 86bd bd7e 733e
000000a0: af67 28be 6f68 c3bc 900c 35be 75d4 813e
000000b0: f1bc edbc 2d5a 36be 8020 b5bd 2aa8 54bd
000000c0: 7a09 9e3d cccc cebc 1e00 c83d 2a1a 80be
000000d0: 4541 253e ea28 12be 7948 223e efad 913e
000000e0: d51d 603e 9058 1dbd 0b57 103e 607b 6abe
000000f0: daa0 01be a976 98be 8ba7 fe3d 3cb6 23be

conv2.bias f4 [64]
-0.02148518 -0.03042259 0.026250657 -0.021681732 0.02395061 0.017675038 0.023470862 0.024999676
-0.02203652 -0.02452303 0.025525542 0.023178222 0.021894101 -0.0226059 0.01927145 0.019170532
-0.018806856 0.021184934 0.01921129 0.027381614 0.024890237 -0.023008836 0.022443358 0.02489731
0.02127521 -0.0202206 -0.022302466 -0.021611849 0.026132895 -0.022387689 -0.01917365 -0.022374667
-0.022423765 -0.014406114 0.018504145 0.018371044 -0.01720145 0.022894502 -0.023542581 -0.024116198
0.022860924 -0.031583562 -0.052464467 0.023139317 0.022778004 -0.022801207 0.0260512 0.019140432
0.024318004 -0.021415073 0.028143449 0.05933409 0.022091934 0.02214859 -0.022352068 -0.021532264
0.025171798 -0.023626078 -0.022009682 -0.02126032 -0.045636266 0.016705263 -0.022199377 0.033777617
00000000: b001 b0bc cc38 f9bc 9e0b d73c e39d b1bc
00000010: 1234 c43c 3ecb 903c f745 c03c 1fcc cc3c
00000020: ef85 b4bc 85e4 c8bc f11a d13c 41e0 bd3c
00000030: 425b b33c 0230 b9bc 29df 9d3c 850b 9d3c
00000040: d610 9abc 078c ad3c ff60 9d3c 684f e03c
00000050: 9ce6 cb3c 077d bcbc 22db b73c 72f5 cb3c
00000060: 5949 ae3c aca5 a5bc a9b3 b6bc 550b b1bc
00000070: a714 d63c 6366 b7bc 0f12 9dbc 144b b7bc
00000080: 0bb2 b7bc 9f07 6cbc 0196 973c df7e 963c
00000090: 0eea 8cbc 408d bb3c 5fdc c0bc 558f c5bc
000000a0: d546 bb3c c45d 01bd fbe4 56bd aa8e bd3c
000000b0: f098 ba3c 99c9 babc 5469 d53c 65cc 9c3c
000000c0: 8d36 c73c aa6e afbc 178d e63c 4e08 733d
000000d0: 25fa b43c f670 b53c af1b b7bc 6e64 b0bc
000000e0: 1635 ce3c 7a8b c1bc a64d b4bc 1f2a aebc
000000f0: 18ed 3abd 7ad9 883c 78db b5bc 665a 0a3d

conv2.lin_src.weight f4 [64, 64]
0.12737566 -0.22078618 0.07816763 -0.16603318 -0.21593192 0.17419654 0.10331142 -0.20821124
0.19599558 0.058070358 0.05665297 -0.14476776 -0.06285182 0.16065851 0.092775166 -0.08918112
0.1264291 0.0059631458 -0.012600123 0.1362979 -0.10901565 -0.056694526 -0.06189421 0.12239644
0.14874631 0.08165773 -0.059974536 0.05179508 0.023192354 -0.040678605 0.049013797 0.049427297
0.0053394577 -0.1335811 0.014083662 -0.19839829 0.059988417 -0.009380731 -0.01266425 -0.04587972
0.061914444 0.036220636 0.2108696 0.116898604 0.034157936 0.10417054 -0.246561 0.040671263
-0.26232624 0.06437329 -0.18218388 0.04646556 -0.102560505 0.15890649 -0.052385274 -0.12287049
0.03086118 0.015780173 0.0037790437 0.1782588 -0.19801144 0.053743634 0.04713366 0.13913216
0.015371627 0.08693097 0.06464056 0.20301788 -0.123785764 -0.20217368 0.1817659 -0.0402846
0.030680556 -0.12351391 0.051046133 -0.34033147 -0.057344355 -0.08576087 -0.18997869 0.05578351
-0.18790096 0.021874512 0.12735556 0.21655674 0.066166356 0.08314023 -0.17942615 -0.091571085
-0.029228166 0.022724524 -0.08553266 0.17079872 -0.07238899 -0.11612719 -0.15146725 0.15742612
0.13835101 -0.15614925 -0.13438335 0.13682306 -0.0723042 -0.014048332 -0.056237545 0.15574889
-0.038657777 -0.00080239505 -0.025227258 -0.14612558 -0.044334758 -0.14081544 -0.00788548 0.050366573
-0.011998219 -0.09989242 0.1807866 -0.19121388 -0.036396854 -0.20669678 0.080667034 0.017629178
-0.20226751 -0.03816778 -0.1085768 0.15786058 -0.115426615 0.23917508 -0.21284033 -0.10741571
-0.026935143 0.13465415 -0.016520172 -0.13190693 -0.09132025 0.1976151 0.011000315 -0.058897402
-0.18517129 -0.028447373 -0.1286148 0.08379701 0.09460207 0.20727327 0.19458252 0.075811654
-0.092858255 -0.014900508 -0.13439927 0.18577218 0.107611425 0.06493927 0.13178992 -0.14041917
0.097189024 0.2115129 0.12602602 0.11526827 -0.03252113 0.1876629 0.08994889 -0.07504818
-0.086433716 0.171137 -0.12203489 -0.060520716 -0.041938104 0.23486497 -0.15026635 -0.050818015
0.16945976 -0.045612488 0.20617694 0.018559402 0.019805746 0.14884621 0.109821685 -0.19013275
0.20334901 0.07840542 -0.09407716 -0.08788381 0.015687222 -0.1464859 0.040484414 0.066299275
0.123764694 0.028664593 0.04039436 0.061301284 0.15094744 -0.009473678 -0.12252563 -0.17467862
0.19722754 0.19807273 0.018663691 0.09987729 -0.047963932 0.009509623 -0.10199262 0.17000769
-0.118863255 -0.07285369 0.13696606 -0.30134073 -0.18222086 -0.17123462 -0.07457196 -0.070302345
0.036154952 -0.18520646 -0.20177887 -0.14047793 -0.01774053 -0.18830916 -0.17935778 -0.025777785
-0.09652546 0.16815841 0.09340809 0.03079644 -0.20317018 -0.10523001 0.1669061 -0.02111133
-0.15631168 -0.033395156 0.18215626 0.20879665 0.084275104 0.02361266 -0.23399293 -0.08503793
0.06431388 0.097877994 -0.21143262 -0.20469339 -0.17566425 -0.17013513 0.021888804 0.18117683
-0.08189707 0.12549573 -0.122152075 0.09612689 0.06220158 0.06038555 -0.16178203 0.14709201
-0.19045497 -0.21960518 -0.00096075784 0.01272453 0.05870474 0.045175243 0.040353116 0.054692734
00000000: c46e 023e c615 62be 5a16 a03d 9a04 2abe
00000010: 421d 5dbe 9460 323e f094 d33d 5435 55be
00000020: 11b3 483e 2fdb 6d3d f20c 683d 003e 14be
00000030: 74b8 80bd aa83 243e e800 be3d 97a4 b6bd
00000040: a176 013e 7e66 c33b bf70 4ebc ad91 0b3e
00000050: 9943 dfbd 8538 68bd c884 7dbd fcaa fa3d
00000060: f450 183e 2b3c a73d dca7 75bd 1427 543d
00000070: e4fd bd3c 9c9e 26bd b1c2 483d 4774 4a3d
00000080: 9ef6 ae3b 7cc9 08be 29bf 663c ec28 4bbe
00000090: 6ab6 753d a3b1 19bc b77d 4fbc 60ec 3bbd
000000a0: 009a 7d3d 175c 143d 33ee 573e 8968 ef3d
000000b0: 31e9 0b3d 5d57 d53d 7d7a 7cbe e996 263d
000000c0: a04f 86be 25d6 833d 698e 3abe ac52 3e3d
000000d0: 3e0b d2bd 62b8 223e f191 56bd 86a3 fbbd
000000e0: 96d0 fc3c 6c45 813c d5a9 773b 7a89 363e
000000f0: 83c3 4abe 4922 5c3d 3a0f 413d a978 0e3e
00000100: 47d9 7b3c dd08 b23d 4562 843d ebe3 4f3e
00000110: 6483 fdbd 9e06 4fbe d720 3a3e 7701 25bd
00000120: ca55 fb3c dcf4 fcbd c015 513d ed3f aebe
00000130: eae1 6abd 65a3 afbd c689 42be 407d 643d
00000140: 1c69 40be 2d32 b33c 7f69 023e 0dc1 5d3e
00000150: 3a82 873d 6d45 aa3d 7dbb 37be 9f89 bbbd
00000160: e86f efbc c828 ba3c bf2b afbd dce5 2e3e
00000170: ae40 94bd 18d4 edbd 3b1a 1bbe 5034 213e
00000180: e3ab 0d3e 97e5 1fbe ca9b 09be 581b 0c3e
00000190: 3914 94bd fa2a 66bc 5759 66bd a37c 1f3e
000001a0: 9e57 1ebd d257 52ba 65a9 cebc f2a1 15be
000001b0: 5d98 35bd ec31 10be 1a32 01bc 2e4d 4e3d
000001c0: 2e94 44bc 6694 ccbd 1f20 393e 92cd 43be
000001d0: de14 15bd 52a8 53be c234 a53d 116b 903c
000001e0: 371f 4fbe d155 1cbd 835d debd 34a6 213e
000001f0: ca64 ecbd 50ea 743e d1f2 59be c5fc dbbd
00000200: 17a7 dcbc c7e2 093e 5055 87bc 9c12 07be
00000210: 1c06 bbbd 9d5b 4a3e aa3a 343c 673e 71bd
00000220: 8b9d 3dbe 770a e9bc 99b3 03be c49d ab3d
00000230: bbbe c13d 723f 543e a440 473e 2443 9b3d
00000240: 782c bebd 4321 74bc f69f 09be 103b 3e3e
00000250: 6163 dc3d e1fe 843d f0f3 063e 0bca 0fbe
00000260: 0a0b c73d d696 583e f70c 013e c511 ec3d
00000270: e034 05bd b42a 403e 2037 b83d dcb2 99bd
00000280: 2904 b1bd 8a3e 2f3e 6eed f9bd 92e4 77bd
00000290: 4ac7 2bbd 7180 703e 6cdf 19be 8d26 50bd
000002a0: dc86 2d3e 29d4 3abd 0c20 533e e309 983c
000002b0: a93f a23c 246b 183e 31ea e03d 29b2 42be
000002c0: b93a 503e 0593 a03d 87ab c0bd 6dfc b3bd
000002d0: 7d82 803c 6600 16be fcd2 253d eac7 873d
000002e0: 5878 fd3d 02d2 ea3c 8e74 253d 0e17 7b3d
000002f0: f791 1a3e 7c37 1bbc b8ee fabd f4de 32be
00000300: 04f6 493e 94d3 4a3e 99e4 983c 778c cc3d
00000310: d475 44bd 40ce 1b3c 82e1 d0bd 7f16 2e3e
00000320: 946e f3bd 5134 95bd d540 0c3e 5549 9abe
00000330: 1b98 3abe 2158 2fbe 2fb9 98bd adfa 8fbd
00000340: 3717 143d c3a6 3dbe 1f9f 4ebe 72d9 0fbe
00000350: 9754 91bc 1ed4 40be 91a9 37be ef2b d3bc
00000360: 24af c5bd b831 2c3e be4c bf3d d148 fc3c
00000370: d80b 50be d582 d7bd 6fe9 2a3e abf1 acbc
00000380: 2b10 20be 5cc9 08bd 2c87 3a3e cace 553e
00000390: 6d98 ac3d 566f c13c d89b 6fbe 5e28 aebd
000003a0: ffb6 833d 4274 c83d cb81 58be 259b 51be
000003b0: 54e1 33be e737 2ebe 2650 b33c 6b86 393e
000003c0: a7b9 a7bd f481 003e de2a fabd 2dde c43d
000003d0: 15c7 7e3d d756 773d 30aa 25be 4a9f 163e
000003e0: a106 43be 2ee0 60be 5edb 7bba 8c7a 503c
000003f0: 6274 703d ad09 393d 4f49 253d 7d05 603d

conv2.lin_dst.weight f4 [64, 64]
0.12737566 -0.22078618 0.07816763 -0.16603318 -0.21593192 0.17419654 0.10331142 -0.20821124
0.19599558 0.058070358 0.05665297 -0.14476776 -0.06285182 0.16065851 0.092775166 -0.08918112
0.1264291 0.0059631458 -0.012600123 0.1362979 -0.10901565 -0.056694526 -0.06189421 0.12239644
0.14874631 0.08165773 -0.059974536 0.05179508 0.023192354 -0.040678605 0.049013797 0.049427297
0.0053394577 -0.1335811 0.014083662 -0.19839829 0.059988417 -0.009380731 -0.01266425 -0.04587972
0.061914444 0.036220636 0.2108696 0.116898604 0.034157936 0.10417054 -0.246561 0.040671263
-0.26232624 0.06437329 -0.18218388 0.04646556 -0.102560505 0.15890649 -0.052385274 -0.12287049
0.03086118 0.015780173 0.0037790437 0.1782588 -0.19801144 0.053743634 0.04713366 0.13913216
0.015371627 0.08693097 0.06464056 0.20301788 -0.123785764 -0.20217368 0.1817659 -0.0402846
0.030680556 -0.12351391 0.051046133 -0.34033147 -0.057344355 -0.08576087 -0.18997869 0.05578351
-0.18790096 0.021874512 0.12735556 0.21655674 0.066166356 0.08314023 -0.17942615 -0.091571085
-0.029228166 0.022724524 -0.08553266 0.17079872 -0.07238899 -0.11612719 -0.15146725 0.15742612
0.13835101 -0.15614925 -0.13438335 0.13682306 -0.0723042 -0.014048332 -0.056237545 0.15574889
-0.038657777 -0.00080239505 -0.025227258 -0.14612558 -0.044334758 -0.14081544 -0.00788548 0.050366573
-0.011998219 -0.09989242 0.1807866 -0.19121388 -0.036396854 -0.20669678 0.080667034 0.017629178
-0.20226751 -0.03816778 -0.1085768 0.15786058 -0.115426615 0.23917508 -0.21284033 -0.10741571
-0.026935143 0.13465415 -0.016520172 -0.13190693 -0.09132025 0.1976151 0.011000315 -0.058897402
-0.18517129 -0.028447373 -0.1286148 0.08379701 0.09460207 0.20727327 0.19458252 0.075811654
-0.092858255 -0.014900508 -0.13439927 0.18577218 0.107611425 0.06493927 0.13178992 -0.14041917
0.097189024 0.2115129 0.12602602 0.11526827 -0.03252113 0.1876629 0.08994889 -0.07504818
-0.086433716 0.171137 -0.12203489 -0.060520716 -0.041938104 0.23486497 -0.15026635 -0.050818015
0.16945976 -0.045612488 0.20617694 0.018559402 0.019805746 0.14884621 0.109821685 -0.19013275
0.20334901 0.07840542 -0.09407716 -0.08788381 0.015687222 -0.1464859 0.040484414 0.066299275
0.123764694 0.028664593 0.04039436 0.061301284 0.15094744 -0.009473678 -0.12252563 -0.17467862
0.19722754 0.19807273 0.018663691 0.09987729 -0.047963932 0.009509623 -0.10199262 0.17000769
-0.118863255 -0.07285369 0.13696606 -0.30134073 -0.18222086 -0.17123462 -0.07457196 -0.070302345
0.036154952 -0.18520646 -0.20177887 -0.14047793 -0.01774053 -0.18830916 -0.17935778 -0.025777785
-0.09652546 0.16815841 0.09340809 0.03079644 -0.20317018 -0.10523001 0.1669061 -0.02111133
-0.15631168 -0.033395156 0.18215626 0.20879665 0.084275104 0.02361266 -0.23399293 -0.08503793
0.06431388 0.097877994 -0.21143262 -0.20469339 -0.17566425 -0.17013513 0.021888804 0.18117683
-0.08189707 0.12549573 -0.122152075 0.09612689 0.06220158 0.06038555 -0.16178203 0.14709201
-0.19045497 -0.21960518 -0.00096075784 0.01272453 0.05870474 0.045175243 0.040353116 0.054692734
00000000: c46e 023e c615 62be 5a16 a03d 9a04 2abe
00000010: 421d 5dbe 9460 323e f094 d33d 5435 55be
00000020: 11b3 483e 2fdb 6d3d f20c 683d 003e 14be
00000030: 74b8 80bd aa83 243e e800 be3d 97a4 b6bd
00000040: a176 013e 7e66 c33b bf70 4ebc ad91 0b3e
00000050: 9943 dfbd 8538 68bd c884 7dbd fcaa fa3d
00000060: f450 183e 2b3c a73d dca7 75bd 1427 543d
00000070: e4fd bd3c 9c9e 26bd b1c2 483d 4774 4a3d
00000080: 9ef6 ae3b 7cc9 08be 29bf 663c ec28 4bbe
00000090: 6ab6 753d a3b1 19bc b77d 4fbc 60ec 3bbd
000000a0: 009a 7d3d 175c 143d 33ee 573e 8968 ef3d
000000b0: 31e9 0b3d 5d57 d53d 7d7a 7cbe e996 263d
000000c0: a04f 86be 25d6 833d 698e 3abe ac52 3e3d
000000d0: 3e0b d2bd 62b8 223e f191 56bd 86a3 fbbd
000000e0: 96d0 fc3c 6c45 813c d5a9 773b 7a89 363e
000000f0: 83c3 4abe 4922 5c3d 3a0f 413d a978 0e3e
00000100: 47d9 7b3c dd08 b23d 4562 843d ebe3 4f3e
00000110: 6483 fdbd 9e06 4fbe d720 3a3e 7701 25bd
00000120: ca55 fb3c dcf4 fcbd c015 513d ed3f aebe
00000130: eae1 6abd 65a3 afbd c689 42be 407d 643d
00000140: 1c69 40be 2d32 b33c 7f69 023e 0dc1 5d3e
00000150: 3a82 873d 6d45 aa3d 7dbb 37be 9f89 bbbd
00000160: e86f efbc c828 ba3c bf2b afbd dce5 2e3e
00000170: ae40 94bd 18d4 edbd 3b1a 1bbe 5034 213e
00000180: e3ab 0d3e 97e5 1fbe ca9b 09be 581b 0c3e
00000190: 3914 94bd fa2a 66bc 5759 66bd a37c 1f3e
000001a0: 9e57 1ebd d257 52ba 65a9 cebc f2a1 15be
000001b0: 5d98 35bd ec31 10be 1a32 01bc 2e4d 4e3d
000001c0: 2e94 44bc 6694 ccbd 1f20 393e 92cd 43be
000001d0: de14 15bd 52a8 53be c234 a53d 116b 903c
000001e0: 371f 4fbe d155 1cbd 835d debd 34a6 213e
000001f0: ca64 ecbd 50ea 743e d1f2 59be c5fc dbbd
00000200: 17a7 dcbc c7e2 093e 5055 87bc 9c12 07be
00000210: 1c06 bbbd 9d5b 4a3e aa3a 343c 673e 71bd
00000220: 8b9d 3dbe 770a e9bc 99b3 03be c49d ab3d
00000230: bbbe c13d 723f 543e a440 473e 2443 9b3d
00000240: 782c bebd 4321 74bc f69f 09be 103b 3e3e
00000250: 6163 dc3d e1fe 843d f0f3 063e 0bca 0fbe
00000260: 0a0b c73d d696 583e f70c 013e c511 ec3d
00000270: e034 05bd b42a 403e 2037 b83d dcb2 99bd
00000280: 2904 b1bd 8a3e 2f3e 6eed f9bd 92e4 77bd
00000290: 4ac7 2bbd 7180 703e 6cdf 19be 8d26 50bd
000002a0: dc86 2d3e 29d4 3abd 0c20 533e e309 983c
000002b0: a93f a23c 246b 183e 31ea e03d 29b2 42be
000002c0: b93a 503e 0593 a03d 87ab c0bd 6dfc b3bd
000002d0: 7d82 803c 6600 16be fcd2 253d eac7 873d
000002e0: 5878 fd3d 02d2 ea3c 8e74 253d 0e17 7b3d
000002f0: f791 1a3e 7c37 1bbc b8ee fabd f4de 32be
00000300: 04f6 493e 94d3 4a3e 99e4 983c 778c cc3d
00000310: d475 44bd 40ce 1b3c 82e1 d0bd 7f16 2e3e
00000320: 946e f3bd 5134 95bd d540 0c3e 5549 9abe
00000330: 1b98 3abe 2158 2fbe 2fb9 98bd adfa 8fbd
00000340: 3717 143d c3a6 3dbe 1f9f 4ebe 72d9 0fbe
00000350: 9754 91bc 1ed4 40be 91a9 37be ef2b d3bc
00000360: 24af c5bd b831 2c3e be4c bf3d d148 fc3c
00000370: d80b 50be d582 d7bd 6fe9 2a3e abf1 acbc
00000380: 2b10 20be 5cc9 08bd 2c87 3a3e cace 553e
00000390: 6d98 ac3d 566f c13c d89b 6fbe 5e28 aebd
000003a0: ffb6 833d 4274 c83d cb81 58be 259b 51be
000003b0: 54e1 33be e737 2ebe 2650 b33c 6b86 393e
000003c0: a7b9 a7bd f481 003e de2a fabd 2dde c43d
000003d0: 15c7 7e3d d756 773d 30aa 25be 4a9f 163e
000003e0: a106 43be 2ee0 60be 5edb 7bba 8c7a 503c
000003f0: 6274 703d ad09 393d 4f49 253d 7d05 603d

classifier.weight f4 [2, 128]
0.051675186 -0.13624303 -0.07282108 -0.030814804 0.04629792 -0.038623706 0.03899019 0.07499908
-0.049088005 0.07653357 0.014562909 -0.017955165 0.060607053 -0.019796668 -0.055304952 -0.03303622
0.015033696 0.023916066 -0.037114166 -0.007666426 0.086151674 -0.065057725 0.04893187 0.06292798
0.061180286 -0.034434676 -0.045529768 -0.04189154 0.07806039 -0.08406486 -0.0148396455 -0.037016783
-0.08018446 0.04152767 -0.07590855 0.04213563 -0.0042940476 0.08905719 -0.060802683 -0.08417398
0.041589282 0.044697735 -0.020082876 0.029824875 0.02410137 -0.01491728 0.03765258 0.038797412
0.07118933 -0.05730296 0.006194644 -0.013969959 -0.037029482 0.081651844 0.02268581 -0.07804709
0.046707414 0.071518384 -0.040593345 -0.05055726 0.015323419 -0.053307403 -0.06623458 0.03522539
-0.06690002 0.052633174 0.042832356 -0.05189203 0.052072436 -0.039646745 0.056496426 0.048184082
-0.052436367 -0.0834602 -0.037954643 0.078055024 -0.08003493 -0.023817558 0.030596158 0.03694621
-0.055714566 0.058257505 0.05683534 0.084937826 -0.026440036 0.025912128 -0.08272217 -0.04952797
-0.0014429188 0.016149934 -0.08106235 -0.004088498 0.019455627 -0.055038776 -0.06328591 -0.07604803
0.07563197 -0.052013647 0.072594285 0.0718327 0.039423864 0.033687282 -0.08046812 0.078301616
0.054287203 -0.013639622 -0.028886707 0.022014292 0.047676306 -0.07838832 -0.01651004 0.057956025
0.033904366 0.03218646 0.09063401 0.07813022 0.031969406 0.01728034 -0.07381032 -0.017607339
-0.08083683 -0.07267576 -0.036383897 0.07347991 -0.055986576 0.09218059 0.07756299 -0.0139317745
0.03307091 -0.01579518 -0.06490442 -0.002476956 -0.081315234 -0.056161284 -0.06544262 -0.0011164809
0.025078634 0.04864128 -0.006141664 -0.06838715 -0.06894666 0.058554824 -0.023337428 -0.023210485
-0.00507982 0.07960166 -0.07342971 -0.081745096 -0.0326796 0.004443155 -0.056082148 0.022118596
-0.073917225 0.051372 -0.008131137 0.08623742 -0.016203694 0.034685995 0.026147787 0.04341032
0.07347294 -0.052285362 0.005051988 0.007847709 -0.03810727 0.056698177 0.07463214 0.044271726
-0.07795261 0.066686615 0.009651684 -0.056973286 0.029448964 -0.024572508 -0.05725096 -0.019743456
0.0030970862 0.076491416 0.09194059 0.04234532 -0.065922625 -0.005897573 0.076789156 0.04363418
-0.0023550096 0.054108564 0.030266918 0.055876665 0.022292633 0.05608488 0.0703392 -0.046830673
0.07721533 0.046446867 -0.011618863 0.045007337 0.060070157 -0.06331599 0.07625416 0.06632691
0.07851288 0.012023273 -0.029037986 0.074730195 -0.056928292 -0.019299071 -0.037772264 -0.034730688
0.003185898 -0.07378931 0.059406955 0.048474703 0.036702286 0.06169972 -0.071472436 -0.035424177
0.044732943 0.010501586 0.029846203 0.054783024 0.057040367 -0.023962822 0.0046456037 0.07229654
-0.0134802535 0.05350352 -0.06276556 0.0729369 0.08338163 -0.038721014 -0.020781763 0.0025847512
-0.06863566 0.008933519 -0.031851426 0.019553097 -0.06333493 0.017480144 -0.043860078 0.08196178
0.049547177 0.039108485 -0.08137728 -0.024620906 -0.045122366 0.01066009 0.021404495 -0.024973126
-0.08450292 0.06501811 -0.025873361 -0.036303274 -0.041784015 -0.016431144 0.03912414 0.039207157
00000000: 5ca9 533d 4b83 0bbe 3823 95bd 546f fcbc
00000010: e3a2 3d3d e433 1ebd 2db4 1f3d 1e99 993d
00000020: 8110 49bd a2bd 9c3d 4499 6e3c b616 93bc
00000030: 1a3f 783d 9f2c a2bc 7287 62bd fd50 07bd
00000040: e44f 763c a0eb c33c 0605 18bd a436 fbbb
00000050: 4a70 b03d fc3c 85bd c96c 483d 63e0 803d
00000060: 2e98 7a3d 600b 0dbd 6c7d 3abd 7796 2bbd
00000070: 20de 9f3d 332a acbd fc21 73bc e99e 17bd
00000080: c037 a4bd eb18 2a3d f175 9bbd 6996 2c3d
00000090: 15b5 8cbb 9e63 b63d 3c0c 79bd 6863 acbd
000000a0: 8659 2a3d f914 373d d884 a4bc 4c53 f43c
000000b0: 3c70 c53c 9b67 74bc 9739 1a3d 09ea 1e3d
000000c0: b6cb 913d 82b6 6abd 71fc ca3b 41e2 64bc
000000d0: 3aac 17bd 1539 a73d 98d7 b93c 27d7 9fbd
000000e0: 4650 3f3d 3b78 923d 3545 26bd 2115 4fbd
000000f0: 140f 7b3c dd58 5abd ffa5 87bd 8048 103d
00000100: e102 89bd e295 573d fb70 2f3d bd8c 54bd
00000110: e849 553d a064 22bd cc68 673d ac5c 453d
00000120: 84c7 56bd 2eed aabd 5476 1bbd 50db 9f3d
00000130: 5ae9 a3bd 0a1d c3bc cba4 fa3c e954 173d
00000140: f534 64bd 6c9f 6e3d 2ccc 683d e2f3 ad3d
00000150: c698 d8bc ac45 d43c 3e6a a9bd d7dd 4abd
00000160: 5220 bdba de4c 843c 0404 a6bd cff8 85bb
00000170: 6861 9f3c 5770 61bd 0b9c 81bd 12bf 9bbd
00000180: efe4 9a3d 430c 55bd 50ac 943d 061d 933d
00000190: eb7a 213d adfb 093d 78cc a4bd 995c a03d
000001a0: 425c 5e3d b978 5fbc d1a3 ecbc 5157 b43c
000001b0: 3b48 433d 0e8a a0bd 1040 87bc 4c63 6d3d
000001c0: 4edf 0a3d f3d5 033d 539e b93d bd02 a03d
000001d0: 5af2 023d 808f 8d3c dd29 97bd 443d 90bc
000001e0: c88d a5bd 07d7 94bd 4807 15bd a37c 963d
000001f0: 2e52 65bd 2dc9 bc3d 58d9 9e3d 1942 64bc
00000200: 5d75 073d e564 81bc 9cec 84bd 6d54 22bb
00000210: 9a88 a6bd 6009 66bd c806 86bd e256 92ba
00000220: b571 cd3c 143c 473d 0340 c9bb 900e 8cbd
00000230: e833 8dbd 2fd7 6f3d 222e bfbc ea23 bebc
00000240: 9e74 a6bb 3206 a33d 5162 96bd f969 a7bd
00000250: 0bdb 05bd e397 913b 65b6 65bd 0f32 b53c
00000260: ea61 97bd 726b 523d 7638 05bc 3f9d b03d
00000270: 9cbd 84bc e712 0e3d e233 d63c 05cf 313d
00000280: fb78 963d 2d29 56bd 268b a53b ad93 003c
00000290: 5e16 1cbd 593c 683d bcd8 983d 4556 353d
000002a0: 9ea5 9fbd fe92 883d 1922 1e3c d25c 69bd
000002b0: f43e f13c 494c c9bc fc7f 6abd 07bd a1bc
000002c0: 7cf8 4a3b 88a7 9c3d 594b bc3d 4972 2d3d
000002d0: 7102 87bd 6e40 c1bb a243 9d3d c1b9 323d
000002e0: 8156 1abb f1a0 5d3d 54f2 f73c eede 643d
000002f0: 0a9f b63c 42b9 653d 000e 903d 85d1 3fbd
00000300: 1223 9e3d 123f 3e3d 0b5d 3ebc 9d59 383d
00000310: 200c 763d d0ab 81bd 242b 9c3d 67d6 873d
00000320: 5ccb a03d 43fd 443c 12e1 edbc 250c 993d
00000330: a42d 69bd 1619 9ebc 17b7 1abd c441 0ebd
00000340: 80ca 503b da1e 97bd b554 733d 698d 463d
00000350: 2355 163d d8b8 7c3d 2460 92bd f118 11bd
00000360: e439 373d d80e 2c3c 0680 f43c 2a64 603d
00000370: 29a3 693d ae4d c4bc 263a 983b 3510 943d
00000380: 48dc 5cbc 8226 5b3d 3b8b 80bd f15f 953d
00000390: fdc3 aa3d ed99 1ebd 843e aabc ee64 293b
000003a0: da90 8cbd e55d 123c a476 02bd d12d a03c
000003b0: beb5 81bd 8532 8f3c a0a6 33bd 94db a73d
000003c0: fbf1 4a3d 3830 203d 22a9 a6bd c8b1 c9bc
000003d0: 3bd2 38bd a8a7 2e3c 7b58 af3c 7194 ccbc
000003e0: de0f adbd 3728 853d 5ff4 d3bc beb2 14bd
000003f0: b725 2bbd 9b9a 86bc a240 203d af97 203d

classifier.bias f4 [2]
-0.012903094 -0.015732186
00000000: 8067 53bc c9e0 80bc
