outputs/classification/node/exp_ii/weights/cheb_7.pth (torch, 3353 bytes, 3 tensors)

conv1.bias f4 [64]
0.22514865 0.0 0.58568317 -0.031564355 0.37761047 0.344587 -0.2726689 0.37680072
-0.18040334 0.55007946 0.57223725 0.0 0.49870646 -0.20164816 -0.08241203 0.0
-0.07945869 -0.37049195 -0.34798795 -0.30335072 0.15148516 -0.427952 -0.259359 0.3992886
0.38262436 0.30220914 0.5516369 0.7220399 0.0 0.3748327 0.0 0.0
0.55872446 0.0 0.09619339 -0.28013906 -0.46682557 -0.24083656 0.0 -0.21381089
-0.16564938 -0.23164678 -0.57212085 -0.3082573 0.711949 0.0 -0.18781729 -0.015929313
0.5253748 -0.22101197 0.40507752 -0.32797727 0.34849456 -0.19542514 -0.21381515 -0.18900748
0.0 0.0 0.0015349861 0.5078862 -0.06499217 -0.28338242 0.39803535 0.6775999
00000000: 5e8d 663e 0000 0000 55ef 153f a049 01bd
00000010: 2956 c13e b56d b03e 429b 8bbe 06ec c03e
00000020: a7bb 38be 02d2 0c3f 247e 123f 0000 0000
00000030: 7456 ff3e db7c 4ebe a3c7 a8bd 0000 0000
00000040: 3dbb a2bd 1fb1 bdbe 7a2b b2be c950 9bbe
00000050: ed1e 1b3e 861c dbbe b4ca 84be 8e6f cc3e
00000060: 57e7 c33e 28bb 9a3e 1338 0d3f 9bd7 383f
00000070: 0000 0000 12ea bf3e 0000 0000 0000 0000
00000080: 9108 0f3f 0000 0000 0a01 c53d 636e 8fbe
00000090: c303 efbe dc9d 76be 0000 0000 3ef1 5abe
000000a0: fe9f 29be d034 6dbe 8376 12bf e7d3 9dbe
000000b0: 4a42 363f 0000 0000 2d53 40be 317e 82bc
000000c0: f77e 063f f650 62be 5266 cf3e a3ec a7be
000000d0: e16d b23e 871d 48be 5cf2 5abe 2d8b 41be
000000e0: 0000 0000 0000 0000 9631 c93a d404 023f
000000f0: 9d1a 85bd 8017 91be 4acb cb3e 3077 2d3f

conv1.lins.0.weight f4 [64, 5]
0.112971306 0.1857646 -0.10335378 -0.11815865 0.74368286 -0.051480122 -0.1380555 -0.09636872
-0.14638178 -0.16898526 0.11126811 -0.17720737 0.056706868 0.17013377 -1.0345107 0.17077251
0.05089263 0.07200564 -0.06795642 0.7814377 -0.0017246162 0.27798644 -0.095811635 0.13616456
-0.79054993 0.053820707 -0.23385449 -0.019910749 -0.11119765 -0.59129494 0.122008584 0.15055792
-0.04459788 0.078556284 0.8926326 0.041446526 0.23496978 0.16638683 -0.15407063 -0.66342604
-0.054918755 0.21377917 -0.08169037 0.21073325 0.7644053 0.115578435 -0.11835415 -0.029821718
0.1706571 -0.7660718 -0.09088231 0.19647564 -0.020581024 0.13736035 -0.6557521 -0.23469125
-0.12863787 -0.20094274 -0.21998797 -0.0968885 -0.16217342 0.08566904 0.2248228 0.103354774
-0.8979742 0.21980622 -0.018174835 -0.22458977 0.31566542 0.86086917 0.029562566 0.10336799
-0.04831 -0.39691633 -0.05117871 -0.277804 -0.2612793 -0.036548577 -0.06940677 -0.18325534
-0.0010551438 0.07999969 -0.06533271 -0.36242884 -0.10465592 0.0014431311 0.030839795 0.23002574
-0.08151024 0.9448329 0.04110497 0.024926538 0.20389108 -0.091208 1.0985125 0.0072445273
-0.0028862702 0.20487387 -0.08625968 0.99880576 0.018680938 -0.16195524 0.16102007 0.15656844
-0.6014394 0.012881864 0.22706853 0.07578088 -0.0063003325 1.1664811 0.23568316 0.03542282
-0.035713974 0.2198572 0.2676707 0.0991291 0.01892687 0.028943682 0.18729436 -0.8525378
0.28269574 0.19919826 0.09187327 0.2869589 -0.94296366 0.14670402 0.040970664 -0.17538075
0.18306194 -0.3618234 0.23946403 -0.1248907 0.023811108 0.13967146 -0.90453684 -0.024024338
-0.1742111 0.2930681 0.09712617 -0.9996026 -0.040183175 -0.12885918 -0.22580564 -0.10727161
-0.16930053 0.09955464 0.047876325 0.053879265 0.27892452 -0.7535567 -0.055939056 -0.076909974
-0.19836445 -0.17696431 -0.079960614 -0.2727808 -0.11905591 0.012803073 -0.28131843 -0.098273695
-0.028908601 -0.18191412 0.33731243 -0.10242667 -0.49895707 -0.039540723 0.0015901766 -0.26403236
0.035663426 0.04070801 0.14794534 -0.18935823 -0.08768031 -0.34738117 -0.43791258 0.25617597
-0.1786505 0.23429763 0.050751094 0.4368337 0.0015412067 0.20701435 0.18473531 -0.070306875
0.7845105 -0.20902288 0.056249753 0.27113456 0.13053122 0.73943526 -0.13158236 -0.23753391
-0.09899057 -0.08705117 0.04797408 -0.20497364 -0.17319097 0.20420864 0.2092035 0.5692116
0.035810325 -0.099660605 -0.11791936 0.27004895 1.0853012 0.24440114 -0.23704447 0.015245833
0.26257136 0.33629018 -0.0013253436 0.35400143 0.14392795 -0.019183984 1.1017244 -0.0012408579
-0.018196763 0.0326838 0.18600507 1.1850699 -0.0056532426 0.3272523 -0.09432756 0.20007968
-0.9347838 -0.1480695 -0.209825 0.037660215 -0.22893046 -0.15667325 -0.19253738 0.2559047
0.0014618724 0.095419556 0.40133184 0.0776797 0.17466323 -0.34972298 -0.013352823 -0.15188885
0.023158535 0.25947875 0.098676264 -0.100223966 -0.8251007 0.12973154 -0.228692 -0.077207156
0.28486753 0.78339744 0.14718308 -0.16948779 0.18740493 0.06867597 -0.7571432 -0.09084575
00000000: 805d e73d 1339 3e3e 26ab d3bd 2afd f1bd
00000010: 0062 3e3f d2dc 52bd 6c5e 0dbe f75c c5bd
00000020: 1be5 15be 790a 2dbe 89e0 e33d d975 35be
00000030: 7645 683d 8c37 2e3e d96a 84bf fdde 2e3e
00000040: ca74 503d b177 933d bc2c 8bbd 4d0c 483f
00000050: 840c e2ba 3d54 8e3e e438 c4bd b96e 0b3e
00000060: 7b61 4abf 1a73 5c3d 8d77 6fbe de1b a3bc
00000070: 98bb e3bd 1b5f 17bf a3df f93d db2b 1a3e
00000080: 44ac 36bd 1ee2 a03d 9283 643f d5c3 293d
00000090: eb9b 703e 4f61 2a3e b1c4 1dbe 4ad6 29bf
000000a0: 7df2 60bd ede8 5a3e 484d a7bd 75ca 573e
000000b0: 11b0 433f 63b4 ec3d a963 f2bd ad4c f4bc
000000c0: bcc0 2e3e 481d 44bf 8120 babd e930 493e
000000d0: 8999 a8bc 31a8 0c3e 5fdf 27bf e752 70be
000000e0: a5b9 03be efc3 4dbe 8744 61be 7a6d c6bd
000000f0: ca10 26be 4073 af3d f337 663e abab d33d
00000100: a3e1 65bf e214 613e 64e3 94bc dcfa 65be
00000110: e69e a13e ec61 5c3f 322d f23c 99b2 d33d
00000120: b5e0 45bd 9e38 cbbe c4a0 51bd 533c 8ebe
00000130: 67c6 85be f6b3 15bd 2325 8ebd 4aa7 3bbe
00000140: c04c 8aba e1d6 a33d 28cd 85bd 4690 b9be
00000150: d855 d6bd 7227 bd3a bda3 fc3c de8b 6b3e
00000160: d7ee a6bd 92e0 713f af5d 283d bd32 cc3c
00000170: d3c8 503e 43cb babd 0f9c 8c3f 8063 ed3b
00000180: 9427 3dbb 75ca 513e eaa8 b0bd bcb1 7f3f
00000190: c408 993c 98d7 25be 72e2 243e 7a53 203e
000001a0: eff7 19bf 740e 533c a784 683e 0233 9b3d
000001b0: 0573 cebb 414f 953f ed56 713e 8517 113d
000001c0: d148 12bd 3f22 613e 220c 893e 3304 cb3d
000001d0: 860c 9b3c 4d1b ed3c 18ca 3f3e eb3f 5abf
000001e0: 7fbd 903e a1fa 4b3e 0e28 bc3d 47ec 923e
000001f0: 1166 71bf 9439 163e dbd0 273d 0397 33be
00000200: 9774 3b3e eb40 b9be 0f36 753e b2c6 ffbd
00000210: 830f c33c 0906 0f3e ba8f 67bf b0ce c4bc
00000220: 6564 32be 060d 963e 16ea c63d f5e5 7fbf
00000230: 1d97 24bd a9f3 03be 9839 67be 38b1 dbbd
00000240: 1e5d 2dbe 4ee3 cb3d f719 443d 81b0 5c3d
00000250: 32cf 8e3e 18e9 40bf 5a20 65bd fa82 9dbd
00000260: 0d20 4bbe 2236 35be 64c2 a3bd eda9 8bbe
00000270: 96d3 f3bd fbc3 513c f808 90be b843 c9bd
00000280: bbd1 ecbc b247 3abe 37b4 ac3e 13c5 d1bd
00000290: 4d77 ffbe 74f5 21bd 796d d03a 402f 87be
000002a0: d013 123d 71bd 263d fc7e 173e 20e7 41be
000002b0: bc91 b3bd f2db b1be 1436 e0be 7f29 833e
000002c0: 28f0 36be b8eb 6f3e 61e0 4f3d aba8 df3e
000002d0: 5102 ca3a 92fb 533e 412b 3d3e 0dfd 8fbd
000002e0: aed5 483f 180a 56be 2466 663d 26d2 8a3e
000002f0: faa9 053e a14b 3d3f 87bd 06be 173c 73be
00000300: 91bb cabd e247 b2bd 7880 443d 9ce4 51be
00000310: f958 31be 121c 513e 7139 563e dab7 113f
00000320: d9ad 123d dc1a ccbd b57f f1bd db43 8a3e
00000330: 26eb 8a3f 4b44 7a3e c9bb 72be a9c9 793c
00000340: c16f 863e 3a2e ac3e 27b7 adba ad3f b53e
00000350: d961 133e bb27 9dbc 4e05 8d3f 48a4 a2ba
00000360: 6111 95bc 73df 053d 1d78 3e3e 5fb0 973f
00000370: d63e b9bb 9d8d a73e cf2e c1bd b0e1 4c3e
00000380: fe4d 6fbf 889f 17be 5ddc 56be 9941 1a3d
00000390: bf6c 6abe f46e 20be 8528 45be f105 833e
000003a0: 4c9c bf3a 546b c33d 5e7b cd3e 8916 9f3d
000003b0: ebda 323e e40e b3be cdc5 5abc c088 1bbe
000003c0: f8b6 bd3c 66da 843e c816 ca3d 3942 cdbd
000003d0: cd39 53bf 58d8 043e 3c2e 6abe c91e 9ebd
000003e0: 28da 913e bc8c 483f 29b7 163e 358e 2dbe
000003f0: 14e7 3f3e fda5 8c3d 23d4 41bf 560d babd

linear.weight f4 [1, 64]
0.06515057 0.10932751 -0.21535632 0.1143454 -0.10820284 -0.14270513 0.23683257 -0.13993448
0.29342583 -0.10339242 -0.37746933 -0.06223628 -0.3202172 0.17530921 -0.02103249 0.0155133605
-0.031165225 0.22508003 0.26420417 0.24986988 -0.025499053 0.47595328 0.03463774 -0.22797295
-0.08722354 -0.081398204 -0.10623942 -0.41860515 0.040926144 -0.0979119 -0.064302 0.11080158
-0.27408442 -0.010199487 -0.10986041 0.10975725 0.04813497 0.13944973 -0.001014322 0.11898046
0.2813297 0.04811649 0.54977924 0.7754263 -0.6106682 0.12398332 0.07407645 -0.040591948
-0.45281678 0.11859554 -0.20582376 0.21932884 -0.04267291 0.07818275 0.06248322 0.3325611
0.070475966 -0.050127715 -0.05154037 -0.1496716 -0.015466898 0.16903839 -0.20232475 -0.38494825
00000000: a96d 853d 1ae7 df3d 5e86 5cbe ec2d ea3d
00000010: 7399 ddbd 4b21 12be 3d84 723e fc4a 0fbe
00000020: e93b 963e 68bf d3bd a943 c1be 78eb 7ebd
00000030: 82f3 a3be 4284 333e 544c acbc c02b 7e3c
00000040: 374e ffbc 617b 663e c545 873e e4dd 7f3e
00000050: 64e3 d0bc 26b0 f33e 4ee0 0d3d be71 69be
00000060: 41a2 b2bd 1ab4 a6bd 0e94 d9bd 6a53 d6be
00000070: 2ca2 273d 0986 c8bd c4b0 83bd f0eb e23d
00000080: cb54 8cbe c01b 27bc 7ffe e0bd 69c8 e03d
00000090: 2d29 453d e9cb 0e3e 00f3 84ba 07ac f33d
000000a0: 720a 903e cc15 453d 55be 0c3f 5782 463f
000000b0: c054 1cbf f8ea fd3d 65b5 973d be43 26bd
000000c0: 9ad7 e7be 38e2 f23d 77c3 52be bd97 603e
000000d0: cac9 2ebd 471e a03d 68ee 7f3d 7345 aa3e
000000e0: b455 903d b852 4dbd ff1b 53bd 8343 19be
000000f0: df68 7dbc 6618 2d3e 382e 4fbe f017 c5be
