outputs/classification/node/exp_ii/weights/sage_3.pth (torch, 4884 bytes, 4 tensors)

conv1.lin_l.weight f4 [64, 5]
00000000: 1c7f 8e3e bcd2 b53e fb26 813e 2269 d1be
00000010: f9c5 5f3e 233a c4bc ff3e 0d3e 9fd1 303d
00000020: 5f32 c03d acee 05bf 23c6 ab3d 0d25 d13e
00000030: 9736 583e e04e 943e 2879 123f 0bf9 963e
00000040: a705 bbbe e656 4bbd 18bd 8d3e 8b94 8ebe
00000050: af7d 14be 7aab 87be 6f75 a63e fa37 d13e
00000060: 1623 2abf 0044 22be 39a3 d33e cbee 383e
00000070: 7f81 a53c 9f21 84bf 5b5e da3e 4088 ffbd
00000080: 78ae 1abe b234 a93e 79d5 40bf 0966 01bf
00000090: 9311 4d3e 6f9c 84be 65f6 70bd 2283 3bbf
000000a0: e9ac 333e 2a9d cc3d 5e7e 343e b02a 47be
000000b0: ebce 9ebe f918 a8be 9715 09be ce15 0dbe
000000c0: f315 5f3e a8a9 b53e 8f08 4fbe 06cd d93d
000000d0: 92df d73e 3d95 d13c 612d 6bbf 8dc6 763a
000000e0: 3a10 82be 79ba c33c 55d4 9a3e 049c 7fbf
000000f0: da9e 5f3d f98b 93be 3203 aebe c7fd 3b3e
00000100: 480f 773f ef57 093e 5ee8 a0bd 2607 88be
00000110: f68b d3be df41 c1be 2e00 13be f7ba a8be
00000120: f909 c63e 94d6 88be f22e 3f3f 06db 833e
00000130: 1dde aa3e 9de5 ccbe 4984 4ebe f0ef f2be
00000140: 8ef7 acbe 8653 fdbd 5228 77be 044e b5be
00000150: 76d4 073f 406e 863e 3349 c2be 7b73 2c3e
00000160: 2ddc bdbd b568 643d ed7f 843d 77af 11be
00000170: cbc8 8abe 2a91 fcbe 0170 d3be 1ad5 0a3e
00000180: 5283 1cbd 9830 5b3e 42ef 1bbd e79b b03e
00000190: 625c 3ebd 69bc 8f3e 6af6 cb3e 55e2 45bd
000001a0: e51e 35bf ee37 9abe 73f6 193b 3570 cc3e
000001b0: 0e31 813e d6ee b93e 9a9d 96ba 85aa 5cbe
000001c0: 702e d0bd 0dcd d33d d73f d93e b5c7 d43d
000001d0: e60a 7c3e 63f7 4d3e cfc9 42be 7c02 223e
000001e0: 2529 c7be fc2d 0abe 4cc8 5c3e ad39 733e
000001f0: 63cf 433f 75a6 4dbb ea5c 613d 4ed3 0bbe
00000200: da49 90be 750e b13e 6f56 443e 7e74 c3bc
00000210: 36aa 853e 6589 f23c a924 0ebf e12c a1be
00000220: 87f6 26be 578c 4e3e 9e03 48bc 2ad3 49bf
00000230: 5bdd eebe a0a3 133e 8fe3 4c3e b861 903e
00000240: 98b1 debe 9599 a8bd ef1e 3cbe 6bd9 2a3e
00000250: d78d 353e 1fb9 913f c781 04bf bb46 8abe
00000260: b244 fabe b885 10bf b2d3 47bf f043 c1be
00000270: 36d2 6d3e b3b6 a13e 7110 04be 1afd 1cbf
00000280: 6acd 8fbe 908a 9cbe 351d e6be 6444 02bf
00000290: 4c8e 5b3e df6e 1b3e 5881 a1be 8aed 373e
000002a0: 9f08 f2bd 2c5e 5c3f e358 90be cad3 32be
000002b0: e878 d5be 64c9 33be 51dc 9cbe 3ec9 9cbe
000002c0: 7c41 b03e 024a 07bb ef53 933e 8a6d e6bd
000002d0: d94f 243e 569d 85be 1f10 c7bd ab3b c63e
000002e0: c215 b33e 2ec1 473c d6a1 c4be cc3a 563e
000002f0: 8c08 1a3e 970c 813f 9714 0a3d 2674 88be
00000300: c852 403d 4830 ef3e 9c0c 4d3f e564 b6bc
00000310: 49de b6bd 3630 c2be 226b 403e b679 1bbf
00000320: df29 373d 8b42 3fbd eef4 64be 470f 9f3e
00000330: 9629 57bf 5b51 b43d c89b 8fbd 258d 20be
00000340: 9984 773e b83d afbe 96f0 cc3e 1c9a 2abe
00000350: e617 90be 8fcd cdbd ddaf e33e 0ee0 8e3e
00000360: 6776 fcbd 8e08 b7be e784 1abe ec0d 0c3f
00000370: ad08 353e ba19 f8be 88d2 a33d 9dea f4be
00000380: 6db5 9d3d acbf 143d 7f38 8d3e 1f89 383e
00000390: 30a4 85be 441e d6be dde7 263d 36d0 07be
000003a0: 1776 543e 8205 babe d641 b53e baa0 813e
000003b0: c695 ef3e 5194 c0bd b4cd 9bbe d0c4 91be
000003c0: cafa 243e 05ea cabe 5979 973e 5d75 64bd
000003d0: 04d0 3dbe 53f0 58be 637e 393e 70a0 183d
000003e0: b39b 963e 1adb 29bf faab e03e 6f0c 8ebe
000003f0: a14c dc3e bc46 b73a 69f1 df3e 0d7a 93be
0.27831352 0.3551234 0.25225052 -0.40900522 0.21852864 -0.023953503 0.13793562 0.04316866
0.093846075 -0.5231731 0.08387401 0.4084858 0.21114574 0.28966427 0.5721612 0.2948688
-0.3652775 -0.04964342 0.2768333 -0.27847704 -0.1450107 -0.26498014 0.3251147 0.4086302
-0.66459787 -0.15846252 0.41335467 0.18059842 0.02020335 -1.032276 0.42650113 -0.124771595
-0.15105617 0.33048016 -0.75325733 -0.5054632 0.20026235 -0.259006 -0.05882873 -0.7324697
0.17546429 0.09990914 0.1762633 -0.19449878 -0.3101724 -0.32831553 -0.13387142 -0.13777849
0.21785717 0.35481 -0.20218109 0.10634808 0.42162758 0.025583858 -0.9186612 0.00094137416
-0.25403005 0.023892628 0.3024012 -0.99847436 0.054594852 -0.28817728 -0.33986813 0.18358527
0.9650769 0.1341245 -0.078568205 -0.26567954 -0.4131772 -0.37745568 -0.14355537 -0.32955143
0.38679484 -0.2672621 0.7468101 0.2575304 0.33372584 -0.4001893 -0.2016765 -0.47448683
-0.3378262 -0.123694465 -0.24136475 -0.35411084 0.53058565 0.2625599 -0.37946472 0.16840927
-0.09270511 0.05576392 0.064697124 -0.14227091 -0.27106318 -0.493295 -0.4129639 0.13557854
-0.038211174 0.21405256 -0.03806997 0.34493944 -0.046474822 0.28073433 0.39836437 -0.04831155
-0.70750266 -0.30120796 0.0023492842 0.39929357 0.25232738 0.3631503 -0.0011491061 -0.21549423
-0.10165107 0.10341845 0.42431518 0.103896536 0.24613532 0.20113902 -0.19022296 0.1582126
-0.38898578 -0.13494104 0.21560782 0.2375247 0.7648832 -0.0031379734 0.05502025 -0.13654825
-0.28181344 0.34581342 0.19173597 -0.023859259 0.26106423 0.02960653 -0.5552469 -0.31479552
-0.1630498 0.20170723 -0.012207894 -0.78837836 -0.46653256 0.14417887 0.20008682 0.28199553
-0.43494868 -0.082324184 -0.18371175 0.16684501 0.17729889 1.138462 -0.51760525 -0.27007088
-0.48880535 -0.5645404 -0.78057396 -0.37747145 0.2322472 0.315847 -0.12896897 -0.613237
-0.28086406 -0.30574465 -0.44944158 -0.50885606 0.21441 0.15179013 -0.31543994 0.17961708
-0.118180506 0.86081195 -0.28192815 -0.17463604 -0.41693807 -0.17557293 -0.30636838 -0.30622286
0.3442496 -0.0020643477 0.28774974 -0.11251362 0.16046084 -0.260966 -0.09719872 0.38717398
0.34977537 0.012192054 -0.3840472 0.20920867 0.15042323 1.0081967 0.033711042 -0.26651114
0.046953946 0.46716523 0.80097365 -0.022264907 -0.08929116 -0.37927407 0.18790868 -0.6073259
0.044717666 -0.04669432 -0.22359058 0.31066343 -0.8404783 0.0880458 -0.07012135 -0.15678842
0.24171676 -0.34226775 0.40027303 -0.1666035 -0.28143233 -0.10048973 0.4447011 0.27905315
-0.12327271 -0.35748714 -0.1508976 0.54708743 0.17679091 -0.48457128 0.0799914 -0.47835246
0.0770062 0.036315605 0.27582166 0.18021058 -0.26101828 -0.41819966 0.040748466 -0.1326302
0.20748173 -0.36332327 0.3540179 0.25317937 0.46793956 -0.09403289 -0.30430377 -0.2847047
0.16111293 -0.39631668 0.29584768 -0.05577599 -0.18536383 -0.21185426 0.18114619 0.03726238
0.29415664 -0.6634995 0.43881208 -0.2774386 0.43027213 0.0013982872 0.4373887 -0.28804055

conv1.lin_l.bias f4 [64]
00000000: f5d2 773e a85a 083f 7512 7cbb 2eb1 b03e
00000010: 5a91 173f a952 3a3f 731e 423e 8981 293f
00000020: 8983 143f 314e 2fbe ee96 0b3f d9d8 9a3f
00000030: ff33 02bf 6e23 153e d0e5 1dbe 0bc4 23be
00000040: 85c8 9ebe 8028 563e 700c dc3e c193 26bf
00000050: d619 0f3f 44c3 0fbf f951 3b3c 5807 343d
00000060: 1e23 c5be f151 05bf 2d3a c93e 61f6 a5be
00000070: aa4e 943e 2d3b 25bf a0b6 c33e 9e9f 2cbe
00000080: 7c08 0b3e fbff abbe 5213 95be abad 683e
00000090: e5fc 06bf fd0e 37be cdee 0abf d67f 163e
000000a0: 56d4 883f 81f9 3a3e 38a0 16bf a705 c5be
000000b0: ebe7 c5be ae0b 013f 2713 00bd 3330 1a3f
000000c0: b200 f03e d7fa 6abe 2c92 5c3e 15c8 0cbf
000000d0: d3f9 013f 71f3 7a3e d34d 1a3e 64cf f8be
000000e0: e3c9 4e3f a50c 48be 3c63 5cbe 42b9 06be
000000f0: 7dda 14be 8e89 d03d 7ae1 9d3e 4c4f b1be
0.24201567 0.5326333 -0.003846315 0.34510177 0.59206164 0.7278238 0.18956928 0.6621328
0.58013207 -0.17119671 0.54527175 1.2097427 -0.5086059 0.14564297 -0.15419698 -0.15992753
-0.3101236 0.20913887 0.4297824 -0.65069205 0.558988 -0.56157327 0.011433118 0.043952316
-0.38503355 -0.5207816 0.39302197 -0.32414535 0.28966266 -0.6454342 0.3822527 -0.16857764
0.13577455 -0.33593735 -0.29116303 0.22722499 -0.52729636 -0.17876811 -0.5427063 0.14697203
1.06898 0.1825924 -0.58838224 -0.38480875 -0.38653502 0.50408447 -0.031268265 0.60229796
0.4687553 -0.2294725 0.21540135 -0.549928 0.50771827 0.24506928 0.1506875 -0.48595726
0.80776805 -0.19536074 -0.2152223 -0.13156608 -0.14536472 0.101824865 0.30836087 -0.3463081

conv1.lin_r.weight f4 [64, 5]
00000000: fb7e a3be 3b1e 883d a9b8 4fbe bec2 973e
00000010: 6c4b a53c 8bb3 a8bd f606 943e 36b2 7fbe
00000020: 831d 2e3e 0bcf 22bf b85e 39be fddc 343e
00000030: e97a 9cbe 9576 2d3e 88ed a83e 7bbb 983e
00000040: d245 85bd 6372 c03d d12d da3d 5dff f4be
00000050: ecf5 cebe 518d 95be afdf 333e 4f22 2dbe
00000060: 4cd2 eabe 6ff9 edbc 23d9 d0bd 2fe2 453d
00000070: 1855 43bd 4fbd b5bf 3f39 99bd 0482 1cbe
00000080: 76c0 61bd fde9 eabc 540a 29bf d741 babe
00000090: c1ce 9f3e df71 9d3e 11bf 83bc 2418 6bbe
000000a0: 01ef 19be 5918 873d 7c37 ce3e 808a 4ebe
000000b0: 5c8e f2be d651 01be 4595 08be 760d 92be
000000c0: 14fc c4bd 0831 5c3e 4f65 b4be be33 113c
000000d0: e1a2 903e f003 713e b99e 59bf 82c7 ac3c
000000e0: 121a e03c 3576 07bd 1a71 af3c 13b6 d3bf
000000f0: ac8a 6a3d 4038 bd3e c70d ca3e 33bf c1bd
00000100: e214 a03f e6c6 0b3e 0ace a13d 8330 2fbe
00000110: 0d88 8ebe bfc5 74be cb87 3dbe e6c9 68be
00000120: 1596 a3be 5e60 0a3b 2474 f13e c7c0 ae3e
00000130: 47e6 ebbe f0ec b9be 5f8e 62be f609 acbe
00000140: 0706 48be 34cb 603e 8692 3e3e 0268 123d
00000150: 5a01 993e cc65 bb3d fe7a efbe 0dba dbbd
00000160: ab69 d6be 8f70 12be 84e8 b4be 3ea8 673d
00000170: e74f 5abe 4a33 8ebc bfaa 0abf c816 ca3d
00000180: 27a7 333e 32ec bf3d 8291 663e 9298 033f
00000190: c438 a93e 4d6b 55bd 2a93 0f3d a0eb c6be
000001a0: 8e5b 89bf 5998 5bbe e9a6 8a3d fb33 cb3e
000001b0: 4cc3 513d 7832 8f3f 6b75 d33e 8d13 bc3b
000001c0: fb18 a1be f57c 19be 3323 8a3f c6c2 2fbe
000001d0: 428f 82bd c8dc 4cbd af2f babe 2a8c 903f
000001e0: cf68 9f3c 4079 893e 522d b9be 7123 c43d
000001f0: 09cc 7b3f 76ec 10bd 3f66 a2bd e184 0ebf
00000200: ec72 11bc 3b57 833e a6a4 90be 138b 87be
00000210: f5cd 72be 73a9 fe3e 4839 7abf fd19 443e
00000220: ea28 793e e72c b0be 78af ba3e ffb0 aabe
00000230: 574e b3be 0f5f 983e 1db4 fabd 8e67 74be
00000240: eeab 6bbf c425 9dbe 2f41 863e 7935 793d
00000250: 9aa6 623e 3d09 c13f 73bd e63d d6ad dfbe
00000260: b4a3 11bf b736 02bf 1283 08be 3db7 b8bd
00000270: acc3 ff3c ce09 423e 2565 703c ae5e 73bf
00000280: 3494 643e 56ba ba3a 2f78 853e a2b3 403d
00000290: 3173 f7be 9ae9 93be b6f1 933e 8836 9e3e
000002a0: 9f92 72bd f925 6f3f 2970 3f3e d6bc 193e
000002b0: 7eef 47bd af81 8cbe 9463 a43e 2947 b6be
000002c0: 3a84 f43c 8d5a bbbd 8f62 eebe 8503 c13e
000002d0: 8c90 08be ab97 d2be 6c6a d93e 4f66 b63e
000002e0: 3ade 383f db24 293d 91d9 143e 9188 b4be
000002f0: da13 6b3e 6b37 933f c7ba 1ebe 671b 3ebc
00000300: 8532 bcbd 4d86 083e cc2e c63f 50f5 983e
00000310: cc7c 623d 583c a53e 937e bd3e 382d 89bf
00000320: b51d 82be ee54 e4bd e69d da3e 8a4b 42be
00000330: ac51 8dbf 5c56 8fbe 3e6d 88be f7e0 ccbd
00000340: c23e 93be c03e 3f3e 790a c3be 6543 1bbe
00000350: 568d 803e a52e 2b3e d18c 863e 2fa7 203e
00000360: b8d0 363e 5f48 0a3e 93e4 d7be 7bfc 703f
00000370: 475a e3be 5a52 a1be a933 5b3e b490 a2be
00000380: b5fb edbe ad06 06be 87b7 6d3e ada1 79be
00000390: 1f78 e93e 3e2f 86bf 5666 0f3e 5ce3 a0be
000003a0: ef39 283e a77f a23e 1709 6a3f e6ce 39bd
000003b0: fb88 82bd 3bd2 54bd f0a9 7dbe fdd8 8abf
000003c0: e428 c2be daf4 b93e 9adc 9f3d f2cb ae3d
000003d0: 6e09 dfbe 44a0 643e f282 643d b5de 04be
000003e0: da79 f3bd 1745 a4be fc77 bbbe 38ed 593d
000003f0: a1fb c5be 50e6 d63d 09a8 8c3f 2ff5 abbb
-0.31932816 0.06646391 -0.20285286 0.29640764 0.020177566 -0.0823737 0.2891156 -0.24970326
0.17003445 -0.6359717 -0.18102539 0.17662425 -0.30562523 0.16939767 0.32993722 0.29830536
-0.06507458 0.093968175 0.1065327 -0.47851077 -0.40421999 -0.29209378 0.17565797 -0.16907619
-0.4586357 -0.029049603 -0.101976655 0.04831141 -0.047688574 -1.4198397 -0.07481622 -0.15283972
-0.055115186 -0.028676027 -0.66031384 -0.36378357 0.31212428 0.3075094 -0.016082318 -0.22958428
-0.15032579 0.06596441 0.40276706 -0.20170021 -0.47374237 -0.12628874 -0.13338192 -0.28525895
-0.096183926 0.21503079 -0.35233542 0.008862434 0.28249267 0.23536658 -0.85007817 0.021091226
0.027356181 -0.033071715 0.021416236 -1.653994 0.057261154 0.36956978 0.39463636 -0.094602965
1.2506373 0.13650092 0.07900627 -0.1710835 -0.27838174 -0.23903559 -0.18508832 -0.22733268
-0.3195044 0.0021114568 0.4715892 0.34131452 -0.46074125 -0.3631358 -0.22124623 -0.3360135
-0.19533549 0.21952516 0.18610582 0.03574372 0.29883844 0.091502756 -0.46773523 -0.10728846
-0.41877493 -0.1430075 -0.35333645 0.056556933 -0.21319543 -0.01735844 -0.5416679 0.098676264
0.17544232 0.093712226 0.22516444 0.5140468 0.3305112 -0.052104283 0.035052456 -0.38851643
-1.0731065 -0.21444835 0.06770117 0.39688095 0.05121164 1.1187277 0.4130052 0.0057396353
-0.3146437 -0.14989074 1.0791992 -0.17164144 -0.063749805 -0.05001524 -0.36364505 1.1292775
0.019459156 0.2685032 -0.3616739 0.095770724 0.9835821 -0.035381757 -0.07929658 -0.5567151
-0.008877497 0.2565249 -0.28250617 -0.26473293 -0.23711379 0.49738654 -0.97743654 0.19150539
0.24332014 -0.34409258 0.36461997 -0.33338162 -0.35020706 0.29760024 -0.12241385 -0.23867628
-0.9205922 -0.30692875 0.26221606 0.06084201 0.22133866 1.5080944 0.11266603 -0.43687314
-0.56890416 -0.5086474 -0.1333125 -0.09019325 0.031221233 0.18949053 0.014672552 -0.95066345
0.2232216 0.0014246206 0.26068255 0.04704631 -0.48330072 -0.2888916 0.28895348 0.3090098
-0.05922186 0.93417317 0.1869513 0.15013441 -0.048812382 -0.2744269 0.32107222 -0.35601166
0.029848207 -0.091481306 -0.4655957 0.37697998 -0.1333639 -0.41131338 0.42464006 0.3562493
0.7221409 0.041294914 0.1453612 -0.35260442 0.22956792 1.1501287 -0.15500937 -0.011603213
-0.09189323 0.13332482 1.5483031 0.2987466 0.055294797 0.322726 0.3701063 -1.0716925
-0.2541329 -0.111490116 0.42698592 -0.18974128 -1.1040549 -0.27995574 -0.26645845 -0.10003846
-0.28758818 0.18676281 -0.38093928 -0.15162428 0.2510783 0.16717012 0.2627931 0.15688775
0.17853057 0.1350417 -0.42166576 0.94135255 -0.44404814 -0.31508142 0.21406426 -0.31751025
-0.464811 -0.13088484 0.23214541 -0.2437808 0.45599458 -1.0483167 0.14003882 -0.3142346
0.1642835 0.31738016 0.9142012 -0.04536333 -0.06373783 -0.051958304 -0.24771857 -1.084747
-0.37921822 0.3631962 0.07805748 0.08534993 -0.43561882 0.22326761 0.05578894 -0.12975581
-0.11888476 -0.3208396 -0.36614978 0.053204745 -0.3866854 0.104931474 1.098878 -0.005247734

linear_out.weight f4 [1, 64]
00000000: 83d7 913b 235c 85bd 7556 c93d ee21 c9bd
00000010: 29b2 70bd ff91 92be 3ee9 5abd fc0e 16bd
00000020: 3cdb babc 33b5 8e3d 2ee9 f9bd f78d dcbe
00000030: 35fb ec3d 3b8f 00bd 91c4 a43e 49f8 1abc
00000040: 0596 8c3e 149b c53b e176 c4ba c7db d83d
00000050: 1f98 6dbd 5ba0 a03d 11af f03d 25cb 8e3d
00000060: 6eef 733e 859c 063e cc8a 14be a1b0 d7bc
00000070: 300e a1bd 6e01 583e b28f 2b3d 44b0 69bd
00000080: d378 b6bb 2af2 7b3d 58f5 d93c 66fc 883d
00000090: 864d 263d ee06 1e3e 76c0 803e 217a 06be
000000a0: c772 0abe 9ff0 543c 1b8e 3e3d 4107 043e
000000b0: ea5e 373a 36b0 61be bf20 093e 895e 47bd
000000c0: 4cd5 72bd 374a 7fbd 8351 ad3d fad7 e43d
000000d0: 4ce2 89bd 22ce ddbd 6c6c 043e c881 843d
000000e0: 1af0 56be f4e0 8a3d eea7 54bb d519 a03d
000000f0: c9d3 0b3e 2e9b dabd c4c8 4bbd 9d6d 1c3c
0.00445074 -0.06511714 0.098309435 -0.09820925 -0.058763657 -0.2862701 -0.053445093 -0.036635384
-0.022809617 0.06968155 -0.122026786 -0.4307706 0.115713514 -0.031386595 0.32181218 -0.00945861
0.27458206 0.0060304496 -0.0014989042 0.10588794 -0.058006402 0.078430854 0.11752141 0.069723405
0.23821804 0.13145645 -0.14506072 -0.02632934 -0.07864034 0.21094295 0.041885085 -0.057052866
-0.0055686026 0.061510243 0.026606247 0.06688766 0.040601276 0.15432331 0.25146836 -0.13132526
-0.13520347 0.012996822 0.04652224 0.12893392 0.00069950393 -0.22039875 0.13391398 -0.04867414
-0.059285447 -0.062326636 0.08462813 0.11174007 -0.06732616 -0.10830332 0.12931985 0.06470066
-0.20990029 0.06781188 -0.0032448727 0.07817427 0.13655008 -0.106741294 -0.049752012 0.009547618
