outputs/classification/node/weights/gcn_1.pth (torch, 4627 bytes, 4 tensors)

conv1.bias f4 [64]
0.045654055 0.09366068 0.0 -0.03167385 0.0029570933 0.0 -0.031714983 0.0
0.085696034 -0.04497193 -0.003973064 0.0 -0.025704721 0.08027796 0.0062121376 0.07188945
-0.0655847 -0.034618728 -0.03547386 -0.0076192627 -0.027103689 0.14021705 -0.024589665 0.07217653
0.0 0.0033425952 0.0052419747 -0.01139293 0.08044633 0.0 -0.028751351 -0.054716643
-0.0033112732 0.0 0.104569584 0.018482065 -0.08450987 0.095341645 0.070720606 0.040382903
-0.03388363 0.07177889 0.0 0.0 0.06991933 -0.017167637 0.03273941 0.0
0.049716584 0.028373996 -0.022718119 -0.031475063 0.0 -0.057087585 0.083243065 -0.05354324
-0.03037479 0.0 -0.005472181 -0.000556115 -0.008662525 0.007953849 -0.068362534 -0.015560019
00000000: bfff 3a3d 2cd1 bf3d 0000 0000 70bc 01bd
00000010: cbcb 413b 0000 0000 92e7 01bd 0000 0000
00000020: 6781 af3d 7d34 38bd 7a30 82bb 0000 0000
00000030: b592 d2bc c568 a43d 308f cb3b c73a 933d
00000040: 4551 86bd 5ecc 0dbd 0a4d 11bd 02ab f9bb
00000050: 8e08 debc 0f95 0f3e 4470 c9bc 4ad1 933d
00000060: 0000 0000 710f 5b3b dfc4 ab3b 69a9 3abc
00000070: 0cc1 a43d 0000 0000 f487 ebbc 8f1e 60bd
00000080: f201 59bb 0000 0000 9428 d63d b367 973c
00000090: 8313 adbd 7b42 c33d f7d5 903d 8b68 253d
000000a0: 90c9 0abd d000 933d 0000 0000 0000 0000
000000b0: de31 8f3d 25a3 8cbc c219 063d 0000 0000
000000c0: 9ea3 4b3d 9570 e83c 591b babc ffeb 00bd
000000d0: 0000 0000 acd4 69bd 577b aa3d 2850 5bbd
000000e0: 8dd4 f8bc 0000 0000 fb4f b3bb 3fc8 11ba
000000f0: 43ed 0dbc dc50 023c a801 8cbd 73ef 7ebc

conv1.lin.weight f4 [64, 7]
0.13278851 -0.28623894 -0.33345303 -0.1419617 -0.31452742 0.21886349 0.34129235 0.06512146
0.27174696 -0.0078567155 -0.1916137 -0.22623593 -0.05033055 -0.33113578 -0.08636457 -0.1340316
-0.15787958 -0.026116276 0.12385132 -0.18841112 -0.11914222 -0.3171593 0.067026705 0.12492866
0.066991374 0.07022594 -0.18927841 -0.0784238 0.022199525 0.01051277 0.1553216 0.21158578
-0.014168114 0.07013559 0.13842054 -0.1720819 -0.23975208 -0.22364843 0.037458025 -0.2435261
-0.0380826 -0.14837655 0.0061212513 0.26037857 -0.20172906 0.26212388 -0.2862329 0.26932082
0.14312904 -0.0004882091 -0.1989886 -0.05732801 -0.045251384 -0.27236795 0.052272268 -0.1577971
-0.0043116184 0.18906504 -0.25827748 0.09403974 0.2511122 -0.24687797 -0.119777754 0.16704142
-0.23049648 0.050546188 -0.04411327 -0.21562193 -0.16600482 -0.047470734 0.06312542 -0.072500855
-0.15269342 0.21001664 -0.025029011 -0.101908945 -0.1598836 -0.1833554 -0.21166824 -0.16162682
-0.09310631 -0.18814841 0.07109829 0.25871837 -0.23822011 -0.27500883 0.043570112 -0.16981505
-0.096148044 0.23404318 -0.24657144 0.084857404 -0.25842023 -0.33879864 0.044620257 -0.26843816
0.019230628 0.05662308 0.1682287 0.09328227 0.034080293 0.103230484 0.03805979 -0.05251444
0.07251751 -0.021084795 0.20489377 0.14246595 0.029371168 0.19517502 0.35090175 0.30378172
0.28729337 0.15078838 0.103721164 -0.20589511 -0.040772896 -0.17797966 -0.08736579 0.025391966
0.044588856 0.25449032 0.2914978 -0.07235574 0.075257644 -0.21768618 0.1562176 -0.25518054
0.14457865 -0.16544756 -0.060097136 -0.16938077 -0.24905223 -0.26692227 0.1947602 -0.02021607
0.17373183 -0.05948789 -0.2327955 -0.2900502 0.24810633 -0.11518031 -0.07101129 -0.1978998
0.18285336 -0.032627583 0.07743902 0.0064403806 0.17295136 0.073048726 -0.0027312967 0.022591777
-0.17922902 0.1439289 0.2291588 0.23795818 -0.01892804 0.05560122 0.1843716 -0.25141677
0.18455024 0.25516042 0.25104627 -0.32692784 -0.019876262 -0.30815098 -0.3378671 0.048620295
0.00036348845 0.0078028557 0.08846198 -0.27654818 -0.2585222 -0.28457844 -0.15073743 0.036857788
-0.27147844 -0.16550508 -0.27089623 0.013036026 0.19097765 -0.009617583 -0.071295775 -0.11067491
-0.15071283 -0.24124482 0.2394492 0.16436864 -0.07463363 0.044100013 0.30353546 -0.20180905
0.28835028 -0.17308772 0.1307702 -0.39133006 0.06322166 0.15126155 -0.084299184 -0.015685938
-0.14678144 0.18817417 0.094423324 -0.102105014 -0.23086764 0.080745935 0.065789744 -0.2153651
0.123299725 -0.031605512 -0.22057511 0.1734476 0.3043789 -0.03256085 -0.0627944 0.3120671
0.09531955 0.24850252 -0.089880265 0.03306115 -0.17131045 -0.18204486 0.22816354 0.22403857
0.00291727 -0.23163319 0.0137745775 -0.009102077 0.28010425 -0.05302058 0.03852893 -0.22084539
-0.17541754 -0.13374601 0.20582962 0.2705261 -0.098534584 -0.25922206 -0.12666503 -0.2515427
0.20121004 0.20369838 0.0048010293 0.09281276 0.07414841 0.047620416 0.013477973 0.14480485
-0.1406838 -0.20879026 0.18882775 -0.15766993 -0.13335364 -0.22753105 0.31081906 0.045373876
00000000: b6f9 073e e98d 92be 5bba aabe 685e 11be
00000010: bd09 a1be c01d 603e dfbd ae3e 665e 853d
00000020: 6b22 8b3e 74b9 00bc 6236 44be 64aa 67be
00000030: 6827 4ebd a18a a9be e8df b0bd 943f 09be
00000040: 2fab 21be cdf1 d5bc c3a5 fd3d d8ee 40be
00000050: d600 f4bd b462 a2be 4c45 893d 99da ff3d
00000060: c632 893d 9ed2 8f3d 33d2 41be a89c a0bd
00000070: c7db b53c c13d 2c3c a00c 1f3e f1a9 583e
00000080: 6121 68bc 40a3 8f3d 1dbe 0d3e 3d36 30be
00000090: 9281 75be 1804 65be 966d 193d e85e 79be
000000a0: 80fc 1bbd 06f0 17be c794 c83b 5750 853e
000000b0: 1092 4ebe 1a35 863e 1e8d 92be 6be4 893e
000000c0: 6b90 123e 51f6 ffb9 abc3 4bbe c7d0 6abd
000000d0: 8459 39bd d073 8bbe 721b 563d 9095 21be
000000e0: 7a48 8dbb 449a 413e f23c 84be e897 c03d
000000f0: c791 803e 94cd 7cbe 0a4e f5bd e80c 2b3e
00000100: 4507 6cbe 8509 4f3d 1eb0 34bd ffcb 5cbe
00000110: 2bfd 29be ac70 42bd e647 813d 547b 94bd
00000120: aa5b 1cbe 9a0e 573e a409 cdbc a3b5 d0bd
00000130: 87b8 23be 85c1 3bbe 8fbf 58be 8081 25be
00000140: 85ae bebd faa9 40be fb9b 913d bc76 843e
00000150: f9ef 73be f5cd 8cbe 9376 323d ffe3 2dbe
00000160: 44e9 c4bd 04a9 6f3e 397d 7cbe b8c9 ad3d
00000170: a84f 84be 0477 adbe bbc3 363d ba70 89be
00000180: 8d89 9d3c 9aed 673d 2544 2c3e c60a bf3d
00000190: c797 0b3d 816a d33d 95e4 1b3d 6219 57bd
000001a0: 0f84 943d 05ba acbc accf 513e 98e2 113e
000001b0: ce9b f03c f6db 473e 65a9 b33e 4789 9b3e
000001c0: 1e18 933e 4568 1a3e c36b d43d 2bd6 52be
000001d0: 7b01 27bd 4d40 36be d6ec b2bd d002 d03c
000001e0: cea2 363d 8e4c 823e 333f 953e 3f2f 94bd
000001f0: ae20 9a3d 20e9 5ebe 82f7 1f3e 06a7 82be
00000200: 6d0c 143e 166b 29be 6a28 76bd 2772 2dbe
00000210: 8c07 7fbe 09aa 88be 386f 473e 2c9c a5bc
00000220: c2e6 313e 93a9 73bd f261 6ebe 7681 94be
00000230: 960f 7e3e a8e3 ebbd 5e6e 91bd 3fa6 4abe
00000240: e93d 3b3e 80a4 05bd 5998 9e3d d409 d33b
00000250: 291a 313e 929a 953d 8eff 32bb 6412 b93c
00000260: d087 37be 1962 133e 9ba8 6a3e 4fab 733e
00000270: fa0e 9bbc 1bbe 633d e9cb 3c3e b3b9 80be
00000280: bdfa 3c3e 63a4 823e 2389 803e 1663 a7be
00000290: 8bd3 a2bc f7c5 9dbe ebfc acbe 1326 473d
000002a0: 9892 be39 19af ff3b 8e2b b53d b997 8dbe
000002b0: 065d 84be 44b4 91be ea5a 1abe 31f8 163d
000002c0: 39ff 8abe 2a7a 29be e9b2 8abe 0e95 553c
000002d0: a58f 433e 1193 1dbc 8503 92bd 87a9 e2bd
000002e0: 7754 1abe e208 77be 2c32 753e 4150 283e
000002f0: 84d9 98bd 37a2 343d 0069 9b3e 08a7 4ebe
00000300: a6a2 933e e83d 31be a0e8 053e 6a5c c8be
00000310: 5c7a 813d 4fe4 1a3e 0da5 acbd cc7f 80bc
00000320: e04d 16be bbb0 403e 0461 c13d 6f1c d1bd
00000330: 9168 6cbe 205e a53d c6bc 863d ab88 5cbe
00000340: 9184 fc3d c874 01bd 71de 61be 3f9c 313e
00000350: 8dd7 9b3e 875e 05bd 5a9a 80bd 42c7 9f3e
00000360: e536 c33d 7277 7e3e 2513 b8bd 216b 073d
00000370: 026c 2fbe f869 3abe b4a3 693e 5e6a 653e
00000380: ab2f 3f3b 4031 6dbe c4ae 613c e120 15bc
00000390: d369 8f3e 1c2c 59bd 83d0 1d3d 4b25 62be
000003a0: a8a0 33be b7f4 08be 00c5 523e 6682 8a3e
000003b0: 80cc c9bd c1b8 84be 7ab4 01be 34ca 80be
000003c0: 010a 4e3e 4f96 503e f451 9d3b 9e14 be3d
000003d0: 1fdb 973d a00d 433d b7d2 5c3c b947 143e
000003e0: 6a0f 10be 1dcd 55be 105c 413e 3a74 21be
000003f0: db8d 08be e6fd 68be ad23 9f3e f5d9 393d

linear.weight f4 [4, 64]
-0.08691605 0.18075958 -0.07218045 -0.0035172924 -0.0082044015 -0.06925331 0.07144904 0.07225901
-0.02488587 0.12832788 0.128122 0.09499042 0.057810657 0.05127704 0.104273774 -0.16956362
0.03966243 0.1376587 0.09169869 -0.053732146 -0.09994049 -0.08836636 -0.107437104 -0.028408574
0.009948641 -0.0017225546 -0.14976226 0.12839533 -0.062755615 0.06536184 -0.10186438 0.010728926
-0.09485692 0.10047808 -0.20800562 0.105166495 -0.013915616 -0.006431399 0.028560247 0.032015663
-0.08854736 0.016089205 0.06748898 0.062605694 -0.027419906 -0.0077187694 -0.109569885 -0.048035815
-0.19612637 0.0012454712 0.11486496 0.077696234 0.024404526 -0.004983531 -0.03182854 0.083426766
-0.06738508 0.09319085 -0.011385673 0.13397044 0.008797131 0.1931841 -0.06317638 0.083654664
-0.01523499 0.18673383 0.08962697 -0.15689734 0.027329754 -0.0011395216 -0.122203514 0.060921818
0.19414385 -0.057914004 -0.017401094 0.08351253 0.059891764 0.118621394 0.051607803 0.031746157
-0.096313156 -0.007640464 0.008921043 -0.11401904 -0.038207177 0.21370623 0.039790835 0.13892032
0.085759655 0.119248316 -0.07900332 -0.13573875 -0.01930143 -0.07560676 0.023989994 -0.031056035
0.1283643 0.08595568 0.14094923 0.1314169 0.09006031 0.11408421 0.092553146 0.10850784
0.032557927 -0.011534949 -0.01957865 -0.041466996 -0.03692694 0.050355803 0.051547356 0.0761136
-0.079971634 0.09449278 -0.07770064 -0.094066024 -0.040918663 0.013013019 0.08415884 -0.006126697
-0.11084865 -0.05110538 -0.22036444 -0.003059879 -0.14900176 0.0069636 -0.07610355 -0.051117796
-0.12944256 -0.19757105 -0.024585024 -0.056331027 0.045482688 -0.036058903 0.012274785 -0.048869416
-0.08757332 0.08338451 -0.00470195 -0.055103317 0.050959338 -0.13656849 0.049151044 0.16853608
0.05788605 0.16509393 0.06670348 -0.017886585 0.0621908 -0.061168548 0.102373384 -0.08063564
0.09080826 0.046228264 0.0027081405 -0.061928216 -0.11182073 -0.0958557 0.09475092 0.030594015
0.0698217 -0.0499651 -0.09612791 0.06993579 0.13707016 0.049893618 -0.13617297 0.15937452
0.048825983 -0.112339765 0.022544205 -0.021750957 -0.09303028 -0.06646109 -0.1010449 0.10671297
-0.01536767 0.09735316 0.06973029 -0.024529066 0.02851744 0.052399658 -0.12713382 0.08932466
-0.007829036 -0.018684164 -0.040631596 0.043389946 0.105288796 0.18561032 0.020262036 -0.02570818
0.019460052 -0.048908677 0.081974074 -0.012522726 -0.042454656 -0.10425916 0.12797174 -0.09958108
0.1165378 0.107923545 0.06420087 0.04359941 0.04330105 0.088983946 -0.11229357 0.15314612
-0.109799206 -0.13419074 0.07299467 0.022979952 0.08998666 0.07409441 0.09835982 0.04896265
0.0794722 -0.0836259 0.053749625 -0.061150387 -0.051177833 -0.05041559 -0.042544734 -0.00224174
0.004369461 0.1222865 0.1957679 -0.06992469 0.09281472 -0.13805522 -0.001972273 -0.124382645
-0.0649849 0.067469314 0.019714013 0.018289626 -0.032868076 0.09120533 0.11874473 -0.02489613
0.1617433 -0.11320883 -0.09018445 0.05528867 -0.007867619 -0.031688873 0.03359827 0.016992189
0.03879725 -0.0461165 0.22494304 0.012644325 0.01827432 -0.17815493 -0.092640825 -0.020814009
00000000: 0b01 b2bd 0a19 393e 58d3 93bd 6082 66bb
00000010: c16b 06bc aed4 8dbd e053 923d 88fc 933d
00000020: 74dd cbbc 6268 033e 6a32 033e 568a c23d
00000030: deca 6c3d e007 523d 7d8d d53d 16a2 2dbe
00000040: 1275 223d 67f6 0c3e 86cc bb3d 3d16 5cbd
00000050: 9aad ccbd 6cf9 b4bd fc07 dcbd 19b9 e8bc
00000060: a0ff 223c 57c7 e1ba 475b 19be 117a 033e
00000070: 0486 80bd 6edc 853d 469e d0bd 61c8 2f3c
00000080: 5844 c2bd 74c7 cd3d 6dff 54be 8861 d73d
00000090: 53fe 63bc 7cbe d2bb 2ef7 e93c db22 033d
000000a0: 5158 b5bd 82cd 833c aa37 8a3d 6a37 803d
000000b0: b69f e0bc bbed fcbb 2d66 e0bd 34c1 44bd
000000c0: 5ad5 48be 143f a33a 523e eb3d 341f 9f3d
000000d0: 00ec c73c e34c a3bb a55e 02bd a7db aa3d
000000e0: 3001 8abd d8da be3d f98a 3abc 8c2f 093e
000000f0: d721 103c 0dd2 453e 9e62 81bd 2353 ab3d
00000100: 2e9c 79bc 2737 3f3e 588e b73d b2a9 20be
00000110: a6e2 df3c 005c 95ba d645 fabd 2889 793d
00000120: a5cd 463e 3c37 6dbd bd8c 8ebc 9e08 ab3d
00000130: 1151 753d c6ef f23d b462 533d 4208 023d
00000140: d53f c5bd dc5c fabb 9129 123c d082 e9bd
00000150: 217f 1cbd ced5 5a3e b7fb 223d 2141 0e3e
00000160: c2a2 af3d 7638 f43d 7ecc a1bd 19ff 0abe
00000170: 081e 9ebc b8d7 9abd aa86 c43c 3a69 febc
00000180: ee71 033e 8809 b03d ff54 103e 2792 063e
00000190: 8a71 b83d fba4 e93d 818c bd3d 5c39 de3d
000001a0: 765b 053d 15fd 3cbc 6863 a0bc 4cd9 29bd
000001b0: b440 17bd e341 4e3d 5223 533d 72e1 9b3d
000001c0: 2bc8 a3bd 6e85 c13d 8321 9fbd b0a5 c0bd
000001d0: 549a 27bd 8f34 553c 785b ac3d 76c2 c8bb
000001e0: 9e04 e3bd e053 51bd 37a7 61be 4088 48bb
000001f0: eb93 18be e92e e43b 2edc 9bbd e560 51bd
00000200: 978c 04be 1150 4abe 8866 c9bc 5dbb 66bd
00000210: 0e4c 3a3d 80b2 13bd 2e1c 493c 4c2b 48bd
00000220: a459 b3bd 7fc5 aa3d d112 9abb 04b4 61bd
00000230: bdba 503d 9cd8 0bbe 9b52 493d b994 2c3e
00000240: ec19 6d3d 620e 293e d69b 883d e386 92bc
00000250: c8bb 7e3d df8b 7abd 23a9 d13d 4c24 a5bd
00000260: aef9 b93d d959 3d3d 0f7b 313b 71a8 7dbd
00000270: 4402 e5bd fe4f c4bd c50c c23d 4da0 fa3c
00000280: aefe 8e3d 34a8 4cbd b6de c4bd 7f3a 8f3d
00000290: 1f5c 0c3e 405d 4c3d ed70 0bbe 1333 233e
000002a0: c1fd 473d 6412 e6bd a0ae b83c 102f b2bc
000002b0: a986 bebd c11c 88bd a1f0 cebd 548c da3d
000002c0: aec8 7bbc 1861 c73d c1ce 8e3d 2ef1 c8bc
000002d0: 689d e93c 06a1 563d 5e2f 02be d9ef b63d
000002e0: 5b45 00bc 880f 99bc 516d 26bd a8b9 313d
000002f0: a7a1 d73d a210 3e3e 92fc a53c f699 d2bc
00000300: b06a 9f3c 7754 48bd 06e2 a73d 1f2c 4dbc
00000310: efe4 2dbd d485 d5bd 060b 033e 2af1 cbbd
00000320: 5fab ee3d 0507 dd3d bf7b 833d 4c95 323d
00000330: 715c 313d 373d b63d 2cfa e5bd 56d2 1c3e
00000340: 68de e0bd 4c69 09be 3b7e 953d 7440 bc3c
00000350: ed4a b83d cfbe 973d e070 c93d 0f8d 483d
00000360: 52c2 a23d 0e44 abbd 9128 5c3d d478 7abd
00000370: d99f 51bd 9480 4ebd 6343 2ebd 28ea 12bb
00000380: b22d 8f3b 5871 fa3d 6177 483e ad34 8fbd
00000390: a515 be3d 595e 0dbe 4041 01bb 54bc febd
000003a0: ce16 85bd 5a2d 8a3d 487f a13c 20d4 953c
000003b0: ada0 06bd dcc9 ba3d 7030 f33d f8f2 cbbc
000003c0: 09a0 253e 08da e7bd a0b2 b8bd 5f76 623d
000003d0: 30e7 00bc 31cc 01bd 579e 093d 3433 8b3c
000003e0: dde9 1e3d a8e4 3cbd 7857 663e 252a 4f3c
000003f0: 07b4 953c 3f6e 36be 79ba bdbd 2482 aabc

linear.bias f4 [4]
-0.031631302 -0.06562215 -0.10554888 -0.1179195
00000000: d38f 01bd e864 86bd 032a d8bd c77f f1bd
