outputs/classification/node/weights/gcn_4.pth (torch, 4627 bytes, 4 tensors)

conv1.bias f4 [64]
0.0 -0.08015038 -0.019068053 0.025821036 -0.020586208 0.07348129 -0.035686143 0.09834792
-0.0041542784 -0.0100532845 0.0050439336 0.013413721 0.07114076 0.0 -0.06173919 0.0
0.028987361 -0.052892435 0.042382147 0.0 -0.026791241 -0.053474728 -0.010569954 0.0
0.07896271 -0.0083246855 0.0 -0.06649749 0.088130385 0.038518563 -0.0026362713 0.0
-0.020739919 0.0 -0.025004629 -0.09175743 0.0021407085 -0.00420009 0.08849171 -0.036904234
0.08517547 0.0 0.014683869 0.04792791 -0.029913142 0.10115471 0.027961157 0.09380683
-0.043180082 0.0 -0.05676775 0.0 -0.051901404 -0.0024558797 0.01203506 -0.020922557
0.088020705 -0.025054848 -0.02414127 0.1370687 0.04682319 0.090596855 -0.0097743925 -0.06036219
00000000: 0000 0000 e225 a4bd 9b34 9cbc a386 d33c
00000010: 68a4 a8bc 5c7d 963d a22b 12bd a26a c93d
00000020: 9d20 88bb 88b6 24bc 9547 a53b 39c5 5b3c
00000030: 3fb2 913d 0000 0000 3ce2 7cbd 0000 0000
00000040: e776 ed3c bda5 58bd e798 2d3d 0000 0000
00000050: 4e79 dbbc 5108 5bbd 9a2d 2dbc 0000 0000
00000060: 34b7 a13d 4364 08bc 0000 0000 d62f 88bd
00000070: b47d b43d a4c5 1d3d 4bc5 2cbb 0000 0000
00000080: c3e6 a9bc 0000 0000 82d6 ccbc 52eb bbbd
00000090: 214b 0c3b e9a0 89bb 243b b53d e528 17bd
000000a0: 7a70 ae3d 0000 0000 9c94 703c 0e50 443d
000000b0: 680c f5bc 332a cf3d cc0e e53c cc1d c03d
000000c0: 99dd 30bd 0000 0000 4d85 68bd 0000 0000
000000d0: 9196 54bd d3f2 20bb b32e 453c c865 abbc
000000e0: 3344 b43d d33f cdbc eac3 c5bc bd5b 0c3e
000000f0: acc9 3f3d d88a b93d c624 20bc 583e 77bd

conv1.lin.weight f4 [64, 7]
-0.1570179 -0.14234143 0.249762 -0.046655715 0.10008509 -0.25900602 -0.08866471 0.09745198
-0.16428427 0.080044016 0.3316136 0.1900074 -0.009663988 -0.014001442 0.2083629 0.0029566754
0.0168755 -0.16398758 -0.23622791 0.30486652 0.0038018366 0.047364417 -0.11273315 -0.113618426
-0.26444015 0.31741583 0.121650405 0.18007918 -0.039477706 -0.15493783 0.20862338 0.066054285
-0.306215 0.20047906 -0.29414156 0.10583388 0.16578779 -0.20680672 -0.20812704 -0.11594421
0.112376526 -0.039689947 0.23933889 -0.0039022532 -0.11504309 -0.021241946 0.10369463 0.19242388
0.2953936 0.042159595 -0.026416052 0.23917292 -0.10396794 0.053911652 0.13377413 -0.3534041
-0.08557422 0.016385041 0.24614589 0.24433988 -0.10236559 -0.051461693 -0.20830895 0.011155279
0.16258992 0.020029634 0.28536177 0.070160985 0.053503092 0.30348417 0.01295505 0.22746949
0.124948956 0.22985691 -0.20440069 0.10465243 -0.14114627 0.20510945 -0.09485115 -0.28942853
-0.17603642 -0.07956585 0.14443035 -0.20049194 -0.05499391 0.17313929 -0.26694828 0.20323147
0.21671553 -0.22248994 0.20331062 -0.21121459 -0.05575481 -0.03523468 -0.23538797 0.08750375
-0.10489995 0.2506579 -0.18315658 0.18620665 0.16173896 -0.06316397 0.16043352 0.073636375
0.30105788 -0.15416454 0.08654328 -0.058039464 -0.06759159 0.18238245 -0.18789646 0.17390794
0.113859996 0.13417402 -0.1270164 -0.14528446 0.058882307 0.078978844 0.08508656 0.2603294
-0.14963569 -0.18300004 -0.119368 0.09296183 0.2966767 -0.31932348 0.025425304 -0.21653768
0.2315254 -0.10669012 -0.17958497 0.10035041 -0.14138375 -0.0890861 -0.067137934 -0.021816585
-0.23820679 0.14449774 -0.19661897 -0.15170974 0.021894928 0.2269601 0.29537988 -0.1692939
-0.06381388 0.33016273 -0.2491014 0.12936816 0.12198613 -0.26000163 -0.0986198 -0.11534323
-0.14611633 0.30362242 -0.07007935 0.033662368 -0.13253917 0.19452575 -0.28708494 0.038582202
-0.10221804 -0.27589646 0.1585983 0.14736485 -0.11595064 -0.2659742 -0.22124945 0.043492403
0.24806719 0.21006592 0.054336626 -0.26676258 0.20410973 -0.04868932 -0.22755788 0.02770584
0.08829807 0.2880095 0.15761806 0.020955373 0.30900356 -0.2052376 -0.19604683 -0.15747426
-0.21855082 0.11132266 0.03144191 0.22929932 -0.020107055 0.08910012 -0.027392818 0.024422089
0.07648322 0.07071532 0.11274691 0.38221478 0.073069006 -0.08021455 -0.22010231 0.15213457
0.12903191 -0.21719198 -0.3039407 0.118977405 -0.049833927 0.22320147 0.15358646 -0.2108663
0.059165254 -0.04220398 0.12443455 0.1022758 0.0063512498 0.032076363 -0.14533009 0.1560174
-0.23060538 -0.00061109307 -0.13127117 -0.14461778 -0.07421382 -0.097047985 -0.053117484 -0.17209493
0.043500442 -0.23963319 0.3056372 -0.046104528 0.25185877 0.101519726 0.37413862 -0.17860843
-0.13430269 -0.19303125 0.0347473 -0.06283901 -0.28676918 0.015974397 0.0967802 -0.18527955
0.05392216 0.15219583 -0.22615324 0.31819344 0.09201643 0.022233563 0.15824138 -0.08297285
0.20986688 0.030821018 0.24369614 -0.25700188 0.17862733 0.17415051 -0.09928275 -0.107969716
00000000: 4dc9 20be f4c1 11be 9cc1 7f3e 101a 3fbd
00000010: 69f9 cc3d 709c 84be d895 b5bd e794 c73d
00000020: 233a 28be 1eee a33d 42c9 a93e 4d91 423e
00000030: b455 1ebc 4e66 65bc 165d 553e c8c4 413b
00000040: 7d3e 8a3c 5cec 27be bbe5 71be 7717 9c3e
00000050: 3c28 793b 3101 423d a3e0 e6bd c7b0 e8bd
00000060: b364 87be 5484 a23e d923 f93d ad66 383e
00000070: 60b3 21bd 06a8 1ebe 5ea1 553e 7847 873d
00000080: 36c8 9cbe 624a 4d3e b999 96be 6fbf d83d
00000090: 46c4 293e 24c5 53be 411f 55be 2874 edbd
000000a0: aa25 e63d ed91 22bd 4115 753e f2bc 7fbb
000000b0: b69b ebbd 9703 aebc da5d d43d c40a 453e
000000c0: d43d 973e 8aaf 2c3d 7a66 d8bc bfe9 743e
000000d0: 25ed d4bd 77d2 5c3d 16fc 083e 62f1 b4be
000000e0: 8941 afbd ec39 863c ab0d 7c3e 3c34 7a3e
000000f0: 0da5 d1bd 7fc9 52bd f14e 55be a2c4 363c
00000100: f97d 263e 3015 a43c f01a 923e 90b0 8f3d
00000110: 0f26 5b3d 4762 9b3e 6b41 543c c3ed 683e
00000120: 3de5 ff3d 9c5f 6b3e 6a4e 51be 0354 d63d
00000130: a688 10be 3608 523e 5241 c2bd fa2f 94be
00000140: e442 34be 6cf3 a2bd 8de5 133e c24d 4dbe
00000150: 4b41 61bd 6d4b 313e 72ad 88be e91b 503e
00000160: adea 5d3e 67d4 63be a930 503e a348 58be
00000170: 285f 64bd 3d52 10bd 8b09 71be 2b35 b33d
00000180: c9d5 d6bd 3b56 803e 668d 3bbe f5ac 3e3e
00000190: e69e 253e 1d5c 81bd af48 243e abce 963d
000001a0: 4224 9a3e 4fdd 1dbe 9a3d b13d caba 6dbd
000001b0: 766d 8abd 77c2 3a3e ee67 40be ec14 323e
000001c0: 6e2f e93d ea64 093e 9610 02be 73c5 14be
000001d0: 932e 713d a9bf a13d dd41 ae3d e549 853e
000001e0: 193a 19be 5d64 3bbe 3677 f4bd c662 be3d
000001f0: 02e6 973e 5e7e a3be ba48 d03c 0ebc 5dbe
00000200: ff14 6d3e 5a80 dabd 1fe5 37be 8484 cd3d
00000210: e7c6 10be c672 b6bd 9d7f 89bd b2b8 b2bc
00000220: 7bec 73be 37f7 133e 7c56 49be cc59 1bbe
00000230: fe5c b33c 3a68 683e 083c 973e 615b 2dbe
00000240: dab0 82bd 170b a93e 7014 7fbe 1679 043e
00000250: ddd3 f93d ef1e 85be 2df9 c9bd 1239 ecbd
00000260: 859f 15be 6674 9b3e c385 8fbd 8de1 093d
00000270: 59b8 07be c231 473e ccfc 92be 5f08 1e3d
00000280: b157 d1bd 4d42 8dbe 9867 223e d0e6 163e
00000290: 8777 edbd c52d 88be 378f 62be 1725 323d
000002a0: 5305 7e3e 851b 573e 1590 5e3d 1b95 88be
000002b0: 2402 513e 746e 47bd ef04 69be 5cf7 e23c
000002c0: 9ed5 b43d fb75 933e a166 213e 9aaa ab3c
000002d0: b735 9e3e ce29 52be 80c0 48be ef40 21be
000002e0: c9cb 5fbe 23fd e33d 3bc9 003d 71cd 6a3e
000002f0: 8db7 a4bc 207a b63d e766 e0bc d510 c83c
00000300: 3ca3 9c3d 32d3 903d dae7 e63d a8b1 c33e
00000310: 34a5 953d 8747 a4bd 8062 61be 2ac9 1b3e
00000320: f120 043e 9367 5ebe 1e9e 9bbe 6daa f33d
00000330: a91e 4cbd ed8e 643e c545 1d3e 56ed 57be
00000340: 4457 723d 15de 2cbd 8bd7 fe3d fa75 d13d
00000350: 251e d03b 8162 033d 69d1 14be 06c3 1f3e
00000360: d123 6cbe c331 20ba f36b 06be af16 14be
00000370: 6afd 97bd 18c1 c6bd b891 59bd a739 30be
00000380: 852d 323d 6762 75be 7b7c 9c3e 1ad8 3cbd
00000390: a2f3 803e 93e9 cf3d 198f bf3e 21e5 36be
000003a0: a586 09be fca9 45be 2f53 0e3d bdb1 80bd
000003b0: 69d3 92be bddc 823c b334 c63d ecb9 3dbe
000003c0: 7cdd 5c3d 39d9 1b3e b794 67be 40ea a23e
000003d0: 1c73 bc3d 2923 b63c 070a 223e abed a9bd
000003e0: 58e7 563e 5c7c fc3c 7b8b 793e c095 83be
000003f0: 15ea 363e 8354 323e c154 cbbd 3a1f ddbd

linear.weight f4 [4, 64]
-0.030298904 0.031458665 -0.045663524 -0.07811098 -0.027025903 0.085437015 -0.119532354 0.17396812
-0.031423893 -0.23274739 0.18122986 -0.007863538 0.052326612 0.061278388 -0.044226702 -0.05744241
0.013630947 0.08828204 0.12977652 0.10911767 0.22985905 -0.10614502 -0.05366474 0.075501084
-0.062325317 0.10082822 0.08630432 -0.05867083 0.21757017 0.108446516 0.09850601 -0.075937316
-0.066516 -0.03085804 -0.008574161 0.054766838 -0.07266287 -0.0091753015 -0.13864279 0.02246217
0.0011702385 -0.03721328 -0.10326801 -0.006449763 0.06293476 0.10140241 -0.08563239 -0.02865209
-0.011877191 0.07728127 0.23957378 -0.039030656 0.13446778 0.08058249 0.027104324 0.05515922
-0.077217 -0.06565877 -0.13534048 -0.09943296 -0.033869676 0.11963181 0.11515808 0.07475179
0.00924468 -0.09908452 -0.02100903 0.13364612 0.054448813 0.15862323 0.034116004 0.08719285
0.028406015 -0.12737209 0.07039109 -0.09894718 0.045929905 0.09659538 -0.10317318 0.009663388
-0.0657179 -0.026721766 0.10730747 0.021458015 0.028149297 -0.038013637 -0.0017568619 0.10462776
0.11843911 0.0750351 -0.08499317 -0.0068492345 0.09376379 0.054496944 -0.012388779 -0.0675239
0.009630205 0.03712423 0.009550973 -0.1565853 -0.085925095 -0.12738827 0.06361391 0.043417502
0.13241081 0.09514953 0.029642437 -0.003509891 -0.09014483 0.102397256 0.13585462 0.17155543
0.060760148 -1.2263656e-05 -0.1843641 0.06636289 -0.050663397 -0.09948527 0.10370438 -0.111427136
0.07854178 -0.04156674 0.05639603 -0.15614164 0.1360525 0.03189945 -0.048831508 -0.08532339
0.049936175 0.118908204 -0.024481315 0.10492247 -0.110770755 -0.091178074 0.11073743 -0.027623482
-0.088032156 -0.0027891588 0.05141574 -0.10800395 -0.12732697 -0.11360587 0.00087330985 -0.11425696
-0.108108915 0.07378718 0.015701085 -0.02413015 0.14400762 0.065102175 -0.08575984 -0.06496398
-0.046334196 0.047693815 -0.10411072 0.1174656 -0.029051827 -0.013441409 0.0038914194 -0.021172345
0.056458943 -0.08739722 0.034416597 0.13859147 -0.06471975 0.026651606 0.042526215 0.076797426
0.04472803 0.043557823 0.046625547 -0.12721576 -0.045498665 -0.015408302 0.026012352 -0.18493548
0.10998583 0.02482292 0.18166542 -0.016866833 0.06430388 -0.027716706 -0.04166853 -0.07967445
-0.11246439 0.09366601 0.056785434 -0.20827073 0.008949104 -0.06286374 -0.08297565 0.041874845
-0.055758625 0.03402406 -0.06490657 0.10985132 -0.054149076 0.055600975 0.06409043 -0.24434206
0.0011679411 0.059410725 -0.15641966 -0.040693488 0.057071563 0.11314446 0.06002652 0.003610164
0.12305413 -0.09163744 -0.04295571 -0.036457404 -0.087615915 0.16257878 -0.048802484 0.034294114
-0.08879886 -0.161241 0.06027621 0.15859109 -0.07134444 -0.06375662 0.06410065 0.019424886
0.055806395 -0.07700203 -0.04580503 -0.12056082 0.050997626 -0.016931767 0.14224455 -0.049238764
-0.00047978497 -0.09466085 0.09751632 0.121675454 -0.04712178 -0.07215006 -0.04763905 -0.049035743
0.10401581 0.012182564 -0.09927636 -0.08869161 -0.11808603 0.14556102 0.14951505 -0.044652466
-0.02943823 -0.03737425 0.11838508 0.028989997 -0.048610866 -0.06330059 -0.08574099 0.14066829
00000000: 6835 f8bc cdda 003d ad09 3bbd a6f8 9fbd
00000010: 6d65 ddbc 9af9 ae3d 61cd f4bd b324 323e
00000020: 57b6 00bd 5555 6ebe 5294 393e 12d6 00bc
00000030: 6e54 563d 0cff 7a3d 0f27 35bd bc48 6bbd
00000040: 5654 5f3c 37cd b43d 23e4 043e 1679 df3d
00000050: 2c60 6b3e 8f62 d9bd 8fcf 5bbd 50a0 9a3d
00000060: d548 7fbd 077f ce3d 52c0 b03d d350 70bd
00000070: b7ca 5e3e 3519 de3d 85bd c93d 0685 9bbd
00000080: 8a39 88bd 00ca fcbc a37a 0cbc 3153 603d
00000090: 45d0 94bd 0154 16bc 60f8 0dbe 9602 b83c
000000a0: b062 993a f46c 18bd 2e7e d3bd 8958 d3bb
000000b0: f0e3 803d 11ac cf3d 0960 afbd cab7 eabc
000000c0: 8d98 42bc a445 9e3d d452 753e 9cde 1fbd
000000d0: ecb1 093e 6f08 a53d e309 de3c a2ee 613d
000000e0: f223 9ebd 1b78 86bd b296 0abe 82a3 cbbd
000000f0: eeba 0abd 8601 f53d 00d8 eb3d 7717 993d
00000100: 0077 173c d3ec cabd 211b acbc 87da 083e
00000110: b805 5f3d 216e 223e 39bd 0b3d 2a92 b23d
00000120: bbb3 e83c d46d 02be 3429 903d d2a4 cabd
00000130: ff20 3c3d ccd3 c53d 764c d3bd 3053 1e3c
00000140: 1b97 86bd 9be7 dabc 05c4 db3d b8c8 af3c
00000150: 5b99 e63c 30b4 1bbd 8146 e6ba 1447 d63d
00000160: 3490 f23d 01ac 993d e610 aebd 8b6f e0bb
00000170: 3b07 c03d 3038 5f3d 4efa 4abc f849 8abd
00000180: 02c8 1d3c 940f 183d af7b 1c3c e657 20be
00000190: 7ff9 afbd 1272 02be 0248 823d 8dd6 313d
000001a0: b396 073e c2dd c23d b2d4 f23c 3306 66bb
000001b0: da9d b8bd a7b5 d13d 791d 0b3e 3aac 2f3e
000001c0: a2df 783d 00c0 4db7 f1c9 3cbe 44e9 873d
000001d0: 6c84 4fbd efbe cbbd f662 d43d e933 e4bd
000001e0: 83da a03d e341 2abd 86ff 663d 98e3 1fbe
000001f0: 5951 0b3e ffa8 023d 8c03 48bd 08be aebd
00000200: e089 4c3d 2586 f33d 0a8d c8bc 98e1 d63d
00000210: c7db e2bd 92bb babd 4eca e23d a44a e2bc
00000220: 344a b4bd 52ca 36bb 5099 523d 2d31 ddbd
00000230: 0062 02be 32aa e8bd d5ee 643a 8eff e9bd
00000240: 3568 ddbd bc1d 973d 909f 803c 98ac c5bc
00000250: bc76 133e 4a54 853d dba2 afbd d60b 85bd
00000260: edc8 3dbd 975a 433d 0038 d5bd ce91 f03d
00000270: 19fe edbc 5b39 5cbc 2f07 7f3b a071 adbc
00000280: 7e41 673d 50fd b2bd 6bf8 0c3d ecea 0d3e
00000290: ca8b 84bd 7854 da3c f82f 2e3d f847 9d3d
000002a0: bd34 373d b069 323d 6efa 3e3d d944 02be
000002b0: cf5c 3abd 1a73 7cbc db17 d53c ba5f 3dbe
000002c0: 4040 e13d 7059 cb3c 8006 3a3e 502c 8abc
000002d0: c1b1 833d 250e e3bc 9fac 2abd 5c2c a3bd
000002e0: bb53 e6bd f7d3 bf3d d897 683d ec44 55be
000002f0: 439f 123c b4be 80bd 23ef a9bd f584 2b3d
00000300: 2863 64bd d05c 0b3d bced 84bd bbf9 e03d
00000310: 6ccb 5dbd d9bd 633d d841 833d ce34 7abe
00000320: 9a15 993a a958 733d 7a2c 20be 37ae 26bd
00000330: dfc3 693d 48b8 e73d 5ede 753d 8098 6c3b
00000340: ce03 fc3d 69ac bbbd 54f2 2fbd 5c54 15bd
00000350: f96f b3bd 0d7b 263e 1de5 47bd fc77 0c3d
00000360: 2ddc b5bd 5c1c 25be 30e4 763d b465 223e
00000370: 091d 92bd d592 82bd 3447 833d f020 9f3c
00000380: 3f95 643d 3eb3 9dbd 0e9e 3bbd 97e8 f6bd
00000390: e3e2 503d 7db4 8abc 8ea8 113e 96ae 49bd
000003a0: a68b fbb9 8cdd c1bd a3b6 c73d fb30 f93d
000003b0: c502 41bd 69c3 93bd 2a21 43bd b4d9 48bd
000003c0: 3e06 d53d 6099 473c 6751 cbbd f2a3 b5bd
000003d0: 17d7 f1bd f30d 153e 791a 193e 81e5 36bd
000003e0: 7128 f1bc be15 19bd e073 f23d 6e7c ed3c
000003f0: 301c 47bd bda3 81bd f998 afbd 590b 103e

linear.bias f4 [4]
0.08265739 0.05986147 -0.10588973 -0.09196627
00000000: 4748 a93d 4d31 753d b7dc d8bd d058 bcbd
